week 6/checkpoints/actor_critic_pendulum_seed1.pth (torch, 278847 bytes, 18 tensors)

shared.0.weight f4 [128, 3]
0.18300341 -0.21809927 -0.0091507025 -0.06216052 0.14370432 -0.21000485 0.06712838 -0.31661505
0.004564391 0.2696946 -0.19872755 0.003343773 -0.020460986 -0.15270197 0.033323452 0.18379305
-0.26013634 -0.0064056874 -0.0060677915 0.09835625 0.0054695862 0.2100323 -0.2829762 0.015830928
0.012215571 -0.24691527 0.015653115 0.14916536 0.26905766 -0.050067917 -0.4813542 0.15780723
0.18459225 -0.07635825 0.21020606 0.020782389 -0.05689944 0.02617531 0.03784318 0.048686124
0.25327364 0.07594913 0.09411545 0.4455905 0.15369977 -0.17013429 0.23727192 -0.042087447
0.1356912 0.0941311 -0.008748525 0.31980845 0.24948888 -0.024025096 -0.11020691 0.021830153
-0.035823897 0.1946995 0.18152447 -0.0133854095 0.10899909 -0.128766 0.12880857 -0.15386012
0.34031418 -0.10869863 -0.03344177 -0.27899688 0.13228273 0.30173737 0.10025203 -0.008239105
0.33079267 -0.158956 -0.25852203 -0.15388587 -0.21962376 0.052844483 -0.26425526 0.023758762
-0.009452602 -0.16995148 -0.37944636 0.12547429 0.14563021 0.014778973 0.044690542 -0.39790428
-0.1969324 0.08613135 0.17968562 0.32439324 0.12440563 -0.36433902 -0.40744913 -0.12511595
-0.04887616 -0.10872461 -0.18842308 0.0041225734 0.010888718 -0.0025216115 0.10405753 0.28375253
0.08086045 -0.09426164 0.14930995 -0.014529831 0.026116028 -0.41426042 0.024329212 -0.01146326
0.3266441 -0.062459026 -0.1708408 0.32104957 0.13141243 0.06632679 0.3031236 0.06275268
0.018464966 0.053993057 -0.14646196 0.013080025 -0.4583839 -0.027822196 0.48812926 -0.17463773
-0.010361259 -0.2133536 -0.27010113 0.04564104 -0.25277928 -0.28438365 -0.13408901 0.31622306
-0.2341538 0.0014208374 -0.039516475 -0.2287337 -0.1097315 -0.05084266 0.46371397 -0.006400904
0.64391595 0.17245969 -0.028745553 -0.08026453 -0.07737577 0.0075880964 0.33595654 -0.03931975
0.024842003 0.15083738 -0.26164383 0.018177224 -0.12796697 -0.2555232 -0.10966253 -0.08190981
0.051061638 0.13404526 0.13280001 0.2831648 0.09516627 0.17582388 0.027397936 0.03366552
0.011197237 0.019457338 -0.00087943446 0.074544825 -0.08361505 0.060045965 -0.04259778 0.2415701
-0.069610134 -0.20924497 -0.12955523 -0.008868218 -0.0026491797 -0.006434535 0.013736273 0.25068635
0.049471594 0.06834112 -0.1784227 0.35470566 -0.07218417 -0.40012774 -0.11155402 -0.0037141792
0.003515476 0.17381321 -0.051366758 0.06477683 0.19305028 -0.19110632 -0.19671385 -0.04976171
0.05612731 0.007070179 -0.039904494 0.040433053 0.1278418 -0.2281459 0.19761203 0.115663156
0.062106885 0.00618026 -0.03152665 -0.20836258 0.017836839 -0.124375254 -0.315524 0.033216577
0.33401415 0.16076432 0.0016880946 -0.1394405 0.21229623 0.05181329 -0.11715352 -0.34709874
0.017101597 0.049090426 -0.30386272 0.17410986 -0.22228703 0.24686888 -0.051967785 0.4731274
0.25226772 -0.06010268 -0.13287719 -0.29232684 -0.11060174 0.33020785 -0.1911069 -0.0035937326
-0.30332473 -0.28950754 -0.14511947 0.121368565 -0.03648087 -0.11416783 -0.09483027 -0.19486701
0.029421993 0.06895012 0.042595465 -0.017866211 0.004352869 0.0517055 -0.0045249294 -0.32867065
00000000: 3f65 3b3e 6a55 5fbe d4ec 15bc 089c 7ebd
00000010: 3a27 133e 830b 57be 9b7a 893d 5e1b a2be
00000020: e390 953b 6915 8a3e 3c7f 4bbe 3423 5b3b
00000030: cc9d a7bc e85d 1cbe 2c7e 083d 3f34 3c3e
00000040: 9730 85be cde6 d1bb 53d4 c6bb 006f c93d
00000050: 373a b33b b512 573e 42e2 90be ddaf 813c
00000060: d123 483c 5bd7 7cbe f63a 803c cebe 183e
00000070: edc1 893e 0414 4dbd 0f74 f6be 3898 213e
00000080: c005 3d3e b761 9cbd 4240 573e d43f aa3c
00000090: 630f 69bd 9b6d d63c 7301 1b3d 1a6b 473d
000000a0: 15ad 813e 388b 9b3d 9abf c03d 7024 e43e
000000b0: 7963 1d3e af37 2ebe 69f7 723e e363 2cbd
000000c0: a2f2 0a3e cec7 c03d f955 0fbc efbd a33e
000000d0: 037a 7f3e 47d0 c4bc 29b4 e1bd 26d5 b23c
000000e0: 14bc 12bd 4e5f 473e 8de1 393e 7a4e 5bbc
000000f0: ea3a df3d 3cdb 03be 65e6 033e 828d 1dbe
00000100: a93d ae3e 639d debd 3dfa 08bd aed8 8ebe
00000110: 2075 073e 527d 9a3e f050 cd3d 50fd 06bc
00000120: a85d a93e 5dc5 22be 005d 84be 4294 1dbe
00000130: 0de5 60be 7573 583d 774c 87be bca1 c23c
00000140: 16df 1abc c307 2ebe cb46 c2be 557c 003e
00000150: 1620 153e 8123 723c 6e0d 373d 1cba cbbe
00000160: a6a8 49be a265 b03d 82ff 373e df16 a63e
00000170: 61c8 fe3d a58a babe 2c9d d0be 651e 00be
00000180: 5e32 48bd 02ab debd fbf1 40be a716 873b
00000190: 9866 323c 9f41 25bb 1d1c d53d 0348 913e
000001a0: 2a9a a53d 3f0c c1bd b5e4 183e 870e 6ebc
000001b0: 48f1 d53c f119 d4be 0e4e c73c 66d0 3bbc
000001c0: e53d a73e 09d5 7fbd e4f0 2ebe 9c60 a43e
000001d0: fb90 063e 57d6 873d 0433 9b3e 7a84 803d
000001e0: d743 973c d327 5d3d 20fa 15be 9a4d 563c
000001f0: 4bb1 eabe 60eb e3bc 14ec f93e 3cd4 32be
00000200: 45c2 29bc 5e79 5abe b24a 8abe 19f2 3a3d
00000210: 496c 81be bc9a 91be a14e 09be fde7 a13e
00000220: 04c6 6fbe 643b ba3a 07dc 21bd 2b39 6abe
00000230: e9ba e0bd 6540 50bd eb6b ed3e adbe d1bb
00000240: add7 243f 4699 303e cb7b ebbc bb61 a4bd
00000250: 3077 9ebd 91a5 f83b 7f02 ac3e bf0d 21bd
00000260: 7581 cb3c 1d75 1a3e 2ef6 85be 67e8 943c
00000270: c609 03be f0d3 82be c096 e0bd 55c0 a7bd
00000280: 0226 513d 2943 093e bafc 073e fafa 903e
00000290: 89e6 c23d 2d0b 343e a371 e03c dbe4 093d
000002a0: 9e74 373c ff64 9f3c d989 66ba f5aa 983d
000002b0: 5e3e abbd c2f2 753d 027b 2ebd 275e 773e
000002c0: c28f 8ebd 5044 56be 20aa 04be 014c 11bc
000002d0: dc9d 2dbb cbd8 d2bb 1b0e 613c f659 803e
000002e0: baa2 4a3d 6ef6 8b3d 71b4 36be fb9b b53e
000002f0: 4bd5 93bd 8bdd ccbe 6f76 e4bd 9669 73bb
00000300: e663 663b 17fc 313e f365 52bd b7a9 843d
00000310: f9ae 453e 60b1 43be 5b6f 49be efd2 4bbd
00000320: c0e5 653d f6ac e73b e572 23bd 219d 253d
00000330: f6e8 023e 149f 69be cf5a 4a3e cee0 ec3d
00000340: ca63 7e3d c783 ca3b 1722 01bd 005d 55be
00000350: 901e 923c 74b8 febd 5d8c a1be 1b0e 083d
00000360: e703 ab3e 679f 243e 0e43 dd3a 7ec9 0ebe
00000370: 2f64 593e 2c3a 543d 2fee efbd edb6 b1be
00000380: a618 8c3c 0b13 493d e593 9bbe db49 323e
00000390: 369f 63be 32cb 7c3e 2cdc 54bd c13d f23e
000003a0: 3c29 813e 3a2e 76bd f510 08be ddab 95be
000003b0: 2a83 e2bd 0111 a93e 87b1 43be d484 6bbb
000003c0: 614d 9bbe 553a 94be 339a 14be 1590 f83d
000003d0: f76c 15bd d3d0 e9bd 5f36 c2bd 388b 47be
000003e0: 6406 f13c b835 8d3d 9578 2e3d 295c 92bc
000003f0: 83a2 8e3b 25c9 533d dc45 94bb 8547 a8be

shared.0.bias f4 [128]
0.13496594 -0.0654553 0.19091272 0.020214658 0.98972905 0.22100219 0.6256492 0.06319781
0.9333117 0.22497542 0.37234294 1.0662732 0.72433305 0.078535534 0.042366292 1.043212
0.8124612 0.14138928 0.77859956 0.12329082 -0.07292571 0.63348985 0.0072844788 0.1857121
-0.015667401 1.1588588 1.3820773 -0.0004069347 -0.040447734 1.1610012 -0.0482273 0.16391873
-0.09020882 -0.028754154 0.021788778 0.7772349 0.16314307 0.25731075 0.23608117 0.09600046
-0.09850623 0.018104147 0.15902284 1.2413276 0.16623923 0.21402492 0.0029948773 0.23853837
0.25102717 0.45366186 0.2678245 0.093219645 0.062208924 -0.13109986 0.008442514 -0.061446324
0.15915078 -0.11548664 -0.11503204 1.4271487 0.08503572 -0.020673571 0.5065753 1.4225655
0.21811777 -0.13297398 1.0236708 1.0034612 -0.10431798 -0.047697566 0.053517073 0.46783096
0.1957115 0.8896808 0.3813252 -0.06940051 0.41576746 0.14541996 0.045229122 0.15974003
0.21093458 0.035689596 1.4283613 -0.080674835 -0.08040588 1.5467168 0.26380277 0.24453783
0.17215265 0.7013549 -0.053575646 0.03826996 0.10360692 0.11813824 0.38644862 -0.06178801
0.12291513 0.1229221 0.044513665 -0.05398721 0.078661054 0.11766048 0.20793928 0.3928849
0.25586805 0.23388517 0.25312075 0.34850475 -0.02281448 0.021668587 -6.4083244e-05 0.6271415
0.4670278 0.9447814 0.420038 -0.00042608954 0.12166319 0.16479601 0.16319716 0.1147691
0.12581144 0.13321072 0.8000539 0.66859335 0.15108544 -1.6496107e-06 1.2889317 0.09621261
00000000: 8334 0a3e 6e0d 86bd a07e 433e 3699 a53c
00000010: e25e 7d3f 664e 623e 8c2a 203f da6d 813d
00000020: 84ed 6e3f f55f 663e bca3 be3e a47b 883f
00000030: e46d 393f 3dd7 a03d 4788 2d3d f987 853f
00000040: 75fd 4f3f 5ac8 103e 4d52 473f e67f fc3d
00000050: 135a 95bd 642c 223f a3b2 ee3b 502b 3e3e
00000060: ec58 80bc 7c55 943f e9e7 b03f da59 d5b9
00000070: 86ac 25bd b09b 943f fd89 45bd 50da 273e
00000080: 67bf b8bd d58d ebbc 617e b23c def8 463f
00000090: fa0e 273e 3cbe 833e 43bf 713e e49b c43d
000000a0: a2bd c9bd 264f 943c e2d6 223e d3e3 9e3f
000000b0: 9e3a 2a3e 5929 5b3e b445 443b 6743 743e
000000c0: a286 803e 5e46 e83e 4b20 893e f1e9 be3d
000000d0: c9ce 7e3d 0b3f 06be 7852 0a3c 24af 7bbd
000000e0: 6cf8 223e 4284 ecbd eb95 ebbd cfac b63f
000000f0: 3527 ae3d 9f5b a9bc ebae 013f a016 b63f
00000100: 445a 5f3e 552a 08be a507 833f 6b71 803f
00000110: aaa4 d5bd 865e 43bd b834 5b3d 8a87 ef3e
00000120: 9868 483e 1fc2 633f 0e3d c33e db21 8ebd
00000130: 79df d43e f8e8 143e 2c42 393d e492 233e
00000140: 3cff 573e 412f 123d 8bd4 b63f d938 a5bd
00000150: d7ab a4bd d1fa c53f 2811 873e 2068 7a3e
00000160: c948 303e ff8b 333f 2372 5bbd f6c0 1c3d
00000170: dd2f d43d 76f2 f13d 98dc c53e 6d15 7dbd
00000180: edba fb3d 95be fb3d f653 363d b121 5dbd
00000190: 0c19 a13d faf7 f03d 09ee 543e 3628 c93e
000001a0: 2301 833e 987f 6f3e 0b99 813e 376f b23e
000001b0: 6fe5 babc 5282 b13c 6e64 86b8 588c 203f
000001c0: 451e ef3e 32dd 713f 390f d73e c564 dfb9
000001d0: 8d2a f93d 49c0 283e 281d 273e 100c eb3d
000001e0: b7d4 003e 6468 083e 55d0 4c3f ef28 2b3f
000001f0: 24b6 1a3e 3168 ddb5 b7fb a43f 1e0b c53d

shared.2.weight f4 [128, 128]
0.4367701 -0.024978023 0.05147429 0.21440078 0.15434076 0.3097561 0.073416576 0.453292
0.18010034 -0.05278593 0.14107038 0.45895 0.15270944 -0.1254523 0.2775782 0.18796636
0.4827074 0.18763895 -0.0940165 0.2081746 -0.15856089 0.26962748 -0.039726276 0.52760017
0.06737572 0.007498422 0.059785325 0.073350556 -0.012794283 0.24355178 0.13308795 0.14006284
-0.013162502 0.09658446 0.10946871 0.21394122 -0.0849988 0.24515308 0.2961876 0.28252986
-0.072674 0.082437694 0.27238184 -0.2689982 0.12274362 0.21178146 0.14117724 0.1116256
0.48383415 0.1839768 0.32868683 0.40090713 0.054086585 0.016532412 0.39377525 -0.118361756
0.027590824 0.16844589 0.008500341 0.18859357 0.29988012 0.04314461 -0.010755008 0.06588545
0.13680278 -0.04302383 0.16005771 0.25158128 -0.20798673 -0.10301054 -0.16275518 0.07935116
0.42988753 0.20676093 -0.07642216 0.19697037 0.16883484 0.50959074 0.08159558 0.5586184
-0.22615907 -0.11083576 0.23414555 0.09816894 -0.0005529314 0.19348674 0.735084 0.7183775
0.304934 0.23532611 -0.14522368 0.2768437 -0.14896272 0.101340465 0.17066187 -0.05041699
0.31668672 0.45785835 0.013064898 0.06046111 6.598181e-05 -0.09265106 -0.07632072 0.15942466
0.051892925 0.04929761 0.19948304 0.038049705 -0.0046850485 -0.1506163 0.2549858 0.101548724
0.003836816 0.017215619 0.11539172 0.10522842 0.32619813 0.053702287 0.1657738 0.24848507
-0.18640843 0.1324181 0.42206246 0.04929542 0.3653487 -0.25919962 0.12608737 0.29837874
0.07540216 0.038427256 0.20335157 0.0065724617 0.027874576 0.298199 -0.13777399 0.14925617
-0.055144798 0.26644704 -0.16759728 -0.079159476 0.067048125 0.045049086 -0.02627897 -0.10425065
0.053507037 -0.18196721 0.23254815 -0.13223353 0.084861994 0.034130074 -0.16279419 0.08994658
0.041389283 0.07829632 0.025012605 0.14532445 -0.021379031 -0.17053302 -0.2838745 0.05709389
-0.058905285 0.23903757 -0.08571228 -0.121996425 0.11612772 -0.058619265 0.028000092 0.29125434
0.14064905 -0.08249116 -0.10291238 -0.19517799 0.079256855 -0.050815582 0.3033176 -0.12780392
-0.107353754 0.07641719 0.009808733 -0.0117923 -0.11937022 -0.016203636 -0.019837966 0.098147124
0.22695214 -0.09853394 0.124781646 -0.09096512 0.055313837 -0.116796695 -0.10164493 0.10340911
0.018893158 0.20475776 0.029981503 0.07881765 0.16133927 -0.03908109 0.0024274106 -0.17476209
0.18310243 0.087093025 -0.08239053 -0.102873586 -0.24548747 -0.044869002 -0.041209944 0.16950823
-0.0060354806 0.002600086 -0.04707912 0.27408683 0.033650104 0.100248225 0.048190605 -0.009658813
-0.054871913 -0.14412637 -0.08308556 -0.07677324 -0.090207316 -0.05769663 -0.03134637 -0.056923315
0.10951091 0.32885385 0.053666648 0.11290188 -0.17711346 0.12592022 -0.015172626 -0.12151765
-0.09847807 -0.14168437 -0.13243362 -0.3006798 0.11332328 0.057764806 0.089168586 0.22136556
0.13658644 0.025888726 -0.14536749 0.2747137 0.06258238 -0.04508362 -0.050274085 0.13282032
0.1491473 0.14423013 -0.18817239 -0.136996 -0.014226916 -0.048766214 -0.24888866 -0.039561745
00000000: 55a0 df3e b69e ccbc b5d6 523d e18b 5b3e
00000010: 810b 1e3e 5a98 9e3e 6e5b 963d e415 e83e
00000020: 396c 383e 0f36 58bd c174 103e 7ffb ea3e
00000030: dd5f 1c3e 9176 00be bb1e 8e3e 417a 403e
00000040: 6d25 f73e 6d24 403e b98b c0bd b92b 553e
00000050: c95d 22be 9d0c 8a3e 05b8 22bd ce10 073f
00000060: 48fc 893d 53b5 f53b 75e1 743d d138 963d
00000070: 1d9f 51bc a365 793e 3548 083e a26c 0f3e
00000080: 89a7 57bc 13ce c53d 2231 e03d 6813 5b3e
00000090: da13 aebd 6909 7b3e e7a5 973e c1a7 903e
000000a0: 1bd6 94bd 18d5 a83d a275 8b3e 22ba 89be
000000b0: 0261 fb3d 3ddd 583e c490 103e f69b e43d
000000c0: 1cb9 f73e 6a64 3c3e a449 a83e b343 cd3e
000000d0: e589 5d3d fb6e 873c e99c c93e a667 f2bd
000000e0: 2706 e23c 147d 2c3e 0445 0b3c ac1e 413e
000000f0: e389 993e 67b8 303d c635 30bc f3ee 863d
00000100: 0716 0c3e c139 30bd 2be6 233e 43cf 803e
00000110: 79fa 54be 31f7 d2bd 4ba9 26be dc82 a23d
00000120: 381a dc3e 23b9 533e 3983 9cbd 9ab2 493e
00000130: 0ae3 2c3e 8a74 023f 951b a73d 9e01 0f3f
00000140: 3e96 67be dcfd e2bd dac3 6f3e cc0c c93d
00000150: 99f2 10ba 6321 463e 772e 3c3f 96e7 373f
00000160: 4f20 9c3e 54f9 703e 84b5 14be 75be 8d3e
00000170: af89 18be 978b cf3d fcc1 2e3e 0c82 4ebd
00000180: c324 a23e 696c ea3e 270e 563c 12a6 773d
00000190: b75f 8a38 d7bf bdbd 0a4e 9cbd 3840 233e
000001a0: ad8d 543d 4aec 493d 4845 4c3e 02da 1b3d
000001b0: 0985 99bb 293b 1abe 808d 823e c7f8 cf3d
000001c0: 1773 7b3b c507 8d3c 7e52 ec3d ff81 d73d
000001d0: 7103 a73e eef6 5b3d 9bc0 293e df72 7e3e
000001e0: dae1 3ebe 9c98 073e 9218 d83e ffe9 493d
000001f0: fc0e bb3e d0b5 84be 0c1d 013e 19c5 983e
00000200: 736c 9a3d e665 1d3d 653b 503e ce5d d73b
00000210: 3959 e43c 8aad 983e a014 0dbe 9cd6 183e
00000220: 83df 61bd bf6b 883e 9f9e 2bbe 5d1e a2bd
00000230: 8750 893d 6485 383d ff46 d7bc 5d81 d5bd
00000240: 322a 5b3d 9d55 3abe 1a21 6e3e 3a68 07be
00000250: 20cc ad3d facb 0b3d 85b3 26be ea35 b83d
00000260: cf87 293d d259 a03d 3ce7 cc3c efcf 143e
00000270: 1423 afbc 35a0 2ebe 0058 91be 48db 693d
00000280: ab46 71bd 44c6 743e eb89 afbd 43d9 f9bd
00000290: 5fd4 ed3d c11a 70bd 7360 e53c 4a1f 953e
000002a0: 4e06 103e 20f1 a8bd bac3 d2bd bddc 47be
000002b0: 6b51 a23d 0024 50bd 724c 9b3e 08df 02be
000002c0: 49dc dbbd 9e80 9c3d cfb4 203c 7e34 41bc
000002d0: 6078 f4bd 7dbd 84bc 3b83 a2bc 5c01 c93d
000002e0: 2466 683e 2acc c9bd 858d ff3d ec4b babd
000002f0: c390 623d 1b33 efbd 382b d0bd 28c8 d33d
00000300: d3c5 9a3c 05ac 513e c59b f53c 266b a13d
00000310: 1f36 253e 7e13 20bd 3115 1f3b d5f4 32be
00000320: 347f 3b3e d45d b23d 5ebc a8bd 63af d2bd
00000330: 1161 7bbe 8fc8 37bd c2cb 28bd 9193 2d3e
00000340: 48c5 c5bb 3466 2a3b 09d6 40bd 1c55 8c3e
00000350: b1d4 093d f14e cd3d 8363 453d ff3f 1ebc
00000360: 5fc1 60bd dd95 13be c328 aabd 4a3b 9dbd
00000370: 9dbe b8bd 4d53 6cbd 0d65 00bd 6c28 69bd
00000380: 4247 e03d 885f a83e 8fd1 5b3d 1a39 e73d
00000390: 3b5d 35be 3bf1 003e 9b96 78bc 3fde f8bd
000003a0: dfae c9bd b515 11be ae9c 07be b4f2 99be
000003b0: 0916 e83d ca9a 6c3d 059e b63d a7ad 623e
000003c0: 51dd 0b3e 9814 d43c 37db 14be 46a7 8c3e
000003d0: 312b 803d 9aa9 38bd 33ec 4dbd 0d02 083e
000003e0: 12ba 183e 10b1 133e 43b0 40be ae48 0cbe
000003f0: 0318 69bc 15bf 47bd abdc 7ebe 7f0b 22bd

shared.2.bias f4 [128]
0.27308697 -0.08039297 0.05150085 0.14013085 1.4384431 0.6901909 0.5053442 1.5667751
0.0 -0.12323778 1.8861858 0.17469746 1.1616126 0.38911086 1.4460106 0.010533705
-0.017592289 1.2338644 0.13367896 0.0008855945 -0.027386282 0.7979402 1.9307097 0.69292
-0.057128057 0.48981774 1.3937007 0.6999537 0.028198887 -0.037793823 1.0229663 2.1434522
-0.005968924 0.9575391 -0.02682568 0.982037 -0.04591843 0.029840758 -0.016254397 0.58442044
0.6553587 0.24829118 0.8357707 -0.0041476027 -0.09398206 -0.04301738 -0.020114122 -0.045435064
2.2556868 1.5883026 -0.037465286 1.1203575 0.4202062 0.6574884 -0.035301786 0.08321515
-0.05596601 0.68519586 0.8176392 -0.021349343 0.59713984 -0.047879975 -0.0032280323 0.57888
0.18231763 1.4360114 0.952211 0.057771977 1.9726562 0.17464814 0.15293099 0.27565348
0.66415554 -0.0071230563 0.3447122 0.10261285 0.16306427 0.32718846 -0.031560097 -0.018851006
0.97149307 1.0699883 -0.002553556 0.32746413 -0.03552353 -0.03529656 0.08263493 0.7167967
-0.017046899 0.18463743 1.4585656 0.13114935 -0.009515593 1.9054668 0.23382877 1.4983644
-0.02991763 -0.01990676 0.62062097 -0.0249196 -0.022291707 -0.028057473 1.0255021 0.2964098
-0.09470899 0.116526976 1.8073115 -0.034881614 0.6674644 0.0 -0.064520024 -0.059563395
0.054144084 -0.03344438 -0.018127726 0.20482068 0.0 -0.004053034 -0.014314332 0.22953315
0.8122702 1.7760587 -0.020188665 -0.017043974 -0.053425226 0.9297258 0.8974114 0.32235986
00000000: 0ed2 8b3e 12a5 a4bd 8ef2 523d 767e 0f3e
00000010: e71e b83f 5ab0 303f 3d5e 013f 168c c83f
00000020: 0000 0000 1764 fcbd 896e f13f e4e3 323e
00000030: b9af 943f 8a39 c73e e016 b93f 9095 2c3c
00000040: b41d 90bc 45ef 9d3f 23e3 083e 3e27 683a
00000050: 3259 e0bc cf45 4c3f 7f21 f73f 3563 313f
00000060: 1cff 69bd 64c9 fa3e c964 b23f 2a30 333f
00000070: 5a01 e73c b2cd 1abd 8ff0 823f 522e 0940
00000080: f796 c3bb 4821 753f 87c1 dbbc c766 7b3f
00000090: f714 3cbd 9b74 f43c f127 85bc 949c 153f
000000a0: 96c5 273f 0b40 7e3e 12f5 553f 9de8 87bb
000000b0: ab79 c0bd fe32 30bd 5fc6 a4bc 1e1a 3abd
000000c0: 2c5d 1040 804d cb3f 3375 19bd e067 8f3f
000000d0: 4425 d73e 2951 283f 9b98 10bd b46c aa3d
000000e0: 9d3c 65bd ff68 2f3f cd50 513f d1e4 aebc
000000f0: 28de 183f cb1d 44bd 658d 53bb 7b31 143f
00000100: 79b1 3a3e 39cf b73f 1ac4 733f 4fa2 6c3d
00000110: 0080 fc3f f6d6 323e f199 1c3e 7422 8d3e
00000120: 1906 2a3f 8768 e9bb 1e7e b03e b026 d23d
00000130: 52fa 263e 3f85 a73e 2945 01bd 6d6d 9abc
00000140: c5b3 783f 60f5 883f 9059 27bb 61a9 a73e
00000150: 1f81 11bd 2093 10bd 813c a93d fd7f 373f
00000160: f0a5 8bbc 9811 3d3e 47b2 ba3f 044c 063e
00000170: 4ae7 1bbc 56e6 f33f cf70 6f3e 68ca bf3f
00000180: d115 f5bc 8013 a3bc 04e1 1e3f 3024 ccbc
00000190: 199d b6bc c9d8 e5bc a743 833f 06c3 973e
000001a0: c9f6 c1bd b2a5 ee3d fc55 e73f 06e0 0ebd
000001b0: f2de 2a3f 0000 0000 1323 84bd bff8 73bd
000001c0: 30c6 5d3d f9fc 08bd 9980 94bc 83bc 513e
000001d0: 0000 0000 50cf 84bb a986 6abc bd0a 6b3e
000001e0: f1f0 4f3f e455 e33f b362 a5bc ce9f 8bbc
000001f0: 69d4 5abd 8302 6e3f c1bc 653f 5a0c a53e

actor_mean.weight f4 [1, 128]
0.26305267 0.09376958 0.22137047 0.26297143 0.110964574 0.18747035 0.18935075 0.10406308
0.00062564836 -0.011105089 0.04083601 0.24810013 0.13690542 0.18766636 0.008453613 0.041851167
0.015047633 0.11878998 0.014732262 0.10348262 -0.021084938 0.09215858 0.08110439 0.15289247
0.088788904 0.19131301 0.09601648 -0.006006714 0.26630715 0.012721156 0.117426746 0.07430908
0.022290446 0.063271806 0.0075418353 -0.011439993 0.14105164 0.19254589 -0.020683654 -0.01048147
-0.05985156 -0.06464582 0.14506756 0.0042587 0.09240324 -0.11841424 -0.0014693998 0.017648123
0.03722297 0.056484677 0.0056574396 0.055613276 0.16257834 0.16882393 0.26269937 0.045774117
-0.004789889 0.13541102 0.13068207 0.070380256 0.1803574 -0.003315933 -0.004088478 0.16715671
0.25240785 0.063157424 0.13938303 0.27844983 0.07241677 0.083560996 -0.06370017 0.105981566
0.15137036 0.0057916213 0.22080706 0.31289002 -0.09115577 -0.084342524 -0.018094318 0.008591399
0.025377896 0.13285033 0.008184871 0.21045506 0.017364537 0.01803153 -0.0763601 0.18140195
-0.0023883772 0.08399629 0.021524142 -0.16453578 -0.00010828426 0.034207992 0.11901672 0.06129563
0.18486527 -0.013148119 -0.05144866 -0.0054453705 -0.0004096696 -0.008903254 0.069755755 -0.10423892
0.053633407 -0.10465856 0.037963144 0.009922671 0.06839669 -0.00057669415 0.18935797 0.10736397
-0.088174425 0.023679256 -0.006889681 0.2541182 0.00041752795 0.248971 0.044414096 0.21621041
0.15848838 0.08041096 0.07381916 -0.009513187 0.007332754 0.08350655 0.14618856 0.23162949
00000000: d7ae 863e 440a c03d f1ae 623e 31a4 863e
00000010: 6541 e33d 3af8 3f3e 2ae5 413e 061f d53d
00000020: 8d02 243a 1ff2 35bc a943 273d f60d 7e3e
00000030: ef30 0c3e 9c2b 403e 0681 0a3c 216c 2b3d
00000040: 598a 763c 2948 f33d 965f 713c b2ee d33d
00000050: 52ba acbc a3bd bc3d 0f1a a63d d88f 1c3e
00000060: f5d6 b53d 8fe7 433e 4aa4 c43d f8d3 c4bb
00000070: 6959 883e 656c 503c 6f7d f03d 5c2f 983d
00000080: 749a b63c a694 813d 8021 f73b cf6e 3bbc
00000090: d76f 103e c02a 453e c470 a9bc 79ba 2bbc
000000a0: e926 75bd 0765 84bd 978c 143e 918c 8b3b
000000b0: e93d bd3d 2a83 f2bd e098 c0ba cc92 903c
000000c0: 1d77 183d 7a5c 673d 0b62 b93b bfca 633d
000000d0: f07a 263e 2ee0 2c3e 8880 863e a47d 3b3d
000000e0: 80f4 9cbb 30a9 0a3e 85d1 053e 8623 903d
000000f0: 9caf 383e 2050 59bb a4f8 85bb 212b 2b3e
00000100: 9a3b 813e ae58 813d 6dba 0e3e fa90 8e3e
00000110: 3e4f 943d 0722 ab3d 3c75 82bd dd0c d93d
00000120: d500 1b3e a4c7 bd3b 3f1b 623e 1f33 a03e
00000130: e0af babd c6bb acbd 893a 94bc f0c2 0c3c
00000140: 4ee5 cf3c eb09 083e d619 063c 8881 573e
00000150: 1340 8e3c dcb6 933c af62 9cbd 6fc1 393e
00000160: 5286 1cbb 3f06 ac3d 6653 b03c 117c 28be
00000170: ab16 e3b8 ae1d 0c3d 0abf f33d 2011 7b3d
00000180: 524d 3d3e 356b 57bc d5bb 52bd 146f b2bb
00000190: ecc8 d6b9 f4de 11bc 1bdc 8e3d 377b d5bd
000001a0: b4ae 5b3d 3a57 d6bd 3e7f 1b3d b392 223c
000001b0: 9013 8c3d 4a2d 17ba 0ee7 413e a4e1 db3d
000001c0: cb94 b4bd 00fb c13c d5c2 e1bb c81b 823e
000001d0: a7e7 da39 41f2 7e3e 8eeb 353d 4366 5d3e
000001e0: c74a 223e 80ae a43d 802e 973d 33dd 1bbc
000001f0: 9947 f03b 7b05 ab3d 74b2 153e 4830 6d3e

critic.weight f4 [1, 128]
-0.36980614 0.051786836 -0.07447868 -0.14195496 -0.9163061 -0.6377594 -0.44488668 -0.9830054
0.10109096 0.2260698 -1.048107 -0.26770377 -0.81742066 -0.3862994 -1.019491 -0.81749845
0.024578616 -0.85863286 -0.35073107 0.14362691 0.016752493 -1.0073718 -0.97095895 -0.5842992
0.32277763 -0.6098289 -0.9352273 -0.6463121 0.043193445 0.06305034 -0.7933009 -1.1849755
0.019700017 -0.68632966 -0.005161497 -0.8290769 0.12533228 0.30449942 -0.050404206 -0.6651535
-0.7332029 -0.40660945 -0.82358885 0.036240757 0.17795235 -0.22892638 -0.0031286832 0.09742125
-1.3545337 -0.92169297 0.06760932 -0.74771285 -0.5431753 -0.61211675 0.19814496 -0.60558563
0.40346622 -0.658963 -0.61407596 0.6266919 -0.59550726 0.16502465 -0.1216991 -0.48870426
-0.269582 -0.8875007 -0.7419595 -0.06740919 -0.98284715 -0.4955214 -0.28378865 -0.22021948
-0.68645847 0.14953414 -0.35941786 -0.11948313 -0.35930243 -0.5359754 0.009141594 0.051367685
-0.79676026 -0.73822165 0.037501276 -0.3943827 0.019191507 0.058688127 -0.22268093 -0.93723583
-0.47234398 -0.51068956 -1.1113478 -0.37345606 0.0015418333 -0.9461056 -0.66688526 -0.95006984
0.19888332 -0.14253551 -0.7173019 -0.13670054 -0.0015079639 0.0070184506 -0.85718924 -0.48419246
0.3807752 -0.1988344 -1.2258694 -0.008667369 -0.51185286 0.11247992 0.22008413 0.15308408
-0.122029774 0.108414836 -0.0033519352 -0.17812362 0.08484344 -0.14605273 0.011449303 -0.22885324
-0.8399048 -0.9481059 -0.4272674 0.0061597815 -0.0065358793 -0.790482 -0.6977637 -0.37315622
00000000: 3b57 bdbe 6f1e 543d 4788 98bd a45c 11be
00000010: 0993 6abf 3344 23bf 30c8 e3be 3ea6 7bbf
00000020: c708 cf3d d77e 673e 5f28 86bf 7810 89be
00000030: 7b42 51bf 09c9 c5be ae7e 82bf 9447 51bf
00000040: 1859 c93c 5dcf 5bbf 0693 b3be ef12 133e
00000050: 863c 893c 8ff1 80bf c490 78bf a294 15bf
00000060: 1c43 a53e bf1d 1cbf 0e6b 6fbf b674 25bf
00000070: 9ceb 303d 8920 813d c515 4bbf 47ad 97bf
00000080: ee61 a13c 4db3 2fbf c621 a9bb 623e 54bf
00000090: 1b57 003e 59e7 9b3e a474 4ebd 8047 2abf
000000a0: 2fb3 3bbf 1d2f d0be b8d6 52bf 3071 143d
000000b0: 2439 363e ad6b 6abe 980a 4dbb cb84 c73d
000000c0: 5c61 adbf 12f4 6bbf c176 8a3d 1c6a 3fbf
000000d0: 890d 0bbf afb3 1cbf 83e6 4a3e a907 1bbf
000000e0: 2093 ce3e cdb1 28bf 1534 1dbf e16e 203f
000000f0: 2a73 18bf 39fc 283e 613d f9bd 7237 fabe
00000100: a706 8abe 3f33 63bf 0ff1 3dbf d40d 8abd
00000110: df9b 7bbf fbb4 fdbe bf4c 91be 3781 61be
00000120: bebb 2fbf 7a1f 193e 9e05 b8be 92b3 f4bd
00000130: 7df6 b7be af35 09bf a0c6 153c ec66 523d
00000140: 7bf8 4bbf 18fc 3cbf f09a 193d 87ec c9be
00000150: 8237 9d3c f662 703d 7806 64be b0ee 6fbf
00000160: 12d7 f1be 8dbc 02bf a540 8ebf a235 bfbe
00000170: 5717 ca3a fa33 72bf feb8 2abf c737 73bf
00000180: 12a8 4b3e d4f4 11be 19a1 37bf 3afb 0bbe
00000190: dfa6 c5ba 08fb e53b c170 5bbf 13e8 f7be
000001a0: f8f4 c23e 3f9b 4bbe 4ae9 9cbf 9501 0ebc
000001b0: ca08 03bf df5b e63d bc5d 613e 13c2 1c3e
000001c0: bfea f9bd 9908 de3d 24ac 5bbb 0a66 36be
000001d0: 66c2 ad3d d98e 15be db95 3b3c 8158 6abe
000001e0: 0004 57bf 11b7 72bf cbc2 dabe fed7 c93b
000001f0: ee2a d6bb 075d 4abf a4a0 32bf 550e bfbe

exp_avg f4 [128, 3]
-0.00065999693 -0.00088179007 -0.0017382294 1.771033e-12 3.2393157e-12 4.4248315e-13 0.0006043203 -0.0065253214
-0.019772349 -0.0015265442 -0.0021645925 -0.0057483693 -0.0014831515 -0.005076021 0.013686258 -0.0073145535
-0.0054918933 0.043834556 -0.00053570524 -0.0019935656 0.0056706187 -0.0061478405 -0.0042785034 0.03834695
-0.001957144 -0.006380744 0.016994035 -0.004243178 -0.0007460312 -0.041024584 -0.0005677599 -0.0019941241
0.0054299487 -0.0021373616 -0.0072926 0.019763948 -0.0006759458 -0.0024123043 0.0065713753 -0.00044844893
-0.0015062079 0.0043074456 -0.00041445286 -0.0015471602 0.0044209408 -0.0015276187 -0.0054661264 0.014595866
-0.0016975063 -0.0057591344 0.015769472 0.00012419144 -0.0029492332 -0.0015397005 -0.00093414984 -0.0033325742
0.00918659 0.00022149271 -0.0037771089 -0.0019820963 0.0004153266 0.0013285659 -0.0034374653 0.005866126
0.0007224344 -0.03006605 0.0001503172 0.00031422847 -0.0013352617 -9.0483954e-05 -0.005574766 -0.016933218
-2.3369746e-30 -2.738822e-31 -7.6372004e-31 -0.0022071104 -0.00726722 0.019911213 -0.0025068934 -0.008354334
0.022674056 0.00041711546 0.0012879189 -0.0036082023 0.00020196215 0.0005880268 -0.0009370155 -0.0015426276
-0.005309994 0.014511392 -0.0010473174 -0.003166701 0.009128513 -2.7449128e-30 -5.5016257e-32 3.5136907e-30
-5.8929367e-30 -3.752114e-30 5.0503487e-32 -6e-45 6e-45 -6e-45 -0.000699032 -0.0022926861
0.006652561 -0.00092974 -0.0033971732 0.009257075 -0.0026466518 -0.0034059705 0.016206497 0.0016130764
0.00039618256 0.002280278 -0.0011793457 -0.004000652 0.010903154 -0.0008868049 -0.0029632284 0.008171878
-6e-45 6e-45 -6e-45 0.0016473765 -0.001013053 0.010588728 -0.0023978162 -0.0037832793
-0.010178183 -0.0022215717 -0.007359016 0.020097816 -3.482093e-30 -3.2707496e-32 4.548808e-30 -0.0087220315
-0.00655214 0.047507465 -2.0625807e-30 -5.870886e-32 2.6086919e-30 -0.0034266096 -0.0017540978 -0.0071594156
-0.0034567018 0.0010793015 0.05787733 -0.00012011177 -0.0006428565 0.0017678043 -0.003202245 -0.010119734
0.027031539 0.0007789559 -0.0090488 -0.031620063 -2.8721926e-30 -9.3403235e-32 3.631232e-30 0.0002265252
0.00060217077 -0.0014910438 -0.0009636194 -0.0030652203 0.0085101435 0.00031289994 0.000873373 -0.002507901
-0.000118907665 -0.00041937895 0.0010980979 0.0004891205 0.0013287792 -0.0035771865 2.5336306e-12 4.6784204e-12
1.0154153e-12 -0.0026636187 -0.008855488 0.024349734 -1.7073758e-05 -0.00015158864 0.00040610356 2.4780133e-05
7.2004375e-05 0.00013594126 0.008294474 0.0023391484 -0.016046233 -0.0024479362 -0.0082371 0.02257775
-4.425162e-13 -2.085364e-12 -2.4827378e-12 2.9392868e-12 5.3761154e-12 7.3436515e-13 -0.0014601302 -0.0049442244
0.013848753 -0.001569968 -0.005142785 0.014042555 0.00039435588 0.0010312055 -0.0033014289 -1.51811e-05
0.0005335604 5.675539e-05 -0.0005732097 -0.0027557556 -0.007554569 -0.0007324118 -0.0021926302 0.005821271
-0.0065556057 0.0009921078 0.054314323 -0.0013192899 -0.00482318 0.013295666 -0.0005885191 -0.0019774546
0.0050029266 0.0004889756 0.0015178901 -0.0039865817 0.0013155005 -0.0010321033 0.028285759 -0.007482329
-0.00161554 -0.042945787 -3.74166e-30 -6.6724545e-32 4.861027e-30 -0.0033659386 -0.0053432337 -0.020478154
-3.0514152e-30 -2.4862434e-32 3.9774095e-30 3.9428836e-13 7.2117534e-13 9.8510847e-14 -0.0032534122 -0.010570863
0.028926158 -6e-45 -6e-45 6e-45 6e-45 6e-45 6e-45 -0.0028737963
00000000: a503 2dba ee27 67ba 4dd5 e3ba 3040 f92b
00000010: 53f2 632c 8b18 f92a 406b 1e3a 5dd2 d5bb
00000020: 9ff9 a1bc 5316 c8ba d6db 0dbb d15c bcbb
00000030: 4e66 c2ba c054 a6bb 543c 603c ecae efbb
00000040: 57f5 b3bb dd8b 333d 926e 0cba 7ba6 02bb
00000050: 99d0 b93b d373 c9bb b032 8cbb b111 1d3d
00000060: 6d43 00bb 8f15 d1bb 1337 8b3c 5b0a 8bbb
00000070: 4e91 43ba 6509 28bd b9d5 14ba daaf 02bb
00000080: b6ed b13b fa12 0cbb c3f6 eebb 01e8 a13c
00000090: f431 31ba c017 1ebb b154 d73b cc1d ebb9
000000a0: f36b c5ba 7925 8d3b ec4a d9b9 15ca caba
000000b0: 8add 903b 613a c8ba 311d b3bb 8023 6f3c
000000c0: dc7e deba 1fb7 bcbb fb2e 813c 6339 0239
000000d0: ec47 41bb c7cf c9ba bce1 74ba 5167 5abb
000000e0: 5a83 163c 7f40 6839 5f89 77bb 0fe6 01bb
000000f0: 31c0 d939 4623 ae3a 1947 61bb a238 c03b
00000100: c061 3d3a 144d f6bc 779e 1d39 08bf a439
00000110: f303 afba 34c2 bdb8 87ac b6bb 88b7 8abc
00000120: 1099 3d8e 7cc2 b18c 61d7 778d 2ba5 10bb
00000130: dc21 eebb d71c a33c b14a 24bb 9ee0 08bc
00000140: f1be b93c 4ab0 da39 63cf a83a 9777 6cbb
00000150: cdc5 5339 d025 1a3a 0ca2 75ba fe31 caba
00000160: 75ff adbb 31c1 6d3c 2446 89ba 6d88 4fbb
00000170: c28f 153c 9cb1 5e8e 93d4 8e8b 4088 8e0e
00000180: c10b ef8e 2e34 988e 531d 830b 0400 0080
00000190: 0400 0000 0400 0080 3e3f 37ba e440 16bb
000001a0: bafd d93b ccb9 73ba 1ca3 5ebb fdaa 173c
000001b0: 7373 2dbb b436 5fbb 7dc3 843c dd6d d33a
000001c0: b9b6 cf39 b770 153b 4694 9aba e717 83bb
000001d0: 24a3 323c 7878 68ba b932 42bb 57e3 053c
000001e0: 0400 0080 0400 0000 0400 0080 c8ec d73a
000001f0: 6bc8 84ba 587c 2d3c ae24 1dbb e5f0 77bb
00000200: 65c2 26bc ca97 11bb e723 f1bb 2da4 a43c
00000210: 1f40 8d8e b8d3 298b 8685 b80e dae6 0ebc
00000220: 56b3 d6bb 3097 423d 2056 278e bb6a 988b
00000230: 69a4 530e f890 60bb c1e9 e5ba 8899 eabb
00000240: d589 62bb 5977 8d3a c710 6d3d 84e4 fbb8
00000250: 5f85 28ba abb5 e73a c2dc 51bb 3ecd 25bc
00000260: 3f71 dd3c d832 4c3a 6b41 14bc 0a84 01bd
00000270: 1b05 698e 197d f28b de4c 930e 6587 6d39
00000280: ffda 1d3a 216f c3ba 679b 7cba dde1 48bb
00000290: 216e 0b3c b80c a439 12f3 643a 995b 24bb
000002a0: 115e f9b8 17e0 dbb9 0dee 8f3a 5238 003a
000002b0: 6e2a ae3a 3b6f 6abb d549 322c 779b a42c
000002c0: 31e8 8e2b 1b90 2ebb 9c16 11bc 1879 c73c
000002d0: 9e39 8fb7 c4f3 1eb9 4cea d439 eede cf37
000002e0: 0e01 9738 748b 0e39 8ce5 073c 664c 193b
000002f0: 6473 83bc 8e6d 20bb e7f4 06bc f9f4 b83c
00000300: 4e1d f9aa 94be 12ac 07b5 2eac 7cd5 4e2c
00000310: be27 bd2c 96b4 4e2b d761 bfba 2903 a2bb
00000320: e1e5 623c 62c7 cdba cf84 a8bb bf12 663c
00000330: 8dc1 ce39 8429 873a c95c 58bb 54b2 7eb7
00000340: a2de 0b3a a30c 6e38 7443 16ba e899 34bb
00000350: 518c f7bb 53ff 3fba 3bb2 0fbb 5cc0 be3b
00000360: 68d0 d6bb 9d09 823a b278 5e3d 06ec acba
00000370: c40b 9ebb 11d6 593c d946 1aba 2f98 01bb
00000380: 97ef a33b 992e 003a f1f3 c63a dfa1 82bb
00000390: df6c ac3a a447 87ba 89b7 e73c 532e f5bb
000003a0: 87c0 d3ba ece7 2fbd 9ec7 978e 113a ad8b
000003b0: ca2f c50e 1497 5cbb 4b16 afbb cdc1 a7bc
000003c0: 6a8f 778e d817 018b c857 a10e f1f6 dd2a
000003d0: 29fe 4a2b a3d3 dd29 3337 55bb 6a31 2dbc
000003e0: 8df6 ec3c 0400 0080 0400 0080 0400 0000
000003f0: 0400 0000 0400 0000 0400 0000 4d56 3cbb

exp_avg_sq f4 [128, 3]
0.00014841497 5.8207777e-05 0.0021529652 0.00063856854 0.00016779693 0.00026940063 0.00020734705 0.0002952007
0.007863772 0.0002875796 0.0004612039 0.008695515 0.0002478791 0.00045025244 0.0022421503 0.0006521635
0.00045759534 0.017242288 3.4766308e-05 6.2238185e-05 0.00034295948 0.0016023483 0.0006284606 0.011465882
0.00039929536 0.00071411673 0.0034851662 0.0030920615 0.0007635922 0.032450963 7.1754745e-05 7.6972145e-05
0.00040874572 0.00052746583 0.00093159557 0.0045923656 5.2205996e-05 9.501291e-05 0.0005132612 8.020942e-05
5.9657672e-05 0.0003197949 5.8134778e-05 4.4126216e-05 0.00021934399 0.00029602842 0.0005248763 0.002635202
0.00032687184 0.0005728938 0.0027585719 0.00020920027 0.00023359573 0.012288169 0.00010495828 0.0001896804
0.00096221594 0.00022811307 0.00036771424 0.014693933 5.5844816e-05 6.114152e-05 0.00016086179 0.00027458207
0.00028112577 0.01912201 6.541843e-06 6.707797e-06 3.2557407e-05 0.0004825315 0.0012183372 0.033098593
3.1131e-05 1.5254694e-05 8.0180675e-05 0.0005247511 0.00095467555 0.004860578 0.0006985678 0.0012610231
0.006271516 9.134818e-05 5.0183553e-05 0.00033618134 4.8298116e-06 6.390632e-06 2.1254078e-05 0.0002806113
0.0005117383 0.0026831056 0.00012361935 0.00015172135 0.0005552267 1.8703764e-05 3.2167383e-05 0.00043217783
0.00041035705 0.00011289142 8.044132e-05 1.0069743e-28 9.504288e-29 1.0970299e-27 0.0001410899 8.9024434e-05
0.0004271882 0.00011213705 0.00020057146 0.0010427529 0.00021448905 0.00029864963 0.007213841 0.00016329541
0.00013390968 0.0052093333 0.00036884623 0.0004362566 0.0020918057 0.00022490339 0.00015331879 0.00088952965
0.0001198817 8.4208325e-05 0.00032843425 0.00029948918 7.8531324e-05 0.007853781 0.00041103188 0.00092516607
0.016708944 0.00054408144 0.0009839158 0.004972568 2.9942068e-05 5.576695e-05 0.0006322868 0.0026686753
0.00089464954 0.01935812 8.089826e-05 5.552577e-05 0.00032298765 0.00055319146 0.00020755401 0.015067346
0.00042142437 0.0014128183 0.042239506 3.5054147e-06 6.6043895e-06 4.9786497e-05 0.0036315795 0.0025313061
0.010760306 0.0007811594 0.00046505182 0.016580258 3.7289643e-05 3.8240003e-05 0.0004701079 2.5820966e-05
1.2760708e-05 3.3612225e-05 0.000110547975 0.0001387891 0.00042093766 9.470135e-06 1.5727015e-05 8.81654e-05
1.1590494e-06 2.1147318e-06 1.4542763e-05 7.555067e-05 6.3997955e-05 0.00020222449 0.00019153011 3.45376e-05
0.0007420955 0.0007882725 0.0014222243 0.007102253 4.5416994e-07 4.4670793e-07 7.82961e-06 4.1060258e-07
5.217281e-07 7.0137207e-06 0.0004957679 0.00025735647 0.02400685 0.0006842503 0.0012415247 0.006338396
1.509569e-05 2.3828901e-05 0.00039949513 0.0002064807 0.00010106815 0.00065579225 0.00024368346 0.00044392378
0.0022860835 0.00025120433 0.00044877597 0.0021836055 5.3165495e-05 4.937945e-05 0.000125421 5.9465533e-06
1.0701662e-05 0.00037323215 4.026359e-05 4.20794e-05 0.0014762791 4.7780144e-05 8.516021e-05 0.00040940195
0.00047880926 0.00094862987 0.029305732 0.00023444407 0.00041487862 0.0021137216 3.7851147e-05 6.977673e-05
0.00036034643 0.0003906799 0.00014316193 0.0002901903 0.00028657532 0.00025472575 0.015751734 0.00085401285
0.000777977 0.04317921 6.478403e-05 6.676086e-05 0.0007814738 0.0013077499 0.0015588624 0.037652966
2.2909073e-05 4.2802745e-05 0.00048863597 3.8361803e-05 9.180714e-06 1.8834033e-05 0.0011206903 0.0020136407
0.009962323 3.4876474e-10 2.7359798e-10 7.3633366e-10 4.253241e-11 8.399202e-11 1.9119313e-09 0.0009358069
00000000: d79f 1b39 2024 7438 c318 0d3b 9c65 273a
00000010: a5f2 2f39 573e 8d39 4d6b 5939 2bc5 9a39
00000020: 0dd7 003c 48c6 9639 bdcd f139 a277 0e3c
00000030: c5f5 8139 dc0f ec39 0af1 123b f4f5 2a3a
00000040: 68e9 ef39 b33f 8d3c 0ad2 1138 df85 8238
00000050: 3ecf b339 e305 d23a 47bf 243a 65db 3b3c
00000060: 8458 d139 9033 3b3a 6367 643b 2fa4 4a3b
00000070: ce2b 483a 4deb 043d 097b 9638 1b6c a138
00000080: ec4c d639 a245 0a3a 5236 743a 8e7b 963b
00000090: c3f7 5a38 ab41 c738 608c 063a 1b36 a838
000000a0: f038 7a38 25aa a739 bed5 7338 2a14 3938
000000b0: b4ff 6539 4334 9b39 da97 093a 5ab3 2c3b
000000c0: ff5f ab39 412e 163a 28c9 343b c55c 5b39
000000d0: 60f1 7439 5154 493c 0c1d dc38 f2e4 4639
000000e0: 383d 7c3a a331 6f39 c5c9 c039 d2be 703c
000000f0: ea3a 6a38 1b39 8038 02ad 2839 c8f5 8f39
00000100: 1064 9339 c3a5 9c3c 0182 db36 8a13 e136
00000110: 408e 0838 48fc fc39 9db0 9f3a 6492 073d
00000120: a892 0238 69ee 7f37 ac26 a838 738f 093a
00000130: 3143 7a3a 7c45 9f3b 1720 373a ea48 a53a
00000140: 4a81 cd3b 2e92 bf38 2e7c 5238 7f41 b039
00000150: c40f a236 1c6f d636 c94a b237 031f 9339
00000160: 2d26 063a 0bd7 2f3b d19f 0139 6417 1f39
00000170: a28c 113a 07e6 9c37 77eb 0638 ed95 e239
00000180: 3125 d739 1fc0 ec38 9bb2 a838 5e4c ff10
00000190: 5bf6 f010 d2d4 ad12 88f1 1339 a1b2 ba38
000001a0: 3bf8 df39 1f2b eb38 7e50 5239 fbac 883a
000001b0: 77e8 6039 1394 9c39 1662 ec3b 473a 2b39
000001c0: 1b6a 0c39 0eb3 aa3b b461 c139 5fb9 e439
000001d0: ad16 093b 0bd4 6b39 33c4 2039 532f 693a
000001e0: ff68 fb38 0099 b038 b331 ac39 c204 9d39
000001f0: 2fb1 a438 25ad 003c c47f d739 d886 723a
00000200: 32e1 883c b0a0 0e3a bcf6 803a ecf0 a23b
00000210: 1a2c fb37 4ee7 6938 0dc0 253a f1e4 2e3b
00000220: ea86 6a3a ec94 9e3c eca7 a938 57e4 6838
00000230: ab56 a939 0d04 113a dba2 5939 08dd 763c
00000240: 9ff2 dc39 512e b93a 5503 2d3d 913e 6b36
00000250: 469b dd36 d8d1 5038 cbff 6d3b 45e4 253b
00000260: ff4b 303c b8c6 4c3a 33d2 f339 52d3 873c
00000270: 7367 1c38 e463 2038 d078 f639 1a9a d837
00000280: d316 5637 dafa 0c38 fed5 e738 ea87 1139
00000290: 4cb1 dc39 ece1 1e37 82ed 8337 70e5 b838
000002a0: a290 9b35 d1ea 0d36 b1fc 7337 f570 9e38
000002b0: a436 8638 390c 5439 79d5 4839 77dc 1038
000002c0: 3089 423a 12a4 4e3a ee69 ba3a 04ba e83b
000002d0: a4d4 f334 12d3 ef34 eb5b 0337 ca70 dc34
000002e0: e20c 0c35 6757 eb36 6cf6 013a cded 8639
000002f0: 03aa c43c 435f 333a a8ba a23a 52b2 cf3b
00000300: 7f43 7d37 2de4 c737 5473 d139 be82 5839
00000310: 8df4 d338 79e9 2b3a 4885 7f39 71be e839
00000320: 1ed2 153b 13b4 8339 b149 eb39 d21a 0f3b
00000330: 04fe 5e38 c81c 4f38 7183 0339 8188 c736
00000340: 4a8b 3337 5fae c339 b3e0 2838 697e 3038
00000350: b57f c13a 8a67 4838 0a98 b238 00a5 d639
00000360: b108 fb39 79ad 783a 9312 f03c 1ad5 7539
00000370: 1184 d939 5d86 0a3b 5cc2 1e38 1955 9238
00000380: e1ec bc39 2bd4 cc39 bd1d 1639 af24 9839
00000390: 7d3f 9639 b68c 8539 c809 813c d5df 5f3a
000003a0: 27f1 4b3a afdc 303d a9dc 8738 f701 8c38
000003b0: d2db 4c3a ce68 ab3a be52 cc3a ff39 1a3d
000003c0: dc2c c037 1987 3338 ce17 003a ace6 2038
000003d0: de06 1a37 c7fd 9d37 20e4 923a 49f7 033b
000003e0: 0339 233c 46bc bf2f 7e69 962f e066 4a30
000003f0: 3d0f 3b2e 4eb3 b82e 0d63 0331 f050 753a

exp_avg f4 [128]
-0.00033360033 3.6918437e-12 -0.0027397587 -0.0010125313 0.001368317 0.0051430385 0.0005822361 0.004526538
0.0016902885 -0.00661772 0.00054835423 0.0019853634 0.0006637162 0.00043734963 0.00045502212 0.0014643682
0.0015878411 -0.00030831408 0.0009283174 -0.0003908652 -0.0003367085 -0.0037576114 -0.00013976383 -0.0026325278
-2.3535131e-30 0.0019939193 0.0022660955 -0.00036145706 -7.584406e-05 0.0014573435 0.0009232513 2.5102625e-30
6.977037e-30 6e-45 0.0006782013 0.0009347106 0.0017639549 0.00036663187 0.0010965918 0.0008238335
6e-45 0.0017613702 -0.0016531992 0.0020105166 3.168381e-30 0.0055806283 1.8936155e-30 -0.0017814728
0.0068388414 0.00018269786 0.0026852363 -0.004292839 2.6420949e-30 -0.00014414937 0.0008579144 -0.00024781725
0.00011113451 -0.00034814922 5.320954e-12 0.0024414752 4.3256117e-05 2.3462782e-05 -0.001672184 0.002263739
-2.5725505e-12 6.127155e-12 0.0013964267 0.001408756 -0.00033516996 2.7721353e-05 -0.0010642188 0.00057418423
0.0063232696 0.0013452193 0.0004900904 -0.0003924129 0.0036867277 -0.007047522 3.418044e-30 -0.0031573214
2.7749148e-30 8.219224e-13 0.0028932814 -6e-45 6e-45 0.002599289 -0.004073216 0.0067849653
0.002436133 0.00079808634 -0.00033894816 0.0012961045 9.885358e-31 -0.0004032654 0.0012833715 -0.00034620106
-0.009851926 -0.0017600891 1.4268449e-30 -0.00018954287 2.694767e-30 -0.0033510032 2.9630617e-30 0.00090004294
-0.0040094857 -2.8626094e-21 0.00014320883 0.0011918861 2.5319046e-12 1.6167575e-12 0.00097178965 0.00072223146
0.00095998385 0.0012302654 -4.0865707e-21 0.00066522835 0.003964555 0.0007946845 -0.0004850576 0.0010474063
-0.00036642182 0.00039707072 0.0010420185 -0.003569248 -0.0006807642 -8.382723e-31 0.0018653796 0.000996456
00000000: 14e7 aeb9 2ce5 812c 868d 33bb eab6 84ba
00000010: 1a59 b33a ef86 a83b 34a1 183a 5a53 943b
00000020: ac8c dd3a 75d9 d8bb 6ebf 0f3a df1c 023b
00000030: 3dfd 2d3a 134c e539 0990 ee39 0bf0 bf3a
00000040: 1b1f d03a 37a5 a1b9 535a 733a 0aed ccb9
00000050: 4088 b0b9 4242 76bb 918d 12b9 7d86 2cbb
00000060: 8ef0 3e8e 6aac 023b c682 143b f281 bdb9
00000070: 780e 9fb8 5504 bf3a 5906 723a 1da8 4b0e
00000080: d982 0d0f 0400 0000 52c9 313a 5e07 753a
00000090: 8134 e73a 7f38 c039 84bb 8f3a 88f6 573a
000000a0: 0400 0000 c7dd e63a 29b0 d8ba dfc2 033b
000000b0: 5986 800e b4dd b63b dba0 190e 4f80 e9ba
000000c0: 5c18 e03b 9592 3f39 cafa 2f3b f2aa 8cbb
000000d0: 2a5a 560e cd26 17b9 a9e5 603a 78ed 81b9
000000e0: e310 e938 cc87 b6b9 e536 bb2c 2801 203b
000000f0: e76d 3538 f1d1 c437 2f2d dbba 3d5b 143b
00000100: f306 35ac 8294 d72c 4e08 b73a 02a6 b83a
00000110: c0b9 afb9 278b e837 427d 8bba da84 163a
00000120: 6e33 cf3b 1252 b03a 6979 003a c5bc cdb9
00000130: 079d 713b e6ee e6bb 00a7 8a0e 10eb 4ebb
00000140: ba20 610e c059 672b 359d 3d3b 0400 0080
00000150: 0400 0000 d558 2a3b 9d78 85bb 6a54 de3b
00000160: 88a7 1f3b ab36 513a dab4 b1b9 0de2 a93a
00000170: 2c66 a00d 5e6d d3b9 cd36 a83a 5282 b5b9
00000180: f969 21bc cab2 e6ba d184 e70d 07c0 46b9
00000190: 1fa0 5a0e 819c 5bbb 6264 700e dcf0 6b3a
000001a0: 0162 83bb eb4a 589d 542a 1639 1039 9c3a
000001b0: bd2a 322c d489 e32b b3bf 7e3a 2254 3d3a
000001c0: 6da7 7b3a db40 a13a e362 9a9d b862 2e3a
000001d0: 19e9 813b 6052 503a 544f feb9 2049 893a
000001e0: 4e1c c0b9 ee2d d039 5794 883a 0bea 69bb
000001f0: 5075 32ba 7804 888d c17f f43a 849b 823a

exp_avg_sq f4 [128]
0.00014703351 0.00079258275 0.00014237875 0.00045931208 2.596844e-05 0.0005771911 6.6933953e-06 0.0019430746
3.8904232e-05 0.0035776657 4.798236e-05 6.741731e-05 7.322192e-06 8.758879e-05 5.111905e-05 3.8528477e-05
4.229037e-05 0.00031963657 1.2360225e-05 0.0003589818 7.025659e-05 0.0003340449 7.463134e-06 0.0006434867
4.3969765e-05 5.2460386e-05 7.488082e-05 9.1321446e-05 2.6842747e-06 3.0452842e-05 5.5106113e-05 1.4141727e-05
0.0005165664 1.7936931e-28 0.00011170604 1.7434855e-05 0.0001600395 0.00025258493 0.0003927965 0.00018231185
0.0001929157 0.000300605 0.00083811936 5.3591575e-05 2.6756066e-05 0.0029892484 0.0001199039 0.00059454853
0.00091646676 9.695117e-07 0.0038335416 0.0006863671 3.8700193e-05 2.9814297e-05 5.044578e-05 4.922204e-06
2.9372373e-07 8.78102e-05 0.00021868243 8.065923e-05 4.381017e-07 4.6863886e-07 0.0005169236 7.138829e-05
2.091429e-05 0.00028753228 2.776494e-05 2.811515e-05 7.015949e-05 1.1314728e-05 3.2522403e-05 4.467573e-06
0.00056644325 3.3506338e-05 4.544897e-06 0.0004670236 0.00033688536 0.0011279657 6.64277e-05 0.0015254872
2.0470932e-05 4.674686e-05 0.00010934631 6.21492e-10 1.2451239e-10 9.8580495e-05 0.0008013196 0.001056489
0.00024190867 9.017182e-06 1.4164965e-05 0.00013422409 3.4788072e-06 4.4635226e-06 0.00013362727 5.863434e-05
0.0009062916 0.0025082093 6.7036264e-05 3.4104646e-06 3.537925e-05 0.0005654084 2.400923e-05 5.0705206e-05
0.00053698214 3.5985788e-05 8.2233316e-07 0.00010461068 4.3064694e-05 0.00017284836 8.536229e-05 1.2602408e-05
1.1810483e-05 2.3523504e-05 4.441611e-05 3.4547422e-05 0.00046363357 0.0018134827 0.00016101898 0.00030718517
5.515368e-05 0.0004932456 1.67708e-05 0.00048374705 0.0007926875 7.3801293e-06 5.3282612e-05 0.00022059695
00000000: 022d 1a39 54c5 4f3a 814b 1539 d3cf f039
00000010: cdd6 d937 a44e 173a d497 e036 c4ae fe3a
00000020: 1a2d 2338 4577 6a3b ab40 4938 6562 8d38
00000030: 26b1 f536 e0af b738 a968 5638 a399 2138
00000040: f060 3138 e594 a739 c35e 4f37 b935 bc39
00000050: b856 9338 bf22 af39 d56b fa36 a9af 283a
00000060: 2d6c 3838 e908 5c38 5609 9d38 d483 bf38
00000070: 7d23 3436 fb74 ff37 bd21 6738 4142 6d37
00000080: 2f6a 073a ab60 6311 b943 ea38 1141 9237
00000090: 47d0 2739 606d 8439 41f0 cd39 f72a 3f39
000000a0: 6a49 4a39 859a 9d39 3db5 5b3a 84c7 6038
000000b0: 3772 e037 44e7 433b eb74 fb38 7adb 1b3a
000000c0: 0b3f 703a 2b20 8235 283c 7b3b 51ed 333a
000000d0: 0452 2238 b719 fa37 be95 5338 6929 a536
000000e0: 15b1 9d34 be26 b838 1e4e 6539 9827 a938
000000f0: 3d34 eb34 3c99 fb34 2882 073a 4cb6 9538
00000100: 1971 af37 eebf 9639 c1e8 e837 d3d8 eb37
00000110: 9722 9338 63d4 3d37 aa68 0838 29e8 9536
00000120: 5d7d 143a 2889 0c38 5e80 9836 d9da f439
00000130: fd9f b039 40d8 933a 1a4f 8b38 dbf2 c73a
00000140: feb8 ab37 0f12 4438 da50 e538 9dd5 2a30
00000150: 1fe7 082f 00bd ce38 a60f 523a e379 8a3a
00000160: dda8 7d39 8048 1737 10a6 6d37 81be 0c39
00000170: 7475 6936 5ec5 9536 4c1e 0c39 25ee 7538
00000180: 3394 6d3a c560 243b d295 8c38 56df 6436
00000190: 2e64 1438 ea37 143a 6e67 c937 4dac 5438
000001a0: 43c4 0c3a 72ef 1638 4ebe 5c35 6e62 db38
000001b0: 5da0 3438 a13e 3539 8804 b338 ee6e 5337
000001c0: a325 4637 5754 c537 6f4b 3a38 03e7 1038
000001d0: d813 f339 62b2 ed3a 34d7 2839 b20d a139
000001e0: d054 6738 274d 013a 05af 8c37 6e9f fd39
000001f0: 5ccc 4f3a d4a2 f736 c57b 5f38 0b50 6739
