week 6/checkpoints/actor_critic_pendulum_seed0.pth (torch, 278719 bytes, 18 tensors)

shared.0.weight f4 [128, 3]
000000 1f 01 07 be e4 81 d6 bc 17 7d 2a 3e fa 10 fa bd
       -0.13184021 -0.026184984 0.1664928 -0.12210269
000010 3d 7e 46 3e 39 c6 a7 bd b3 af 04 3c 15 a9 b8 bd
       0.19384094 -0.08192105 0.008098531 -0.09016625
000020 27 34 31 3d 40 c0 36 be f5 3e 6b 3d 52 ab dc bc
       0.043262627 -0.17846775 0.057433087 -0.02693716
000030 15 65 bd bd 1a 5e e1 3d 9b 44 74 bc f6 80 98 bd
       -0.092477955 0.110042766 -0.014908935 -0.07446472
000040 78 22 50 be dd ae 93 3e 3b 9e 22 be 0f 96 0e 3e
       -0.20325649 0.28844348 -0.15880673 0.1392443
000050 49 ae 97 3d c9 e4 b4 3e 80 f7 3c 3e 56 62 0b 3c
       0.07406289 0.353308 0.18453789 0.008507332
000060 55 b1 29 bc f5 a9 ea be c0 58 e0 3c 32 7d 49 3e
       -0.010357221 -0.45832792 0.02738607 0.19676664
000070 7a e7 07 bf 54 27 40 3e 41 c4 30 3e a5 df ca be
       -0.5308758 0.18765002 0.17262365 -0.39623752
000080 11 30 ef bd 32 a5 8f 3d c1 a5 17 3c 10 c3 8f 3c
       -0.1167909 0.070139304 0.009255827 0.017549068
000090 d0 71 0e be 9f b0 bb 3d b3 1e 0f 3d cf b2 36 3e
       -0.13910604 0.09164547 0.034941386 0.17841648
0000a0 e6 43 18 3e e2 86 40 3d b3 4a 30 be bb 69 f5 bd
       0.14869651 0.047003634 -0.17215995 -0.11983057
0000b0 59 bd 1f bd dc 14 f7 be 87 c6 7b bc 4e da 12 3e
       -0.038998935 -0.48258102 -0.015367157 0.14341089
0000c0 be 70 03 3e ce eb 0e bf 27 fd 15 bc 16 f4 0b 3f
       0.12835976 -0.5582856 -0.0091545945 0.5466932
0000d0 98 8b 0b bd b1 6a ff 3b 7d c1 b7 bd 60 f6 9d be
       -0.034068674 0.007794701 -0.08972452 -0.30852032
0000e0 34 ef a0 3d ea fc 37 3d 0d d3 b0 bc 71 48 18 3c
       0.078581244 0.044918932 -0.021585012 0.009294615
0000f0 7e 68 28 be 39 fb c4 be a1 34 55 3d 73 f3 bb be
       -0.1644611 -0.38472918 0.052052144 -0.36709175
000100 21 68 7d be fc de 26 be 7a f4 ff 3d dc 0d 38 be
       -0.24746753 -0.16296 0.12497802 -0.17974037
000110 12 fb 0d 3b 72 41 e7 3d 85 9b 52 3e 29 e5 8d bd
       0.0021664542 0.112917796 0.20567138 -0.069284745
000120 8d 9a 99 3e 83 82 ae be fc e8 10 be 6b a3 03 be
       0.30000725 -0.34083948 -0.14151376 -0.12855308
000130 4d cf 36 bb 28 78 ba bb 10 07 0e bf 81 19 cb 3d
       -0.0027894557 -0.0056905933 -0.55479527 0.09916974
000140 9a 2d 9f bd 96 4e 4c 3e 74 9c 95 be bd 88 c6 bd
       -0.0777237 0.19951853 -0.29220927 -0.096940495
000150 46 f1 7f bd 65 8e 92 3e 63 27 d7 3d ce 4a 88 bd
       -0.062485956 0.28624263 0.10505559 -0.06654893
000160 ea 17 f2 3e 49 a7 01 3e d6 7a 41 be ad 40 02 be
       0.4728387 0.1266147 -0.18894514 -0.12719984
000170 79 4f 50 3d 9c 62 05 3e f0 0f a4 be 18 7d af bd
       0.05085704 0.13025898 -0.3204341 -0.085687816
000180 20 d1 6c 3e b0 f1 36 3e 73 e1 86 3c 0e 36 43 3e
       0.2312665 0.17865634 0.016464924 0.19063589
000190 b3 7b 0a 3f 47 37 78 3c 30 ff 60 3d 9a bc b4 3d
       0.54095 0.015149898 0.054930866 0.088250354
0001a0 fb 4a 3a bd de b6 6c 3e 1f bd b8 3d 90 31 65 3d
       -0.045481663 0.23116633 0.09020447 0.05595547
0001b0 c9 78 cd bd 8c 8c c7 be fd 26 63 bd 09 0c b6 3d
       -0.100328036 -0.38974416 -0.055457104 0.08889014
0001c0 3a 79 0c 3e ea a0 de bc 01 79 85 be bb 57 c1 3d
       0.1371812 -0.02717634 -0.2606888 0.094405614
0001d0 d0 18 72 3d aa 64 14 3e 0e 6d 57 be a5 44 0a 3d
       0.059105694 0.14491525 -0.21037695 0.03375687
0001e0 d8 35 52 bc 85 8f 93 3e 77 e0 dd bd 81 95 06 be
       -0.01283022 0.28820434 -0.10833829 -0.13142969
0001f0 c0 44 20 be d9 01 05 be b7 92 b7 be 6f dc b3 3d
       -0.15651226 -0.12988986 -0.35854122 0.08782279
000200 85 41 c4 3d f6 1d 9c 3e 85 2e be bc cf 9b 1a bc
       0.09582809 0.30491608 -0.023215542 -0.009436562
000210 76 e3 12 3f cc 12 ac bd c8 92 fa ba 73 fc 89 3d
       0.5737833 -0.08402023 -0.001911723 0.06737604
000220 c0 2a d2 be f2 8f a1 bd 4e 8c f1 bd a1 4e de 3d
       -0.4104824 -0.078887835 -0.11794339 0.10854841
000230 63 a4 57 3d 7a 11 a6 be d2 70 be bc 1e 7a bd bd
       0.052647006 -0.3243521 -0.023247156 -0.09251808
000240 49 7b 65 be 42 aa 3b be 34 85 a0 bd 95 8c 00 3f
       -0.22410311 -0.18326667 -0.078379065 0.5021451
000250 0e a2 05 be 6e 2b d1 3c 06 1a 8c be 7a e9 0f 3e
       -0.130501 0.025533404 -0.27363604 0.14053908
000260 04 60 2b bd 72 3b bf be 18 8b 6b 3d c4 f6 ab bd
       -0.041839615 -0.3735004 0.057505697 -0.08396676
000270 a5 e3 99 bc 06 fd d0 be 7e d4 8c 3c 02 3c b9 3d
       -0.018785307 -0.40818042 0.017191168 0.09044649
000280 68 49 d0 3e 0d 3d 94 3b ba cb c9 bc a0 09 bd bd
       0.40681005 0.0045238794 -0.024633277 -0.092303514
000290 4a f9 2b 3d 79 65 fc bd 01 b2 cb 3d 45 23 3e 3d
       0.041985787 -0.12324042 0.09946061 0.046420354
0002a0 1b ac f4 bd 7f 82 40 be 03 cd 9f bd 48 3b 9a bd
       -0.11946889 -0.1879978 -0.07802775 -0.07530838
0002b0 09 ab 24 bd e7 d3 ce 3c a7 39 31 3e 59 44 ee 3d
       -0.040202174 0.025247527 0.17307149 0.1163413
0002c0 89 f0 95 3a 9b 01 a2 bd dd ae 89 be 28 5e c9 bd
       0.0011439483 -0.079104625 -0.26891223 -0.09832412
0002d0 02 f9 2e 3d ff 7d 01 3e ae 56 31 bd c1 b4 0c be
       0.04271794 0.1264572 -0.043295555 -0.13740827
0002e0 68 88 ad be 0e 1b b1 3d be b3 89 be fb c1 93 3d
       -0.33893132 0.086477384 -0.26894945 0.07214733
0002f0 00 7b 6a 3d 10 99 86 bd 3f 60 94 be 23 5a 81 3d
       0.05724621 -0.06572163 -0.2897968 0.0631602
000300 9c 14 f4 bc 11 03 97 be 75 51 33 bd e4 63 2e 3e
       -0.029794984 -0.29494527 -0.043778855 0.17030293
000310 93 8e 1b 3e 68 ac 38 3d 0b d6 36 3e 10 39 1f bf
       0.15191106 0.045086294 0.17855088 -0.62196445
000320 58 76 d3 bd a7 e6 01 be 50 56 a1 3e 0f 0b 0c 3e
       -0.10325307 -0.12685643 0.31511164 0.13676094
000330 4c e9 82 3e 5a de 76 3e 70 3b 19 3c 96 9b a2 bd
       0.25568616 0.24108258 0.00935255 -0.07939832
000340 c9 3c 10 3e b7 98 33 3d d1 5a 33 3d bf a6 b3 3c
       0.14085688 0.043846812 0.04378778 0.021930097
000350 6b a2 39 3d c1 60 6f bd 0a e7 aa be 8c 47 35 bd
       0.04532091 -0.05844188 -0.33379394 -0.044257686
000360 d3 3d 48 be e2 1d 96 3e 3a 23 f4 3d 2b 4b 13 3e
       -0.19554834 0.29319674 0.119207814 0.14384143
000370 54 76 89 bc b8 0b d8 3d db 2c 7c be be 22 86 be
       -0.016780056 0.1054911 -0.24626486 -0.2619838
000380 2e 44 c5 bd c9 1b ff 3e 7e f8 5f 3e dc 9f 22 3c
       -0.09632145 0.49825886 0.21872136 0.009925809
000390 21 7c 88 bd 91 bb 1c 3e 42 c4 82 3d 8b 9b 85 be
       -0.06664301 0.15305926 0.063850895 -0.26095232
0003a0 5d 17 84 3e 93 b9 12 3e b0 29 40 3e ea f4 36 be
       0.25799075 0.14328603 0.18765903 -0.17866865
0003b0 68 6c 41 be 8c f0 c0 be eb 1b 89 be 3c 6c e2 bd
       -0.1888901 -0.37683523 -0.26779112 -0.110558
0003c0 40 b7 77 be 70 c7 5c 3e 5c 18 eb 3d f9 56 f3 3d
       -0.24190998 0.21560454 0.114792556 0.11881823
0003d0 02 73 93 3d 4e 27 3c bd 57 0e 66 3e d4 cf 4b 3e
       0.071996704 -0.04593592 0.22466408 0.19903499
0003e0 6e fa 8b 3d 48 1c 2c be db 89 01 3e 5b 46 4a 3d
       0.06834875 -0.16807663 0.12650244 0.049383502
0003f0 c6 5f 7f bd ea 7b 9c 3d f1 b3 ad 3b 7f a9 97 be
       -0.062347196 0.07640822 0.0053009917 -0.29621503

shared.0.bias f4 [128]
000000 c9 e4 08 3c 94 8a 4f 3d 67 26 1d 3f d5 8b b0 3f
       0.008355328 0.050669268 0.6138672 1.3792673
000010 a3 fd eb 3e ae dd 33 bc 61 91 03 3e 8e 51 5c 3e
       0.46091947 -0.0109781455 0.12848426 0.21515486
000020 3b 3d 7e 3e 0d 35 13 bd 89 96 22 bb 1e 89 3e 3e
       0.24828045 -0.035939265 -0.0024808964 0.18606994
000030 c2 7e 5a 3f 1a cf 25 3f ea d1 88 3f 67 f5 05 3f
       0.8534967 0.64769137 1.0689061 0.5232758
000040 5c 5d 56 3e f5 7b 8f 3e 61 86 ef 3e f5 c5 7f 3e
       0.20934051 0.2802426 0.4678221 0.24977858
000050 a1 88 1b 3f 23 13 db 3e c8 1f 25 3f 83 89 5c 3f
       0.60755354 0.42788038 0.6450162 0.86147326
000060 9f b4 f0 bd 94 11 a5 3f 65 a0 47 3f 0f 41 75 bd
       -0.11753201 1.289599 0.7797912 -0.059876498
000070 55 45 80 3d 8e 1a 60 3d c6 8c a1 3f cd d8 a5 bb
       0.06263224 0.054712825 1.2621086 -0.005061245
000080 3c 90 44 3e a2 99 8e 3e aa 8f 69 3f 86 5b 4f 3f
       0.19195646 0.27851588 0.9123484 0.8099903
000090 9b 71 04 3c 85 ea a4 3f 11 f4 67 3f bf 0f b7 3c
       0.008083726 1.288407 0.9060679 0.022346376
0000a0 ec dc ea bc 85 cc 41 bd 2c dc a5 3e a6 f8 22 3e
       -0.028669797 -0.047314186 0.3239454 0.15915164
0000b0 f1 d5 4b 3e 92 39 de 3c 95 1d b3 3d b7 08 1c 3f
       0.19905831 0.027127061 0.08745877 0.609508
0000c0 ba e4 6c 3e 5c 8c 6c 3e 9e 75 f2 3e 2f 0e 2b 3f
       0.23134127 0.23100418 0.4735536 0.6681852
0000d0 e3 8a f5 3d 16 e1 a2 3e eb b7 20 3f 67 e7 87 3f
       0.11989381 0.31812352 0.62780637 1.0617493
0000e0 fe b6 19 3e 51 5d fe 3e c4 59 dc 3e b2 83 bc 3d
       0.15011212 0.4968057 0.43037236 0.092048064
0000f0 73 b0 a3 3f 03 da 09 3f 56 39 67 3f 75 58 60 3f
       1.2788223 0.53848284 0.9032186 0.87634975
000100 44 6b 5e 3c f4 86 24 3f 66 cd dd 3d f2 58 8f 3d
       0.013575379 0.6426842 0.10830192 0.06999387
000110 a9 9e 1b 3e 0d 51 1f 3d 97 dd 33 3f c3 30 89 3c
       0.15197243 0.038895655 0.70259994 0.016746884
000120 c5 80 bf 3d 39 6d b1 3d 86 c0 9c 3e 74 da 3e 3e
       0.09350733 0.08663411 0.30615634 0.18638021
000130 75 cb 48 3d 3b 68 3f 3e 47 a1 04 3e 68 bb b8 3e
       0.049022157 0.18692105 0.12952147 0.3608048
000140 a2 d5 42 3e e8 b0 88 3f 01 e6 b4 3d ee 97 f4 3d
       0.19026807 1.0678988 0.08832932 0.11943041
000150 a3 e0 da 3e 33 67 8d 3e d5 cc e1 3d d7 04 0c 3e
       0.4274951 0.27617797 0.11025397 0.13673721
000160 98 cd 32 3f 2f 63 00 be a0 87 9d 3d 80 86 44 3f
       0.6984496 -0.12537836 0.07691884 0.7676773
000170 95 4d 08 be 09 0a 94 3f 86 b9 c0 3d e0 b5 5e 3e
       -0.13310845 1.1565562 0.09410386 0.21749067
000180 82 6e 74 3e 6b 6c aa 3f c3 7f 45 be 03 a0 2f 3f
       0.2387028 1.3314337 -0.19287018 0.68603534
000190 04 52 37 3e 3f 5b 3f 3f a3 a4 f3 3c 8a 5f 7b 3e
       0.1790238 0.74748605 0.02974159 0.24548164
0001a0 10 21 6f 3f 51 1f b9 3e 89 46 b0 3d 9a 96 53 3f
       0.93409824 0.36156705 0.086072035 0.82651675
0001b0 4b 02 76 3e 41 78 07 3e aa 4d ee 3e ec a2 7c 3d
       0.24024312 0.13229467 0.46543628 0.061678812
0001c0 87 5a 29 3f 6e 2a 39 3e b1 f8 b7 3f 45 80 60 bd
       0.6615376 0.18082592 1.437277 -0.054809827
0001d0 83 fd 90 3f 14 ad b3 3e bf f9 3f 3f 12 f2 aa 3f
       1.1327366 0.35092986 0.7499046 1.3355124
0001e0 a2 30 4c 3e 07 09 2d 3e a6 a1 f3 3d 82 4d 57 be
       0.19940427 0.16897975 0.11896066 -0.2102566
0001f0 49 a7 89 3e ff a9 d6 3d 9e 15 3a be 74 10 8c 3d
       0.2688544 0.10481643 -0.18172309 0.06839076

shared.2.weight f4 [128, 128]
000000 41 95 7c bd 15 7e 82 bd 58 d7 33 3e 91 17 17 3f
       -0.061665777 -0.063717045 0.17562616 0.59020334
000010 5f ad 81 3e 82 56 c2 bd ac 36 be 3d 36 82 a2 3e
       0.25327584 -0.09489156 0.092877716 0.31739968
000020 92 55 34 3e 1a 31 f2 bd 99 4e 55 3d af b0 8c be
       0.17610767 -0.11825772 0.05207691 -0.2747855
000030 b4 d9 0e 3d 73 c4 86 3d 4d 31 95 3e ec 0e 21 3d
       0.034875587 0.065804385 0.29139176 0.03932087
000040 10 a1 e8 3e 15 f7 22 3f ff d1 04 bd 34 ba 87 bc
       0.4543538 0.6365827 -0.03242683 -0.01656828
000050 8a e9 23 3e 41 82 d1 3e e6 5f 5f 3e 1e 54 30 3e
       0.16007057 0.40919688 0.21813926 0.17219588
000060 6f c0 2a 3d 02 c8 c9 3e 5b c2 a8 3d 85 6c 9b 3e
       0.041687425 0.39410406 0.08240195 0.3035623
000070 a2 b7 b3 bd ae f1 85 bc 02 6c a2 3e 90 c4 99 3d
       -0.087752596 -0.016350593 0.31723028 0.075081944
000080 18 54 e0 3e c5 2a 58 3e 87 e1 d9 3e e6 84 bf 3e
       0.43814158 0.21110065 0.42554876 0.3740608
000090 3c ea 02 bd 8f 30 01 3f 6c 2f b8 3d f1 6e 7c 3d
       -0.031961665 0.5046472 0.0899342 0.06162924
0000a0 2c a3 41 be ff 2b ab 3d b3 ba 96 bd 90 87 88 3d
       -0.18909901 0.08358001 -0.07359829 0.066664815
0000b0 1d e1 70 3e 9b c2 e2 3e 7b e7 79 3e 0a c1 35 3e
       0.23523374 0.44289097 0.24404709 0.1774942
0000c0 a8 42 de 3d 27 75 19 3f 76 a4 f8 3d 05 64 89 3e
       0.108525574 0.59944385 0.121407434 0.2683412
0000d0 87 89 3c 3e df 44 32 3e de 21 0c 3e 40 77 94 3e
       0.18411838 0.17409085 0.13684794 0.2899723
0000e0 eb 98 73 bd 98 14 f0 bc 6c 46 5b bc fd 5e 58 be
       -0.059472006 -0.029306695 -0.013383489 -0.21129985
0000f0 19 f6 33 3f cc be 24 3e 86 c1 42 3d b3 74 55 3e
       0.7029739 0.16088408 0.04754784 0.20845298
000100 24 7b 12 bc 52 2b 8f 3d 04 74 d2 3e 55 36 bc 3d
       -0.008940492 0.069906846 0.41104138 0.091900505
000110 5e 3b b6 3e ac eb 32 3d e2 43 73 3e c9 8c f5 bc
       0.3559217 0.043681785 0.23756364 -0.029974358
000120 ad 35 90 bc f8 78 f2 bd f0 86 d4 3e c3 a0 bc 3e
       -0.01760372 -0.11839479 0.415092 0.368414
000130 67 04 7a be 27 16 6b 3d 17 22 42 be 38 4c ae 3e
       -0.24415742 0.057394173 -0.18958317 0.34042525
000140 4d ac 26 3e bf 5f df 3e 05 06 50 be 0c fa 88 bd
       0.16276665 0.43627736 -0.20314796 -0.06688318
000150 1f 32 89 3e 22 2b 28 bd 6e cc 41 be 2b f4 44 3e
       0.26796052 -0.04105676 -0.1892564 0.19233768
000160 98 52 7d 3e aa f3 9b be c8 66 16 3d ce 95 51 3e
       0.24738538 -0.30459338 0.036719114 0.20467302
000170 2a ae 57 be e0 22 c5 3e 4e 6d 30 bd 74 b8 d4 3e
       -0.21062532 0.3850317 -0.04307299 0.41546977
000180 9b 6e af bc 3f 4c 1b 3f aa 89 54 be 85 26 04 3d
       -0.021415045 0.6066322 -0.2075564 0.032263298
000190 03 8d fe 3e 03 41 c3 3c ac 2e a6 bd a2 0a 9f 3e
       0.49716958 0.023834711 -0.08114371 0.310628
0001a0 72 53 ec 3c 59 7b 33 be 59 01 6f 3e fd 14 2b 3b
       0.028848384 -0.17527522 0.23340358 0.002610504
0001b0 29 82 4e 3e 2a 1e 69 3e 75 c6 0a 3e 88 c0 02 bd
       0.2016684 0.22765413 0.13552268 -0.031921893
0001c0 df 05 01 3e f5 81 c3 3d 96 dc 12 3f 2f 4d 65 3e
       0.12599896 0.09546272 0.5736784 0.22392724
0001d0 73 a9 4f 3e 8e 85 23 be de fb 7d 3e c6 88 cc 3e
       0.20279483 -0.15968916 0.24803111 0.399481
0001e0 ad 1b 22 3e cc a4 21 3d 50 80 91 3e 4f da 9c be
       0.1583087 0.039463803 0.28418207 -0.30635306
0001f0 df 93 34 3e 74 a8 7d 3d 6d 4e 44 3d ec dc 36 be
       0.17634533 0.061928228 0.047926355 -0.17857713
000200 30 81 e1 3d 4b 82 47 3d 07 86 11 be a1 cc ed bd
       0.11010969 0.04870824 -0.14211284 -0.116112955
000210 8c 67 f2 bb a5 89 8f bb 08 4b 24 be 01 de 40 3c
       -0.0073975977 -0.004380422 -0.16044247 0.01177168
000220 c3 f2 9c 3d cb 21 5a 3d c0 44 a4 3d 02 44 3d be
       0.076634906 0.053254884 0.080209255 -0.18482974
000230 17 90 06 be 84 a2 04 be 95 e2 bd 3c 40 7b 89 3d
       -0.13140903 -0.1295262 0.023179332 0.06712961
000240 3b 13 c1 bc 5e 4f c7 3d 19 ea 0e bd 3e 74 33 3d
       -0.02356874 0.09731935 -0.03489122 0.04381203
000250 62 95 c6 3b 27 5b 95 3e c7 20 b6 bd 00 9f 82 bd
       0.0060602883 0.29171106 -0.088929705 -0.06377983
000260 23 33 f8 3d 7c 54 9f bc 81 3d 69 be 89 bf 83 bc
       0.121191286 -0.019449465 -0.22777368 -0.016082542
000270 60 b6 1c be 1d f5 69 3e e5 75 2c be c9 0c 00 3e
       -0.15303946 0.2284741 -0.16841848 0.12504877
000280 c8 a9 93 3d eb bf 92 3c 3d ff 27 be 99 39 4d bd
       0.072101176 0.01791378 -0.1640596 -0.050103758
000290 44 e7 22 3e 53 6b 79 bd 5c f7 07 be cb 89 89 bd
       0.15908533 -0.060893368 -0.13277954 -0.06715735
0002a0 f5 10 bb bd d6 83 5a 3c 42 7c 0a be 80 5f 8e 3c
       -0.09134094 0.013337096 -0.13523963 0.017379522
0002b0 2b 21 f5 bd d0 71 75 3e 75 51 ff bd 52 c6 44 3e
       -0.11969217 0.23969197 -0.124667086 0.19216278
0002c0 80 f1 db 3d 33 dc 5c be 6a ef 79 3e c6 2e 49 be
       0.10739422 -0.21568374 0.24407735 -0.19646749
0002d0 6c 00 44 3d 68 e4 43 be 21 7e e7 3d 7a 09 e3 bd
       0.047851965 -0.19130099 0.11303354 -0.11085792
0002e0 83 a2 d1 3d 71 10 06 be d3 e6 98 be 49 f4 53 3d
       0.10236075 -0.1309221 -0.29863605 0.05174664
0002f0 a4 d6 8a bd ff d3 8c bc d0 6a 95 3d 15 06 2f be
       -0.06779221 -0.017190931 0.072957635 -0.17092164
000300 90 5f 4a 3e 5e de 20 3c d2 d4 95 bd 42 63 47 bc
       0.19763017 0.0098186415 -0.07315983 -0.012169661
000310 48 9d 0f be f5 4f 25 be 89 41 84 bd 8a 83 f1 bb
       -0.14024842 -0.16143782 -0.06457812 -0.007370417
000320 1a 28 25 be 3b dd 27 3d 7f f0 ba 3c 2b 40 bc bd
       -0.16128579 0.040982466 0.022819756 -0.091919266
000330 43 78 cc bd 85 24 31 be e0 28 98 3d 0c 0b 29 be
       -0.099838756 -0.17299087 0.07429671 -0.1650812
000340 e8 78 10 3d 5b 1c 15 be 26 93 8b 3e 46 f8 02 be
       0.035271555 -0.14561598 0.27260703 -0.12790021
000350 82 65 12 be f6 c9 48 bc 03 85 6d be d5 3a cb 3d
       -0.14296535 -0.0122551825 -0.23195271 0.09923331
000360 61 6c cd 3d d4 c5 18 3e 70 de a5 bd c1 0a ca 3c
       0.10030437 0.14919215 -0.08099067 0.024663331
000370 5e 5d 07 bd fb 2b 85 be 54 ec 36 bd 84 2b 21 bd
       -0.033048026 -0.26010117 -0.044658974 -0.03934814
000380 d8 2e c9 3d 6d 72 7b be 36 ad 80 3d 25 be 0b 3e
       0.09823388 -0.24555369 0.06283037 0.13646753
000390 2b 3f a1 3d 3a 13 49 be f7 cd 8d 3d 81 85 9d bd
       0.078733765 -0.1963624 0.0692405 -0.076914795
0003a0 70 56 8f be 77 93 81 3d 23 fc b0 3d a0 cd 1f be
       -0.27995634 0.06326955 0.08641841 -0.15605783
0003b0 18 32 0f 3e 5f 1e d1 bc e5 4e 54 bd bd 7b 56 be
       0.13983953 -0.025527177 -0.051833052 -0.2094564
0003c0 0b c7 00 be 1c a6 f8 bb f9 f1 e5 3d da e5 1b 3d
       -0.12575929 -0.007588161 0.11227793 0.038061
0003d0 44 48 fc 39 4b 76 1d 3d ee dc b9 bd 04 f3 2d bc
       0.00048119028 0.03844289 -0.09075342 -0.0106170215
0003e0 1c 6c 51 bc 56 c6 89 3d b5 f5 e5 bd 10 c8 69 3e
       -0.012782123 0.06727283 -0.112285055 0.22830224
0003f0 c7 98 26 bc af cc 81 3d 6c 13 27 be 3e 99 37 be
       -0.010168261 0.063378684 -0.16316003 -0.17929551

shared.2.bias f4 [128]
000000 14 c3 38 3f 40 db aa bd 3e 8e 44 3f e2 b1 22 3f
       0.72172666 -0.083426 0.76779544 0.6355268
000010 fb b6 88 3f 04 83 b9 3e 5c 93 be 3e e6 65 52 3f
       1.0680841 0.3623277 0.372218 0.82186735
000020 0d 25 d9 bc 6d 4f eb 3e 6f ba 6d bc a2 4c af bd
       -0.026506925 0.45959035 -0.014509781 -0.085595384
000030 ec 75 16 bd 88 17 e3 3e c1 5f 22 3f b9 17 77 3f
       -0.036733553 0.4435389 0.6342736 0.9652057
000040 6a a8 11 40 f3 28 8f 3e 79 20 8d bc 06 75 10 3f
       2.2759042 0.2796093 -0.017227398 0.56428564
000050 6c b6 db bd 19 40 43 bd 18 b0 2d bd f3 6f 2e bd
       -0.107281536 -0.04766855 -0.042404264 -0.04258723
000060 38 af 4c 3e 7b a4 0a bd 1d fd f0 bc f7 ba 39 3f
       0.19988716 -0.033848267 -0.029417569 0.7255091
000070 12 7c d8 bd ba b3 1e bd 02 8c ea 3f ee 33 ec bb
       -0.105705395 -0.03874562 1.8323977 -0.007208339
000080 dc a7 e5 bb 6f 2a 0d 40 24 e5 c7 bc 76 1a 06 3f
       -0.007008536 2.205715 -0.024401255 0.52384126
000090 16 b2 c0 bc f8 0b bf 3f 6b be 80 3f 00 94 60 bd
       -0.023522418 1.4925528 1.0058111 -0.054828644
0000a0 51 ca 50 3f cb ac 2e 3f 6d c8 42 3f 39 15 9a 3e
       0.8155871 0.6823241 0.76087075 0.30094317
0000b0 2d 79 83 bd 9a aa 25 3f 55 82 57 3e f0 37 38 3f
       -0.06419597 0.6471344 0.21045811 0.71960354
0000c0 91 11 09 3f 00 00 00 00 bf 35 3e bd 67 e6 bc 3e
       0.5354243 0.0 -0.046437975 0.36894533
0000d0 a8 9a 15 3f 38 dc 37 3f f3 37 ab 3e 1e 95 e1 bc
       0.5843911 0.718204 0.33441123 -0.027536925
0000e0 89 5a fd 3e d3 4d b1 3f 44 22 a2 3e 6d fa 89 bc
       0.49483135 1.3851875 0.31666768 -0.016843045
0000f0 57 64 cb 3e 3c b6 b8 3f b6 e9 6d 3f eb cc 69 3f
       0.3972499 1.4430614 0.9293474 0.91328305
000100 d2 8f 76 bd 29 3d de 3d 0c 21 21 be fa d9 21 3f
       -0.06019575 0.10851509 -0.15735263 0.6322323
000110 db 6f 74 3f 34 08 02 40 0e be 56 bd be 4b 60 bc
       0.9548318 2.0317507 -0.052427344 -0.013689933
000120 10 18 97 bb 39 41 ad 35 44 a0 26 3f 63 31 ef bc
       -0.004611023 1.2908487e-06 0.65088296 -0.029198354
000130 de 85 13 be a0 05 35 bd 9b c1 bc bc 3c e5 6e bd
       -0.14406535 -0.044194818 -0.023041537 -0.058324084
000140 5f e6 ed bc 21 b3 31 bd 84 ba 21 3f 0d 60 70 3f
       -0.029040514 -0.04338372 0.63175225 0.9389656
000150 f8 b4 91 bc 83 ac 71 bc c5 0e b0 3f e8 3a ec 3e
       -0.017786488 -0.014750603 1.3754507 0.46138692
000160 2f 31 34 3e 94 ce 75 bd ff 42 74 bd 00 00 00 00
       0.17596887 -0.06001146 -0.059634205 0.0
000170 0d 2e 6e bd 18 e1 53 3f 66 dd 90 bc 46 ae 28 bd
       -0.058149386 0.8276534 -0.017683696 -0.041181825
000180 1a ba 24 3f de 6d e6 bc b6 46 0d 3f 61 c7 ec 3f
       0.6434647 -0.02812856 0.5518602 1.8498346
000190 fb 1b a3 3f 25 94 5a 3f 55 bf ae 3e a1 9e 39 3f
       1.2742914 0.853823 0.3413035 0.72507674
0001a0 93 2b 0f bd 8d fd 40 bc 12 8b 83 3f 8b 21 80 bc
       -0.034953665 -0.011779201 1.0276816 -0.015640995
0001b0 11 dd 34 3f 61 e9 31 3f 55 de 96 3f 92 46 48 3f
       0.7064982 0.6949673 1.17866 0.7823268
0001c0 e2 03 32 3e c8 5b d4 3e 61 e8 11 bd 3e 22 a5 3f
       0.17384294 0.41476274 -0.035622004 1.2901075
0001d0 8d 95 7b 3f 7a e6 10 bd 39 42 d8 bc d6 9f f2 3e
       0.9827507 -0.03537605 -0.026398765 0.4738757
0001e0 cf aa c1 bc 0d aa ea bc a6 77 54 3f 2d d9 07 3f
       -0.023641018 -0.02864554 0.8299507 0.5306576
0001f0 12 b6 25 bd 2f be 9d bc f7 b1 58 bd 2e 4f 0f 3f
       -0.04045684 -0.019255726 -0.052904096 0.55980194

actor_mean.weight f4 [1, 128]
000000 b1 c9 3b bd ce a9 88 bd 7b 55 82 3c be 04 3f bd
       -0.045846645 -0.06673013 0.0159099 -0.046635382
000010 dd 6f 78 bd 9a 07 08 3e 21 12 a9 bd ab 64 a7 bd
       -0.060653556 0.1328415 -0.08255411 -0.08173498
000020 b2 cf 04 bd 7f 3c 2b be b2 fa 8f 3a 01 c4 ab bd
       -0.032424636 -0.16722296 0.0010984747 -0.08386994
000030 0d 99 d7 bc 5c 68 df bd 00 be ed 3b c3 cd 77 b9
       -0.026318097 -0.10908577 0.007255316 -0.00023632408
000040 62 28 2d bd 8b 0b f1 bd 61 b1 60 3b 38 8f 46 bd
       -0.04227484 -0.1176978 0.0034285414 -0.048476428
000050 40 84 36 bd c4 0c d3 3c ec 99 a5 3c cd 38 d7 bd
       -0.044559717 0.025762923 0.020214997 -0.10508881
000060 e0 8b d7 3d ed 31 44 b9 7c 61 dc 3c c1 64 39 3c
       0.10524726 -0.00018710615 0.026901953 0.0113155255
000070 b7 1a fa 3b 98 0d ab bd f1 a4 56 bd 50 72 a3 bd
       0.007632579 -0.08352202 -0.052403394 -0.07980788
000080 27 25 f7 bb e3 da 23 bd 19 94 08 bd 0f c5 05 be
       -0.0075422707 -0.04000367 -0.033344362 -0.13063453
000090 1d 79 a5 3b 34 98 07 bd 7f 8f b7 bd 83 08 82 ba
       0.005049838 -0.033104137 -0.089629166 -0.000992075
0000a0 6e 27 59 bd 2e 93 ac bd 5d 87 f2 bd 51 9a 37 be
       -0.05301612 -0.0842651 -0.11842225 -0.17929961
0000b0 0a f1 53 bd 7f 7a 96 3d 8e ff 10 be 63 a8 8e 3c
       -0.051743545 0.07347583 -0.14159986 0.017414277
0000c0 04 d2 df bb fc e5 40 b8 82 dd 1c bd 89 03 9f 3d
       -0.0068304557 -4.5990557e-05 -0.038297184 0.07764346
0000d0 21 9b 7e 3d 25 ff 8f 3c 57 79 26 be e3 5d bf 3b
       0.06215966 0.017577717 -0.16257225 0.0058400496
0000e0 74 d8 13 3b 3e 27 f1 bc 90 fb 3a 3d 26 82 56 3b
       0.0022559436 -0.029437657 0.045650065 0.0032731383
0000f0 d5 5a 14 be 02 d5 38 bb fa 85 38 3d 26 b6 4c bd
       -0.14487775 -0.0028203134 0.045049645 -0.049978398
000100 f7 1c c3 3d 32 1a 21 3e 7f c9 05 3d 7d 73 df 3c
       0.09527009 0.15732649 0.032662865 0.027276749
000110 48 44 bd bd 5a 6f ea bc 6c 72 1a bd 8c ef 7a 3b
       -0.09241539 -0.02861755 -0.037706777 0.0038289754
000120 e6 98 a0 bd e8 cc 62 bb 5f 40 0d 3d 2d 17 a8 3b
       -0.07841663 -0.0034606997 0.034485217 0.005129716
000130 6d 57 c1 bc 24 67 1b 3e e6 14 c5 bd 2c 4a 5c 3e
       -0.023601258 0.15176064 -0.09623127 0.2151267
000140 bb e5 b3 3c 8b 54 f5 3c 2c fb f1 bd 31 fb f3 bc
       0.02196013 0.02994754 -0.11815485 -0.029782863
000150 fc 69 de 3a 4d 00 2b bc d1 83 ac bd 85 cd ba 3d
       0.0016968842 -0.010437083 -0.084235795 0.09121231
000160 88 56 8f 3d 76 34 ae bd 9b 7d e4 3d f9 90 fd 38
       0.069989264 -0.085061 0.1115677 0.000120909834
000170 35 38 35 be 59 d4 e5 bc 10 3c 1b bc f3 97 de bb
       -0.17697223 -0.028055357 -0.009474769 -0.006793016
000180 e9 9e ba bd 93 fe c4 bb d7 57 e2 bd 4c 56 74 bc
       -0.09112341 -0.006011793 -0.1105191 -0.014913153
000190 22 66 f2 3a a3 da cf 3c 56 7d 2f be b6 01 03 3d
       0.0018493573 0.025372809 -0.17137656 0.031984054
0001a0 9a 9b 24 be 2d f0 c1 3b 4d 56 9c bd 71 67 06 ba
       -0.16074982 0.0059185238 -0.07633648 -0.00051271083
0001b0 67 bb f4 bd f4 fa a2 3d 37 24 8a bd 8d 4b 81 3d
       -0.11949807 0.07958022 -0.06745189 0.06313238
0001c0 fe a1 91 3d d4 35 2c be 89 da 8b bd 87 a3 90 ba
       0.07110976 -0.16817409 -0.06828792 -0.0011035063
0001d0 70 40 a1 3c c6 58 31 3b ac 1d 3a bd fc 02 fb bd
       0.019684047 0.002706097 -0.045438454 -0.122564286
0001e0 68 af 71 ba 9f a2 e6 3c f8 4f ab bd 9c 6d b7 bc
       -0.0009219558 0.028153716 -0.08364862 -0.022391133
0001f0 e6 0c 19 3c d7 98 f9 bd 41 84 e6 3c c6 de 1d 3d
       0.009341454 -0.12187355 0.028139235 0.03854253

critic.weight f4 [1, 128]
000000 d1 ac f4 be a2 76 4a 3e 6b 9d 0c bf 19 79 3c bf
       -0.47788098 0.19771817 -0.549277 -0.7362228
000010 d7 04 f2 be a9 40 18 bf 6b 54 62 be df 0b 05 bf
       -0.47269318 -0.59473664 -0.22102515 -0.5197124
000020 86 1f 96 3e 5a 3e ac be 19 e1 11 3b 71 c5 a2 3e
       0.29320925 -0.3364132 0.0022259413 0.3179126
000030 34 ca 0d 3d f0 fd 5b be 76 40 eb be 17 ff 29 bf
       0.034616664 -0.21483588 -0.45947617 -0.6640486
000040 8d 5d 5c bf 7c 43 36 be 37 b4 33 be ee d5 bd be
       -0.8608025 -0.17799181 -0.17549215 -0.37077278
000050 78 e4 07 3f 26 ba 41 3e 57 2b 33 3c 1b a5 80 3d
       0.5308299 0.18918666 0.010935626 0.06281491
000060 99 16 d8 be 81 44 1c 3e bc 5c bd 3c c3 df c7 be
       -0.4220474 0.15260507 0.023115508 -0.39037904
000070 22 0f 96 3e 22 9a c6 3d ac 4a 7b bf 9a ce d5 3e
       0.2930842 0.09697367 -0.98160815 0.41759187
000080 fc 9c 06 3e 25 26 7f bf 55 c8 d1 3d 98 23 db be
       0.13145822 -0.9966758 0.102432884 -0.42800593
000090 73 21 70 be b1 b0 3b bf de 0d 0c bf 0a c0 a3 3b
       -0.2345026 -0.73316485 -0.5470866 0.004997258
0000a0 ac 23 fe be 91 b9 df be 63 2e 03 bf 9d 2b 63 be
       -0.4963659 -0.43696263 -0.51242656 -0.22184606
0000b0 3e 89 af 3e f5 6a 13 bf d9 94 09 be 0e ad 31 bf
       0.34284395 -0.5758508 -0.13435687 -0.69404685
0000c0 31 6d f4 be bb 38 a3 3b 6f 7f 85 3e 9f 85 c7 be
       -0.47739556 0.004981128 0.26073787 -0.38969132
0000d0 18 02 f4 be d9 fd fa be ef 64 55 be 7d 7b 3c 3d
       -0.47657847 -0.49021795 -0.20839284 0.046016205
0000e0 ca c9 c2 be ba 8b 1a bf 24 97 8b be b1 4e 85 3d
       -0.38044578 -0.60369456 -0.2726375 0.0650915
0000f0 be 3c a0 be 7e 94 46 bf e9 50 3d bf 20 0e 10 bf
       -0.31296343 -0.7757033 -0.73951584 -0.56271553
000100 46 b3 d7 3e 01 30 66 be 2b 5f e4 3e 17 8b 1c bf
       0.42128962 -0.2247925 0.44603857 -0.61149734
000110 05 9c 29 bf 24 b7 53 bf 4a 82 55 3d 88 d8 fc bd
       -0.6625369 -0.82701325 0.052126206 -0.123459876
000120 6a 12 d7 3d d3 b4 a3 3d fa 16 04 bf 04 07 8c 3d
       0.10501559 0.07993474 -0.5159756 0.068372756
000130 47 72 f7 3e aa 58 4d 3e 3a a7 11 3d f9 24 a8 3e
       0.48329374 0.20053354 0.03555987 0.32840708
000140 27 cc ea 3b c0 e0 db 3d 66 f9 b7 be 69 d5 08 bf
       0.00716545 0.10736227 -0.35932463 -0.5345064
000150 16 a9 d4 3c 24 3f 47 bd bd 95 48 bf ee d2 e4 be
       0.025959533 -0.0486442 -0.7835348 -0.44692177
000160 11 3c 32 be 5a 41 20 3e 5a 44 93 3e 6b af 31 3d
       -0.17405726 0.1564993 0.28763086 0.043380182
000170 24 62 62 3e db 7d fa be 8e 8f 39 3e ee 58 40 3e
       0.2210775 -0.48924145 0.18121168 0.18783924
000180 b1 b2 cb be 84 3a 86 b9 83 9e c7 be e3 0c 45 bf
       -0.39784768 -0.0002560207 -0.38988122 -0.7697279
000190 b5 f9 5f bf b2 a8 17 bf 82 21 82 be 5d 57 39 bf
       -0.874904 -0.59241784 -0.2541619 -0.7239893
0001a0 7f 91 83 3e d2 77 87 bc c5 17 04 bf f0 96 68 bc
       0.25696942 -0.016536627 -0.5159877 -0.014196143
0001b0 b8 78 36 bf e2 ee 30 bf e6 c5 38 bf 12 84 30 bf
       -0.7127795 -0.69114506 -0.7217697 -0.68951523
0001c0 82 cf b1 be 8a 2d a6 be 81 ca 27 3e f8 70 3b bf
       -0.34728628 -0.3245662 0.16385843 -0.7321925
0001d0 49 7a 1e bf 80 f9 c5 3c 22 bb 54 3d dc 4c 9f be
       -0.6190534 0.024166822 0.051936276 -0.31113327
0001e0 51 00 32 3e 6c fd b7 3e 8b 24 0e bf 6d 6c 37 bf
       0.17382933 0.35935533 -0.5552451 -0.7164982
0001f0 97 73 80 3d 1f 82 0f be 7e a5 06 3e 31 50 e6 be
       0.06272047 -0.14014481 0.13149068 -0.44983056

exp_avg f4 [128, 3]
000000 ec 43 7b 3a 7e 14 46 3a f7 7e 19 bb fa 59 9f 39
       0.0009585011 0.0007556154 -0.0023421624 0.0003039388
000010 2f c2 73 ba e1 91 d0 3b 52 e5 dd ba 00 b3 24 3b
       -0.000929865 0.0063650464 -0.0016929305 0.0025131106
000020 14 9e 7d bc 62 0b 04 bc 07 80 23 3c 34 99 90 bd
       -0.015479583 -0.0080593545 0.009979255 -0.07060471
000030 ea 79 b2 ba 7b d0 d5 3a 34 3f 3d bc 19 4a 25 3a
       -0.0013616655 0.0016312742 -0.011550713 0.0006305292
000040 b7 ee 00 3a 91 ab d2 ba b0 88 a3 ba d1 09 f6 3a
       0.0004918384 -0.0016072859 -0.0012476649 0.0018771236
000050 84 63 42 bc 21 6b 07 bc c7 3b 1b 3c 69 9b 9e bd
       -0.011864547 -0.008265288 0.009474701 -0.07744486
000060 b6 90 b4 3a 65 c6 c1 ba 03 9a 96 3c c4 30 85 3a
       0.0013776037 -0.0014783858 0.018383985 0.0010161628
000070 c6 a2 ac 3a 37 f7 d7 ba fe 79 bc b9 42 c1 0a 3b
       0.0013171069 -0.0016476874 -0.00035949046 0.002117232
000080 4a c9 b0 bb d5 da ec 37 5a e7 94 39 b5 0d 27 ba
       -0.0053950893 2.8235294e-05 0.0002840113 -0.0006372587
000090 e7 50 5b bb 26 98 89 3b 91 35 f0 bc fc d5 9a bb
       -0.003346497 0.0041990457 -0.029322417 -0.004725216
0000a0 25 c3 c4 3b 37 6c 2a bd ed c1 b0 bb ac fb db 3b
       0.0060047084 -0.041607108 -0.0053942115 0.0067133512
0000b0 34 6b 41 bd f9 f9 13 bb e5 fd 5d 3b a7 94 aa bc
       -0.047221377 -0.0022579415 0.0033873257 -0.020822836
0000c0 94 0e 78 bb c2 c0 e6 b9 51 34 f0 3a 78 fc 9d bb
       -0.0037850486 -0.00044012634 0.0018326138 -0.0048213564
0000d0 6f 17 97 3b fd 58 63 bd 5c 79 99 3a 6e 8b cc bb
       0.004610948 -0.055504788 0.0011709142 -0.0062422073
0000e0 d2 42 3d 3c 36 64 a6 b8 b2 b9 82 b9 aa 69 3e b8
       0.011551576 -7.9341626e-05 -0.00024933886 -4.5397937e-05
0000f0 82 78 36 bb fd ea 84 3b 57 2c d2 bc 83 c8 9e bb
       -0.0027842824 0.004056333 -0.025655909 -0.00484568
000100 10 e6 a5 3b 98 67 0a bd cb ef 68 bb 88 1e 9c 3b
       0.005062826 -0.0337902 -0.0035543318 0.004764382
000110 f5 44 02 bd 46 4b ad bb d1 83 c9 3b 64 95 3a bd
       -0.031804044 -0.0052885143 0.006149747 -0.045552626
000120 07 ee 88 3b 00 c0 8e ba 16 33 93 3c 45 1d 01 bc
       0.0041787657 -0.0010890961 0.017968696 -0.007880514
000130 6b 2f 1e 3c db c5 8c bd 1d 3e 90 bb 95 ba ae 3b
       0.00965486 -0.068736754 -0.0044019357 0.005332301
000140 8a 5a 1c bd ff 34 b2 3b 5a 82 d0 ba f5 05 c6 3c
       -0.038172282 0.0054384465 -0.0015907988 0.024172762
000150 ba 97 9a b9 7f 38 5c 39 42 20 1d bb 9e 81 79 ba
       -0.00029486214 0.00021001881 -0.0023975526 -0.00095179107
000160 aa 3c 66 39 05 35 f6 bb a7 1c d0 bb 41 53 07 3c
       0.00021957108 -0.0075136446 -0.006351072 0.008259595
000170 07 36 66 bd 8e 90 d1 b9 6b 19 fd 3a ad 28 ac bb
       -0.05620387 -0.00039971288 0.0019309943 -0.0052538724
000180 0d b5 18 bc 30 55 39 3c 67 a3 c4 bd fe 4b e8 bb
       -0.00932051 0.011311814 -0.09601479 -0.007089137
000190 03 19 b2 3b 40 42 79 bd 32 52 82 bb 80 f2 9e 3b
       0.0054351105 -0.060854197 -0.0039770836 0.0048506856
0001a0 8f db 0e bd 8c 13 d3 bb 44 e1 05 3c 27 ec 68 bd
       -0.034877356 -0.006441539 0.008171383 -0.056865837
0001b0 a6 08 25 b9 75 18 81 38 ac f6 65 ba 03 22 14 bc
       -0.00015738848 6.155755e-05 -0.0008772414 -0.009041312
0001c0 e8 4b 35 3c 5f 1e a2 bd 98 00 5f bb 44 63 96 3b
       0.011065461 -0.07915949 -0.0034027454 0.00458947
0001d0 b9 86 fb bc c0 6c 0b 39 b2 53 87 38 62 ec d5 b9
       -0.03070389 0.00013296586 6.452891e-05 -0.00040802645
0001e0 af d3 26 3a ba 9c 15 bb 8a 93 36 3c 06 0e 9b 39
       0.0006363941 -0.0022829012 0.0111435745 0.00029574352
0001f0 85 dc 71 bb 22 93 13 3c 83 5e 95 ba 56 65 ea 3a
       -0.0036905122 0.009007247 -0.0011395965 0.0017882984
000200 51 75 30 bc 15 03 54 ba 1c 9e 95 39 57 23 45 bc
       -0.010770158 -0.00080876175 0.00028537295 -0.012032351
000210 05 ce 45 bb f1 8e e4 3a 68 25 1b bd c2 7a 57 3a
       -0.0030182612 0.0017437619 -0.03787747 0.00082198915
000220 1b 18 ba b9 67 f0 87 3b aa 24 0d b9 dd 1a 1c 3a
       -0.00035494645 0.0041485312 -0.00013460466 0.00059549307
000230 93 f0 05 bb 97 80 3a bb 8f 1b 61 3b ca 66 ca bc
       -0.0020437583 -0.0028457993 0.0034348702 -0.024707217
000240 74 56 6e ba 2b ac 19 3c 09 c0 84 bc bc a3 1c bb
       -0.0009091862 0.009379427 -0.01620485 -0.0023901304
000250 83 a3 0a bb 64 17 0f bd 82 9b 30 ba 59 67 d2 39
       -0.002115459 -0.034934416 -0.00067370397 0.0004013132
000260 45 08 a3 bb 8d a4 43 bb 14 3c 6e 3b a6 68 d2 bc
       -0.004975351 -0.0029852719 0.0036351727 -0.025684666
000270 98 fd 07 bb 0a a7 c3 b9 c9 22 bf 39 81 37 12 bb
       -0.002075052 -0.00037317752 0.00036456276 -0.0022310915
000280 d4 3e 56 3b 7a fb b3 bc a6 2a e9 ba 26 50 27 3b
       0.0032691257 -0.0219705 -0.00177892 0.002552995
000290 14 91 83 bc d2 2e a5 bb 98 8b d2 3b 7f 04 36 bd
       -0.01606039 -0.005040982 0.0064253323 -0.04443788
0002a0 28 ce 81 ba 5e 12 b8 3b de 5c 37 bc 18 4f 99 b9
       -0.0009903358 0.005617424 -0.011191575 -0.00029241364
0002b0 d7 fe 5f 3a c7 29 65 bb ec e0 a1 ba 2a dc c4 3a
       0.0008544749 -0.0034967528 -0.0012350357 0.0015019227
0002c0 ab f6 2e bc 5b 15 4d b9 40 48 8b 3a 01 a2 2d bb
       -0.010678927 -0.00019558279 0.001062639 -0.0026494267
0002d0 40 2d 0b bc ab 74 28 3c 22 1e 97 bd 29 e6 4b bb
       -0.008494675 0.010281722 -0.07378794 -0.0031112528
0002e0 95 31 a4 3a 86 25 b4 bc 9d 7f 57 bb c6 2c 8a 3b
       0.0012526984 -0.021990549 -0.003288246 0.004216763
0002f0 9f 4f ed bc 5e 85 81 bb c0 96 b1 3b 04 b3 10 bd
       -0.02896863 -0.003952666 0.005419582 -0.035326973
000300 1f b6 39 b9 dd a7 96 38 b3 38 7d ba 03 f0 7c bb
       -0.0001771082 7.183824e-05 -0.0009659633 -0.0038595207
000310 1e a3 ae 3b 8d 02 10 bd a9 ea 3b 3b 6c 8c 90 ba
       0.0053295037 -0.035158683 0.0028673804 -0.0011028177
000320 e0 2b 66 3c 61 a7 df ba 70 72 6c b9 ec 37 34 bc
       0.014048547 -0.0017063433 -0.00022549345 -0.010999661
000330 c1 c8 e5 bb af f7 0d 3c 7b 9d 91 bd ac 85 b3 b9
       -0.007012457 0.008665009 -0.07110115 -0.00034241134
000340 47 12 19 3a dd 17 47 bb ff 7c 44 bb 30 aa 82 3b
       0.00058392104 -0.0030379214 -0.002998173 0.003987573
000350 91 69 db bc 02 b9 36 b9 db 52 ac 38 a4 34 87 ba
       -0.026783736 -0.00017425793 8.217032e-05 -0.0010315371
000360 fb 04 ae ba 22 c3 10 39 28 08 15 bc a0 da d5 39
       -0.0013276631 0.00013805603 -0.009096183 0.00040789414
000370 bc db 97 3a 29 e9 6a b9 5a 77 a8 ba be ec 6a 3c
       0.0011585872 -0.00022402838 -0.0012852952 0.01433867
000380 06 e6 cc bc 3c 6a 5b bc 8b ac 70 3c aa 01 d2 bd
       -0.025012027 -0.0133920275 0.014689575 -0.10254224
000390 10 93 b2 b8 41 82 a8 39 e9 c7 ba ba 0b 44 2b bb
       -8.515094e-05 0.00032140504 -0.0014250252 -0.0026133086
0003a0 1c a3 26 38 e0 e5 85 bc 8a 14 3c b9 67 6c d8 bb
       3.972939e-05 -0.016344965 -0.00017936729 -0.0066047194
0003b0 17 7d 4c 3c 89 7e 09 ba 53 9d 22 3c 57 ac a7 bc
       0.012480996 -0.00052449905 0.009925204 -0.02046792
0003c0 8d 98 12 bb eb 56 54 3b 55 46 a9 bc cc 36 eb bb
       -0.002236876 0.003240044 -0.02066342 -0.007178163
0003d0 fd 0d 0f 3c 2f d4 7f bd c5 64 e5 3a 5e db 80 39
       0.008731362 -0.062458213 0.0017501345 0.00024577504
0003e0 fe 57 79 3c 15 da b9 b8 2a ba f7 39 f3 d3 bf ba
       0.015218733 -8.8621084e-05 0.00047250214 -0.0014635309
0003f0 e0 f5 8c b9 09 c5 28 39 cf 4a 05 bb 04 51 aa ba
       -0.00026886072 0.0001609513 -0.002033878 -0.0012994115

exp_avg_sq f4 [128, 3]
000000 42 52 88 39 d1 ef f3 39 ba 0a 96 3a af 75 8b 37
       0.00026001228 0.0004652725 0.0011447289 1.6624892e-05
000010 dd 77 c3 37 65 db 4b 39 92 15 43 38 d4 82 ac 38
       2.3301627e-05 0.0001944132 4.6511712e-05 8.225968e-05
000020 6b f7 6e 3a 2e e3 65 3a 91 b8 c8 3a 01 ff 90 3c
       0.00091158476 0.0008769509 0.0015313794 0.01769972
000030 b4 80 dc 37 bd 81 45 38 21 05 04 3a ac 34 e8 38
       2.6285976e-05 4.708929e-05 0.00050361647 0.00011072433
000040 b3 e8 4f 39 8a 46 15 3a 35 a5 17 38 de 32 30 38
       0.00019827746 0.000569441 3.6155066e-05 4.2009044e-05
000050 e2 64 39 3a 34 81 9b 3a da 9a 55 3a 6e c4 d9 3c
       0.00070722227 0.0011864067 0.000814838 0.026582923
000060 63 bf 3e 3a a1 64 b0 39 d5 a0 96 3c f6 e3 9a 39
       0.00072764436 0.0003364431 0.018387238 0.00029543013
000070 ea b4 9f 39 c2 95 48 3b 99 9c d1 38 d3 84 0f 39
       0.00030461635 0.003060684 9.995065e-05 0.00013687024
000080 de 9f a9 3a bf 13 c2 34 59 e2 14 35 21 b3 15 37
       0.0012941321 3.6149683e-07 5.5463676e-07 8.922799e-06
000090 11 b6 1e 39 26 d8 8c 39 fa a9 48 3b 7e cf 9f 39
       0.00015135879 0.00026863924 0.0030618892 0.00030481437
0000a0 4d 9a 0a 3a 86 72 ca 3b d0 5d cb 39 01 65 32 3a
       0.0005287275 0.006178203 0.00038789073 0.0006805212
0000b0 ea ed ff 3b 60 92 d5 38 3b 4e 00 39 e0 7a e2 3a
       0.007810344 0.00010183896 0.00012236174 0.0017279051
0000c0 4c 7f 96 3a 3e 0d 95 39 2e 2e b5 3c 78 14 83 3a
       0.0011482029 0.0002842936 0.022116747 0.0010000607
0000d0 36 02 20 3b c6 6d 2a 3d cd d0 85 39 31 53 08 3a
       0.002441538 0.041608594 0.00025523306 0.0005200385
0000e0 ad 9a 1c 3c e6 69 95 35 a3 ca c2 35 e6 2c b3 37
       0.009558362 1.1132186e-06 1.4513101e-06 2.135937e-05
0000f0 84 d5 84 39 7c b6 5e 39 34 c9 1e 3c af 5a 44 3a
       0.00025336083 0.0002123955 0.009691525 0.00074903195
000100 dd d9 9e 3a 57 12 1c 3c 95 67 40 39 3e e3 a7 39
       0.0012119372 0.009525857 0.00018349134 0.0003202203
000110 d4 82 6f 3b dc 82 be 39 c8 0b 25 3a cf e0 f2 3b
       0.0036546485 0.00036337122 0.0006296006 0.007412053
000120 5d 07 6a 39 ec 49 ab 39 db aa 1c 3b e3 3c 58 3a
       0.00022318722 0.00032670738 0.0023905549 0.0008248819
000130 ce 69 bd 3a df 4d 88 3c ad 5a 86 39 84 ab ea 39
       0.0014451088 0.016638694 0.0002562603 0.00044759747
000140 f4 79 a9 3b 66 49 31 3a 58 13 56 3a 70 b2 cb 3b
       0.0051720086 0.00067629514 0.00081663346 0.0062163398
000150 9d 69 17 37 3f b0 08 37 c0 ed d1 38 b3 5c 9d 38
       9.024891e-06 8.147267e-06 0.00010010181 7.50361e-05
000160 bf 07 71 38 11 83 77 3a e7 50 13 3a 37 65 80 3a
       5.746609e-05 0.00094418327 0.00056196604 0.0009795789
000170 aa 0e 3a 3c cc 49 b6 38 97 71 c3 38 70 8f 88 3a
       0.011356035 8.692182e-05 9.319482e-05 0.0010418724
000180 75 2f ec 3a 91 58 68 3a 11 01 0b 3d 05 a8 74 3a
       0.0018019514 0.0008863295 0.033936564 0.0009332898
000190 7e 82 a8 39 da b2 8e 3c 0b bb 60 39 d1 f6 c6 39
       0.0003214068 0.017419267 0.00021431984 0.00037949395
0001a0 2d e0 8c 3b 5c df 15 3a 9d 62 81 3a 28 00 3e 3c
       0.004299185 0.0005717182 0.0009871308 0.011596717
0001b0 8d a3 d9 35 78 ef 86 35 fe 1f 4a 38 15 c5 8d 3a
       1.621536e-06 1.0053473e-06 4.8190348e-05 0.0010816181
0001c0 78 00 f7 3a ff 70 b3 3c b4 8d 33 39 47 39 9e 39
       0.0018844744 0.021904467 0.00017123559 0.00030178783
0001d0 59 d2 5d 3b 00 68 d3 35 9d 15 ca 34 a3 c1 13 38
       0.00338473 1.5750993e-06 3.7641158e-07 3.522787e-05
0001e0 99 25 9a 38 b0 41 d8 38 48 8e 37 3a 10 15 4b 38
       7.350295e-05 0.00010311918 0.00070020976 4.8418588e-05
0001f0 67 5f b2 38 10 49 d9 39 f6 7c be 37 7c ca f6 37
       8.5054715e-05 0.000414439 2.2707954e-05 2.9419774e-05
000200 f4 29 f2 39 f0 aa 67 38 17 0f 46 39 1a 99 45 3b
       0.00046189094 5.523389e-05 0.00018888373 0.003015107
000210 08 b3 a2 39 30 31 1f 3b 3e 97 d8 3c 9e 9e f5 37
       0.00031032437 0.0024290793 0.026439305 2.9280138e-05
000220 25 c7 b7 37 82 97 ad 39 97 4d bb 35 53 c7 04 36
       2.1908034e-05 0.00033110013 1.3955167e-06 1.9785555e-06
000230 10 bb a0 37 5b a3 d5 38 37 de 3c 39 b3 0b 06 3b
       1.9160594e-05 0.00010187059 0.00018011859 0.002045375
000240 07 92 36 39 92 84 b7 39 93 73 2e 3b 41 17 35 3a
       0.00017411272 0.00035003253 0.002661918 0.0006908067
000250 b0 3a 25 3b 73 87 06 3d a0 31 af 36 a5 a9 27 37
       0.0025211982 0.03284402 5.2211835e-06 9.993474e-06
000260 fa a1 d4 38 10 0b fb 38 cf e3 5a 39 b2 4b 1d 3b
       0.00010139118 0.00011970673 0.00020874965 0.0024001417
000270 6a ed 2d 3a d3 ab 18 39 5e 02 71 3c 80 56 6e 39
       0.0006634804 0.00014559859 0.014710037 0.00022729672
000280 d8 f0 53 39 55 4c 90 3b c7 67 4c 38 ea cd b3 38
       0.0002021225 0.0044036307 4.873404e-05 8.5737396e-05
000290 ab 8a 7a 3a 02 97 b5 39 99 6e 1e 3a 39 8d e5 3b
       0.00095574063 0.0003463552 0.0006043702 0.0070053604
0002a0 2f 31 c9 38 74 f2 0f 39 61 c4 a3 3a b6 fb 91 36
       9.593588e-05 0.00013727864 0.0012494439 4.3506398e-06
0002b0 64 26 08 37 e4 44 90 38 e2 2f a6 37 81 d9 13 38
       8.11517e-06 6.879287e-05 1.981104e-05 3.5250097e-05
0002c0 8d c0 cf 39 b3 9a 32 37 a5 14 31 37 2c 9a ae 38
       0.00039625578 1.06456455e-05 1.0554829e-05 8.325683e-05
0002d0 9d b7 76 3a 82 8e d6 3a dc a8 9b 3c ec c0 b0 39
       0.0009411516 0.0016369375 0.019001417 0.00033713074
0002e0 b2 a2 05 3a a3 a3 7d 3c 6a 5a 20 39 90 2b 8d 39
       0.0005097791 0.015480909 0.00015292471 0.00026926072
0002f0 56 1a 48 3b aa a8 6b 39 e9 12 cc 39 fd 3a 94 3b
       0.0030533276 0.00022474179 0.00038924 0.0045236335
000300 eb 56 06 36 54 f3 c3 35 5d 4a 1e 38 b1 34 5f 39
       2.001815e-06 1.459945e-06 3.773939e-05 0.00021286566
000310 8d 74 c2 39 98 dd 8b 3b 91 27 b1 39 41 52 80 39
       0.000370894 0.0042683594 0.0003378955 0.00024475346
000320 85 cc 88 3b 28 3c 2e 39 e4 d4 57 39 c3 e9 fd 3a
       0.0041747713 0.00016616343 0.00020583306 0.0019372035
000330 94 ac 93 3a 03 e6 0d 3a 8f 92 b1 3c 07 56 9e 35
       0.0011266642 0.00054129976 0.02167633 1.1796955e-06
000340 b0 27 aa 35 4a c5 a6 37 bf 36 09 39 19 16 72 39
       1.2677538e-06 1.9880612e-05 0.00013085733 0.0002308715
000350 3f 64 2a 3b 9d 09 2a 36 95 68 c1 35 98 10 81 38
       0.0025999693 2.533757e-06 1.4410058e-06 6.15429e-05
000360 59 ae 97 38 ad 4a ba 38 40 02 95 3a 50 1e 34 36
       7.232716e-05 8.8830806e-05 0.0011368468 2.6839734e-06
000370 a1 f6 80 36 bb 3e c6 37 2a 89 ce 39 5f d4 45 3a
       3.8434086e-06 2.363265e-05 0.00039393577 0.00075465994
000380 ee e6 b7 3b d4 35 a9 3a 12 48 dd 3a 4b 52 27 3d
       0.0056122458 0.0012909719 0.001688244 0.040849965
000390 80 70 cc 35 a9 42 31 36 2f 71 d0 37 92 11 3d 39
       1.5231926e-06 2.6413857e-06 2.4848237e-05 0.0001803099
0003a0 28 58 6a 39 02 1f 4a 3b da 96 a4 38 7f c8 1e 39
       0.0002234882 0.0030841236 7.848228e-05 0.00015142745
0003b0 df a9 a7 39 2a 8f 3f 39 2c bc b6 39 34 aa 27 3b
       0.00031979286 0.00018268512 0.00034853944 0.0025583627
0003c0 96 5a c4 38 de ff ec 38 0e 83 f1 3a 68 88 31 3a
       9.362881e-05 0.00011301016 0.0018425898 0.000677234
0003d0 10 61 9a 3a 94 ab 60 3c 90 b6 98 39 82 d2 89 39
       0.0011778194 0.013712782 0.0002912772 0.00026287517
0003e0 54 a1 d2 3b 45 d7 15 35 5e 6f 7a 35 e1 d0 4a 37
       0.006427923 5.5820084e-07 9.329432e-07 1.2088772e-05
0003f0 57 63 a7 35 5a c7 1e 36 e7 18 cd 37 df df 47 38
       1.2471381e-06 2.3659873e-06 2.44495e-05 4.7653793e-05

exp_avg f4 [128]
000000 f6 b1 ad ba d1 13 26 ba 4f c8 4b 3b 10 ea 4e 3c
       -0.0013251889 -0.00063353503 0.0031094735 0.012629047
000010 4d 54 0b 3b b7 c9 66 ba 23 f8 11 3b 95 be 35 3c
       0.0021259964 -0.00088038616 0.0022273145 0.011092802
000020 49 70 8b ba 5e 3c 79 ba 56 39 d8 3a 3a d1 6a 39
       -0.0010638322 -0.00095075916 0.001649658 0.00022393922
000030 cf 3e ae 3b 85 d2 f8 3b 3a 4f 0b 3c 45 b5 87 3b
       0.005317546 0.0075934553 0.008502776 0.004141482
000040 58 44 89 3b 2c 76 91 3b 29 d0 d8 bb 76 21 5c b9
       0.0041890554 0.004439136 -0.0066166115 -0.000209933
000050 72 a2 a2 3b 7d 53 dd 3b cd db c3 3b cf 59 01 3c
       0.0049632126 0.0067543373 0.00597713 0.007894947
000060 f0 59 91 bb 48 a7 48 3c b8 02 df 3b fe df b7 bb
       -0.00443577 0.012246914 0.006805744 -0.0056114187
000070 fb 7c de 39 14 15 69 3a a6 3f 2a 3c 58 2a cf 3a
       0.00042436257 0.00088913855 0.0103911515 0.0015805466
000080 b5 03 4f 3c 00 52 0b 3c 61 5c c8 3b f2 82 28 3c
       0.012635161 0.008503437 0.006114528 0.010285126
000090 6a 3a 2f 39 3f 16 65 3c 8e ac b9 3b 55 fe 1b b9
       0.00016711061 0.013982355 0.005666322 -0.00014876698
0000a0 94 06 d7 ba 61 fa 5a bb e5 31 0c 3b 2f 8f 43 39
       -0.0016405159 -0.0033413398 0.0021392044 0.00018649989
0000b0 bf 01 bc 3a 3b 1e 5d ba 2f 9b 1f 3a e2 cc 8e 3b
       0.0014343782 -0.00084349856 0.0006088493 0.00435792
0000c0 a3 89 2c 3c 93 15 24 bb a3 e7 25 3a 82 aa 99 3b
       0.010530862 -0.0025037273 0.0006328767 0.0046895156
0000d0 bf 45 18 3b 4b 60 61 3b 5c 3c 50 3b cd c7 04 3c
       0.0023234931 0.003438967 0.0031774258 0.008104277
0000e0 7a 4a d3 3b cc 1f 79 3a cb e5 f9 3a 98 fc 91 3a
       0.0064480873 0.00095033343 0.0019065676 0.0011137901
0000f0 3e 70 56 3c c2 64 1c 3b 41 25 ae 3b 55 02 df 3b
       0.013088284 0.0023863767 0.0053144996 0.006805698
000100 db 07 43 39 7e a9 d6 3b 1d ae 3d bb 12 05 a4 3a
       0.00018599576 0.0065509668 -0.002894289 0.0012513718
000110 5c 47 1e 3c 25 e4 3b 3a 65 28 a3 3b 10 e1 3e 39
       0.009660568 0.000716748 0.0049791806 0.00018203654
000120 48 bb a5 3a 4c 63 58 3a 99 c0 82 3c 3b c3 92 3c
       0.0012644315 0.00082545425 0.015960978 0.017915359
000130 1f 9a c0 39 82 b3 2c 3b eb 55 ca bb bb 01 33 3c
       0.00036735923 0.0026352112 -0.006174793 0.010925706
000140 4f 97 80 3b b0 a2 35 3c f7 e8 43 ba 44 54 fe 39
       0.0039242874 0.011086151 -0.0007473374 0.00048509438
000150 5b cd 7f 39 b5 02 ed 3a 4a 28 a4 3a 9f f0 0e 3c
       0.00024395196 0.0018082472 0.0012524214 0.008724361
000160 59 d4 0b 3c a7 1a 27 ba ff dc 8d 3a d5 ed a3 3b
       0.008534514 -0.0006374516 0.0010823308 0.005002717
000170 31 7f 1f bb b4 ee 22 3c 2b 93 84 b8 90 78 11 3c
       -0.0024337287 0.009944607 -6.321663e-05 0.008878842
000180 60 7f ce 3b 74 71 6b 3c 50 bc 58 bc b6 f5 b5 3b
       0.0063018054 0.014370311 -0.013228491 0.0055529727
000190 e1 71 74 bc d5 dc 7e 3b 33 40 52 b9 ab 23 5d 3b
       -0.014919729 0.003888895 -0.00020051077 0.0033743184
0001a0 5e cd c3 3b 8e e9 3d 3b 37 d8 f7 3a 98 d3 95 3b
       0.0059754094 0.002897832 0.0018909042 0.004572343
0001b0 c2 03 9c bb 57 5c 28 bb fc b0 a3 3b d2 2b 27 b9
       -0.00476119 -0.0025689804 0.0049954634 -0.00015942685
0001c0 10 05 5b 3b 92 ab 88 3b 14 e5 64 3c b9 e8 b7 b7
       0.0033419766 0.0041708434 0.013970632 -2.192367e-05
0001d0 66 58 04 3c fc e2 46 39 0f e6 9c 3b bc 48 3d 3c
       0.008077716 0.0001896731 0.0047881673 0.011552986
0001e0 97 59 5b b9 ef be e2 b9 08 8a 3e 3b 91 cd f3 ba
       -0.00020918842 -0.00043248336 0.0029073972 -0.0018600692
0001f0 50 e4 20 b8 d6 c0 39 3a 73 4e 73 bb 74 6a 35 3a
       -3.8359605e-05 0.0007085925 -0.0037125617 0.0006920465

exp_avg_sq f4 [128]
000000 4b a9 28 3a 9f be ea 37 76 d5 74 36 cc 25 36 38
       0.0006433918 2.7983739e-05 3.6483084e-06 4.3427382e-05
000010 fb 80 e9 35 af 6b 8e 39 a6 5f 35 38 f8 8b bc 3a
       1.7397391e-06 0.0002716458 4.3242842e-05 0.0014384976
000020 c3 31 63 3a 3b 50 09 3a 38 d4 28 39 b1 bc f7 34
       0.0008666778 0.00052380905 0.00016100786 4.6144626e-07
000030 76 22 07 37 45 e9 86 37 c4 52 a7 37 3e 93 d4 38
       8.054651e-06 1.608267e-05 1.9946492e-05 0.00010136374
000040 51 aa 98 3a c9 0b 19 3b 42 a6 1b 3a c9 8a 10 35
       0.0011647438 0.0023352972 0.0005937555 5.384614e-07
000050 c4 06 49 39 06 b4 be 3a ad c5 36 37 f2 e0 95 37
       0.00019171374 0.0014549501 1.089407e-05 1.7866932e-05
000060 a9 9d a5 39 f3 00 2e 38 03 5b 56 37 fb 4e 79 3a
       0.00031588718 4.1485717e-05 1.2776584e-05 0.0009510365
000070 ac ce 7a 37 48 07 de 38 1d 0c 01 38 9a 7b 09 39
       1.4949281e-05 0.00010587141 3.0767278e-05 0.00013111383
000080 28 9e d4 3a 1f 9e 50 3a 40 04 31 37 bf 96 f6 37
       0.0016221451 0.0007958132 1.0551012e-05 2.9395682e-05
000090 bb 6d 09 36 51 e6 5e 38 7a b2 20 37 7f 75 f9 35
       2.0478462e-06 5.3143423e-05 9.578298e-06 1.8586142e-06
0000a0 1d 80 0f 39 b9 93 d2 38 ca 9d 8e 37 0e ba 49 39
       0.00013685269 0.00010041096 1.7001195e-05 0.00019238165
0000b0 81 be 0d 3b 2b ef 17 38 a0 3f 17 36 8c 8e b4 36
       0.0021628442 3.6223948e-05 2.2537788e-06 5.3810127e-06
0000c0 6c 71 c6 39 6b d8 27 3b c6 cd 30 35 ef 37 d6 36
       0.0003785001 0.0025611173 6.586455e-07 6.3842085e-06
0000d0 df 1e 3e 3a 7c 84 5d 39 62 d2 56 36 d3 ff 97 37
       0.0007252525 0.00021125557 3.2010944e-06 1.811973e-05
0000e0 e7 61 36 39 a0 d4 8c 35 34 12 a0 35 18 b4 8f 37
       0.00017393344 1.0492695e-06 1.1926227e-06 1.7130791e-05
0000f0 c5 24 42 38 9f 82 10 3a df b1 05 37 25 74 69 37
       4.628745e-05 0.0005512628 7.968832e-06 1.3914924e-05
000100 fa 73 1a 36 d1 60 4b 37 b0 b5 d5 39 93 11 a1 39
       2.3015295e-06 1.2122285e-05 0.00040761894 0.00030721407
000110 9b 4c 93 3a 33 9c f9 35 63 ce f3 36 d6 07 50 36
       0.001123804 1.8597406e-06 7.265991e-06 3.0998976e-06
000120 1f 5d ff 38 1d 8c ac 36 d1 ac 5c 3a 99 d5 06 3b
       0.00012176693 5.142311e-06 0.00084180856 0.0020574091
000130 12 7f 77 36 8a c7 92 39 c9 2e 44 39 10 4f bb 39
       3.6879833e-06 0.00027995958 0.00018709445 0.00035726326
000140 39 42 f1 38 64 e5 0a 38 13 fe ee 39 ed 35 19 35
       0.000115041104 3.31154e-05 0.00045584198 5.7075414e-07
000150 7b 40 e4 34 05 a7 cb 38 35 9e 8f 39 fa 32 a1 39
       4.2515225e-07 9.710904e-05 0.0002739296 0.00030746293
000160 bd f8 ff 39 0f ed c1 39 bf 7c 20 38 30 c0 e2 36
       0.00048822715 0.0003698845 3.826315e-05 6.7576984e-06
000170 5f 96 05 3a 5c a8 e0 37 e3 15 91 35 2b f3 81 3a
       0.00050959544 2.678128e-05 1.0809712e-06 0.0009914389
000180 17 f9 87 3a b3 ca 6a 38 8e 9e 77 3a 60 1e 1a 37
       0.0010373917 5.5978726e-05 0.0009445929 9.1861875e-06
000190 d4 eb 56 3b 0b cd 9c 36 12 34 53 37 98 89 85 38
       0.0032794373 4.6730324e-06 1.2588704e-05 6.367563e-05
0001a0 49 15 2a 37 2c 96 4f 38 99 ef 43 39 6c f4 dc 36
       1.0137745e-05 4.9492504e-05 0.00018685906 6.5849654e-06
0001b0 ca d5 15 3a e2 e7 a0 3a 99 87 7d 38 10 3b 3e 36
       0.0005715756 0.0012276138 6.0446186e-05 2.8346585e-06
0001c0 4f 0d 90 36 5c 4b e2 39 85 0c 5c 38 31 9b 9a 36
       4.2930837e-06 0.00043162226 5.2463747e-05 4.6076243e-06
0001d0 1f b3 9c 37 76 6a 09 35 d8 85 d2 36 5b e6 1b 38
       1.8680059e-05 5.11914e-07 6.274069e-06 3.7169415e-05
0001e0 c3 c0 0e 36 82 f8 0b 38 a1 9b 03 3a 4f d2 b0 3a
       2.127185e-06 3.3371623e-05 0.0005020444 0.0013490411
0001f0 d8 a2 16 35 ac 2a 02 39 ec ff ca 38 89 3a 5a 39
       5.6116323e-07 0.00012413663 9.67978e-05 0.00020811906
