week 6/checkpoints/actor_critic_pendulum_seed2.pth (torch, 278719 bytes, 18 tensors)

shared.0.weight f4 [128, 3]
0	0x3e395d5c	0.1810202
1	0xbee71b69	-0.451381
2	0xbdb3ed88	-0.0878554
3	0xbda65d5a	-0.08123274
4	0xbe42ddab	-0.19029872
5	0x3d782d8e	0.06059032
6	0x3efbdfbe	0.4919414
7	0x3db8ad2a	0.090174034
8	0xbc1d366f	-0.0095954975
9	0x3b00114e	0.0019541564
10	0x3e510fc9	0.20416178
11	0xbd097125	-0.03355517
12	0xbd6894c8	-0.056782514
13	0xbe8f2dc7	-0.27964613
14	0x3d2bb8f9	0.04192445
15	0xbe917761	-0.2841139
16	0x3eb459fe	0.3522491
17	0x3e0d0b16	0.1377376
18	0x3ead60d5	0.3386294
19	0xbd822d46	-0.063562915
20	0xbae968bf	-0.0017807706
21	0xbea6336c	-0.32461107
22	0x3e8fb17d	0.280651
23	0x3e221e18	0.15831792
24	0x3d2e6f8f	0.04258686
25	0x3b83d47b	0.0040231324
26	0x3c74f4d4	0.01495095
27	0xbe8156a5	-0.25261417
28	0xbe4c3439	-0.19941796
29	0xbdc33946	-0.095324084
30	0xbe98755f	-0.29777047
31	0xbeb9bc16	-0.3627631
32	0x3ce0f8c6	0.027462374
33	0xbe1a67f0	-0.15078712
34	0xbe6d2735	-0.23159488
35	0x3d8ed9f4	0.06975165
36	0xbe0ccaab	-0.13749187
37	0x3efaf71d	0.49016657
38	0x3e18a6cf	0.14907382
39	0xbe747fd5	-0.23876889
40	0x3f0569df	0.5211467
41	0x3bfc15e7	0.0076930407
42	0x3cfb7988	0.030697599
43	0xbe93c9f4	-0.28865016
44	0x3de1cd4d	0.11025486
45	0xbeb33e23	-0.35008344
46	0xbe63b315	-0.22236283
47	0x3db18908	0.08668715
48	0xbe20682a	-0.15664735
49	0xbe67d62d	-0.22640295
50	0xbd964d66	-0.07338981
51	0x3e2435b0	0.16036105
52	0xbd05a501	-0.032628063
53	0x3e0b25fa	0.13588706
54	0xbc5cea31	-0.01348357
55	0x3ddc9c6c	0.107720226
56	0xbcd3f835	-0.02587519
57	0xbe11d7dc	-0.142425
58	0xbe7dc82e	-0.24783394
59	0xbdb026d8	-0.08601159
60	0xbe0c87d0	-0.13723683
61	0xbe8e3e1c	-0.2778176
62	0x3cdcb0e5	0.026939819
63	0xbd8fdcbd	-0.07024524
64	0xbed3b1d2	-0.41346604
65	0xbd4eb203	-0.050462734
66	0x3e8bea36	0.27327126
67	0x3d6ad3f2	0.057331033
68	0xbbea570a	-0.007151489
69	0x3d6e83b9	0.05823109
70	0xbeb11dd8	-0.3459308
71	0x3dc3df94	0.095641285
72	0x3d383a31	0.04497737
73	0xbcc275a7	-0.023737742
74	0x3c0d9764	0.008642051
75	0x3d03dfdd	0.032195915
76	0x3ef17643	0.4716054
77	0xbcb57ed7	-0.022155209
78	0xbe1bf5e7	-0.15230523
79	0x3e25baac	0.16184491
80	0x3daa7286	0.08322625
81	0xbdf420e0	-0.11920333
82	0x3eb18bcc	0.3467697
83	0xbb52aa6f	-0.0032145043
84	0x3c80b382	0.015710596
85	0x3d7ffb1b	0.062495332
86	0xbdf7d1b5	-0.12100545
87	0x3d6769a5	0.056497235
88	0xbe971d9a	-0.29514772
89	0xbcce6cef	-0.025198428
90	0x3e105e06	0.14098367
91	0xbf26e586	-0.65193975
92	0xbdafac29	-0.08577759
93	0x3d49e819	0.04929361
94	0xbe3427ee	-0.17593357
95	0xbd29a4e5	-0.04141702
96	0x3c9f7a0c	0.019467376
97	0x3d22d639	0.03975508
98	0x3c9ba1bb	0.018998018
99	0x3d4ea2d5	0.050448257
100	0x3eb64d3f	0.3560581
101	0xbd12c6da	-0.03583417
102	0x3e633b64	0.22190624
103	0xbe0cbc30	-0.13743663
104	0xbe0d1264	-0.13776547
105	0x3e5d35c7	0.21602546
106	0x3ea79e2d	0.32737866
107	0xbc170c65	-0.009219264
108	0x3e282938	0.16421974
109	0x3e8ddc04	0.2770692
110	0x3b65ffa4	0.0035095
111	0xbc95277b	-0.018207302
112	0xbefce404	-0.49392712
113	0xbc1bae34	-0.0095019825
114	0x3ea5abc2	0.32357603
115	0xbe829e6f	-0.255115
116	0x3b780b33	0.0037848472
117	0xbe64cb45	-0.22343166
118	0x3e954499	0.29153898
119	0xbd9b474e	-0.0758196
120	0x3eaa717f	0.33289716
121	0xbe8c3f94	-0.27392256
122	0xbc0ae900	-0.008478403
123	0x3da2e6d5	0.07954184
124	0xbdae2099	-0.08502311
125	0xbe3a7dd0	-0.18212056
126	0x3d86e222	0.065861
127	0xbeabf416	-0.3358466
128	0x3e281b4a	0.1641666
129	0xbee7fb16	-0.4530875
130	0xbe63481f	-0.22195481
131	0x3db8071b	0.0898573
132	0xbe05ca88	-0.13065541
133	0xbe25e9a9	-0.16202416
134	0xbd6b4605	-0.057439823
135	0xbe86629f	-0.26247117
136	0xbe180a66	-0.14847717
137	0xbdd58eaa	-0.10427602
138	0x3eded0fd	0.4351882
139	0xbe4897ca	-0.19589153
140	0x3dab38ba	0.08360429
141	0xbe2aa0c4	-0.1666289
142	0xbf137be9	-0.57610947
143	0xbc5d22b0	-0.01349704
144	0x3cf2c93c	0.029636972
145	0xbcb03fa6	-0.021514725
146	0xbe0ecaa4	-0.13944489
147	0x3d1ede29	0.038786087
148	0x3dbb071e	0.09132217
149	0x3afb75c0	0.0019184873
150	0xbe71306b	-0.23553626
151	0xbe8014e1	-0.2501593
152	0xbd847ebd	-0.06469486
153	0xbdf5f1ea	-0.12009032
154	0x3eae39a0	0.3402834
155	0xbd723468	-0.05913201
156	0xbe971562	-0.295085
157	0x3e73cf84	0.2380963
158	0xbcf62448	-0.030046597
159	0x3e6bcbd5	0.23026974
160	0x3d252b03	0.040324222
161	0x3e326c9e	0.17424247
162	0x3e570766	0.20998916
163	0x3ddbbfc1	0.107299335
164	0x3e061793	0.1309493
165	0xbdf21d98	-0.11822051
166	0xbea777b5	-0.32708517
167	0x3bd54c80	0.0065093637
168	0x3e7f6e59	0.24944438
169	0x3df10295	0.117680706
170	0x3b121aad	0.0022293732
171	0x3c888cc8	0.016668692
172	0x3ddbe1f8	0.107364595
173	0xbe0e1d9e	-0.13878486
174	0xbdbdfd72	-0.092768565
175	0xbe9e1a49	-0.3087943
176	0xbd510a6c	-0.05103533
177	0x3decd443	0.11563923
178	0x3d610e9b	0.05494557
179	0xbe8125a1	-0.2522402
180	0xbda32ca9	-0.079675026
181	0x3e97e8cb	0.29669794
182	0x3ddba043	0.10723927
183	0xbe82a1d9	-0.25514105
184	0xbe86c9a1	-0.26325706
185	0x3dbcbeec	0.09216103
186	0xbdcfdb81	-0.10149289
187	0xbec41037	-0.3829362
188	0x3d58e4cc	0.052952573
189	0xbeac9ee5	-0.33714977
190	0x3e30856e	0.172384
191	0x3ba17a8e	0.0049279397
192	0x3f0c40f5	0.54786617
193	0xbe2eb263	-0.17060237
194	0x3d6fc085	0.05853321
195	0xbddcd29e	-0.107823595
196	0xbedba2cd	-0.42897645
197	0x3d60fd9c	0.05492936
198	0x3e559e2c	0.20861119
199	0xbe8b9550	-0.27262354
200	0xbdd92b24	-0.106039315
201	0x3e964d4b	0.29355845
202	0x3e5e56ec	0.21712846
203	0xbc39fee0	-0.011352271
204	0xbe7815fb	-0.24227135
205	0xbc9317eb	-0.01795574
206	0x3d1be0dd	0.038056243
207	0xbd9e0232	-0.077152625
208	0x3d456691	0.048193518
209	0xbd13e912	-0.036110945
210	0x3f2ff461	0.6873227
211	0x3cb0f66c	0.021601878
212	0x3c0ee4b9	0.008721524
213	0x3dd8a5f5	0.10578529
214	0xbef3bbc7	-0.476042
215	0xbd09fdac	-0.033689186
216	0xbeb50954	-0.3535868
217	0x3ce33419	0.027734803
218	0xbc14e146	-0.0090869125
219	0x3edd2477	0.43191883
220	0xbe20fdfb	-0.15721886
221	0x3d2ad65f	0.041708346
222	0x3e873cf5	0.26413694
223	0x3e904742	0.28179365
224	0xbbd17a73	-0.006392771
225	0xbd9643dc	-0.07337162
226	0x3ed5014c	0.41602552
227	0xbcac6da5	-0.021048376
228	0x3e8e2b08	0.27767205
229	0xbedf96b1	-0.43669656
230	0xbe0e4e0f	-0.13896964
231	0xbe84de88	-0.25951028
232	0xbd248312	-0.04016406
233	0x3dd5d5e4	0.10441187
234	0x3dbfa735	0.09358064
235	0x3d26e29b	0.04074345
236	0xbcb6b683	-0.022303825
237	0xbdd12e1e	-0.10213874
238	0xbd77986c	-0.060448095
239	0xbd164ccf	-0.036694344
240	0xbdec79d0	-0.115466714
241	0x3e325bfd	0.17417903
242	0x3cf703d5	0.030153194
243	0xbe9a55cd	-0.30143586
244	0xbe78d0f4	-0.2429846
245	0xbdec1cf8	-0.11528963
246	0xbe661757	-0.22469841
247	0xbe6abebc	-0.22924322
248	0x3dac8e1c	0.08425543
249	0xbed3ec7d	-0.41391364
250	0xbbe7293e	-0.007054477
251	0x3c2d71ab	0.010586183
252	0xbe2e7b8e	-0.1703932
253	0xbe93dc03	-0.28878793
254	0x3da46dfd	0.08028791
255	0x3e69518b	0.22785012

shared.0.bias f4 [128]
0	0x3da035ca	0.078227594
1	0x3eb30d7e	0.3497123
2	0x3ec891a8	0.39173627
3	0x3f0d2c8d	0.55146104
4	0x3e06d96e	0.1316888
5	0x3e1a47d2	0.1506646
6	0x3e686c24	0.22697502
7	0x3e76c4bc	0.24098486
8	0x3e6f45c4	0.23366457
9	0x3e95fa00	0.29292297
10	0x3e715716	0.23568377
11	0x3ed9daec	0.42549837
12	0xbca9479f	-0.020664034
13	0x3e613992	0.21994618
14	0x3da8daeb	0.0824488
15	0x3f151fea	0.5825182
16	0x3e58c308	0.21168149
17	0x3d9433d6	0.072364494
18	0x3f362d48	0.71162844
19	0x3e58ed72	0.21184328
20	0x3d3ff0df	0.046860572
21	0x3e5d8979	0.21634473
22	0x3e838c29	0.2569287
23	0x3d57f4dc	0.05272375
24	0x3e22ff3a	0.15917674
25	0x3e47c9d9	0.19510593
26	0x3def90c2	0.11697532
27	0xbcbfeb57	-0.023427648
28	0x3dc57678	0.09641737
29	0x3d63dcb8	0.055630416
30	0x3e1526cd	0.14565583
31	0x3f1abdd5	0.6044591
32	0x3e8ee75a	0.27910882
33	0x3e602dfb	0.2189254
34	0xbd008fee	-0.031387262
35	0x3e07f88d	0.13278408
36	0x3e483f7c	0.19555467
37	0x3e87d130	0.26526785
38	0x3e23b70e	0.15987799
39	0x3ef06694	0.4695326
40	0x3e85d2ea	0.26137477
41	0x3c8dde62	0.017317954
42	0xbc144030	-0.009048507
43	0x3f307929	0.68934876
44	0x3e3048ec	0.17215317
45	0x3e878405	0.2646791
46	0x3d629450	0.055317223
47	0x3dbe392f	0.09288251
48	0x3e3085d9	0.17238559
49	0xbdd5fcb2	-0.104485884
50	0x3e8fce37	0.28087017
51	0x3edf7244	0.43641865
52	0x3fa1d49c	1.2643008
53	0xbca9c4f9	-0.020723807
54	0xbb54cdec	-0.0032471372
55	0xbc5f3cc7	-0.01362533
56	0x3d40974f	0.0470193
57	0x3d913be2	0.070915
58	0x3e4521dc	0.19251198
59	0x3d68ea4a	0.05686406
60	0x3d0d215a	0.034455635
61	0x3f0f247e	0.5591506
62	0x3e7f2c29	0.2491919
63	0x3f986769	1.1906558
64	0x3d88dff3	0.0668334
65	0x3e60d12b	0.21954791
66	0xbdde8108	-0.108644545
67	0x3e8cd2db	0.2750462
68	0x3f1382da	0.5762154
69	0x3f9b7c94	1.2147393
70	0x3e5c2481	0.214983
71	0x3dfce897	0.123490505
72	0x3f8582e9	1.0430576
73	0x3e41e87a	0.18936339
74	0x3e1ba257	0.15198646
75	0x3ec12af9	0.37728098
76	0xbcbc28d8	-0.022968695
77	0x3e99ba0a	0.3002475
78	0x3f10136c	0.56279635
79	0x3f1304d9	0.5742927
80	0x3f86c954	1.053019
81	0x3e9923c7	0.29910108
82	0x3edeee9f	0.43541428
83	0x3f92252b	1.1417593
84	0x3f0435d6	0.5164465
85	0x3e511b61	0.204206
86	0x3e453571	0.19258668
87	0x3e96323f	0.2933521
88	0x3d5dc59b	0.05414353
89	0x3efc1284	0.49232876
90	0x3eef6562	0.46757036
91	0x3f08a5cb	0.5337798
92	0x3e54c2be	0.20777413
93	0x3f0d8c2d	0.55292016
94	0x3e105e76	0.14098534
95	0x3f7c60f4	0.9858544
96	0x3db3540d	0.08756266
97	0x3e305ada	0.17222157
98	0xbc3bee0f	-0.011470332
99	0x3eb357cb	0.35027918
100	0x3e5c1c38	0.2149514
101	0x3f374ca5	0.71601325
102	0x3f37dbab	0.7181956
103	0x3dd191c4	0.10232881
104	0x3e5c00e9	0.21484722
105	0x3e5c5666	0.21517333
106	0x3e04f307	0.12983333
107	0x3dcfa02f	0.101379745
108	0x3fa3a70a	1.2785351
109	0x3fa9f84e	1.3278902
110	0xbe090c9e	-0.1338372
111	0x3d028ce1	0.031872634
112	0xbdae857b	-0.08521553
113	0x3f068952	0.52553284
114	0x3f5d7cac	0.8651836
115	0x3e690f2c	0.22759694
116	0x3e068bb7	0.13139234
117	0x3d8a7b86	0.067618415
118	0x3dd7766b	0.10520633
119	0x3e62560f	0.22103141
120	0x3eb9c851	0.36285642
121	0x3c8652c1	0.016396882
122	0xbe30ba8e	-0.17258665
123	0x3e9d5441	0.30728343
124	0xbd7a7db3	-0.061155032
125	0x3f5f6ac9	0.87272316
126	0x3e9e09e8	0.30866933
127	0xbca15c92	-0.019697461

shared.2.weight f4 [128, 128]
0	0xbe36e2ca	-0.1785995
1	0x3dc55d66	0.09636955
2	0x3d9d5e6a	0.07684024
3	0x3c912951	0.017719897
4	0xbb099690	-0.0020994283
5	0xbec96ed1	-0.3934236
6	0xbe448eeb	-0.19195144
7	0xbea48604	-0.32133496
8	0x3d6ca8db	0.05777822
9	0xbe2ed3d6	-0.17072996
10	0x3e09cfc9	0.1345817
11	0xbc771f38	-0.015083127
12	0x3d9b5a4c	0.07585582
13	0x3d3a37e9	0.045463476
14	0xbd9c246b	-0.07624134
15	0xbda4f05c	-0.080536574
16	0xbdb157f1	-0.086593516
17	0xbda53d81	-0.080683716
18	0xbd9db8e3	-0.0770128
19	0xbd107a7e	-0.035273068
20	0xbd102147	-0.035187986
21	0x3da7a913	0.08186545
22	0x3e2223d6	0.15833983
23	0x3dbeaae3	0.09309938
24	0x3c617776	0.013761392
25	0xbc6290d8	-0.013828479
26	0x3d98c612	0.07459654
27	0x3e40cf41	0.18829061
28	0x3e236d4c	0.15959662
29	0x3de92c50	0.11385405
30	0x3cfeaf0f	0.031089334
31	0xbd491808	-0.049095184
32	0x3df1661e	0.117870554
33	0x3df65708	0.12028319
34	0xba4d7fe0	-0.0007839184
35	0x3daa9ce9	0.083307095
36	0xbe1f86d8	-0.15578783
37	0xbe4bcd2c	-0.19902486
38	0x3e180907	0.14847194
39	0xbd6e8706	-0.058234237
40	0x3db96223	0.09051921
41	0xbe0332a3	-0.12812285
42	0x3d9838fa	0.074327424
43	0xbd06c270	-0.032900274
44	0xbd5d0f03	-0.053969394
45	0xbd6ac698	-0.0573183
46	0x3d866e2b	0.065639816
47	0x3d45a5bd	0.048253763
48	0xbdbc9576	-0.09208195
49	0x3d84e40f	0.06488811
50	0x3d9be09a	0.07611199
51	0xbeae2dc2	-0.34019285
52	0x3cabd97d	0.02097773
53	0x3ba0c994	0.0049068425
54	0xbaa53796	-0.0012605067
55	0xbdf16ea2	-0.1178868
56	0xbd802b01	-0.06258202
57	0xbe9cb3ef	-0.30606028
58	0xbdd3772b	-0.10325464
59	0x3e158ffa	0.14605704
60	0xbd729653	-0.05922539
61	0x3e0e994a	0.13925663
62	0xbe819847	-0.2531149
63	0xbe24aa1d	-0.16080518
64	0xbded9a10	-0.11601651
65	0x3c8b83a7	0.01703055
66	0xbdeea2c5	-0.116521396
67	0xbe2ca061	-0.16858055
68	0xbc11acad	-0.008891267
69	0xbe3597e5	-0.17733724
70	0xbdba8f78	-0.09109396
71	0x3c77ded4	0.01512881
72	0xbe2de395	-0.16981347
73	0x3d16ba44	0.03679873
74	0x3e667e25	0.22509058
75	0xbc1b8d30	-0.009494111
76	0x3b5fdfa0	0.003416039
77	0x3d7148a0	0.05890715
78	0x3cc6ffc8	0.024291888
79	0x3b351226	0.0027629226
80	0x3bb100bc	0.005401699
81	0x3d93ac27	0.0721057
82	0x3d1aaa6d	0.037760187
83	0x3d14ceea	0.03633014
84	0xbe08e8a8	-0.13370001
85	0xbdaf069d	-0.08546183
86	0xbde5cab9	-0.11220307
87	0xbdc2c8d1	-0.09510959
88	0x3d69828e	0.057009272
89	0x3bf73d63	0.0075451597
90	0x3cf16dc7	0.029471291
91	0x3c1d8ea3	0.009616527
92	0x3e2f9834	0.17147905
93	0xba06edd1	-0.0005147132
94	0x3de69968	0.11259729
95	0xbd3eb45e	-0.04655873
96	0x3ce7e58e	0.028307702
97	0xbdb420bb	-0.08795305
98	0xbe40ef17	-0.18841206
99	0xbd28bce4	-0.041195765
100	0x3d95fe83	0.07323935
101	0x3e51b6ae	0.20479843
102	0x3e5130a8	0.20428717
103	0x3d7346d1	0.059393708
104	0x3dfe6c7f	0.12423038
105	0x3ce14f5a	0.027503658
106	0xbe7edf15	-0.24889787
107	0xbe36de8c	-0.17858332
108	0xbe45ee42	-0.1932917
109	0xbde369ce	-0.11104165
110	0x3c8fe2ab	0.017564138
111	0xbdb69c8e	-0.08916579
112	0x3e562636	0.20913014
113	0x3de9f14b	0.11422976
114	0x3dd2f337	0.10300296
115	0xbe9f3398	-0.3109405
116	0x3e0aa84b	0.13540761
117	0x3dc1d78c	0.094649404
118	0x3e094819	0.1340641
119	0xbd89c62f	-0.06727254
120	0xbdc2f00a	-0.0951844
121	0x3de66d2b	0.11251291
122	0xbceacadf	-0.02866119
123	0x3d009394	0.03139074
124	0x3df6ed92	0.12057032
125	0xbdd721e2	-0.105045095
126	0x3d1913f1	0.037372533
127	0xbe261278	-0.16217983
128	0x3ed3f2d8	0.41396213
129	0x3e9b417a	0.30323392
130	0x3f062280	0.5239639
131	0x3e0c95a5	0.1372896
132	0x3e24a2d5	0.1607774
133	0x3e7615c9	0.24031748
134	0x3f2abbc3	0.6669275
135	0x3f078881	0.52942663
136	0x3e1138a3	0.14181761
137	0x3e83207d	0.25610724
138	0x3e912e12	0.2835546
139	0x3ea27f40	0.3173771
140	0x3de0f41b	0.109840594
141	0x3ec133d3	0.3773485
142	0xbe5cbcb1	-0.21556355
143	0x3dccff25	0.100096025
144	0x3e9582af	0.29201266
145	0xbe5a1f23	-0.2130094
146	0x3e4bf7c9	0.19918741
147	0xbd462801	-0.048377994
148	0x3abb8457	0.0014306408
149	0x3e9088af	0.2822928
150	0x3f3a02ea	0.72660697
151	0xbc9a4d93	-0.018835818
152	0x3e9842ca	0.29738456
153	0x3ed927f8	0.42413306
154	0x3d02b5d2	0.03191168
155	0x3ecd3a7d	0.40083686
156	0xbcf13210	-0.029442817
157	0x3e94c067	0.2905304
158	0x3ee699d3	0.45039234
159	0x3f2a2625	0.66464454
160	0xbceb218c	-0.02870252
161	0x3d4dc985	0.050241012
162	0xbe2bb269	-0.16767277
163	0x3e8a150e	0.26969188
164	0x3e4493f4	0.19197065
165	0x3e8d5632	0.27604824
166	0x3f1206e8	0.5704179
167	0x3e09ed9f	0.13469552
168	0x3f032513	0.51228446
169	0x3ddd021c	0.10791418
170	0xbd9260c7	-0.07147365
171	0x3f17f056	0.593511
172	0x3eb159b5	0.34638754
173	0x3d8cd5ce	0.068767175
174	0x3e780a52	0.24222687
175	0x3e740f2c	0.23833913
176	0xbb09bd1b	-0.0021017257
177	0x3c767d40	0.01504451
178	0x3e3df918	0.18552053
179	0x3df2c0dc	0.11853191
180	0x3f80847d	1.0040432
181	0xbdfe0c96	-0.12404744
182	0xbe03027a	-0.12793913
183	0x3ec730dd	0.38904467
184	0x3e03786c	0.12838906
185	0xbe312092	-0.17297581
186	0x3da98f53	0.0827929
187	0xbe2911d8	-0.16510713
188	0x3dcb8bdf	0.09938788
189	0x3ea75277	0.32680103
190	0x3e7770ab	0.24164073
191	0x3f42d790	0.7611017
192	0x3f058895	0.5216153
193	0x3e804eae	0.25060028
194	0x3f0d6cfd	0.5524443
195	0x3f3ba5e0	0.7329998
196	0x3e4cb734	0.19991761
197	0x3f3d2bb3	0.73894805
198	0x3ea45387	0.32094976
199	0x3ead612c	0.338632
200	0x3f478304	0.7793429
201	0x3f036af4	0.5133507
202	0x3e928c3c	0.28622615
203	0x3e602a11	0.21891047
204	0x3e9695ce	0.29411167
205	0x3d888b8c	0.066672415
206	0x3d29a16c	0.04141371
207	0x3e1deadb	0.15421622
208	0x3f203c19	0.625917
209	0x3ebf2a15	0.37336794
210	0x3e9a2dae	0.30112976
211	0x3f1fc39c	0.6240785
212	0x3eb1404b	0.34619364
213	0x3ec0bfd7	0.37646362
214	0xbe18f30b	-0.14936464
215	0x3f0d5ce1	0.55219847
216	0x3e6aede4	0.2294231
217	0x3de745b5	0.112925924
218	0x3eb0159b	0.34391484
219	0x3eebe826	0.46075553
220	0x3d98f6c4	0.07468942
221	0x3e8f8b9b	0.28036198
222	0x3ee5a706	0.4485399
223	0x3efd7bc5	0.4950849
224	0xbe0c4ba8	-0.13700736
225	0x3ea1770d	0.3153614
226	0xbef1b7a6	-0.47210425
227	0x3e59b9e6	0.21262321
228	0xbdc3c3d2	-0.09558834
229	0x3ec07b28	0.3759396
230	0x3e9634f1	0.29337266
231	0x3e1c4481	0.15260507
232	0x3eab6bbf	0.3348064
233	0x3ee579b9	0.4481943
234	0x3ca25aa6	0.019818615
235	0x3e3428ef	0.1759374
236	0x3f5c4465	0.8604186
237	0x3f7b370e	0.9813088
238	0xbe336dd4	-0.17522365
239	0xbd82e618	-0.06391543
240	0xbe09f039	-0.13470544
241	0x3f0c7e20	0.5487995
242	0x3ef5d27f	0.48012158
243	0x3d00c9f2	0.03144259
244	0x3dc71bc6	0.09722094
245	0x3e8b3c72	0.27194554
246	0xbe73f93a	-0.23825541
247	0x3e93acc0	0.28842735
248	0x3e2c9045	0.1685191
249	0x3b494d08	0.003071608
250	0x3d6be0ff	0.05758762
251	0x3ddc852c	0.10767588
252	0xbe34b3e1	-0.17646743
253	0x3f161446	0.58624685
254	0x3f372ea8	0.71555567
255	0x3e10833e	0.14112565

shared.2.bias f4 [128]
0	0xbabedb74	-0.0014561252
1	0x3fb60b6d	1.4222237
2	0x3ea9685b	0.3308743
3	0x3d92e053	0.07171693
4	0xbdf5f5de	-0.12009786
5	0xbd5c4bf9	-0.05378339
6	0x00000000	0.0
7	0x3f96d9b3	1.1785187
8	0xbdfd8615	-0.1237909
9	0x3e9c1852	0.30487305
10	0x3f688fce	0.9084443
11	0x3fa88baf	1.3167628
12	0x3ffcf9cd	1.9763733
13	0xbcbe5db6	-0.023238044
14	0x4003cce7	2.0593812
15	0x3f0074a2	0.5017797
16	0x3ff25cf1	1.8934613
17	0xbd3ee17c	-0.046601757
18	0x3eded82e	0.43524307
19	0x3f2bd29e	0.6711825
20	0x3e12a9e6	0.14322624
21	0x3edfe462	0.4372893
22	0x3d63bfb7	0.055602755
23	0xbd1ef872	-0.038811155
24	0xbd4ad979	-0.049523804
25	0x3dd2ef8b	0.102995954
26	0x3f2f4a7d	0.68473035
27	0x3d16a0a6	0.0367743
28	0x3fce56f5	1.6120287
29	0xbdd06ee2	-0.10177399
30	0x3e458766	0.19289932
31	0x3f23621f	0.63821596
32	0xbcbed0ba	-0.023292888
33	0x3f463423	0.77423304
34	0xbc1c05e6	-0.009522891
35	0xbd04ec5b	-0.03245197
36	0x3f9e70f4	1.237822
37	0xbd6eb080	-0.058273792
38	0xbccd88e5	-0.02508969
39	0x3d4af163	0.04954661
40	0x3f60dbcb	0.8783538
41	0x3edb9529	0.42887238
42	0x3fa5c916	1.2951992
43	0x3f90d7b8	1.1315832
44	0xbc845378	-0.016153082
45	0xbbaac9f2	-0.005212062
46	0xbdb4d383	-0.08829405
47	0x3ec26e32	0.37974697
48	0xbcc9e5e0	-0.024645746
49	0x3e683526	0.22676525
50	0x3eea066d	0.45708027
51	0x3c90c0fe	0.01767015
52	0x3ed17601	0.40910342
53	0xbd181eb9	-0.037138674
54	0xbc6e10a1	-0.014530332
55	0x3e8f00c6	0.27930278
56	0xbd2a5548	-0.041585237
57	0x3fdbf175	1.7183062
58	0x3f7716bb	0.9651906
59	0x3ffb1965	1.9617125
60	0x3e9eaffa	0.30993634
61	0xbc2ea69d	-0.010659841
62	0xbce43d17	-0.027861161
63	0x3f44b651	0.7684069
64	0x3e8dc4e2	0.27689272
65	0x3e94ba4a	0.29048377
66	0x3fb6496b	1.4241155
67	0x3f166567	0.5874848
68	0x3ed52ce9	0.41635826
69	0xbd2717f9	-0.040794346
70	0x40018df3	2.024289
71	0x3e346b9f	0.17619179
72	0xbaff9cec	-0.0019501722
73	0x3f9d5ffc	1.2294917
74	0x3f52041d	0.82037526
75	0x3d800fd0	0.06253016
76	0x3f914535	1.1349245
77	0x3fbc5023	1.4711956
78	0x3f182592	0.5943233
79	0x3ebbd0b9	0.3668268
80	0x3ff2413f	1.8926162
81	0xbc89e4bc	-0.016832702
82	0x3e5336ca	0.20626369
83	0xbd0463e0	-0.03232181
84	0x3f95c311	1.1700155
85	0x3e748a7c	0.23880953
86	0xbd134a10	-0.035959303
87	0x3ede180d	0.43377724
88	0x3d5f02fe	0.054446213
89	0xbcb3affa	-0.021934498
90	0xbbaa5cec	-0.0051990654
91	0xbd4c3dd7	-0.049863663
92	0xbdd400df	-0.10351729
93	0x3f9e2ad7	1.2356824
94	0xbd8720f2	-0.06598081
95	0x3f081f52	0.5317279
96	0xbca11974	-0.019665457
97	0x3d6a0d88	0.05714181
98	0x3f81621e	1.0108068
99	0x3ed3d8a9	0.41376236
100	0x3fc14d20	1.5101662
101	0x3f0893aa	0.5335032
102	0x3eff1079	0.49817255
103	0xbce675c9	-0.028132336
104	0x3fca5451	1.5806981
105	0x3e54cbc1	0.20780851
106	0xbc8eeb40	-0.01744616
107	0x3fc9de38	1.5770941
108	0xbb9d1836	-0.004794146
109	0xbd8a46c4	-0.06751779
110	0xbcdb2d1d	-0.02675491
111	0xbd2d00ec	-0.042237207
112	0x3ec4219f	0.383069
113	0x3f25b7ca	0.64733565
114	0x3e571b7c	0.21006578
115	0x3d9d4a0a	0.076801375
116	0x3f89a1f6	1.0752552
117	0x3fb2c706	1.3966987
118	0x3fcb204a	1.5869229
119	0x00000000	0.0
120	0x3e50c494	0.20387489
121	0xbd6c05cb	-0.057622712
122	0xbceecc2f	-0.029150097
123	0xbcc888b9	-0.024479257
124	0x3fd0ef8d	1.6323105
125	0x3f95c8e6	1.1701934
126	0x3fa42421	1.2823526
127	0x3f126eba	0.57200205

actor_mean.weight f4 [1, 128]
0	0x3bf05e9e	0.007335498
1	0xbe079335	-0.13239749
2	0xbe97066f	-0.29497096
3	0xbde14616	-0.10999696
4	0x3d9b5661	0.07584835
5	0x3da701f9	0.08154673
6	0xba3e7380	-0.00072651356
7	0xbd461436	-0.04835912
8	0xbda63fb7	-0.081176214
9	0xbe080374	-0.13282567
10	0xbd382da5	-0.044965405
11	0xbdab949e	-0.08377956
12	0xbdd8cbb0	-0.10585725
13	0x3d05c873	0.032661866
14	0xbdc318ef	-0.0952624
15	0xbd884e65	-0.066555776
16	0xbdda8d25	-0.106714524
17	0x3a9956d2	0.0011698848
18	0xbe4bb9ff	-0.1989517
19	0xbdc068c5	-0.09394983
20	0x3d62a09e	0.055328958
21	0xbe6906fa	-0.22756568
22	0xbe826a04	-0.25471509
23	0x3b1c66bb	0.0023864943
24	0xbc79fc8d	-0.015257967
25	0xbd97194d	-0.073778726
26	0xbdcadda0	-0.09905553
27	0x3dcd78e7	0.10032826
28	0xbdd7e294	-0.10541263
29	0x3cceca90	0.025243074
30	0x3c902628	0.01759632
31	0xbd893e89	-0.06701381
32	0x3a46ab36	0.0007578613
33	0xbdfe8763	-0.12428167
34	0xbaa26971	-0.0012391043
35	0x3d7c8b4b	0.061656278
36	0xbd91921f	-0.071079485
37	0xbcf14afe	-0.029454704
38	0x3d5cbe2f	0.05389231
39	0xbdaac579	-0.08338446
40	0xbd0a9b9b	-0.033839803
41	0xbea370ee	-0.31922096
42	0xbdf0eafa	-0.11763568
43	0xbd6ad947	-0.057336118
44	0x3d882c6e	0.06649099
45	0x3b69a584	0.0035651634
46	0xbccec26b	-0.02523919
47	0xbe588ec3	-0.2114821
48	0x3bd03a71	0.006354623
49	0xbe8c6899	-0.27423552
50	0xbe86c6d0	-0.26323557
51	0xbe890595	-0.2676207
52	0xbe9be15b	-0.3044537
53	0x3d2e8e8c	0.042616412
54	0x3c3145e1	0.010819883
55	0xbe913c22	-0.2836619
56	0x3d1ecc0a	0.038768806
57	0xbddaedc8	-0.106898844
58	0xbe43a9c2	-0.19107726
59	0xbd95cd16	-0.07314508
60	0xbead87a4	-0.33892548
61	0x3b3282c2	0.0027238582
62	0xba03b219	-0.0005023792
63	0xbcb68dcf	-0.022284416
64	0xbeb0a437	-0.34500286
65	0x3d468e61	0.048475627
66	0xbd8d6d43	-0.06905606
67	0xbcededed	-0.029044116
68	0xbe998eaf	-0.2999167
69	0xbbdd30c3	-0.0067501976
70	0xbdd03a47	-0.101673655
71	0xbea1a66f	-0.3157229
72	0x3c793991	0.015211479
73	0xbd260844	-0.040535226
74	0xbccab40e	-0.02474406
75	0x3e002556	0.12514243
76	0xbe1e8271	-0.15479447
77	0xbd8883ca	-0.06665762
78	0xbe100b8d	-0.14066906
79	0xbd4f0d9e	-0.050550096
80	0xbd99e457	-0.075142555
81	0x3ce5c6f9	0.02804898
82	0x3dd7d88a	0.105393484
83	0x3cd8b887	0.026455177
84	0xbd8c0f75	-0.06838886
85	0xbeb70dda	-0.35752755
86	0x3d9bfc84	0.07616523
87	0xbe7afa5a	-0.24509564
88	0xbea18be1	-0.31552032
89	0xbb9dc306	-0.0048145084
90	0xbb01bb26	-0.0019795387
91	0x3c9d107e	0.019172903
92	0x3c1af043	0.009456697
93	0xbd6d1e67	-0.057890322
94	0x3b72a8e9	0.0037026948
95	0xb9f12867	-0.00045997204
96	0x3baf9c93	0.0053592413
97	0x3d301a7a	0.042994
98	0xbe4dfe63	-0.20116572
99	0xbe4cc069	-0.19995274
100	0xbde65576	-0.11246769
101	0xbe82bb81	-0.2553368
102	0xbe7deafd	-0.24796672
103	0x3a22621e	0.000619443
104	0xbd90d3bd	-0.07071636
105	0xbeac53d8	-0.33657718
106	0x3b833cba	0.004005042
107	0xbd84f948	-0.06492859
108	0x3c00ffc6	0.007873481
109	0xbd1c4023	-0.038147103
110	0x3c8863d2	0.01664916
111	0x3bead077	0.007165964
112	0x3d7b5c0a	0.061367072
113	0xbc817501	-0.015802862
114	0xbe90e85b	-0.28302273
115	0x3d057b20	0.032588124
116	0xbe2983f0	-0.16554236
117	0xbda783d2	-0.081794396
118	0xbdfd5098	-0.12368888
119	0xb74d394f	-1.2232295e-05
120	0xbeaea8b4	-0.34113085
121	0xbc8fb905	-0.017544279
122	0xbb0e2809	-0.0021691343
123	0x3bd6357d	0.006537138
124	0xbda864d1	-0.08222354
125	0xbe1a2b55	-0.15055592
126	0xbe1227ee	-0.14273044
127	0xbe007076	-0.125429

critic.weight f4 [1, 128]
0	0x3e4fc94b	0.20291631
1	0xbf3d55bb	-0.7395894
2	0xbed1e381	-0.40993884
3	0x3d47a140	0.048737764
4	0x3dc8e43f	0.098091595
5	0x3e13cc8f	0.14433502
6	0x3cb08690	0.02154854
7	0xbf325462	-0.6966001
8	0x3e24e7eb	0.16104095
9	0xbf43fa6c	-0.7655399
10	0xbf14a0bd	-0.5805777
11	0xbf2edaf6	-0.6830286
12	0xbf478868	-0.77942514
13	0x3a1cdca8	0.0005983808
14	0xbf52aa28	-0.8229089
15	0xbf2cbe2a	-0.6747767
16	0xbf55ac75	-0.83466274
17	0xbc2fa88e	-0.010721339
18	0xbec5a3aa	-0.38601428
19	0xbefe814f	-0.4970803
20	0xbec0c651	-0.37651303
21	0xbe9273a8	-0.28603864
22	0xbd8ee3e6	-0.06977062
23	0x3b8635bf	0.0040957625
24	0x3c0f33e6	0.008740401
25	0xbf153406	-0.58282506
26	0xbf1150aa	-0.5676371
27	0xbe5627f3	-0.20913677
28	0xbf2aff67	-0.66795963
29	0x3e802180	0.25025558
30	0xbe99a89c	-0.3001145
31	0xbf2586dc	-0.64658904
32	0xba323b34	-0.0006798983
33	0xbf04253c	-0.51619315
34	0x3e23f2ed	0.16010638
35	0x3e544688	0.2073003
36	0xbf425eb5	-0.7592576
37	0x3cf052a3	0.02933628
38	0x3de9fd7f	0.11425304
39	0x3d947754	0.072493225
40	0xbf194c5d	-0.59882146
41	0xbe9b669c	-0.30351722
42	0xbf3ba96e	-0.73305404
43	0xbf315c3a	-0.6928135
44	0x3e9905a6	0.29887122
45	0xbbf7476a	-0.007546355
46	0x3dfc233a	0.123114064
47	0xbea12732	-0.31475216
48	0x3cb79d9d	0.022414023
49	0xbe827e9f	-0.2548723
50	0xbe9911cc	-0.2989639
51	0x3e544b44	0.20731837
52	0xbe842379	-0.25808313
53	0x3e4562e2	0.19276002
54	0x3ca328ad	0.019916857
55	0xbef38f1b	-0.47570118
56	0x3db29282	0.087193504
57	0xbf63d669	-0.8899904
58	0xbf19e28d	-0.60111314
59	0xbf67c480	-0.9053421
60	0xbe28c805	-0.16482551
61	0xbe5919c1	-0.2120123
62	0x3dbbb738	0.091658056
63	0xbf05760f	-0.5213327
64	0xbe0f0437	-0.13966452
65	0xbebd3835	-0.36956945
66	0xbf2a8dda	-0.666227
67	0xbef02e66	-0.469104
68	0xbea004dc	-0.31253707
69	0x3ce7b2e9	0.028283553
70	0xbf6a2a5e	-0.914709
71	0xbdc95730	-0.09831083
72	0x3daecfd1	0.085357316
73	0xbf7056b4	-0.938823
74	0xbf36e058	-0.7143607
75	0xbe3ab78e	-0.18234083
76	0xbf2f1a29	-0.6839929
77	0xbf45d30c	-0.77275157
78	0xbee3078b	-0.44341692
79	0xbf468028	-0.775393
80	0xbf67b453	-0.9050953
81	0x3c9aaf7a	0.018882502
82	0xbef4dd5e	-0.4782514
83	0x3e503a12	0.20334652
84	0xbf3fa254	-0.7485707
85	0xbddefe27	-0.108883195
86	0x3dbfe618	0.09370059
87	0xbf3d80b3	-0.74024504
88	0x3e6c3586	0.23067293
89	0xbe13b605	-0.14424904
90	0xbc2e2a43	-0.010630193
91	0x3ebdd50d	0.37076607
92	0x3e3abea4	0.18236786
93	0xbf3313d0	-0.69952106
94	0x3aaec795	0.0013334627
95	0xbef627e1	-0.480773
96	0x3e5e95ed	0.2173688
97	0xbe4f8e87	-0.20269214
98	0xbf66700c	-0.9001472
99	0xbe7098f9	-0.23495854
100	0xbf3cb238	-0.7370944
101	0xbee3662b	-0.44413885
102	0xbea4f11b	-0.322152
103	0x3e0c1b47	0.1368228
104	0xbf40128b	-0.75028294
105	0xbda592b4	-0.08084622
106	0x3e2e0804	0.16995245
107	0xbf4cd5a5	-0.80013496
108	0xb9c21800	-0.00037020445
109	0x3d3373ac	0.043811485
110	0x3d8b1f1a	0.067930415
111	0x38dfb75f	0.00010667624
112	0xbede65a4	-0.4343692
113	0xbf0b420d	-0.5439766
114	0xbe6ce4b9	-0.23134126
115	0xbe9d3a4a	-0.30708534
116	0xbf2ebb73	-0.68254775
117	0xbf61cca4	-0.8820288
118	0xbf2e2e80	-0.68039703
119	0x3d84907c	0.06472871
120	0xbe4a165c	-0.19735092
121	0x3da1f413	0.079078816
122	0x3ca7fe2a	0.020506937
123	0x3e30785b	0.17233412
124	0xbf46b407	-0.7761845
125	0xbf2fbc41	-0.6864663
126	0xbf6ca52f	-0.9243955
127	0xbefa9cd5	-0.48947778

exp_avg f4 [128, 3]
0	0xbbc41d1a	-0.0059849145
1	0x3c0f9b16	0.008765003
2	0xbc3363c3	-0.010949078
3	0x3a09b01e	0.0005252379
4	0x3a443d86	0.00074859743
5	0x3c3914ef	0.011296495
6	0xbb06317a	-0.0020476268
7	0x3c685c38	0.014182143
8	0x3d3be8e1	0.045876388
9	0xbb85ec66	-0.004087019
10	0x3bc267f6	0.0059328033
11	0xbbe24ce0	-0.006906137
12	0xba088ebc	-0.00052092574
13	0x39a4c6d6	0.00031428662
14	0x3b137053	0.002249737
15	0x2bc5dad0	1.4058425e-12
16	0x2be1568e	1.6011235e-12
17	0x2b7f28e0	9.0650924e-13
18	0xbb36387e	-0.0027804668
19	0x3c763328	0.015026845
20	0x3d21e1c9	0.039521966
21	0x2c090b5d	1.9475179e-12
22	0x2c1f35ec	2.2625192e-12
23	0x2b9f4e0a	1.131929e-12
24	0x39389430	0.00017602812
25	0xb986f46c	-0.0002574058
26	0xb9561077	-0.00020414764
27	0xbb637b10	-0.0034710802
28	0x3ba48ede	0.005021914
29	0xbbdefd87	-0.006805125
30	0xbadd4dec	-0.0016884184
31	0x3a6b0340	0.0008965023
32	0x3b4af22f	0.0030967107
33	0xbb5969f7	-0.0033174732
34	0x3a2faf18	0.0006701811
35	0xbc9b02e3	-0.018922275
36	0xabef8776	-1.7019569e-12
37	0xabf37173	-1.7297677e-12
38	0x2cc551ef	5.608173e-12
39	0x3ae21a77	0.0017250319
40	0x3aaeb547	0.0013329171
41	0xbd4bbeac	-0.049742386
42	0xab60ebef	-7.990821e-13
43	0x29830c81	5.819738e-14
44	0x2a5b5286	1.9479738e-13
45	0xbb7e24fc	-0.0038779369
46	0x395868c5	0.00020638395
47	0xbce9e81a	-0.028553057
48	0xbb2e3e11	-0.0026587287
49	0x3b80f3a5	0.0039352947
50	0xbbbd9f3c	-0.0057868045
51	0xabbb43e6	-1.3305995e-12
52	0x2ac09f8c	3.421676e-13
53	0x2b717564	8.578331e-13
54	0xbb9453b9	-0.004526582
55	0x3bd60fb6	0.0065326346
56	0xbc062c0d	-0.008189213
57	0xbb0d822c	-0.002159248
58	0x3b4ae1c6	0.0030957325
59	0xbb8ed3d7	-0.0043587494
60	0x39274821	0.00015953231
61	0x39b53e62	0.0003456949
62	0x3ba12935	0.0049182423
63	0xbb347146	-0.0027533337
64	0x3b805816	0.0039167507
65	0xbbbc99bc	-0.0057556313
66	0xbc498dfb	-0.012301917
67	0x3c94bd0e	0.018156555
68	0xbcafbbcc	-0.021451853
69	0xacffbf66	-7.2687854e-12
70	0x2c0e398e	2.0211363e-12
71	0x2caf9817	4.9906845e-12
72	0x38f29252	0.000115667135
73	0xb9268a11	-0.00015882427
74	0xb9f27e43	-0.0004625191
75	0xbb8f32a5	-0.004370051
76	0x3bdec6db	0.0067986078
77	0xbc4fba6a	-0.012678722
78	0x2b57feb7	7.673683e-13
79	0x2b8d6602	1.0046965e-12
80	0x2a8581ae	2.371553e-13
81	0xbba7f8c7	-0.005126092
82	0xba58c7e9	-0.0008269535
83	0xbbb8a425	-0.005634802
84	0x3a865846	0.0010249696
85	0xbac9b135	-0.0015387895
86	0x3aa5aa3a	0.0012639232
87	0xbb9144e6	-0.004433262
88	0x3b61bc8f	0.0034444665
89	0x3b8c1b9b	0.0042757518
90	0xbb8ac4ed	-0.004234901
91	0x3bc95d24	0.0061451364
92	0xbc06f15e	-0.008236257
93	0xbb8f2e5c	-0.00436954
94	0x3bd1d47e	0.006403505
95	0xbc1287c3	-0.008943501
96	0x3931790b	0.00016925127
97	0xb983724a	-0.0002507142
98	0xb933db11	-0.00017152379
99	0xbade4129	-0.0016956675
100	0x3b1f7058	0.0024328437
101	0xbb2ce809	-0.002638342
102	0x3ab06014	0.0013456368
103	0xbaff2e99	-0.0019468843
104	0x3af13691	0.0018403103
105	0xb8f261fb	-0.000115577095
106	0x3be89930	0.0070983395
107	0x3ca6af12	0.020347152
108	0xb92291bd	-0.00015503816
109	0x3bddd4f5	0.006769771
110	0x3ca198a7	0.01972611
111	0xbbb480e4	-0.005508529
112	0x3b571f72	0.003282514
113	0x3c1b8475	0.009492029
114	0xbb0ac270	-0.0021173023
115	0x3c5e0aa6	0.0135523435
116	0x3c8bc4ad	0.017061556
117	0xbb4c0f63	-0.00311371
118	0x3b9005d6	0.004395227
119	0xbbacebd9	-0.0052771387
120	0xbb1d37f3	-0.0023989647
121	0x3c5af6f2	0.01336454
122	0x3cfe0f87	0.031013263
123	0x3ac3e02d	0.0014944129
124	0xbb0dcd25	-0.0021637168
125	0x3b2bc008	0.002620699
126	0xacf3b099	-6.9260817e-12
127	0x2bc593a3	1.4038669e-12
128	0x2c8585e7	3.7949535e-12
129	0xbba00425	-0.0048833066
130	0x395a883a	0.00020840848
131	0xbd0c5c9f	-0.034268018
132	0xbad3a09c	-0.0016145888
133	0x3b1b5e7f	0.0023707447
134	0xbb564b2e	-0.003269862
135	0xbaf63e37	-0.0018786852
136	0x3b2f8f04	0.0026788125
137	0xbb75b168	-0.0037489776
138	0x2eae55c8	7.927842e-11
139	0xac9f902c	-4.535058e-12
140	0xaff8f5a9	-4.528549e-10
141	0xbb746210	-0.0037289895
142	0x3af72fa2	0.00188588
143	0x3c200f13	0.009769219
144	0x3ac54cab	0.0015052756
145	0xbb123e97	-0.0022315138
146	0x3b3692f2	0.0027858582
147	0x00000004	6e-45
148	0x00000004	6e-45
149	0x80000004	-6e-45
150	0xbb668699	-0.0035175441
151	0x3ba4bb6c	0.0050272252
152	0xbbf4a66d	-0.0074661286
153	0xbb526314	-0.0032102512
154	0x3b98a666	0.004658508
155	0xbbae5ebb	-0.0053213513
156	0xbc30be2f	-0.010787531
157	0x3c7decf6	0.01549839
158	0xbc95708a	-0.01824214
159	0xac1caf71	-2.2266323e-12
160	0x2c6f193f	3.3977957e-12
161	0xabb6f8e5	-1.300096e-12
162	0xac25a21d	-2.3537901e-12
163	0x2c7fc5a1	3.6347386e-12
164	0xabbf32ef	-1.3585503e-12
165	0xbb830169	-0.003997971
166	0x3b0d3cea	0.00215512
167	0x3be3e6c7	0.006955001
168	0xb9eddd0d	-0.00045368858
169	0x3b92892f	0.00447192
170	0x3c58ed00	0.013240099
171	0x3ac67389	0.0015140633
172	0xbb118c68	-0.0022208933
173	0x3b2c0e44	0.002625362
174	0xbad7c660	-0.0016462319
175	0x3b1a0b8c	0.0023505418
176	0xbb53affa	-0.0032300935
177	0x3ad2118b	0.0016026957
178	0xbb1d80b7	-0.002403302
179	0x3b36077a	0.0027775452
180	0x2ad8b1f1	3.849278e-13
181	0x2ae41765	4.051717e-13
182	0x2ab7fa00	3.2680803e-13
183	0xbb9e63b3	-0.0048336624
184	0x39a8ea35	0.00032217955
185	0xbd12b859	-0.03582034
186	0xbb0ba01d	-0.0021305152
187	0x3b2e4e70	0.0026597045
188	0x3cf86372	0.030320857
189	0xbc1301a4	-0.008972559
190	0x3c53e3e7	0.012932754
191	0xbc825fe3	-0.015914863
192	0xbb0613c4	-0.0020458559
193	0x3b32093a	0.0027166144
194	0x3d03c9d8	0.032174915
195	0xbad8d0fd	-0.0016541776
196	0x3b019ca4	0.0019777203
197	0x3cb7100c	0.022346519
198	0xbbb419cc	-0.0054962393
199	0x3c03b02a	0.008037606
200	0xbc2bf178	-0.010494582
201	0xbc07b64b	-0.008283208
202	0x3c4a986a	0.01236544
203	0xbc6c3432	-0.014416741
204	0xbb4e74f8	-0.0031502824
205	0x3b935193	0.0044958084
206	0xbbbd6069	-0.0057793153
207	0xbc4029f2	-0.011728751
208	0x3c8a6aee	0.016896691
209	0xbca774f5	-0.020441512
210	0xba94e1d0	-0.0011358801
211	0x3c2e1380	0.010624766
212	0x3d0e7667	0.034780886
213	0xbbe39d92	-0.006946274
214	0x3bafc79a	0.0053643705
215	0x3bd26140	0.0064202845
216	0xbc029d4d	-0.007972074
217	0x3c3bb3be	0.011456428
218	0xbc70216d	-0.014656407
219	0xbb7613b2	-0.003754836
220	0x3c1160e5	0.008873199
221	0x3d928d3e	0.07155846
222	0xba27d916	-0.0006402893
223	0x3c0f0578	0.008729331
224	0x3cf86f02	0.03032637
225	0xbb925ec6	-0.0044668643
226	0x3bd5ad38	0.0065208934
227	0xbbd52472	-0.0065045888
228	0xbbc2dcb0	-0.005946718
229	0x3c0e828a	0.008698115
230	0xbc2f1838	-0.010686927
231	0x2c37924a	2.608707e-12
232	0xab215c6e	-5.732696e-13
233	0xad9d5b4f	-1.7889383e-11
234	0xbb982b13	-0.0046438067
235	0x3bde65ad	0.006787023
236	0xbc0b4921	-0.008501322
237	0xbb1b2e11	-0.002367858
238	0x3b5ce93b	0.0033708352
239	0xbb9f72cd	-0.0048659802
240	0xbc0b0319	-0.008484625
241	0x3c488014	0.012237567
242	0xbc77284a	-0.015085289
243	0xbb1c1d5b	-0.0023821208
244	0x3b60c480	0.003429681
245	0xbb95e1e5	-0.004574048
246	0x3a12b684	0.0005596655
247	0xb89140ba	-6.926195e-05
248	0x3b60bf36	0.0034293658
249	0xbc0792b3	-0.008274722
250	0x3c42f8bb	0.011900122
251	0xbc6be985	-0.014398937
252	0xbc16e4f8	-0.009209864
253	0x3ba3b077	0.0049954015
254	0x3c885170	0.016640395
255	0xb95fdfe6	-0.00021350346

exp_avg_sq f4 [128, 3]
0	0x3a185474	0.00058109243
1	0x39efbe6e	0.00045727513
2	0x3bc901b8	0.006134238
3	0x38bbdd8a	8.95812e-05
4	0x39280c4d	0.00016026311
5	0x3b90fadb	0.0044244356
6	0x3ae94212	0.001779618
7	0x3ab24cdb	0.0013603227
8	0x3d206abd	0.039164294
9	0x390255fa	0.00012429795
10	0x393b164e	0.00017842019
11	0x3b1f6b2a	0.002432535
12	0x393abe3c	0.0001780921
13	0x393435cb	0.00017186177
14	0x3bb401d6	0.005493383
15	0x389f375f	7.5920245e-05
16	0x38b3e3f2	8.577843e-05
17	0x3ab55a17	0.0013836053
18	0x3ad489d6	0.0016215395
19	0x3b268574	0.0025409134
20	0x3d300b54	0.042979553
21	0x393afe7c	0.00017833145
22	0x395ace06	0.0002086685
23	0x3b782f97	0.0037870163
24	0x34e5eefd	4.282846e-07
25	0x351bd195	5.804698e-07
26	0x371616f5	8.946042e-06
27	0x395a2ec1	0.00020807517
28	0x39c83e39	0.00038193332
29	0x3b0ecbe7	0.0021789016
30	0x37279a4f	9.989903e-06
31	0x37b4f138	2.1569998e-05
32	0x3a0834d0	0.0005195858
33	0x38cd7198	9.79632e-05
34	0x392ae0e2	0.00016296239
35	0x3b9d0868	0.004792262
36	0x390ffb27	0.00013731104
37	0x3920b059	0.00015324484
38	0x3b021a4f	0.0019852107
39	0x39b87a30	0.00035186252
40	0x39149b31	0.00014172193
41	0x3c2cf89a	0.010557318
42	0x36db0127	6.5268428e-06
43	0x372cfe4c	1.0311207e-05
44	0x384bdfcd	4.8607402e-05
45	0x3903c782	0.00012567456
46	0x39318ef9	0.00016933297
47	0x3bda2233	0.006656909
48	0x390f0470	0.00013639196
49	0x3982f000	0.00024974346
50	0x3b0340e8	0.00200277
51	0x36be451a	5.6704857e-06
52	0x3711ecb5	8.697786e-06
53	0x37d8456d	2.5781535e-05
54	0x391f7b9c	0.0001520947
55	0x3965f504	0.00021930417
56	0x3b424dd7	0.0029648447
57	0x38b53942	8.641418e-05
58	0x391ead70	0.00015132665
59	0x3aa7b759	0.0012795731
60	0x38278527	3.993991e-05
61	0x37fd2bba	3.0180312e-05
62	0x3a968a7a	0.0011485361
63	0x39229671	0.00015505568
64	0x39299971	0.00016174257
65	0x3b45b628	0.0030168388
66	0x3b260852	0.002533455
67	0x3af90b79	0.0019000612
68	0x3d06ea58	0.03293833
69	0x3916391a	0.00014326387
70	0x3914a4d5	0.00014175785
71	0x3ae249a2	0.0017264376
72	0x34955caf	2.782085e-07
73	0x34c1eca5	3.6121233e-07
74	0x36e44c2c	6.803797e-06
75	0x3a19a309	0.0005860781
76	0x39a4b184	0.00031412777
77	0x3c31f1c1	0.010860861
78	0x37f1a98b	2.8808388e-05
79	0x381eae85	3.783267e-05
80	0x3a13dd22	0.00056405563
81	0x39432224	0.00018609368
82	0x3863ca45	5.4309396e-05
83	0x3ba4815c	0.0050203037
84	0x37e751db	2.7575463e-05
85	0x387abf9e	5.9783102e-05
86	0x3934ad4f	0.000172307
87	0x397b7274	0.00023979862
88	0x3925cd1a	0.00015812033
89	0x3b8107d9	0.003937703
90	0x399dbe75	0.00030087275
91	0x39547151	0.00020260109
92	0x3b6eedfa	0.0036457763
93	0x391c5ac0	0.00014911126
94	0x3960cb48	0.00021438033
95	0x3b3e2378	0.002901284
96	0x34de41f8	4.139872e-07
97	0x3514ed28	5.5479404e-07
98	0x371ba49a	9.277044e-06
99	0x387a19ca	5.9628663e-05
100	0x381d02b6	3.743424e-05
101	0x3a338498	0.0006848066
102	0x383891fd	4.400498e-05
103	0x3899576c	7.311892e-05
104	0x3943b9e3	0.00018665897
105	0x3a3be674	0.0007167824
106	0x39ae0e56	0.00033198547
107	0x3c5bd04c	0.013416361
108	0x3a3501ea	0.0006904887
109	0x399560e3	0.0002849168
110	0x3c4c5846	0.012472218
111	0x39ca679d	0.0003860564
112	0x3978a653	0.00023713084
113	0x3c324e3d	0.010882911
114	0x3a812bab	0.0009854933
115	0x3ae8d7cd	0.0017764509
116	0x3ce29fa3	0.027664011
117	0x388baa15	6.659717e-05
118	0x38c97027	9.605317e-05
119	0x3aaadda7	0.0013036028
120	0x3aa4e15a	0.0012579367
121	0x3b11b16c	0.0022230996
122	0x3d158496	0.036503397
123	0x388c8ff1	6.7025314e-05
124	0x38ea04bf	0.000111588735
125	0x39451062	0.00018793487
126	0x392821db	0.0001603434
127	0x3989e809	0.00026303556
128	0x3abbd41d	0.0014330182
129	0x39499546	0.00019224462
130	0x3987a70b	0.00025873663
131	0x3c3162a4	0.01082674
132	0x382f6e55	4.1826006e-05
133	0x38c00bd3	9.157476e-05
134	0x3a1e4eb4	0.00060389494
135	0x3874f624	5.840337e-05
136	0x38e91908	0.00011114968
137	0x3a1b39df	0.0005921404
138	0x3949ee09	0.00019257529
139	0x39964981	0.00028664994
140	0x3bb2aa54	0.0054524336
141	0x38e1d8f3	0.00010769246
142	0x37d372e8	2.5206667e-05
143	0x3b3b78ac	0.0028605862
144	0x38706652	5.7315752e-05
145	0x39066b4e	0.0001281921
146	0x39c44ade	0.00037439814
147	0x167ce3d9	2.0428294e-25
148	0x16f838e8	4.0102474e-25
149	0x18f1e9c4	6.2533083e-24
150	0x39253f54	0.00015759218
151	0x39d6bc1b	0.0004095741
152	0x3b3d8b98	0.0028922316
153	0x389d8f54	7.51304e-05
154	0x38e2b9e0	0.00010811142
155	0x3abec9ea	0.0014556025
156	0x3a59b331	0.00083045947
157	0x3a9b8bb3	0.0011867195
158	0x3c8471c7	0.016167535
159	0x38b1eb80	8.483883e-05
160	0x390c2395	0.00013364696
161	0x39d27c43	0.00040146903
162	0x38a7418d	7.97539e-05
163	0x39058fcc	0.00012737437
164	0x3a264f36	0.0006344201
165	0x38e33051	0.00010833203
166	0x37eea3cc	2.8448085e-05
167	0x3b34383a	0.0027499334
168	0x38fa62ad	0.00011939309
169	0x398f368f	0.00027315735
170	0x3b9aa1b0	0.0047189817
171	0x388ab982	6.614906e-05
172	0x39050050	0.00012683985
173	0x39b69154	0.00034822023
174	0x384268cc	4.6350804e-05
175	0x388f089b	6.820374e-05
176	0x3a6c90e3	0.00090242754
177	0x389cc1eb	7.47478e-05
178	0x3913db70	0.0001410076
179	0x3993e2e2	0.00028207066
180	0x37f5d711	2.9306424e-05
181	0x37f802c3	2.956519e-05
182	0x39b682ee	0.00034811295
183	0x3953c0fa	0.00020194417
184	0x39919825	0.00027769912
185	0x3c274ec6	0.010211652
186	0x38de0146	0.00010586022
187	0x392ab6c6	0.00016280552
188	0x3b86ab17	0.004109751
189	0x3a18faf1	0.0005835733
190	0x3a5ad95b	0.00083484285
191	0x3c39bc1f	0.0113363555
192	0x394d150c	0.00019558164
193	0x3a2b559a	0.0006535888
194	0x3c363d53	0.011123019
195	0x38791396	5.9384467e-05
196	0x3880d48f	6.143108e-05
197	0x3b0916f3	0.002091822
198	0x399891c6	0.0002910031
199	0x39d67ee7	0.0004091181
200	0x3b3f2fec	0.002917285
201	0x3abfec17	0.0014642504
202	0x3a2e8bc8	0.0006658402
203	0x3cc2f404	0.023797996
204	0x3897701b	7.221122e-05
205	0x38db7ee9	0.000104663726
206	0x3ab7dc65	0.0014027475
207	0x3a81ff42	0.0009917992
208	0x3aba294a	0.0014202979
209	0x3c9e3a3d	0.01931488
210	0x398585fe	0.0002546757
211	0x3a969c57	0.0011490685
212	0x3ca59912	0.020214591
213	0x3a142c44	0.0005652348
214	0x399ab37f	0.00029506904
215	0x3c4e7379	0.012600773
216	0x39f1d6fe	0.00046127284
217	0x3a2d0787	0.0006600548
218	0x3c12e7d3	0.008966404
219	0x3a3486eb	0.00068865594
220	0x3afb35e8	0.0019165846
221	0x3d0c27e0	0.034217715
222	0x3a487b62	0.000764778
223	0x39f0ff3a	0.00045966526
224	0x3c8b872c	0.017032228
225	0x391860e8	0.0001453195
226	0x395ad24d	0.00020868443
227	0x3b3941a6	0.002826789
228	0x39ee410a	0.00045443355
229	0x3a1641d1	0.00057318533
230	0x3b9590ba	0.004564372
231	0x38b7018a	8.726407e-05
232	0x390e43d6	0.00013567446
233	0x3af9407a	0.0019016408
234	0x392ff1fe	0.0001677945
235	0x397c9e73	0.0002409162
236	0x3b56ce28	0.0032776687
237	0x382fc567	4.1907097e-05
238	0x3880999e	6.132129e-05
239	0x3a554a3f	0.00081363687
240	0x3a0a7252	0.0005281317
241	0x3a45c123	0.0007543733
242	0x3c28c93a	0.010301882
243	0x38beebe3	9.103843e-05
244	0x395678f6	0.00020453692
245	0x3a89eaf3	0.0010522291
246	0x38bff2f5	9.152844e-05
247	0x396383ac	0.00021697459
248	0x3b960535	0.0045782574
249	0x3a005513	0.00048954895
250	0x3a385e2a	0.00070330745
251	0x3c1bca00	0.00950861
252	0x396726ec	0.00022044376
253	0x39b45652	0.0003439659
254	0x3c365732	0.011129187
255	0x3aa34428	0.0012456225

exp_avg f4 [128]
0	0x3af3b7a9	0.0018594164
1	0xbab9cf1a	-0.0014176101
2	0xbba04922	-0.0048915306
3	0x3a9b1b40	0.0011833683
4	0xb99562ba	-0.00028493052
5	0xac44d323	-2.797048e-12
6	0xbb85a98b	-0.004079049
7	0xac90c295	-4.114329e-12
8	0x379bc061	1.8567023e-05
9	0x3a94cf1f	0.0011353231
10	0xba07d5d0	-0.0005181702
11	0x3b1a9df7	0.002359269
12	0x2be6f25f	1.6409754e-12
13	0x3beedb81	0.0072893505
14	0xaad120de	-3.7148664e-13
15	0x3b69e81a	0.0035691322
16	0x3a7b9a85	0.00095979153
17	0xab54539d	-7.5433567e-13
18	0x3ab52715	0.0013820851
19	0x3a3cc5df	0.0007201116
20	0xba21ecf8	-0.00061769737
21	0x3a772621	0.0009427984
22	0x3b71c83d	0.0036893033
23	0xac0c8c1d	-1.9972975e-12
24	0x387972bc	5.947308e-05
25	0x3b01dae3	0.0019814305
26	0xabdb8300	-1.5597246e-12
27	0x38580c9a	5.151015e-05
28	0xb979099c	-0.0002375007
29	0xba120e4d	-0.0005571589
30	0x3ab491e9	0.0013776395
31	0x3ac3526e	0.0014901885
32	0x3771ae57	1.4405311e-05
33	0x39eee9d6	0.0004556912
34	0xb9ac7076	-0.00032890186
35	0xbb07572a	-0.002065132
36	0xbb046c61	-0.00202062
37	0xbab20aec	-0.0013583577
38	0xbaaa41c2	-0.0012989568
39	0x3a6944f0	0.0008898517
40	0xbb4ec2cb	-0.003154921
41	0xb9e9c2b6	-0.00044586294
42	0xac9c2cef	-4.4387753e-12
43	0x3b8c50fd	0.0042821155
44	0x3a0f3cbd	0.0005464068
45	0x3a224f24	0.00061916024
46	0x2ebabd5f	8.49194e-11
47	0xbacf18c7	-0.0015800231
48	0xb9f924fb	-0.00047520534
49	0x00000004	6e-45
50	0x3aa04509	0.0012227605
51	0x3a6fcd23	0.0009147694
52	0x3b4bba89	0.0031086525
53	0xaccd82e0	-5.8409805e-12
54	0xacd4f40b	-6.0524966e-12
55	0xba99c625	-0.0011732025
56	0xbab71d08	-0.0013970444
57	0xb9ec45e7	-0.0004506551
58	0x3a0c2506	0.0005346093
59	0xb9fd2b03	-0.00048287967
60	0xab7a5e71	-8.8948906e-13
61	0x3b92b859	0.0044775424
62	0xbb8855a8	-0.0041606016
63	0x3b308928	0.002693722
64	0xbb89f958	-0.0042106323
65	0xbb495e8a	-0.0030726516
66	0x3ae7a96f	0.0017674397
67	0x3b236cb6	0.0024936623
68	0x3a7da3d2	0.0009675595
69	0x3b6361af	0.0034695675
70	0xbb7a0202	-0.003814817
71	0xba5cad92	-0.0008418198
72	0x3b2152dc	0.0024616038
73	0xbc13f6c5	-0.009031002
74	0xbb578148	-0.0032883454
75	0x3a9704f8	0.0011521867
76	0x3aee6bed	0.0018190123
77	0x2cc2d1b2	5.5370925e-12
78	0x3abceefd	0.0014414486
79	0x3a519089	0.00079942547
80	0x3b275041	0.0025530013
81	0x3a48238a	0.000763469
82	0xb9e0bf36	-0.00042867073
83	0x3b201572	0.0024426845
84	0xbb367ca3	-0.0027845285
85	0xbb296ab5	-0.0025850956
86	0x38ad67a9	8.268591e-05
87	0xbb4c7e4f	-0.0031203215
88	0x3a946d56	0.0011324089
89	0x3a4c7cc9	0.0007800577
90	0x3ab66350	0.0013915095
91	0x2d48fed0	1.14252635e-11
92	0xb9427c08	-0.00018547487
93	0x3a208762	0.0006123689
94	0xbad40424	-0.001617555
95	0x3adda423	0.0016909878
96	0xac521d85	-2.9859182e-12
97	0xbb015409	-0.0019733927
98	0xb9e92c5f	-0.00044474282
99	0x2ce334c5	6.4575866e-12
100	0x38feabee	0.00012143688
101	0x3ad9c3af	0.0016614104
102	0x3a8cd41f	0.0010744369
103	0xab710d22	-8.5638625e-13
104	0x382dd425	4.144399e-05
105	0xbba09bc0	-0.0049013793
106	0xb916a082	-0.00014364909
107	0xac06d7c7	-1.9162326e-12
108	0x3b43e0c4	0.002988861
109	0x3b5b1e7e	0.0033434923
110	0xacd43c62	-6.0321062e-12
111	0xb81e83df	-3.779295e-05
112	0xb9bdd7a0	-0.00036209542
113	0x3ab93b8b	0.0014132125
114	0x3ae1e5d5	0.0017234633
115	0x39d0a391	0.00039794718
116	0xbaa5cd3a	-0.0012649663
117	0x3c0fe6cb	0.008783053
118	0xba0acb3b	-0.0005294566
119	0xba339306	-0.00068502163
120	0xbad437f3	-0.001619099
121	0xab9fbfc7	-1.1350858e-12
122	0xac1089ab	-2.0540052e-12
123	0x39c486db	0.00037484508
124	0xb9c27d84	-0.0003709608
125	0x3b0242a9	0.0019876158
126	0xbb98d519	-0.004664075
127	0x3a27fbcd	0.00064080657

exp_avg_sq f4 [128]
0	0x3a28182f	0.0006412295
1	0x39300247	0.00016785516
2	0x3ae13dd0	0.0017184559
3	0x37059ef1	7.964424e-06
4	0x399d2521	0.00029973037
5	0x38e14cab	0.000107431166
6	0x3b3fab89	0.002924653
7	0x3986a8bb	0.00025684186
8	0x3427dc09	1.5633135e-07
9	0x39d74648	0.0004106036
10	0x37d8d981	2.585049e-05
11	0x39206904	0.0001529791
12	0x3981542d	0.00024667513
13	0x39ae088d	0.00033194237
14	0x3783bf5e	1.570553e-05
15	0x38d52c6e	0.00010164907
16	0x39930307	0.0002804028
17	0x3759fa71	1.2992518e-05
18	0x3735c49c	1.0834217e-05
19	0x3934aa74	0.00017229636
20	0x38733c9c	5.799216e-05
21	0x39686856	0.00022164112
22	0x3b003896	0.0019564978
23	0x39883270	0.0002597752
24	0x34742113	2.2736303e-07
25	0x3a083867	0.0005196393
26	0x38460742	4.7213638e-05
27	0x393b1ccd	0.00017844439
28	0x3896352e	7.162463e-05
29	0x39907bae	0.0002755797
30	0x39a00e17	0.00030528076
31	0x37813e38	1.5406971e-05
32	0x3420f635	1.4990731e-07
33	0x38517c5f	4.9945313e-05
34	0x38c8613c	9.5548545e-05
35	0x3a262ad5	0.000633878
36	0x3a12e1bc	0.0005603095
37	0x39fa3d52	0.00047729403
38	0x3b10456f	0.0022014042
39	0x368936cc	4.0892974e-06
40	0x3b32f810	0.0027308501
41	0x391c8803	0.00014927988
42	0x39cd6f04	0.0003918336
43	0x38fb5ea1	0.00011986239
44	0x38c4f59e	9.391758e-05
45	0x38f82d2c	0.000118339754
46	0x39ed028f	0.0004520607
47	0x38f1e13e	0.0001153373
48	0x391f96b9	0.0001521957
49	0x1713d12e	4.7762284e-25
50	0x39c8b357	0.0003828059
51	0x369216fb	4.3538143e-06
52	0x3858dafc	5.1702358e-05
53	0x395274bf	0.00020070652
54	0x3944c501	0.00018765406
55	0x38f6a4dd	0.00011760902
56	0x3997d760	0.0002896143
57	0x392772e7	0.00015969166
58	0x38a1ec8f	7.721141e-05
59	0x393b1747	0.00017842381
60	0x38546b2e	5.0644558e-05
61	0x39567c35	0.00020454901
62	0x396f4040	0.00022816751
63	0x38247833	3.921259e-05
64	0x3a40db39	0.00073568855
65	0x38d9659e	0.00010366294
66	0x39c40fee	0.00037395902
67	0x3a8d16ea	0.0010764275
68	0x36cd3b36	6.116369e-06
69	0x388a9dc2	6.6097375e-05
70	0x3a823662	0.000993442
71	0x3a1df4aa	0.00060255325
72	0x38092f7a	3.270756e-05
73	0x3b048ff2	0.00202274
74	0x3a408592	0.0007344122
75	0x3708df97	8.15829e-06
76	0x3a261bfa	0.00063365663
77	0x392aaad5	0.00016276103
78	0x375193e2	1.2491802e-05
79	0x369461e6	4.4221406e-06
80	0x38196bcd	3.657844e-05
81	0x396025ee	0.00021376435
82	0x396008db	0.00021365604
83	0x380c6b1f	3.3478365e-05
84	0x39b6f535	0.0003489644
85	0x3a89deb7	0.0010518645
86	0x34763d1c	2.2932767e-07
87	0x3a9e55af	0.0012079979
88	0x3a08a242	0.00052121666
89	0x3679a8cb	3.7202142e-06
90	0x3a2cb924	0.00065888674
91	0x39ab057a	0.00032619742
92	0x345ab535	2.0368755e-07
93	0x36440923	2.9211594e-06
94	0x3a0bb1e6	0.0005328938
95	0x37890a74	1.633654e-05
96	0x395a2ff7	0.00020807968
97	0x3a5fb9c7	0.0008534458
98	0x38c578fe	9.4162286e-05
99	0x3909fe13	0.00013159988
100	0x34c7db23	3.722608e-07
101	0x37795b45	1.4862807e-05
102	0x37063ad3	8.0007185e-06
103	0x381f431e	3.7971062e-05
104	0x38281c58	4.008072e-05
105	0x3b17371b	0.0023073617
106	0x35e7aa86	1.726047e-06
107	0x38fab3b5	0.00011954402
108	0x3848ef81	4.790677e-05
109	0x387ddbf8	6.0524762e-05
110	0x3a1e9aae	0.0006050271
111	0x349d564a	2.9306312e-07
112	0x393184ac	0.0001692946
113	0x37623980	1.34840375e-05
114	0x378dff1d	1.6927306e-05
115	0x386cb609	5.6436318e-05
116	0x37d615b4	2.5520894e-05
117	0x3a1d6bd1	0.00060051406
118	0x374d0889	1.2220939e-05
119	0x39018cc2	0.00012354835
120	0x391516ff	0.00014218314
121	0x37ee5107	2.8409542e-05
122	0x39af47cc	0.00033432094
123	0x357c8a26	9.407835e-07
124	0x38e86cf9	0.0001108292
125	0x37b3bc5c	2.1426174e-05
126	0x3aeaf4fe	0.0017925797
127	0x38c2585f	9.267101e-05
