week 6/checkpoints/reinforce_cartpole_seed2.pth (torch, 226393 bytes, 18 tensors)

network.0.weight f4 [128, 4]
000000 31 d2 c2 3d 77 15 fa 3e 2f d7 05 be 86 80 ba 3e
       0.09512747 0.488445 -0.13070367 0.3642618
000010 47 d1 d2 3e 85 bf d2 3e f3 92 38 bf c8 f9 17 bf
       0.4117529 0.41161743 -0.72099227 -0.5936551
000020 8e 11 fa bd a3 31 86 be 95 8a 50 3f 4d ca 07 3f
       -0.122103795 -0.26209745 0.8146146 0.5304306
000030 57 ee 51 3e 9e a0 bf 3d f0 96 98 3d 06 ee 9f 3e
       0.20501076 0.09356807 0.07450664 0.31236285
000040 ac 8a a0 bd 44 ae ba 3e 7f 78 eb be f1 b3 dc be
       -0.078389496 0.3646108 -0.4599037 -0.43106034
000050 de f4 f1 be ad 56 c9 3e cf d9 f4 be c5 8f 1c 3e
       -0.4725713 0.3932394 -0.47822425 0.15289219
000060 62 d6 91 3e c5 b3 ec be 2d 10 99 be 54 1b 49 3e
       0.28483874 -0.46230903 -0.29895154 0.19639331
000070 b4 62 f5 3d 3a ca 72 be 26 c8 a1 be 67 c7 9d 3e
       0.11981717 -0.23709956 -0.31598014 0.30816194
000080 ac a1 b3 be 33 20 f5 3e c5 20 2f 3f fa 03 2f 3e
       -0.35084283 0.4787613 0.6840938 0.1709136
000090 51 fe d5 be 70 b0 21 be 3f 0c aa be b1 4c 58 3e
       -0.4179559 -0.15789962 -0.33212468 0.21123005
0000a0 c0 e9 8a 3e 4f 7e 88 3e fc 7c ff 3d 7c 97 df 3d
       0.27131462 0.26658866 0.12475011 0.10917565
0000b0 db a6 d2 bc 6c a2 31 bb bc 15 f6 3e c4 4a 18 3e
       -0.025714329 -0.0027104868 0.48063457 0.14872271
0000c0 e7 b0 72 3e a3 b4 b9 3e ac ed 61 3e 31 28 85 bd
       0.23700295 0.36270627 0.22063321 -0.065018065
0000d0 9d 4d ba 3d da a8 c7 3e 89 ad 3a 3f 32 0a a3 3e
       0.09096835 0.3899601 0.72921044 0.31843716
0000e0 d5 96 7e 3e 05 24 ba 3e 02 7a da 3e fe 67 d5 3d
       0.24862225 0.36355606 0.4267121 0.104202256
0000f0 2f 94 2d 3e bb e6 04 3f 97 e8 4e 3e 8e 29 9c 3c
       0.16951059 0.51914567 0.20205913 0.019062784
000100 8e 68 ba be 92 1b 98 bd 85 75 6a bd af 6b dc be
       -0.36407894 -0.074271336 -0.05724098 -0.43050906
000110 c9 3b 29 3e a6 b1 03 bf 97 0b 0f bf 06 6e a3 3e
       0.16526712 -0.51442945 -0.5587706 0.3191988
000120 21 86 c2 be 85 fc 9d 3d 1e 7b 34 3f e9 49 dd 3e
       -0.37992957 0.0771418 0.7050036 0.4322045
000130 ed a3 b9 be 00 7e ba 3e 66 7d 1c 3f 78 3e e1 3e
       -0.36257878 0.36424255 0.6112884 0.43992972
000140 e4 d5 82 be 5e 85 17 3e 7a db 90 3e 56 29 bb 3d
       -0.2555381 0.1479697 0.28292447 0.091387436
000150 23 ff 2c 3d bc d7 95 be 4d c9 fb 3d 9d fd b5 3e
       0.042235505 -0.29266155 0.122942545 0.35545054
000160 e3 cf 93 3e 27 e3 eb bd 73 04 d8 3e 87 e5 ee 3d
       0.28869542 -0.11517935 0.42190894 0.116648726
000170 89 7e 3f 3e ec 2d ab bc 22 bb 67 be 39 98 db 3e
       0.18700613 -0.02089592 -0.22629979 0.42889574
000180 12 91 68 3e 62 c6 be be f2 fb 0e 3e 22 22 c3 3e
       0.2271159 -0.3726073 0.13963297 0.3811198
000190 da 13 0e 3e 05 1b 05 bf af 76 32 bf f5 60 ca be
       0.1387476 -0.51994354 -0.69712347 -0.39527097
0001a0 b4 46 dc be 89 7d e0 be 64 46 74 bd de 2e 68 3e
       -0.43022692 -0.43845776 -0.059637442 0.22674128
0001b0 0b ba a4 3e ff 27 bf be fc 19 1e bf 92 1f 8b be
       0.3217319 -0.37335202 -0.617584 -0.27172524
0001c0 71 96 98 be ae 5b b5 be ce 12 81 be 05 0b e7 b9
       -0.29802278 -0.3542151 -0.2520966 -0.00044067964
0001d0 61 75 23 3e 0d 54 65 bd 00 2d 7d bd b4 3e f4 3e
       0.15962745 -0.05598836 -0.061810493 0.4770409
0001e0 39 ba b1 be f8 e3 92 3d 45 af 03 3e 71 6a 28 3e
       -0.3471239 0.07172388 0.12859829 0.16446854
0001f0 15 e1 c1 be 66 ec dc be 92 4f 08 bf 3a 4e fa bd
       -0.37867036 -0.43149108 -0.53246415 -0.12221952
000200 76 81 d5 3e 87 83 b3 bd eb f5 4f 3e f2 0d b7 3d
       0.41700333 -0.08765321 0.20308654 0.08938207
000210 49 0a af 3e ad e6 c1 be ec 39 54 be 47 22 a3 be
       0.34187534 -0.37871304 -0.2072522 -0.3186209
000220 b3 de ee 3d fd 71 98 3e 5d a8 47 3e 72 e6 c7 be
       0.1166357 0.29774466 0.19497819 -0.39043003
000230 83 69 00 3f ca 96 f8 3e 86 37 61 3e 28 9f 9e 3e
       0.50161 0.48552543 0.21993837 0.30980802
000240 cb 60 95 be 56 ba 8d 3d 86 90 20 3f c8 83 d2 3e
       -0.2917541 0.069203064 0.62720525 0.41116166
000250 e8 2c 6e 3e 0d 1f cd 3c c8 e3 a7 bc 3c c6 9d 3e
       0.23259318 0.02503922 -0.020494357 0.30815303
000260 7b e4 13 3e 56 3d 45 3e d2 5e fb 3d 9e 0c 0a bf
       0.14442627 0.19261679 0.12273945 -0.539255
000270 ac 15 86 be 5e ab 90 3e 46 bb ca 3d 39 b1 5d be
       -0.2618841 0.28255743 0.09899001 -0.21649636
000280 42 8b ca be 33 23 a6 3e 5e b2 45 bd 5b 78 4d 3e
       -0.3955937 0.3244873 -0.048265807 0.20065443
000290 bc 29 a2 bd 03 c5 c8 be 07 38 c6 be 5a 72 e9 be
       -0.079181165 -0.39212808 -0.3871462 -0.45595056
0002a0 c1 c8 d4 3e 9b f8 f1 be d1 91 87 3d b6 9a 4e 3e
       0.41559413 -0.47259983 0.06619609 0.20176205
0002b0 c7 81 8a 3e 6a b5 91 bd d2 99 bc bd da 44 4e be
       0.27052137 -0.0711468 -0.092090264 -0.20143452
0002c0 ac 36 b4 bc 42 71 cf 3e 12 df 22 3e 3c 20 fa be
       -0.021998726 0.40516096 0.15905407 -0.48852718
0002d0 aa d5 8c be 58 2d 19 bd fb 8a ba be 1d d1 d8 be
       -0.27506763 -0.03739676 -0.3643416 -0.4234704
0002e0 a2 d1 36 be b3 c5 3c be b9 bd 13 3e b3 6a 35 3e
       -0.17853406 -0.18434791 0.14427842 0.17716484
0002f0 3e 23 9d 3d 95 79 e8 3e 43 7c 1a 3f c5 9d 0f 3c
       0.076727375 0.4540526 0.6034586 0.0087656425
000300 75 67 8e bd 95 b9 8a 3d 97 e4 5f be 01 ad fb be
       -0.069533266 0.06773678 -0.21864544 -0.4915543
000310 1c c5 ed 3e 1f db 30 3e be eb d7 be 52 9f ab 3e
       0.46439445 0.17271088 -0.42172045 0.3351999
000320 ff 55 e7 3d 37 ee 54 3d 42 9b 9f 3d e1 d1 39 be
       0.11295699 0.051984992 0.07793285 -0.18146469
000330 c5 d5 c7 be bb 51 45 be 42 dc 49 be 62 64 16 3e
       -0.3903028 -0.19269459 -0.19712928 0.1468673
000340 34 d0 29 be 1f b3 01 3e ee 12 31 bf 8d 72 7f be
       -0.1658333 0.12665986 -0.6916951 -0.24946041
000350 82 13 7c be da e5 18 be 22 cb c1 3d 0a 19 b9 be
       -0.24616817 -0.14931431 0.09462573 -0.36151916
000360 b4 1d a8 3e d9 4d f5 be 38 f0 af 3e 2a 56 0d 3d
       0.32835162 -0.47910956 0.3436296 0.034506
000370 18 fc 01 bd 53 ac b6 3d d1 6b ee 3e 0b 5f e1 3e
       -0.031734556 0.08919587 0.46566632 0.44017825
000380 66 e0 1b 3e c0 de 8e 3e 46 63 b8 3e 8b 7b 03 bf
       0.1522232 0.2790432 0.3601324 -0.51360387
000390 c7 dd ac be bd 46 0f 3d e4 83 24 bf a0 19 ec bd
       -0.33762953 0.03497957 -0.6426375 -0.11528325
0003a0 a5 80 21 be 02 0f 01 bf d8 9d c8 bd 69 15 d2 bd
       -0.1577173 -0.50413525 -0.09795731 -0.1025799
0003b0 73 b4 83 3d 66 b0 a4 3e dc e7 d7 3e 40 03 98 3e
       0.06430902 0.3216583 0.42169082 0.2968998
0003c0 fd 4b 01 bf a2 5b 22 3e 96 53 a6 be 88 e8 0b bf
       -0.50506574 0.15855268 -0.32485646 -0.5465169
0003d0 06 ad f0 be 9f fa 00 bf b7 69 68 be 5d e1 98 be
       -0.47007006 -0.5038242 -0.22696577 -0.2985944
0003e0 8c 2f 28 be 6c 95 99 3e e5 28 f3 bd 9b 25 51 3d
       -0.16424388 0.29996812 -0.118730344 0.051061254
0003f0 02 ca 94 3e f5 20 0b 3e 31 1d df 3e 7c f4 9c 3e
       0.2906037 0.13586791 0.4357696 0.30655277

network.0.bias f4 [128]
000000 86 43 88 3e e1 e8 72 3e 6b 0d c0 3e 1d 6a a6 be
       0.26614016 0.23721649 0.37510237 -0.32502833
000010 3d 23 8a be fd 35 27 be ea b9 e8 be 7c 0c d4 3e
       -0.2698001 -0.16329189 -0.4545434 0.41415775
000020 f9 41 f0 3e 91 91 ad bc 4a 71 12 be 77 da ae 3d
       0.46925333 -0.021187576 -0.14301029 0.085377626
000030 15 cc c5 3e e3 11 86 3e eb b6 b9 be ab 01 66 be
       0.38632265 0.2618552 -0.36272368 -0.22461574
000040 6a 11 84 3e 9e b5 2d be b0 14 37 3e 14 4f f9 3e
       0.25794536 -0.16963813 0.17878985 0.48693144
000050 8c af c1 be c6 cc f8 be 47 10 ea 3e c7 8f c6 3d
       -0.37829244 -0.4859373 0.45715544 0.09695392
000060 c2 e9 e4 be 2f 80 d5 3e a6 89 f9 be d7 35 a8 bd
       -0.44709593 0.4169936 -0.4873783 -0.08213394
000070 e0 9e 9e be ec f5 b0 3e 35 08 0f be 06 c4 d7 be
       -0.30980587 0.34562624 -0.13967974 -0.42141742
000080 5a 12 f7 be a9 f2 cd be b0 e4 bc be 26 08 3b 3e
       -0.4825619 -0.40224198 -0.36893225 0.18264827
000090 2e 88 c4 3c a9 cb 4b 3e f4 e1 e9 bd 0a ba e3 be
       0.023990717 0.19901909 -0.1142005 -0.44477874
0000a0 15 bd b3 bc 62 62 b6 3c cd 0c 17 3d 89 3c 9d be
       -0.021940747 0.02226371 0.036877442 -0.30710247
0000b0 f1 8c e2 be 22 69 68 3e 8c 65 4b be 19 c6 c8 3e
       -0.44248155 0.22696355 -0.19862956 0.39213637
0000c0 98 dc 3f 3e 90 b1 ec be b7 96 bf be bc 35 dc be
       0.18736494 -0.4622922 -0.37419674 -0.43009746
0000d0 51 db a8 3e 30 f1 98 be b2 41 15 bf 44 dc ec 3e
       0.32979825 -0.2987151 -0.5830337 0.462618
0000e0 ea 71 da 3e e7 26 ff 3e 13 f0 f9 bd d7 ba cc 3e
       0.42665035 0.49834368 -0.12203994 0.39986297
0000f0 d4 74 ad 3e e5 b0 47 3e b6 9c ff 3d db c5 d1 3e
       0.33878195 0.19501074 0.12481062 0.40971264
000100 02 67 51 be da 07 31 3e 5f 6c 3d be bb 16 d7 3e
       -0.2044945 0.17288151 -0.18498372 0.4200953
000110 9c 19 0d 3c 4a e6 5e 3d c8 d0 02 3f f2 fc ea be
       0.008612063 0.05441884 0.51099825 -0.45896107
000120 0a ca 0b 3e 95 a9 f7 3d 93 84 aa bd ae ef d0 3c
       0.1365129 0.12092892 -0.08326068 0.025504913
000130 89 52 63 be 7d 70 5a bc f8 c0 e2 be 75 03 f2 be
       -0.22199453 -0.013332483 -0.44287848 -0.47268263
000140 cd 95 1c be 8a 28 6e 3e e5 8c 2c 3e 77 46 5e be
       -0.1529152 0.23257652 0.16850622 -0.21706568
000150 4e fd 73 be ec 2e 04 bf b2 f3 ae 3e 48 d4 c5 3b
       -0.23827097 -0.516341 0.341703 0.006037269
000160 71 82 a2 be 3e 5b 55 bc 6d 4f a4 be c6 47 0c 3e
       -0.31740144 -0.013022242 -0.32091847 0.13699254
000170 47 3f 1e 3e 99 fd 09 3e 1d 4d 94 3e b0 76 f1 be
       0.15453826 0.13475646 0.28965083 -0.47160864
000180 d7 41 be be 3d f7 33 be ac db e2 3e 52 e9 ac 3d
       -0.37159607 -0.17574783 0.4430822 0.0844294
000190 2f ea 11 bf c5 20 37 3e 13 cf 99 3e 3d 06 9f 3e
       -0.5699796 0.17883594 0.30040798 0.31059447
0001a0 2d a1 8f 3e 81 85 ed bd 77 f6 61 be 0d 48 be be
       0.28052655 -0.115977295 -0.22066675 -0.37164345
0001b0 d3 4f c4 bd e1 f3 8e 3e db 40 aa be 4c 9d df bd
       -0.09585538 0.2792044 -0.33252606 -0.10918674
0001c0 39 a4 37 3e 5e 4f 80 be 58 23 ff be 65 02 4b 3e
       0.1793374 -0.25060552 -0.49831653 0.19825132
0001d0 5b 4f a3 3e f9 bc ba be 82 07 d3 be 27 fc 44 3e
       0.3189648 -0.364723 -0.41216666 0.19236813
0001e0 15 5d ac 3e c3 25 e7 be 10 6f 7d 3e 00 94 a4 3e
       0.33664766 -0.45145997 0.24749398 0.32144165
0001f0 4c 1c 58 be 2a 32 a7 3e 1d 8d b2 3e 60 f0 9f 3e
       -0.21104544 0.3265546 0.34873286 0.3123808

network.2.weight f4 [128, 128]
000000 88 a3 ca bd 1c e2 6d bd 37 e1 ad bd f3 e7 a9 bc
       -0.09894472 -0.058076963 -0.08490222 -0.020740485
000010 66 f8 43 bc be 8f a8 bd 6d fa 71 bc b0 7d 82 3d
       -0.011961078 -0.08230542 -0.014769179 0.06371629
000020 5b 2f ad bd 1d 5a 5e bc 8e ac b4 bb 34 e4 c8 bc
       -0.08456298 -0.013571289 -0.005513734 -0.024522878
000030 fa 37 8f bd 1e 00 32 3d 52 82 71 bd 90 20 8b bd
       -0.069930986 0.043457143 -0.058962174 -0.0679332
000040 8d 22 dd 3c 8f 42 8c bd 5e 96 37 bd bc ca 87 3d
       0.026994014 -0.068486325 -0.044821136 0.066304654
000050 1d 27 77 bc 8d c0 c1 3a 09 b8 e1 bc a4 97 cf 3c
       -0.015085009 0.0014782116 -0.027553575 0.025340863
000060 6e c6 95 3d 4c 5f 30 bd 82 9a 9b 3d 5e a1 e6 bc
       0.07313238 -0.043059632 0.075978294 -0.028153118
000070 7c 00 aa 3d 6d ff 93 3c 42 bf a0 3d 22 a2 a7 bd
       0.08300874 0.018066132 0.078489795 -0.08185221
000080 d5 be 00 3d 00 e9 31 3d f1 24 9a 3b bc 92 3d bc
       0.03143199 0.043435097 0.004704111 -0.011570629
000090 3f 8d a9 bc da a0 9b bc 9b ca e5 3c 42 eb 11 3d
       -0.020697234 -0.018997598 0.028050711 0.03562475
0000a0 45 22 34 bd 14 e2 28 bd ed 55 03 3d f4 d9 88 3a
       -0.043977994 -0.04123123 0.032064367 0.0010440932
0000b0 0a 9d 0b bd e1 72 03 3c cc 03 e2 bc 55 64 fb 3c
       -0.03408531 0.008022995 -0.027589701 0.03068749
0000c0 2a a2 42 bd a0 98 70 bd 80 2a 97 3d c2 c3 31 bd
       -0.047517933 -0.058739305 0.07381153 -0.04339958
0000d0 c3 d3 3c 3d 09 fd b3 3c 58 85 8c 3c 91 0a 9e bc
       0.04610039 0.021971243 0.017153427 -0.019292148
0000e0 fc 93 31 bd 5e 27 38 3d 5b 02 42 3d 5f 07 85 bd
       -0.04335402 0.04495942 0.047365528 -0.064955465
0000f0 03 fe 57 3b 50 a5 a9 bc 87 8c 2c bb 61 35 3d 3a
       0.00329578 -0.02070871 -0.0026328878 0.0007217732
000100 53 09 1b bd 37 02 20 3c a7 31 2e 3c a0 ee 9c bd
       -0.03785069 0.009766153 0.010631955 -0.076627016
000110 77 83 09 3c c5 62 87 bd 13 d5 22 bd b6 48 9e 3c
       0.00839316 -0.06610636 -0.039753985 0.01932178
000120 ea 55 3f 3d f8 81 a3 3d fd 4a 50 bd 57 15 88 3c
       0.046712793 0.07983774 -0.050852764 0.016611738
000130 59 52 0b 3c 4b c5 8a 3d 47 88 8d bc bf 1b a3 bd
       0.00850352 0.06775912 -0.017276896 -0.079642765
000140 68 0f 8b bd 10 fe a8 bd f4 00 1c 3d c9 82 95 bd
       -0.06790048 -0.082515836 0.038086846 -0.07300336
000150 43 14 70 3d 54 01 ab 3d b1 5f a7 bd 4a 7c e8 3c
       0.058613073 0.08349863 -0.081725486 0.028379578
000160 da fd 15 bd 80 7e 95 bd 2d f2 94 3c 2c 98 8c 3d
       -0.036619045 -0.072995186 0.018181885 0.06864962
000170 16 b5 9f 3d 5d c5 22 bd 62 af f1 bc 23 3f a9 3d
       0.07798211 -0.039739 -0.029502574 0.082639955
000180 60 4b f1 3a c7 87 74 3a 2a da af bc b3 52 b2 bd
       0.0018409304 0.0009328094 -0.021466333 -0.0870718
000190 29 c5 9a bd 36 f1 a8 bd f8 21 46 3b 09 1a fa bc
       -0.075571366 -0.08249132 0.003023265 -0.030529993
0001a0 02 64 95 3d 2f 59 30 bd 0a 28 2a bd dc ab 41 3c
       0.072944656 -0.043053802 -0.04154209 0.01182076
0001b0 60 81 c2 bd e2 90 a5 bd 9b d8 ea bc 29 dd 81 3d
       -0.094973326 -0.08084275 -0.028667739 0.06341011
0001c0 f6 ac 29 bc 45 dd 24 3d 3f 43 92 3d cb a2 48 3d
       -0.0103561785 0.04025008 0.071417324 0.048983376
0001d0 15 2f 22 bc 96 00 89 bd 50 10 65 3d 8d c1 9f bd
       -0.009898921 -0.06689565 0.05592376 -0.07800589
0001e0 9d 3e 6f 3d e1 79 97 3d fc 1f 04 bd e8 41 c1 bd
       0.058409322 0.073962934 -0.032257065 -0.09436399
0001f0 5c 59 c1 3c 86 7c 38 3c 70 20 4f bd aa 07 62 3d
       0.02360218 0.011260157 -0.050568044 0.05518309
000200 6f bd 7a 3d 0e e1 a6 bd 9b 4e db 3c 3b 6d 61 bc
       0.061215814 -0.081483945 0.02677088 -0.013758953
000210 db ae 42 3c 1c c0 4c bd ec 1c e0 bd 37 31 9a bd
       0.011882509 -0.049987897 -0.109430164 -0.07528918
000220 f8 8c 2f 3d 58 fb 66 3d b8 0f 3b 3d b5 2f f6 bc
       0.042859048 0.056392044 0.045669287 -0.030052045
000230 bb a4 1f 3d e1 75 0b 3d 52 34 e6 bc c8 28 d7 bc
       0.03897546 0.034047965 -0.02810112 -0.026264563
000240 37 4b af bd 55 8b 80 bd 6f 0a 0c bd 6f 7c 78 3d
       -0.08559268 -0.062765755 -0.034189638 0.060665544
000250 c7 93 63 bd b7 bd 41 bd 3b 82 96 3d 0f 97 75 3d
       -0.055560853 -0.047300067 0.07349058 0.059958514
000260 84 df b4 3c 37 76 cf bd 05 1f 91 3d a6 d9 79 3c
       0.022079237 -0.101299696 0.07085995 0.015249645
000270 41 e2 3f 3d a9 c2 b6 bd d8 bf 02 bd aa ac f9 bc
       0.046846632 -0.08923847 -0.031921238 -0.03047784
000280 e4 a1 67 bd 31 5d 08 3d 58 5a f7 3b b4 18 97 3d
       -0.056550875 0.033292 0.0075486116 0.073777586
000290 ff 57 5c 3c da 96 ce 3b 09 58 3e bd a6 1b 17 bc
       0.013448714 0.006304604 -0.046470676 -0.0092229005
0002a0 70 14 f1 3c d5 21 23 3c 39 ed 90 3b 33 67 68 bd
       0.02942869 0.009956797 0.0044228104 -0.056739043
0002b0 a0 cf 60 3d 49 c0 1b bd db 81 f6 bc ea c5 31 3d
       0.054885507 -0.038025174 -0.030091217 0.043401636
0002c0 5f 78 e7 bd bf 94 26 3d 4d 69 87 3d 29 d9 80 3d
       -0.11302256 0.0406692 0.066118814 0.0629142
0002d0 ad ce 29 3d 94 0d d4 bc 0c 57 4d bd 7c ee a0 3c
       0.041456867 -0.02588538 -0.050131842 0.019644968
0002e0 c2 2e 89 bd 18 d5 8f 3c a9 1c 2e bc 35 53 84 bd
       -0.066983715 0.017557666 -0.01062695 -0.06461183
0002f0 ff 33 76 3d 3e 32 2e 3d be 26 82 3d 12 a0 55 bd
       0.06010818 0.042528383 0.06355046 -0.052154608
000300 25 ac c8 3c 4a 99 53 bd 50 e7 70 bd b9 ca 3e bd
       0.024496147 -0.05165986 -0.058814347 -0.04658005
000310 f6 10 88 bc 5d f1 6f bc b5 1e 4d bc 41 67 f5 3b
       -0.01660965 -0.014644948 -0.012519528 0.0074891155
000320 19 b4 85 3b c1 1c b0 3c d0 bb c1 bb a1 b9 90 3d
       0.004080307 0.021498086 -0.0059122816 0.07066656
000330 71 ef 50 3d fb 36 b6 bc 4a 5e 90 bd ce e5 98 3d
       0.0510096 -0.022243014 -0.07049234 0.07465707
000340 ea 38 2a bc bc 19 1d bd 0b 35 df bd 96 2e 07 be
       -0.010389546 -0.03835462 -0.10898789 -0.13201365
000350 87 73 75 bc 29 1d 13 3d e5 eb 77 bd 73 d7 e4 bd
       -0.014981157 0.03591648 -0.0605277 -0.11173906
000360 e5 72 25 3d cd a3 48 3d d5 07 e6 3b ae e1 0d bd
       0.040392775 0.048984338 0.0070199766 -0.034639053
000370 fc ff 89 ba 83 e4 ed 3d 39 08 64 bd f6 86 bb bc
       -0.001052856 0.11615851 -0.055671904 -0.022891503
000380 0e 8b 83 3c 3c eb 7b 3d 68 c8 46 3d a3 b1 25 bd
       0.016057517 0.061503634 0.048530966 -0.04045261
000390 0e c6 f9 bc 07 22 bf bd 11 c6 a9 bd c0 7d 5d bd
       -0.030489948 -0.09332662 -0.08289731 -0.054075003
0003a0 65 22 81 bd 04 9a 21 3d 08 21 85 bd df b9 cd bd
       -0.06305388 0.03945352 -0.06500441 -0.10045218
0003b0 46 8f 82 bd 17 db 99 bd c1 90 3f 3b 44 8d 6d 3d
       -0.063749835 -0.07512491 0.0029230567 0.05799605
0003c0 94 95 2f 3d 7e 6b b4 bd 47 d1 a2 3d 85 c4 28 3c
       0.04286726 -0.08809565 0.07950073 0.01030076
0003d0 c2 e8 91 3b 6b f8 c7 bc 27 19 9b bd d8 26 9a 3d
       0.0044527957 -0.024410447 -0.07573157 0.0752694
0003e0 5b 32 31 bd 22 a1 98 bd 07 30 93 bd 96 8e b5 3c
       -0.043260913 -0.07452609 -0.07186895 0.022162717
0003f0 a9 f3 ef bc 7e d5 ec bc 11 e7 0d bd f0 2b ab bd
       -0.02929099 -0.028910395 -0.03464419 -0.0835799

network.2.bias f4 [128]
000000 b4 bd 21 bd e9 2a 9b bd 64 3f c0 3c cb a4 20 3d
       -0.039487556 -0.07576544 0.023467727 0.03921966
000010 b2 f6 f0 bc ab 41 09 bc b4 2f 9d 3d 8c df 85 bc
       -0.029414508 -0.008377473 0.07675114 -0.016341947
000020 42 a5 d5 3c 0e 3a a2 bb aa cf e6 3c b2 78 d8 bb
       0.026079778 -0.0049507683 0.028175194 -0.006606185
000030 e0 43 1c 3d 72 02 ab bd b2 d0 c3 3d 17 c7 18 3c
       0.03815067 -0.08350076 0.0956129 0.0093248105
000040 b3 10 8b bd 29 5f cc bc f8 a2 69 3c 2f 3a 80 3d
       -0.067902945 -0.02494772 0.014260046 0.06261098
000050 a8 2e af 3c 84 f3 4e bd 9d c4 b2 bd 3f 37 63 bc
       0.021384552 -0.050525203 -0.08728907 -0.013868152
000060 e5 ea e4 bc 75 5a b6 bb 9d 29 0f 3c 79 03 67 bd
       -0.027944038 -0.0055649825 0.008737949 -0.056399796
000070 07 90 a1 3d 73 5c f4 3c 76 9d c5 bc fa 85 9e bd
       0.07888799 0.02982924 -0.024122935 -0.07740398
000080 25 33 62 3d f2 2b b2 bc e2 87 ed 3c 9f 50 84 3d
       0.055224556 -0.02174947 0.028995458 0.0646069
000090 21 cc 38 3c 22 e7 fa 3b 9b be 94 bc 3c 5f 9c bd
       0.011279137 0.0076569477 -0.018157294 -0.07635352
0000a0 5f a0 b1 bc e4 ac 65 bd ef 2a 7f bd 4d d0 10 bb
       -0.021682916 -0.056073084 -0.062296804 -0.0022096813
0000b0 61 30 b8 bc eb c4 f3 bc b8 11 00 bd 72 4f 38 3c
       -0.022484006 -0.029756984 -0.031266898 0.01124941
0000c0 91 bb ac 3b c9 65 8d bd 3e 5f 6d bd 66 73 51 3d
       0.005271383 -0.069041796 -0.05795216 0.051135443
0000d0 25 99 82 3d dc d6 77 3d 43 fc e1 3c d3 18 a3 bd
       0.06376866 0.06050764 0.027586108 -0.07963719
0000e0 f1 d3 a1 3d bf e5 6b 3a eb 1c 43 bd fe 94 e2 3d
       0.07901753 0.00089987734 -0.047635 0.11063574
0000f0 89 f8 32 3c 39 32 e5 bb ea 0a 01 bd 5d 4a 72 3c
       0.010923513 -0.0069945124 -0.03150455 0.014788237
000100 8b a8 89 bd 3f 2e c1 3d 08 40 1a 3d 0d 7a 18 bd
       -0.067216 0.09432649 0.03765872 -0.03722577
000110 c0 d2 9f bd 45 90 db 3c 75 0c fa bc 69 59 d4 bc
       -0.07803869 0.026802192 -0.030523518 -0.02592154
000120 ea 0a a4 3d 73 70 62 3d b7 4b 6f bd 3c 47 45 bd
       0.08009894 0.05528302 -0.058421817 -0.048163638
000130 5c b8 ac bd 74 51 d3 3c c8 dd b7 3c c4 cb 61 3d
       -0.08433601 0.025795676 0.02244462 0.055125967
000140 f1 80 22 3c 5a 2d 98 3c 15 70 88 3d f4 00 c9 bc
       0.009918437 0.018576313 0.06662003 -0.024536587
000150 15 8f d3 bc 0d c3 01 3d 00 e9 7e bd 2a 97 c6 3d
       -0.025825063 0.031680156 -0.062233925 0.09696801
000160 2d aa 5b 3d ad 70 07 3b 3e 17 e0 bc 6d ed a7 3d
       0.05362909 0.0020666525 -0.027354833 0.08199582
000170 a6 f5 b9 3d 58 b9 27 bd c9 2f b8 3d f6 69 ae bc
       0.09080057 -0.040948242 0.08993489 -0.02129076
000180 63 4e be 3d 96 0f 30 bc 71 44 dc 3c a7 3f 67 3d
       0.09292295 -0.0107459035 0.026888104 0.056457188
000190 b0 12 62 3d 94 ae 32 3d fc af 9b 3c 70 5d 9e 3d
       0.055193603 0.043623522 0.019004814 0.077326655
0001a0 1f 85 63 3d f5 9c 2c bc 29 8b c5 bc 38 15 88 3d
       0.055546876 -0.010535468 -0.024114208 0.06644672
0001b0 6c 77 27 bd f0 2c a0 3d 9a 66 2d 3d e7 4b aa 3d
       -0.040885374 0.07821071 0.042334177 0.083152585
0001c0 3e 67 2f bd c5 dd 4c 3d 76 eb c7 bd 67 50 38 3d
       -0.04282307 0.050016183 -0.097617075 0.044998553
0001d0 dc 6b 91 3d 0a 53 96 3d 01 3c 63 3d 2d 61 0c 3d
       0.07100651 0.07340057 0.055477146 0.03427236
0001e0 10 9f b7 3c 0d 87 d4 3c 61 d2 7e 3d 90 79 4c 3d
       0.022414714 0.025943303 0.06221235 0.04992062
0001f0 0c 4d 89 bd 6a 11 fc bb 25 a1 d7 3c 3a 0f 82 3d
       -0.06704149 -0.0076925056 0.026321957 0.063505605

network.4.weight f4 [2, 128]
000000 e1 1e cb 3c d1 e3 cf 3b 16 a8 94 bd a8 08 16 be
       0.024794998 0.0063442965 -0.07258622 -0.1465174
000010 11 f6 09 bd 12 bc 9a 3d 4e cc e4 bd 28 38 27 3d
       -0.033681933 0.07555403 -0.111717805 0.04082504
000020 1b 2f c8 bd ec 12 a3 3d f3 b3 0d 3e 78 96 98 3c
       -0.0977461 0.079625934 0.13838176 0.018626437
000030 a8 67 c3 bc f3 cb 5c bd 71 75 b8 3d 4d 9c 69 bc
       -0.023853138 -0.05390544 0.09006775 -0.014258456
000040 b1 21 e0 bc 12 fc 57 3b 15 29 72 3d 3c 55 61 bc
       -0.027359815 0.0032956642 0.05912121 -0.013753232
000050 60 3c de bd b4 dd 7b bd 94 61 94 3c bc b9 f6 3d
       -0.10851359 -0.06149073 0.018112935 0.12047145
000060 53 3b db bc c6 bd 51 3d ef 0a 90 bd e4 83 15 3e
       -0.026761686 0.051206373 -0.070333354 0.14601094
000070 48 06 e1 bd 77 15 c9 3d 8e 64 a5 bd 0e f0 a5 bd
       -0.10987526 0.09818547 -0.0807582 -0.081024274
000080 7a 4b 85 bd 9c 34 85 bd 9a ba 85 bd b6 d0 44 bd
       -0.06508537 -0.06504175 -0.06529732 -0.048050605
000090 f0 19 82 3d b2 f8 b1 3d fe fb e1 bc 86 51 0a 3a
       0.063526034 0.08690013 -0.02758598 0.000527643
0000a0 e7 ad b6 bc 5f d1 a1 3d 3a 76 00 be 77 25 6a 3c
       -0.02229972 0.079012625 -0.125451 0.014291159
0000b0 e8 6b 02 bd d1 10 0b 3c 96 2b f2 3d db 68 29 3e
       -0.03184119 0.008487896 0.118247196 0.16543905
0000c0 95 10 9a 3d f0 0b 03 bc 14 99 92 bd d5 3c 91 bd
       0.07522694 -0.007998452 -0.071581036 -0.07091681
0000d0 97 d5 b3 bc d3 90 05 be bf 85 ba bd 20 af 99 3c
       -0.021952434 -0.13043527 -0.09107541 0.018760264
0000e0 d1 24 e3 bd 20 72 b2 bd 36 d9 5b bc e5 9c b5 3d
       -0.110910065 -0.08713174 -0.013418486 0.08867816
0000f0 87 60 cc bd 45 97 0e bc 56 5e 09 bd 20 72 b3 bd
       -0.09979349 -0.008703058 -0.03353723 -0.08762002
000100 d7 84 59 3c a1 c6 43 3d 6c bd 98 3d e6 00 7c 3d
       0.0132763 0.04779685 0.07458004 0.061524294
000110 dd 4e a7 3d d3 6c 4c 3d 2b 66 a8 3d a8 b5 39 3d
       0.08169339 0.04990847 0.08222612 0.045339257
000120 4b 39 17 3e 54 13 1d be cb f2 96 3d fc 73 8a bb
       0.1476795 -0.15339404 0.07370528 -0.004225252
000130 61 5d 8c bd 46 16 87 bc e2 9e ba 3d 47 77 f1 3c
       -0.06853748 -0.016490113 0.09112336 0.029475821
000140 35 44 07 3d e2 a8 82 3d 66 79 de bc c4 88 a6 3d
       0.03302403 0.06379868 -0.027157497 0.08131555
000150 cd 8b 2c bc f7 9e 27 bd 83 d5 80 bd 8e 5c 2d be
       -0.010531378 -0.040923085 -0.06290724 -0.16929838
000160 66 b9 85 bd 49 f3 17 3d 44 43 03 3d fd 95 6b bd
       -0.065295026 0.03709725 0.03204657 -0.057516087
000170 7a 70 ef bd ee 6f 34 3d b8 29 c8 3d 8e 95 5a 3c
       -0.11691375 0.044052057 0.09773582 0.013341321
000180 ca 2b 18 bd 69 98 83 bd 79 0b 8c bd 0e ab ce 3d
       -0.037151136 -0.06425554 -0.06838126 0.1009122
000190 d1 66 fa 3d 2b c7 c8 bc ab 41 04 bd d5 00 cc 3c
       0.12226642 -0.024509033 -0.03228919 0.02490274
0001a0 c9 e8 86 bd ea 8d 62 bc fd 0e a0 3d 8f a7 48 bd
       -0.06587369 -0.01382778 0.07815359 -0.04898792
0001b0 4d eb 47 3d 65 29 85 bc 46 62 a2 bd 9b 52 99 bc
       0.048808385 -0.01625509 -0.079289004 -0.018716147
0001c0 7e 45 92 bd db a5 23 bd 39 23 b8 3c de 96 9d bd
       -0.07142161 -0.039953094 0.022477733 -0.07694791
0001d0 0d 31 fb 3d 4a 8a 8d 3d 67 db d7 3d 08 2f 28 3d
       0.12265215 0.06911142 0.105398946 0.041060477
0001e0 6c 73 b9 bd 33 e1 24 3d 0d f8 fb 3d 4e b6 ca bd
       -0.09055218 0.04025383 0.12303171 -0.09898053
0001f0 6c 5e 7f bd 18 51 9e bd 07 8e 6f bd 2f 25 06 be
       -0.062345907 -0.07730311 -0.058485057 -0.13100122
000200 5f ba 95 3c 40 b4 8b 3c 17 44 8a bd fe cc 06 3e
       0.018277345 0.017053723 -0.06751268 0.13164136
000210 c6 69 99 3c 9a 37 ee bd e6 e8 e6 bb 7f 53 c6 bd
       0.018727195 -0.11631699 -0.0070468066 -0.09683894
000220 35 d5 1f 3d 46 67 d3 bd 73 83 38 bd 07 55 eb 3d
       0.03902169 -0.10322432 -0.045047235 0.11490827
000230 2f eb 99 3c 26 dd ef 3b 7d 8b 46 bd e8 c3 89 3d
       0.018788902 0.007320064 -0.04847287 0.06726819
000240 07 e9 9d 3c 82 9a cf bd ae a8 67 3c 0e cf 09 3e
       0.019276155 -0.10136892 0.014139337 0.13457891
000250 94 43 1b 3e cd 2c 78 3d 10 b9 0e bd cb c8 d7 bc
       0.15162498 0.0605896 -0.034844458 -0.026340863
000260 42 d1 d0 3d a3 fa 53 3d ca 4e 89 bd 85 7f a0 3c
       0.10196163 0.051752698 -0.06704481 0.019592056
000270 11 f8 db 3d 1e a0 81 bc 5a 3e 23 3d ec 05 a3 3d
       0.10740674 -0.01582342 0.039854385 0.07960114
000280 7b 20 09 3e 29 a3 84 bd ce 9e 0a 3e 36 e3 2d bd
       0.13391297 -0.06476433 0.13537142 -0.042453013
000290 9c ac 62 3d 8b 79 66 bc 60 13 cc bd 80 49 0d 3b
       0.055340394 -0.014067064 -0.09964633 0.0021558702
0002a0 69 83 9d 3c 92 ec 73 3d 28 ff 3a bd 43 f6 cc bb
       0.0192277 0.059551783 -0.045653492 -0.0062549426
0002b0 4c 1e 4a bd f5 bb 87 3a ae 2f 11 bd 27 27 de bd
       -0.0493453 0.0010355698 -0.03544586 -0.108473115
0002c0 e0 a7 08 be 07 ad 4d 3d c4 84 92 bd 56 bd a7 3d
       -0.13345289 0.05021384 -0.07154229 0.0819041
0002d0 c2 d2 81 3d 6e 1e aa 3d 61 ac 97 3d a5 40 f4 bc
       0.06339027 0.08306585 0.074059255 -0.029815981
0002e0 8d 27 27 3d 14 6d 8e 3d 0b 32 d3 bc d8 95 ac bd
       0.040809203 0.06954399 -0.025780698 -0.08427018
0002f0 61 92 da 3d a4 03 95 bd 5a 5b 87 3c 33 d4 11 bc
       0.10672451 -0.07276085 0.016523052 -0.00890069
000300 6d 6b 3a 3d f6 83 a0 bd a8 25 3d bd 47 d6 21 be
       0.045512605 -0.078376696 -0.04617849 -0.15804397
000310 10 46 59 bd 82 0b ce bc fd 07 ff bd 3d b4 21 bb
       -0.053045332 -0.025151972 -0.124526955 -0.002467408
000320 5c d3 f5 bd cc c6 07 3e eb 07 59 bd 17 4b c0 3c
       -0.12003204 0.13259429 -0.052986067 0.023473306
000330 65 59 4c 3d 50 11 f8 bd ba 30 a3 bd 7d d7 04 be
       0.04988994 -0.12112677 -0.07968278 -0.12972827
000340 84 fb 14 be 26 bb 36 3d b3 4b a7 3d 4a 9d 1a be
       -0.1454907 0.044612072 0.08168735 -0.15099064
000350 5a b8 15 3d ef b0 44 bc 42 da c1 3c 3c a8 2b 3e
       0.036552764 -0.012005075 0.023663644 0.16763395
000360 ac 62 6c bc 13 57 11 be 76 7e 88 3d 34 4a b1 3d
       -0.014427822 -0.14193372 0.066647455 0.08656731
000370 dc b0 73 3d 1e 81 38 bd a3 71 35 bd 0a c7 90 3c
       0.059494838 -0.04504501 -0.044297826 0.017673034
000380 ef 59 cb 3d b5 f5 7d bc 56 4a 75 bc 3f c8 89 bd
       0.09929263 -0.015500476 -0.014971336 -0.06727647
000390 73 0e f9 bc d1 2a f3 bd 4c 8b af 3c 5e c1 26 be
       -0.030402398 -0.11873401 0.021428727 -0.16284701
0003a0 17 0d e6 3d 5a 0e 76 bc bb 62 ea bc 47 34 14 bd
       0.112329654 -0.01501807 -0.028611531 -0.036182668
0003b0 0d b2 94 3d 67 25 49 3d 7f 6a a8 3d 83 f3 9e 3d
       0.07260523 0.049107935 0.082234375 0.0776129
0003c0 41 96 98 bd 98 31 6d 3d 49 c6 9c 3c ac a4 18 3e
       -0.07450534 0.057908624 0.019137518 0.14906567
0003d0 16 66 e8 bd 3f d6 9c bd 98 8c 0c be 69 a9 81 bd
       -0.11347596 -0.07658052 -0.13725507 -0.063311405
0003e0 d3 e2 24 3e f4 21 61 3d 82 5d 57 bd 18 fe 2f 3d
       0.16102152 0.05496402 -0.05257941 0.042966932
0003f0 d8 b3 16 bd c9 77 9a bd e9 42 89 3d 26 a1 a7 3d
       -0.036792606 -0.075423785 0.06702215 0.081850335

network.4.bias f4 [2]
000000 94 0d 40 bd 68 4d 2c 3c
       -0.04688795 0.010516502

exp_avg f4 [128, 4]
000000 04 73 88 bf 47 05 0c 3f 0f 6e a8 bd 6d 5a 5c be
       -1.06601 0.5469555 -0.08224117 -0.2151887
000010 4d 8a b7 3e 4f 3c 64 be b7 d3 f9 3c 58 30 f3 3d
       0.35847703 -0.22288631 0.030496461 0.11874455
000020 f1 71 70 bf 25 7a 8b 3e c0 b4 53 bd 92 23 bb bd
       -0.9392386 0.27241626 -0.05168605 -0.09137644
000030 47 5c 3a ad 06 4b c8 2b f8 66 14 ab 8f 4e 17 ac
       -1.0593366e-11 1.4231678e-12 -5.272306e-13 -2.1502e-12
000040 85 69 a7 3d 2d 81 18 be 2b 22 cc b9 20 ca bf 3d
       0.08174423 -0.14893027 -0.0003893537 0.09364724
000050 60 38 49 3f 6e 05 5f be 1b 42 47 bb b7 49 10 3e
       0.78601646 -0.21779415 -0.0030404392 0.1409062
000060 3d f9 87 3a b2 1f 7c 3a 79 cb 40 b9 04 be 70 b9
       0.0010373961 0.000961776 -0.00018386346 -0.0002295897
000070 4c ec 92 bc 7b b4 85 bd 39 47 bb 3b c5 a1 dd 3c
       -0.01793494 -0.065285645 0.0057152775 0.027054677
000080 68 92 84 bf 61 cb 75 3e b7 1e 62 bd 15 11 5e bd
       -1.035718 0.24003364 -0.055205073 -0.05421551
000090 1f 40 0f 3f 7b 72 cb bd b0 72 6b 3d de 76 c8 bc
       0.55957216 -0.09933945 0.05748242 -0.024470743
0000a0 03 5f 4a b1 aa 86 d4 b1 ea 98 85 30 95 f9 6a 31
       -2.9448877e-09 -6.1853216e-09 9.720484e-10 3.4193353e-09
0000b0 d0 f8 5c bf d4 95 80 3e 54 53 55 bd 77 1a b1 bd
       -0.8631716 0.2511431 -0.05208142 -0.08647626
0000c0 34 1e 16 bf 30 eb cb 3e c3 2c 36 bd 9b e1 37 be
       -0.58639836 0.3982787 -0.04447628 -0.17957155
0000d0 c3 17 27 c0 da eb 61 3f 45 35 24 be 45 38 89 be
       -2.6108253 0.88250506 -0.16035946 -0.26800743
0000e0 ff 15 1f ae 45 24 28 ae 8b 01 20 29 58 c2 bb 2d
       -3.617195e-11 -3.823099e-11 3.5528475e-14 2.1345745e-11
0000f0 64 66 42 be 3b b0 d0 3e 66 43 01 3d b6 be 8d be
       -0.18984371 0.40759453 0.031558417 -0.27684563
000100 bc d3 a4 3f 9e 76 07 bf f5 09 c0 3d ba b4 23 3e
       1.2877116 -0.5291537 0.09376899 0.1598691
000110 f5 9b 03 bd a4 b9 ba bd da 47 10 3c 69 9c ba 3c
       -0.032131154 -0.091174394 0.008806193 0.02277966
000120 56 8d 54 bf 79 16 43 3e 2e 9f 3f bd c9 cb 5b bd
       -0.8302816 0.19051541 -0.046782665 -0.05366114
000130 c7 8d ac bf d5 c2 ab 3e 19 6c 9a bd 55 e0 a3 bd
       -1.3480767 0.33547083 -0.07540149 -0.08001772
000140 91 f8 02 3c 25 a7 ad bb f5 57 5c b8 28 0b 78 3b
       0.007993833 -0.005299466 -5.2534004e-05 0.0037848447
000150 01 13 1f bc 1a a2 b2 bc cd b9 8e b9 18 a6 8f 3c
       -0.009709121 -0.021805812 -0.00027222783 0.017535254
000160 19 38 35 bf 9e f4 42 3e 9b 36 4b bd 7b 59 fa bc
       -0.70788723 0.19038627 -0.049612623 -0.030560246
000170 d1 09 d8 bd cc bd 73 bd 20 89 0e bd ed 06 fe 3d
       -0.10548747 -0.059507176 -0.03479874 0.12403665
000180 da 16 7f bc 54 9c 0c bd 93 47 08 b8 da a3 ce 3c
       -0.015569413 -0.034328774 -3.2491585e-05 0.025224615
000190 95 b9 cf 3f 73 5e 19 bf 64 de ef 3d f2 d8 2f 3e
       1.622851 -0.59909743 0.117123395 0.17172602
0001a0 9c 44 fd 3d 52 11 8d 3d 56 11 1c 3c e4 57 1d bd
       0.12366602 0.06888069 0.009525618 -0.038413897
0001b0 b0 c8 b2 3c 37 4c cf bd 25 60 0c bc fd 0d 28 3d
       0.02182421 -0.10121959 -0.0085678445 0.041028965
0001c0 b1 e4 a6 3e 0d 4e 49 3e 26 98 bc 3c 51 74 02 be
       0.32596353 0.1965868 0.023021769 -0.12739684
0001d0 bd fd 1a bf 7a dc 07 3e 81 19 55 bd bc 02 02 3c
       -0.60543424 0.13267699 -0.052026276 0.007935222
0001e0 c8 a1 c9 3e f9 e4 09 bd 7a b8 5d bb 41 79 2d 3c
       0.39381242 -0.03366563 -0.003383188 0.010587991
0001f0 a3 59 d1 3e 56 69 73 3e 63 de 13 3c 0c 53 15 be
       0.408887 0.23770651 0.009025189 -0.14582461
000200 49 4e 7d ad 8c 5a 06 2b e7 ef e6 aa 23 3a a9 ab
       -1.4398768e-11 4.773202e-13 -4.1022673e-13 -1.2024308e-12
000210 aa 6f 95 2d e6 c3 e5 a9 f0 6d a8 a8 07 94 c3 2b
       1.6988928e-11 -1.0203626e-13 -1.8699425e-14 1.3896669e-12
000220 ac f7 61 bc 68 45 31 3c 45 32 84 3b 35 3a 12 bc
       -0.01379196 0.01081977 0.004034313 -0.00892501
000230 64 f4 d3 bd 7b 52 76 3e 79 57 6d bd 2a 88 01 3c
       -0.10349348 0.24054901 -0.05794475 0.007905999
000240 69 2a 4d bf 8d 89 e1 3d 27 13 60 bd 20 42 0f bc
       -0.8014284 0.11012564 -0.054705765 -0.008743793
000250 95 dc d7 be 26 22 2f 3e 59 61 34 bd fa ff e8 bb
       -0.42160478 0.1710287 -0.04403815 -0.007110593
000260 d7 3c 3f 3d 2c dd 88 bd e2 e7 75 ba 98 6a 2e 3d
       0.04668888 -0.0668281 -0.00093805615 0.042582124
000270 48 06 fd bd d0 d1 75 3d 24 6e ac 3b bd 16 32 bd
       -0.12354714 0.060014546 0.005262153 -0.043478716
000280 f9 eb 85 be aa 2a 33 3b 0c 38 05 bc 6d 7a 31 bb
       -0.26156595 0.0027338662 -0.008131038 -0.0027081028
000290 c8 a8 df 3f b9 d6 df be 7d 85 21 3e 61 9b 5f 3e
       1.7473383 -0.43718508 0.15773578 0.21836616
0002a0 18 81 a6 bb 2a 0c 10 bc 40 ed 79 3a 1b 0e 99 3b
       -0.005081307 -0.008791963 0.0009533949 0.004670871
0002b0 18 91 8a ac 04 aa 34 ab 9e 58 a1 a9 40 5d 87 2a
       -3.9383045e-12 -6.418479e-13 -7.165209e-14 2.4045523e-13
0002c0 e5 71 28 3d f4 5a 3a bd a7 1e f1 bb 2e 3a 04 3d
       0.041124243 -0.045496896 -0.0073583904 0.032282047
0002d0 98 e3 e9 3f 96 61 34 bf 91 e1 0d 3e fb 25 4b 3e
       1.8272581 -0.70461404 0.13855578 0.19838707
0002e0 96 b1 c2 3d e5 b3 83 bb 45 f3 d4 3b b4 5a 84 3a
       0.09506528 -0.004019248 0.0064987266 0.0010097832
0002f0 85 57 9c bf d6 81 ed 3e 5c 3d a3 bd fa 2d 23 be
       -1.2214209 0.4638812 -0.07970688 -0.15935507
000300 39 b4 8c 3f 77 92 ec be 4e 64 8b 3d 58 e3 1f 3e
       1.09925 -0.46205494 0.06806241 0.15614069
000310 ca 0f 52 ae 11 51 90 29 a1 a5 57 a9 a6 8b 61 ac
       -4.7762495e-11 6.4089474e-14 -4.788325e-14 -3.2051944e-12
000320 8a d7 e2 a9 94 a4 c5 a9 63 7c c2 28 d4 b4 0d 2a
       -1.0073806e-13 -8.777107e-14 2.159227e-14 1.2586053e-13
000330 0b b2 cc 3e b0 46 6d 3e e4 d0 22 3c 5e 6f 3c be
       0.39979586 0.23171496 0.009937499 -0.18401858
000340 2c 34 a6 3f b3 20 0e bf 96 50 c6 3d 7b 36 31 3e
       1.2984672 -0.55518645 0.09683339 0.17305939
000350 5a c5 62 3d 3f f4 82 bc e7 37 24 3c a8 1e 21 3c
       0.05536399 -0.015985606 0.010023094 0.009833969
000360 79 37 db b8 99 a9 53 ba 4c 67 3a b8 58 e5 ef 39
       -0.00010453066 -0.0008074283 -4.444206e-05 0.00045756507
000370 29 71 e6 bf 71 8f 01 3f 66 a7 d9 bd b7 40 06 be
       -1.8003284 0.506095 -0.10627632 -0.13110624
000380 76 e5 d4 be 4c 4f 2b 3e 14 f5 e5 bc 26 d6 81 bd
       -0.41581315 0.16729468 -0.028070964 -0.06339674
000390 2a 0a 70 3f 1e ae d9 be f5 df 94 3d 65 2b 07 3e
       0.9376551 -0.42515653 0.07269279 0.13200147
0003a0 8e 2d 42 3f bc 0a 98 bd 76 5e 05 3d bb 31 62 bd
       0.7585076 -0.074239224 0.032560788 -0.055223208
0003b0 bf 9f da bf e1 9e fd 3e 06 12 d2 bd 91 87 06 be
       -1.7080001 0.49535277 -0.10257344 -0.13137652
0003c0 6c f9 93 3f 54 51 1e bf f2 53 b7 3d f5 a5 77 3e
       1.1560493 -0.61842847 0.08951558 0.24184401
0003d0 ea 8e 9c 3f 38 de 03 bf bd 44 bb 3d 97 63 1f 3e
       1.2231114 -0.51510954 0.0914397 0.15565334
0003e0 37 68 1e be 52 25 e5 bc e6 b7 6d b9 94 9d 36 3c
       -0.15469442 -0.027971897 -0.00022670589 0.011145968
0003f0 61 8d 8f bf f8 1b ba 3e 8b 20 9e bd 28 e9 8f bd
       -1.121502 0.36349463 -0.07721051 -0.07026893

exp_avg_sq f4 [128, 4]
000000 98 8a 19 41 ac 1f 4f 3f 17 b9 fc 3c 0e 2f b5 3e
       9.596336 0.809077 0.030849976 0.35387462
000010 ba c3 9d 40 bb dc 9b 3f f5 63 4b 3c 8c b8 22 3e
       4.9301424 1.2176737 0.012413968 0.15890712
000020 07 59 1b 41 30 59 93 3f 88 3f f4 3c 3f 94 a8 3e
       9.709235 1.1511593 0.02981545 0.32925603
000030 b5 73 82 3f a4 5c b0 3d 69 56 5c 3a b7 9b 8a 3c
       1.0191561 0.0861142 0.000840521 0.016919954
000040 9e 16 c3 3f 67 a4 6e 3f 9e 93 bf 3b 3d 7f c3 3d
       1.5241277 0.9321961 0.0058464548 0.09545753
000050 73 66 d3 3f 9e 78 56 3e d7 16 b4 3b e1 15 72 3d
       1.651564 0.2094445 0.005495887 0.059102897
000060 c2 54 0f 3f c8 0b e4 3c d3 41 08 3a fc 66 86 3c
       0.55988705 0.027837649 0.0005197797 0.016406529
000070 43 72 90 3f 7a 7a 41 3e 67 61 fe 3a d3 38 f3 3c
       1.128487 0.18894377 0.001940769 0.029690182
000080 e8 d9 02 41 3b da 8c 3f 99 bc c0 3c c8 fb 93 3e
       8.1782 1.1004099 0.02352743 0.2890303
000090 d5 0c 5a 3f 57 4b e4 3d e1 de 80 3b d0 41 4f 3d
       0.8517583 0.111471824 0.0039328192 0.050599873
0000a0 d8 01 a9 40 6b b4 28 3f 01 9d 06 3c 7b 94 14 3e
       5.281475 0.65900296 0.008216144 0.14509766
0000b0 b7 cf e0 40 7e de 49 3f 31 4a 9f 3c 06 6b 69 3e
       7.025356 0.7885512 0.019444557 0.22794732
0000c0 e8 62 b5 3f 59 c3 1b 3e 4f e7 e1 3b 66 a5 9c 3d
       1.4170809 0.15211238 0.006894029 0.07648735
0000d0 cd eb 4a 42 9f e4 a8 40 5c 1f 1b 3e 92 20 e4 3f
       50.730274 5.277908 0.15148681 1.782244
0000e0 08 96 39 40 92 2d 6b 3e b6 8d d8 3a 4d ad 37 3d
       2.8997822 0.22966602 0.0016521725 0.044843007
0000f0 70 dc 3c 40 1d c4 b6 3e d7 a6 2c 3b 29 b6 8b 3d
       2.9509544 0.35696498 0.0026344561 0.06821854
000100 41 4a 1e 41 2d 4f d2 3f 08 0c 50 3d 39 66 07 3f
       9.893128 1.6430413 0.050792724 0.52890354
000110 82 a6 08 40 09 d6 28 3e 20 81 59 3b 84 93 c3 3d
       2.1351628 0.16487898 0.0033188537 0.09549621
000120 8c f7 cd 40 4c 5d 5f 3f 90 0b 9f 3c 7b f3 6a 3e
       6.436468 0.87251735 0.019414693 0.22944443
000130 29 53 6e 41 3e ea 0a 40 09 7d 41 3d f7 98 0e 3f
       14.895303 2.170547 0.047238383 0.55702156
000140 f4 a8 73 3e ac 1b ed 3c 6f e2 ec 39 d2 98 57 3b
       0.23794919 0.028943859 0.00045182134 0.0032897484
000150 6b 7e 25 3d 26 b2 19 3d 08 92 26 39 51 91 a0 3b
       0.040403765 0.03752341 0.00015885395 0.0049001356
000160 9b 5a fa 3f a3 76 b9 3e 31 d1 39 3c 10 e4 f7 3d
       1.95589 0.36223325 0.011341379 0.12104046
000170 07 b8 72 3f 61 ef c4 3e fa 96 03 3c 90 2e b5 3d
       0.94812053 0.38463882 0.008031601 0.08846772
000180 21 96 22 3d f6 51 29 3c 99 69 f5 38 a7 20 75 3b
       0.039693955 0.010334482 0.000117021795 0.0037403496
000190 ee a6 ee 41 17 53 7c 40 f3 8f aa 3d f7 3c 95 3f
       29.831509 3.9425714 0.083282374 1.165923
0001a0 9c 86 a5 3f 38 0e ee 3d 34 aa 10 3b 61 c8 11 3d
       1.2931705 0.11623806 0.0022074105 0.035591487
0001b0 88 5e fc 41 82 70 87 40 ad 35 5e 3d ba 79 74 3f
       31.546158 4.232484 0.054250408 0.9549824
0001c0 a2 78 81 40 5f bf 94 3e d9 52 f1 3b e2 2c db 3d
       4.0459757 0.29052255 0.0073646125 0.1070192
0001d0 47 bf 96 40 65 2f 1e 3f fd 23 81 3c d6 84 1f 3e
       4.7108493 0.6179107 0.01576423 0.15578017
0001e0 a8 b6 b2 3e d9 74 6a 3d 9e 07 a8 3a 85 03 60 3c
       0.3490498 0.05724034 0.0012819653 0.013672714
0001f0 d9 bd 9a 40 0f a7 9c 3e d9 fc fd 3b f0 84 eb 3d
       4.835675 0.30596206 0.007751089 0.11499965
000200 d5 4f d9 3e 60 71 19 3d 9b 37 c5 39 54 ca 11 3c
       0.4244372 0.03746164 0.00037616197 0.008898336
000210 d1 16 0b 40 a0 76 27 3e 9f e6 90 3a e2 cc 0e 3d
       2.1732676 0.16353846 0.0011055059 0.03486336
000220 b5 2e 6f 3d 04 c3 dd 3c b4 fb 0c 39 aa e6 0d 3b
       0.058394153 0.02707053 0.00013445207 0.002165238
000230 77 e3 90 40 be 85 66 3f 52 24 a8 3c 96 96 90 3e
       4.5277667 0.90047824 0.020525131 0.28239888
000240 42 5b e1 40 10 e6 6f 3f 41 e2 9d 3c 8d 57 6a 3e
       7.04239 0.9371042 0.019272925 0.2288496
000250 0a 50 97 3f 95 27 db 3e cc 7c 35 3c 67 11 02 3e
       1.1821301 0.42803636 0.011077117 0.12701951
000260 3b c2 be 3f c2 e7 f9 3e 92 33 54 3b 47 f1 16 3d
       1.4903024 0.4880963 0.003237937 0.036851194
000270 21 92 c2 3e f7 14 ac 3c 37 cd c2 39 44 ae 7d 3c
       0.38002113 0.02100609 0.0003715546 0.015483443
000280 65 9a b6 3f b2 a0 91 3e 26 5a 80 3b 48 d9 26 3d
       1.4265867 0.28442913 0.0039169965 0.04073456
000290 49 af ef 41 3f b6 6d 40 4a 4c df 3d 4e 5c a4 3f
       29.960588 3.7142484 0.10903223 1.2840669
0002a0 75 eb 88 3f b5 74 0d 3e b8 ac a4 3a e7 7b e3 3c
       1.0696856 0.13814051 0.0012563681 0.027769042
0002b0 4b 7e c8 3d 8b 9a 20 3d 98 64 26 39 05 86 b6 3a
       0.097897135 0.039209884 0.00015868468 0.0013925439
0002c0 b5 da f6 3e 48 d1 c0 3e dd db dc 3a d7 df c6 3c
       0.48213735 0.3765967 0.0016850192 0.024276657
0002d0 50 e3 aa 41 6b 24 50 40 6a 48 cf 3d 5d 66 82 3f
       21.360992 3.2522228 0.10121234 1.0187489
0002e0 06 76 d3 3e b4 27 88 3d 5f f8 48 3a 28 d5 61 3c
       0.41300982 0.06648198 0.00076664047 0.013783731
0002f0 e4 29 0e 41 3d e4 25 3f 06 3b cb 3c 00 9f 92 3e
       8.885227 0.6480139 0.024808418 0.28636932
000300 99 47 97 41 26 68 51 40 5c c6 7d 3d 36 0b 03 3f
       18.90996 3.2719817 0.06195675 0.5118898
000310 cb 7d 73 40 18 9b c8 3e 5b bf 61 3b e8 ba b3 3d
       3.8045528 0.39180827 0.0034446332 0.08775884
000320 eb de 05 3d bd ff d4 3c 1a 99 a5 38 cc 9b 5f 3a
       0.032683294 0.026000852 7.8963305e-05 0.00085299904
000330 70 ed 37 41 bc bc 1c 3f 6d 8d 94 3c 5d 22 72 3e
       11.495468 0.61225486 0.018133843 0.23645921
000340 6b 7c 98 41 c9 01 67 40 37 43 8a 3d 84 55 36 3f
       19.060751 3.609484 0.067511015 0.71224236
000350 7d 3b 8d 40 73 d9 4f 3e 2f fe 04 3c f9 b4 b1 3d
       4.4135118 0.20297794 0.008117243 0.08677096
000360 f1 97 9e 3e 3d 88 d3 3b 6a 5f 43 39 f0 c5 e3 3b
       0.30975297 0.00645545 0.00018632194 0.006951086
000370 5d 1a fe 41 ab 74 84 40 5f 5d bd 3d 54 bf 90 3f
       31.762873 4.1392417 0.09246325 1.1308389
000380 0a d1 76 3f ce a8 2b 3e c9 14 39 3b 97 e7 02 3d
       0.9641272 0.16763613 0.0028241149 0.031959143
000390 c4 7e 9a 40 99 8c 87 3f f9 36 ec 3c cd 10 9f 3e
       4.8279743 1.0589782 0.028834807 0.31067505
0003a0 93 1f 99 40 0d 1a 0c 3f ab 2f 3e 3c 6d 1d 31 3e
       4.7851043 0.5472725 0.011608045 0.17296381
0003b0 0b 89 b4 41 33 50 21 40 46 7f 86 3d ee 2d 51 3f
       22.566916 2.52052 0.06567244 0.8171071
0003c0 89 27 15 41 8e fa c7 3f 08 f3 43 3d 5c 23 eb 3e
       9.322152 1.5623338 0.047839195 0.45925415
0003d0 c3 99 e5 40 de 78 85 3f c8 60 07 3d 25 00 c8 3e
       7.1750197 1.0427511 0.033051282 0.3906261
0003e0 8e e6 bf 3e d6 e4 c1 3d be 4c 9d 3a 58 ff 43 3c
       0.37480587 0.09467475 0.001200102 0.011962734
0003f0 ab 1a a9 40 9e 22 88 3f cd f6 03 3d 20 42 b3 3e
       5.2845054 1.0635564 0.03221779 0.35011387

exp_avg f4 [128]
000000 5c 0d 92 3f bf 48 02 bf ee 41 83 3f ae ce 6f ac
       1.1410327 -0.5089225 1.0254495 -3.4078673e-12
000010 e5 dd 8a be c2 3e a5 bf 95 44 1f b9 47 f0 a9 3c
       -0.27122417 -1.2909777 -0.0001518897 0.020744456
000020 45 3b 8c 3f 86 e3 14 bf 59 83 2f b2 84 a3 6d 3f
       1.0955588 -0.58159673 -1.0216206e-08 0.9282763
000030 5e d2 12 3f 17 21 30 40 c9 84 49 ae 05 23 3b 3f
       0.57352245 2.7520196 -4.5820046e-11 0.7310031
000040 49 d7 aa bf 83 56 58 3e ea 8f 5b 3f 0c 1b b4 3f
       -1.334695 0.21126752 0.8576647 1.4070754
000050 94 80 c9 bb bf 31 b7 3c 25 2e 4e 3f 67 51 31 be
       -0.006149361 0.022362588 0.8053916 -0.17316209
000060 8c ef 0c 3d c5 77 da bf ca 81 43 bd e0 af 7d 3e
       0.034408137 -1.7067801 -0.0477312 0.24774122
000070 12 4d 9f be 5f d9 27 3f 40 ed 0b bf c4 ea d4 be
       -0.31113487 0.65566057 -0.5465889 -0.41585362
000080 65 53 02 ad 8b 02 07 2d 21 65 a5 3c c8 b7 1a 3f
       -7.408162e-12 7.674426e-12 0.020189824 0.6043668
000090 0e 6f 43 3f d2 f1 f3 3e 1d 41 04 be ac 57 c8 3d
       0.7634133 0.47645432 -0.12915464 0.09782347
0000a0 4a ff 92 3e 4d 35 d3 be ac 54 82 3c 8b 52 0f ac
       0.28710395 -0.41251603 0.015909515 -2.0367343e-12
0000b0 2b ea 91 bd 8e 43 fa bf 3e 9b 88 3c ad 11 a3 3f
       -0.07124742 -1.9551866 0.016675588 1.2739769
0000c0 2f 81 99 bf b1 75 f5 ad db 28 37 a9 8b 79 b3 be
       -1.1992549 -2.790554e-11 -4.06696e-14 -0.35053667
0000d0 08 5e ab bf a4 3c c8 bb 61 72 1c 3a 19 31 f2 3f
       -1.3388071 -0.0061107446 0.00059679715 1.8921233
0000e0 23 78 fa 3e fd ab 7a bf 89 16 a1 be 2f 9d e6 3f
       0.48919782 -0.97918683 -0.31462505 1.8016719
0000f0 35 93 92 bf 17 f0 a3 bf 09 0b 34 3e 07 69 a1 3f
       -1.1451174 -1.2807645 0.17582335 1.2610177
000100 5e 22 c7 2b d9 64 6a bf bd 53 df bb 55 d5 89 bf
       1.4149339e-12 -0.9156013 -0.0068154023 -1.0768229
000110 bb ee 85 bf 76 35 a5 3e 61 e4 14 3f f4 ce d8 1d
       -1.046348 0.3226735 0.5816098 5.738871e-21
000120 09 c3 1f 40 7b 4f e3 3e 95 50 04 3f ec cc cd 3c
       2.496279 0.44396576 0.5168546 0.025122128
000130 af d9 03 bb 02 8b 81 3d a0 93 a6 bd cc ce c3 38
       -0.0020118763 0.06325342 -0.08133626 9.3368435e-05
000140 71 fc b0 3d 38 de b8 bf 0a 42 c6 bf 03 f7 3b bc
       0.086418994 -1.4442816 -1.5488904 -0.011472466
000150 39 a8 4a bb 59 b8 15 b8 59 82 3a 3d fa c7 36 c0
       -0.0030923022 -3.5696055e-05 0.045534465 -2.8559556
000160 1b 17 66 ae bc 99 48 3f d6 76 e5 bd 1e 60 ee 3f
       -5.2316467e-11 0.7835958 -0.11204307 1.8623083
000170 15 b5 51 40 31 34 01 40 2d 92 05 c0 fd 7f 05 b5
       3.2766774 2.0188105 -2.0870469 -4.973261e-07
000180 70 98 9a ae 96 dd 8f b2 26 7f b7 bf 31 c2 58 be
       -7.0301875e-11 -1.6748157e-08 -1.4335678 -0.21167828
000190 4d b6 0f aa d8 42 dc bf ec 76 fc bf 1b 93 09 bf
       -1.27642e-13 -1.7207899 -1.9723792 -0.5374009
0001a0 5b 7f b5 3f 6c 42 08 c0 11 c5 44 ae 23 65 3f 3d
       1.4179491 -2.129054 -4.474027e-11 0.04672731
0001b0 dc 4f 27 3d e8 16 cb be d6 65 a2 3b dd 3a 88 bf
       0.040847644 -0.39665914 0.0049559874 -1.0642964
0001c0 00 5c d0 3f d3 23 c4 ab 00 00 00 00 d1 8c 23 be
       1.6278076 -1.3936581e-12 0.0 -0.15971686
0001d0 98 0f 11 40 ff d5 a5 bc 2d 01 4a ba ad 0e 03 40
       2.2665768 -0.020243643 -0.00077058637 2.0477707
0001e0 0d 32 df bc 24 44 02 a4 33 83 f1 3f 8a ae a2 bf
       -0.027245546 -2.8246974e-17 1.8868164 -1.2709515
0001f0 99 b2 62 bc 34 2f 7d be 5c 80 d6 bc 7b ee c1 3e
       -0.013836526 -0.24725038 -0.026184253 0.3787726

exp_avg_sq f4 [128]
000000 97 b4 ca 40 5d 7e 1e 40 7c fe b4 40 62 87 7d 3e
       6.3345447 2.4764626 5.656065 0.24758676
000010 ae 29 54 3f fd 98 91 3f 92 f9 18 3e 8a e2 d3 3e
       0.828761 1.1374813 0.14938954 0.41383773
000020 bf 5a 93 40 07 fc 4a 3f 1b 50 f2 3f fc 4d 7e 40
       4.6048274 0.79290813 1.8930696 3.9735098
000030 9c 23 bc 3f 53 52 fc 41 dc e0 35 3f 26 7c 7e 3f
       1.4698367 31.540197 0.71046233 0.99408185
000040 a5 91 1a 41 06 dd 6e 3f 69 6d 72 40 17 22 10 41
       9.660558 0.93306005 3.7879279 9.008323
000050 e7 38 8b 3d ff fb 9d 3c fe e8 03 40 4e 57 c6 3f
       0.06797963 0.0192852 2.0610957 1.5495393
000060 ba 60 bb 3c 17 a0 88 41 95 04 ed 3e 0f 77 4b 41
       0.022873271 17.078169 0.46292558 12.716567
000070 c5 db bb 3f ff aa 49 40 86 cf 74 3e 01 c8 d7 3f
       1.4676443 3.1510618 0.23907289 1.6857911
000080 09 b2 db 3d 7f 16 07 3f ed d7 97 3c 8d 9c 8b 40
       0.10727317 0.527687 0.018535579 4.36286
000090 98 a7 77 40 56 2d 0a 40 dc ee 14 3f a9 80 ff 3d
       3.869604 2.159017 0.5817697 0.12475712
0000a0 48 1c 30 3f e5 8a a4 41 12 ad b9 3e cf 89 ca 3c
       0.68793154 20.56782 0.36264855 0.024723915
0000b0 52 bd 3f 3e 51 ca 99 41 90 35 13 3e 27 17 ac 40
       0.18724564 19.223787 0.14375901 5.377826
0000c0 f1 fe 41 41 e7 26 7b 3f f4 86 f9 3b 6e 36 73 40
       12.124742 0.98106235 0.0076149646 3.8001971
0000d0 aa ad 4e 41 75 94 c7 3f 31 20 93 3d 7a 20 90 41
       12.917398 1.559218 0.071838744 18.015858
0000e0 4e 67 16 3f 8c f9 a9 40 4d e9 14 40 ce 72 53 41
       0.5875138 5.3117123 2.3267395 13.2155285
0000f0 ac c9 13 41 e6 77 d2 40 f5 89 53 3e cc 0c ba 40
       9.236736 6.577136 0.20658095 5.814062
000100 6a 1c 9c 3b 32 35 82 40 ee b0 9f 3f 1b ba ab 40
       0.0047641294 4.0689936 1.247587 5.366468
000110 35 91 e8 40 f3 f1 c4 3f 4f ae 3f 40 e8 90 d7 32
       7.2677255 1.5386337 2.995014 2.509519e-08
000120 20 27 c1 41 43 c0 83 3f c1 9c 0d 41 27 d4 86 3f
       24.144104 1.0293049 8.85077 1.0533494
000130 b7 67 90 3f 4f 9c b9 3e 5d 66 e4 3e 40 ac 16 3d
       1.1281651 0.36252066 0.44609347 0.036785364
000140 23 56 b5 3f 33 6d 84 41 b5 08 40 41 6b 9a aa 40
       1.4166912 16.55332 12.002126 5.33135
000150 96 22 25 3f 96 a0 83 3a 58 3c 6f 3e a6 92 a2 41
       0.645059 0.0010042365 0.23362863 20.321606
000160 06 cb c0 3e 0e 2b a4 40 7d 46 87 3f a9 08 9b 41
       0.37654895 5.1302557 1.0568386 19.379229
000170 48 79 34 42 13 10 8f 41 95 f2 b0 41 95 74 99 39
       45.11844 17.882849 22.118448 0.00029269294
000180 59 37 9b 3d 06 97 9d 3f da 7e 5d 41 a3 28 b2 41
       0.07578916 1.2311714 13.84347 22.269842
000190 f5 1b 2d 3d 05 b7 97 41 49 67 d7 41 28 86 1a 40
       0.04226299 18.964365 26.925432 2.4144382
0001a0 a2 a4 0c 41 ca ca 13 41 86 99 83 3f f7 ae 0b 3d
       8.790194 9.237009 1.0281227 0.034102406
0001b0 0d 43 31 3e 01 a2 89 3f 56 04 ab 3c ed 8f 04 41
       0.17310734 1.0752565 0.020876091 8.285138
0001c0 9d 87 48 41 ee 0f a3 3d 00 00 00 00 d4 8c 48 41
       12.533109 0.07962023 0.0 12.534382
0001d0 8b 26 b0 41 5a 46 d5 3e 2d 41 cc 3d 75 81 47 41
       22.01882 0.41655236 0.09973369 12.469106
0001e0 4f cf 66 3f 42 30 9b 38 bc 27 84 41 df c4 54 41
       0.9016008 7.399965e-05 16.519402 13.298064
0001f0 ff 1f de 3c 1b 56 cd 3f 79 2e 32 3e d9 eb 76 3f
       0.027114866 1.6041902 0.1740054 0.96453625
