week 6/checkpoints/reinforce_baseline_cartpole_seed0.pth (torch, 450447 bytes, 33 tensors)

network.0.weight f4 [128, 4]
0	0x3e30e9d5	0.172767
1	0xbd6699b6	-0.056298934
2	0x3c1ef6fb	0.009702439
3	0x3e50cecc	0.20391387
4	0x3e3a3daf	0.18187593
5	0x3ea29b44	0.31759083
6	0x3f00ef46	0.503651
7	0x3e73ed96	0.238211
8	0xbea1167e	-0.31462473
9	0x3f115503	0.5677034
10	0x3ea9ee47	0.33189604
11	0x3ef9fe53	0.48826846
12	0xbeb4ad17	-0.35288307
13	0x3cc462d8	0.023972914
14	0xbeb5397e	-0.35395426
15	0xbf070467	-0.5274109
16	0xbe73fb55	-0.23826344
17	0x3df7bfa6	0.12097101
18	0xbe74ed60	-0.23918676
19	0x3ee28c80	0.44247818
20	0xbec723b4	-0.38894427
21	0xbd904518	-0.070444286
22	0xbec76761	-0.3894606
23	0xbed1c7ba	-0.40972692
24	0xbd98f6af	-0.07468926
25	0xbed53e9f	-0.4164934
26	0xbeaa0b34	-0.33211672
27	0x3e8ac7b9	0.271055
28	0x3e1c8127	0.15283643
29	0x3e4e4005	0.20141609
30	0xbf112d44	-0.56709695
31	0xbf07be65	-0.53024894
32	0x3eaadd93	0.33372173
33	0xbe6e08f7	-0.23245607
34	0xbe5e88c1	-0.21731855
35	0x3edb534c	0.42836988
36	0x3e23fc1c	0.16014141
37	0xbec3a148	-0.38208985
38	0xbe2c0d3e	-0.16801926
39	0x3ebf68b0	0.37384558
40	0x3e769a8a	0.2408239
41	0xbde1d1f5	-0.11026374
42	0x3e0ca9ac	0.137366
43	0xbea444f8	-0.3208387
44	0xbebfcf8f	-0.37463042
45	0x3efd65a3	0.49491605
46	0x3f101eb8	0.56296873
47	0x3e7af7bc	0.24508566
48	0x3ec7004e	0.3886742
49	0x3e508a8e	0.20365354
50	0xbef3e260	-0.47633648
51	0xbe27341c	-0.16328472
52	0x3ea66570	0.32499266
53	0x3e390a7f	0.1807041
54	0x3e7d28ab	0.24722545
55	0x3c6917d1	0.01422687
56	0x3ed96c24	0.42465317
57	0x3eb0971e	0.34490293
58	0xbe7925c4	-0.24330813
59	0x3e51d1c6	0.20490178
60	0xbde3833d	-0.11109016
61	0xbeb1b29f	-0.3470659
62	0xbe7140bc	-0.2355985
63	0xbefc50e9	-0.4928048
64	0xbe75fcd4	-0.24022228
65	0xbee272ab	-0.4422811
66	0xbf448a4d	-0.7677353
67	0x3d7b4532	0.061345287
68	0x3e53d365	0.2068611
69	0x3ec6c8de	0.38825125
70	0xbdf2a83f	-0.11848497
71	0xbec6227b	-0.38698182
72	0xbeb524b0	-0.35379553
73	0xbef31dde	-0.47483724
74	0x3e91bcda	0.28464395
75	0xbca51f0e	-0.02015641
76	0xbedd245d	-0.43191805
77	0x3e47e38b	0.19520395
78	0xbf02df13	-0.51121634
79	0xbe899a1f	-0.26875398
80	0x3e961f54	0.29320776
81	0xbe09c760	-0.13454962
82	0xbf0e5c60	-0.55609703
83	0xbeabb1db	-0.3353413
84	0x3e3e7d68	0.18602526
85	0x3e09a164	0.13440472
86	0x3f5a7213	0.85330313
87	0x3ecdceaa	0.40196735
88	0x3dbc4540	0.09192896
89	0xbd7286bf	-0.059210535
90	0x3f323a08	0.696198
91	0x3e5a9b67	0.21348344
92	0xbe32a0d7	-0.17444168
93	0x3ea93af1	0.3305278
94	0x3f0ae8bd	0.5426138
95	0x3eaf8dea	0.3428796
96	0xbecbebd6	-0.39828366
97	0xbeb3890d	-0.350655
98	0xbf46c653	-0.7764637
99	0xbead5608	-0.338547
100	0x3e83f4ec	0.25772798
101	0x3e238a28	0.15970671
102	0x3e94947d	0.29019538
103	0xbe4d7975	-0.20065863
104	0x3da82fbf	0.08212232
105	0x3e3dd8b3	0.18539695
106	0xbe76957f	-0.24080466
107	0xbec6fb24	-0.3886348
108	0xbd81eb72	-0.06343736
109	0x3e3c70c3	0.1840239
110	0x3edafe85	0.42772308
111	0xbe270944	-0.16312128
112	0x3ec51963	0.3849593
113	0xbea839fb	-0.32856736
114	0x3e6d5220	0.2317586
115	0xbed1a2bc	-0.4094447
116	0xbcb3fdc5	-0.021971593
117	0xbe8f3708	-0.27971673
118	0xbe1452d2	-0.14484718
119	0xbe400add	-0.18754144
120	0x3eb8d151	0.36097196
121	0x3d286f0a	0.04112152
122	0xbec1c5dd	-0.3784627
123	0xbef0c1b0	-0.47022772
124	0xbe61ef83	-0.22064023
125	0x3ed83b65	0.42232814
126	0x3e08d207	0.13361369
127	0xbea09cad	-0.31369534
128	0x3e85cce0	0.2613287
129	0x3ea8ece2	0.32993227
130	0x3ed36e86	0.4129526
131	0x3b83bc38	0.00402024
132	0x3cc14ad2	0.023595247
133	0x3cceef4b	0.025260588
134	0xbf3f5326	-0.7473625
135	0xbe5f64fd	-0.21815868
136	0x3d6366a0	0.055517793
137	0x3e6ccc91	0.23124911
138	0xbea5dc78	-0.32394767
139	0xbe0da4c8	-0.1383239
140	0xbea64916	-0.32477635
141	0xbe8ec686	-0.27885836
142	0xbe3ed864	-0.18637234
143	0x3f05796c	0.521384
144	0xbed0abb6	-0.40756005
145	0xbd98d827	-0.07463103
146	0x3f2a561b	0.66537637
147	0x3f161f22	0.58641255
148	0x3ee612df	0.44936273
149	0x3da15bdb	0.07878848
150	0xbee823e2	-0.45339876
151	0xbf07d748	-0.5306287
152	0xbe57dfb1	-0.21081425
153	0xbe52b65a	-0.20577374
154	0x3dc0eef7	0.09420579
155	0x3e63df29	0.22253098
156	0xbef9fea5	-0.4882709
157	0x3eb8522f	0.360002
158	0xbf078b75	-0.5294717
159	0xbf109fe5	-0.5649398
160	0x3eb35744	0.35027516
161	0xbe946c69	-0.2898896
162	0xbefa78ed	-0.48920384
163	0x3e445b95	0.19175561
164	0x3edff7f4	0.4374386
165	0xbecf9ded	-0.40550175
166	0xbdb7cd7f	-0.08974742
167	0xbee30714	-0.44341338
168	0x3ea48631	0.3213363
169	0xbe2e2b4a	-0.17008701
170	0xbe7e0ee5	-0.2481037
171	0x3e788b9f	0.24272011
172	0x3e29d73c	0.16586012
173	0x3c846e50	0.016165882
174	0xbe029827	-0.12753354
175	0x3f0ddc8e	0.55414665
176	0x3e912724	0.28350174
177	0x3e643b8d	0.22288342
178	0xbf4ba8c0	-0.7955437
179	0xbee4f93a	-0.44721395
180	0x3e3ab364	0.18232495
181	0x3eda8c75	0.42685285
182	0xbf0746fa	-0.52842677
183	0xbe8a357f	-0.2699394
184	0xbda9aaf8	-0.08284563
185	0x3e81f701	0.25383762
186	0xbe8cbf8e	-0.27489895
187	0xbe5fa07c	-0.21838564
188	0x3e80cb8d	0.25155297
189	0x3caf0f90	0.021369725
190	0x3e53c70e	0.20681402
191	0x3edcf259	0.43153647
192	0x3dcb6eae	0.0993322
193	0x3d7f38b1	0.062309925
194	0x3ef7af1e	0.4837579
195	0xbe48cfd1	-0.19610526
196	0x3ef349f3	0.47517356
197	0x3ef4e4bd	0.47830763
198	0x3ea63c4c	0.32467878
199	0x3eae280a	0.34014922
200	0xbd6ffe84	-0.058592334
201	0xbee4fc2f	-0.4472365
202	0xbee223e2	-0.44168
203	0xbe9cab06	-0.3059923
204	0xbe12bcc4	-0.14329821
205	0xbd2d918d	-0.042375136
206	0x3ebd2dc5	0.36948982
207	0xbe8b852a	-0.27250034
208	0xbe8a0c83	-0.2696267
209	0x3e876bd9	0.2644947
210	0x3e12f2c2	0.14350417
211	0xbe25ca3e	-0.1619043
212	0xbb90a525	-0.004414218
213	0x3d6ce9a6	0.057840012
214	0x3d4e44c4	0.05035855
215	0xbe9fe3cd	-0.31228486
216	0xbe1b120e	-0.15143606
217	0xbea7c0b7	-0.32764217
218	0xbe8399c3	-0.25703248
219	0xbe8405ea	-0.25785762
220	0xbe3ca183	-0.18420987
221	0xbe848fbb	-0.25890908
222	0x3eef61af	0.46754214
223	0x3f122738	0.57091093
224	0xbe9b4f51	-0.3033395
225	0x3eb80886	0.35944003
226	0x3e0c2976	0.13687691
227	0x3e6a0941	0.22855093
228	0x3e974dd5	0.2955157
229	0xbec6be57	-0.38817093
230	0x3d26dd56	0.040738426
231	0xbf0ace26	-0.5422081
232	0xbd56af86	-0.052413486
233	0xbe0a238c	-0.13490123
234	0x3edc077a	0.42974454
235	0x3e67f7fb	0.22653191
236	0xbe2ad739	-0.16683663
237	0x3d2cefae	0.042220764
238	0xbd68872d	-0.05676954
239	0xbe71d1de	-0.23615214
240	0xbe15bed7	-0.14623581
241	0xbe2011ca	-0.15631786
242	0x3e619406	0.22029123
243	0x3f13e34f	0.5776872
244	0xbe3eea95	-0.18644173
245	0x3d652f39	0.05595324
246	0xbe09a37f	-0.13441275
247	0x3eb81b4e	0.35958332
248	0x3d91cbe8	0.0711897
249	0x3cf44cf7	0.029821856
250	0xbebe7675	-0.3719975
251	0x3e06e07b	0.1317157
252	0x3e7478ed	0.23874255
253	0xbf004a95	-0.50113803
254	0xbdda431a	-0.1065733
255	0xbda71795	-0.08158795

network.0.bias f4 [128]
0	0xbef6b09c	-0.48181617
1	0xbdaba302	-0.08380701
2	0x3c3373fe	0.010952948
3	0x3ebb0ee3	0.36534795
4	0xbe0e40a4	-0.13891846
5	0x3f02aa5b	0.5104119
6	0xbf0804ae	-0.5313214
7	0xbe0414ff	-0.12898634
8	0x3e9475d5	0.2899615
9	0x3ecf911e	0.40540403
10	0xbbd204fa	-0.0064092847
11	0x3ef65a0c	0.48115575
12	0xbf08fee4	-0.5351393
13	0xbdee5a6b	-0.116383396
14	0xbdbc55e8	-0.09196073
15	0x3eaf6b7d	0.34261695
16	0x3e89392b	0.26801428
17	0xbe850c1c	-0.259858
18	0xbf031ba5	-0.5121406
19	0x3db461e6	0.08807735
20	0x3ed660dc	0.41870773
21	0x3e419911	0.18906046
22	0x3ea4f860	0.32220745
23	0x3ebe9bca	0.37228233
24	0x3eb01e6c	0.3439821
25	0xbe806fba	-0.2508524
26	0xbeb9f1da	-0.3631733
27	0xbd752a0a	-0.059854545
28	0xbf098446	-0.5371746
29	0x3e83c1f8	0.25733924
30	0x3e04babc	0.12961859
31	0xbebcf1e6	-0.36903304
32	0xbe95752d	-0.2919096
33	0x3e6a480c	0.22879046
34	0xbd8e3092	-0.06942858
35	0x3cb1ce0b	0.021704694
36	0x3eece776	0.4627034
37	0x3e330bf4	0.17485029
38	0xbdb274ac	-0.0871366
39	0x3efb7ab5	0.49117056
40	0x3dba63bb	0.09101053
41	0xbceb1543	-0.028696662
42	0xbe6f2cbb	-0.23356907
43	0xbcdd90ff	-0.027046679
44	0x3e90e2e8	0.28298116
45	0x3c94b9c0	0.018154979
46	0x3ee5e6cd	0.4490265
47	0x3ebd342d	0.3695387
48	0xbed8c771	-0.42339662
49	0xbed099e5	-0.40742412
50	0x3d943e14	0.07238403
51	0xbeb55680	-0.35417557
52	0xbeef3546	-0.46720332
53	0xbec49986	-0.3839838
54	0x3ed6d7d0	0.41961527
55	0xbdfb55af	-0.12272202
56	0x3e79397a	0.24338332
57	0x3edd35a7	0.43204996
58	0x3ea9be97	0.3315322
59	0xbf0293b8	-0.5100665
60	0x3bced14c	0.006311571
61	0x3e875bd4	0.26437247
62	0xbb5de972	-0.0033861068
63	0xbdb4ee60	-0.08834529
64	0xbec54bbd	-0.38534346
65	0x3e56a6ce	0.20962068
66	0x3e27313b	0.16327374
67	0x3e71febc	0.2363233
68	0xbe0f212e	-0.13977501
69	0xbf018bc9	-0.5060392
70	0xbd9df87e	-0.07713412
71	0xbf01be7d	-0.5068129
72	0x3e84d6ea	0.25945216
73	0xbd3ed217	-0.046587076
74	0x3eb6b1b7	0.3568246
75	0x3e228a24	0.15873009
76	0xbe1b8dde	-0.15190837
77	0x3e278e83	0.16362958
78	0xbe911ae2	-0.28340822
79	0x3eae993f	0.34101292
80	0xbe8f9fd2	-0.2805162
81	0x3e95a402	0.2922669
82	0x3e34c93a	0.17654887
83	0x3e9ddeea	0.30834132
84	0x3e0ff242	0.14057258
85	0xbe118074	-0.14209157
86	0xbee63980	-0.44965744
87	0x3c06b599	0.008222007
88	0xbf0a420c	-0.5400703
89	0xbe76ac19	-0.24089088
90	0x3e509f53	0.20373277
91	0x3e22bbac	0.15891904
92	0x3e420d3b	0.1895036
93	0x3da7f504	0.0820103
94	0x3e6ef83e	0.23336884
95	0x3db941dd	0.090457655
96	0x3e9e91cd	0.30970612
97	0xbe9a9ade	-0.3019628
98	0x3eac3e7f	0.3364143
99	0x3e87d146	0.2652685
100	0xbe7d9779	-0.24764813
101	0x3eaeeef0	0.3416667
102	0x3da61e93	0.081113
103	0xbef2559c	-0.4733094
104	0x3eb764a2	0.35818964
105	0x3dba5429	0.090980835
106	0xbe64f887	-0.2236043
107	0x3d9dee3d	0.07711456
108	0x3e1b7b31	0.15183713
109	0x3e87c5e1	0.26518157
110	0xbe32e756	-0.1747106
111	0xbd971022	-0.07376124
112	0x3ea61aa2	0.32442194
113	0x3d4254fc	0.04744433
114	0xbed542ce	-0.4165253
115	0x3e9e6385	0.30935302
116	0xbea35d11	-0.31906942
117	0xbee0821e	-0.43849272
118	0x3e6b8e93	0.23003606
119	0x3ddbb5d0	0.10728037
120	0x3eeab28b	0.45839342
121	0x3d5322fe	0.051547043
122	0xbe662772	-0.22475985
123	0x3e6d96ad	0.2320201
124	0x3e5d864f	0.21633266
125	0x3dc224b9	0.094796605
126	0xbea8e936	-0.32990426
127	0x3df460bf	0.11932515

network.2.weight f4 [128, 128]
0	0xbddc66bd	-0.10761783
1	0xbcf7224f	-0.030167727
2	0xbe039de6	-0.12853202
3	0x3d81a35e	0.06329988
4	0x3b0b863c	0.0021289727
5	0x3d980710	0.07423222
6	0xbd9a12cc	-0.075231165
7	0x3db0b581	0.08628369
8	0xbd110f13	-0.035414767
9	0xbcb14a6d	-0.021641934
10	0x3d5bb420	0.053638577
11	0xbd2571f2	-0.04039187
12	0x3c750789	0.01495541
13	0xbd57a216	-0.05264481
14	0xbdb38359	-0.08765287
15	0x3d4b6699	0.04965839
16	0x3db9372d	0.09043727
17	0xbd161331	-0.036639396
18	0x3da68675	0.081311144
19	0xbc58b01e	-0.013225583
20	0x3d029382	0.031878956
21	0xbe484188	-0.19556248
22	0x3b118699	0.002220547
23	0x3b8b9a37	0.004260327
24	0x3e38f68c	0.180628
25	0xbd390f81	-0.0451808
26	0x3daf51e7	0.085605435
27	0x3cc59570	0.024119109
28	0x3d0f0a7b	0.034922104
29	0x3cc11821	0.023571076
30	0xbc2cf3ea	-0.0105562005
31	0xbd99847b	-0.07495972
32	0x3cd61ca1	0.026136698
33	0x3e29f53d	0.16597457
34	0xbcac78d1	-0.021053704
35	0x3da142cf	0.07874071
36	0x3d98fa7a	0.074696496
37	0x3dc87ef4	0.097898394
38	0xbd96e1eb	-0.07367309
39	0x3e0729ae	0.13199493
40	0x3daf20b4	0.085511595
41	0x3d96d517	0.073648624
42	0x3ca9bd30	0.020720094
43	0x3d74c51b	0.059758287
44	0x3cbd1a38	0.023083791
45	0x3d8e3955	0.06944529
46	0x3d515dcf	0.051114853
47	0x3cf73397	0.030175967
48	0x3c42ec89	0.011897215
49	0xbd852112	-0.06500448
50	0x3e22f0af	0.15912126
51	0x3d92e33d	0.071722485
52	0x3d14ccb8	0.036328048
53	0x3d267cff	0.04064655
54	0x3d2700c5	0.04077222
55	0x3d67aa96	0.056559168
56	0xb8869bea	-6.418659e-05
57	0x3df3be46	0.11901526
58	0xbd1d375f	-0.038382884
59	0x3cf3e746	0.029773366
60	0xbc9696fa	-0.018382538
61	0x3c848ab4	0.01617942
62	0x3da1a126	0.07892065
63	0x3d6ed21b	0.05830584
64	0x3d5603cf	0.052249726
65	0x3de3db58	0.11125821
66	0x3d121d8e	0.035672717
67	0xbdda80a5	-0.10669068
68	0x3d81a58a	0.06330402
69	0x3c920721	0.017825665
70	0xbd4c9302	-0.049944885
71	0x3ca2f399	0.019891547
72	0xbd1dba24	-0.038507596
73	0xbdd57130	-0.104219794
74	0xbc1af0dc	-0.009456839
75	0xbd6b975f	-0.057517406
76	0x3d3b1901	0.045678142
77	0xbe021169	-0.12701954
78	0x3de0d978	0.10978979
79	0xbd1da56a	-0.03848783
80	0x3d972842	0.073807254
81	0xbbb308c0	-0.0054636896
82	0x3d44d7e7	0.048057463
83	0x3d84168b	0.06449612
84	0xbd210549	-0.03931168
85	0xbd295a11	-0.04134566
86	0xbd2226eb	-0.039587896
87	0x3d0c28fe	0.03421878
88	0x3d7b9467	0.061420824
89	0x3d839f27	0.0642684
90	0xbd4260b1	-0.047455493
91	0x3d016131	0.03158683
92	0xbe0dd522	-0.13850835
93	0x3e008985	0.1255246
94	0xbd9015e1	-0.07035423
95	0xbd9b5f7d	-0.07586572
96	0x3e310406	0.17286691
97	0xbd864f9d	-0.06558154
98	0x39aca469	0.00032928892
99	0x3d6f629d	0.058443654
100	0x39908dbd	0.00027571424
101	0x3d73f6b8	0.05956146
102	0xbdb8571c	-0.0900099
103	0x3d1a233f	0.03763127
104	0x3e16e8f6	0.14737305
105	0x3daba81a	0.08381672
106	0xbd5debfc	-0.05418013
107	0x3d704365	0.058658022
108	0xbd9e0c83	-0.0771723
109	0x3dc2cbab	0.09511503
110	0xbcb44ffb	-0.022010794
111	0xbc89501f	-0.016761838
112	0x3c8bfec4	0.017089255
113	0x3cd3fce4	0.025877424
114	0x3cafd318	0.021462962
115	0xbd00d5ff	-0.031454083
116	0x3d88b968	0.066759884
117	0xbda2ea61	-0.079548605
118	0xbd43259f	-0.0476433
119	0x3d014528	0.031560093
120	0xbd506254	-0.050875023
121	0x3ca24003	0.019805914
122	0x3ccc2477	0.024919732
123	0x3d4c0ebc	0.04981874
124	0x3c8ad78c	0.016948484
125	0xbdf2f579	-0.118632264
126	0xbdacb979	-0.084338136
127	0x3c5e86fc	0.0135819875
128	0x3d560dbf	0.052259203
129	0x3d6b5742	0.057456262
130	0x3d3e8a66	0.046518706
131	0xbd4ae53a	-0.049535014
132	0x3db73919	0.089464374
133	0x3d400c54	0.046886757
134	0xbd023a76	-0.031794034
135	0xbd03b75e	-0.032157294
136	0x3dc80a69	0.097676106
137	0xbca79dc5	-0.020460973
138	0xbb9d4b48	-0.004800234
139	0xbb71547a	-0.0036824034
140	0x3d4b8e57	0.049696293
141	0x3da13f0c	0.07873353
142	0xbd94a230	-0.07257497
143	0xbc3412ad	-0.010990781
144	0x3d048d37	0.032361235
145	0xbd2c9370	-0.042132795
146	0xbdc6883c	-0.096939534
147	0xbdbfa475	-0.093575396
148	0x3cf2d92d	0.029644573
149	0x3e3bc019	0.18334998
150	0x3dbc3785	0.09190277
151	0xbc4e233a	-0.012581641
152	0xbe1413ba	-0.1446065
153	0x3cb07bcf	0.021543412
154	0xbda50dc9	-0.0805927
155	0x3d747662	0.05968321
156	0xbd549efd	-0.051909436
157	0xbd1b4980	-0.037911892
158	0xbda4fc51	-0.08055938
159	0xbd4f0ea7	-0.050551083
160	0xbd618b35	-0.0550644
161	0xbdef4e55	-0.116848625
162	0x3c8ab0b6	0.016929965
163	0x3ace9195	0.001575994
164	0x3d0ece27	0.03486457
165	0x3d6b5132	0.05745048
166	0x3d7c3ce9	0.061581526
167	0xbbe636aa	-0.0070255594
168	0x3d5e492e	0.05426901
169	0xbdcdd274	-0.100499064
170	0x3a121966	0.00055732427
171	0xbbd99c14	-0.0066409204
172	0x3d694508	0.0569506
173	0xbcbc5d76	-0.022993784
174	0xbd25ee49	-0.04051045
175	0x3dac8f0b	0.08425721
176	0xbcd184bc	-0.025575988
177	0x3da6d388	0.08145815
178	0xbcd1a462	-0.02559108
179	0xbd8bb672	-0.06821908
180	0x3d4dc79e	0.050239198
181	0xbdd65b6b	-0.10466655
182	0xbda0722c	-0.078342766
183	0xbcc781f0	-0.024353951
184	0xba5e0a0c	-0.0008470125
185	0x3cc7e175	0.024399498
186	0xbd1e6cc1	-0.038677935
187	0xbceb9231	-0.028756233
188	0x3de23e3c	0.110470265
189	0xbc8e93ea	-0.017404515
190	0x3cb1ea91	0.021718295
191	0x3c145555	0.009053548
192	0x3db0ebb8	0.0863871
193	0xbdbdae74	-0.0926179
194	0xbd385ad6	-0.045008503
195	0x3e0b5d1b	0.13609736
196	0xba5f4eaf	-0.00085184997
197	0x3d7a2bcc	0.061076924
198	0x3d3f6a71	0.04673237
199	0x3d9787e5	0.07398967
200	0xbd20a6e0	-0.039221644
201	0x3e0fab15	0.14030106
202	0xbc4a7dd9	-0.012359106
203	0xbd2d84f1	-0.04236311
204	0xbd2f9d75	-0.042874772
205	0x3e1303ce	0.1435692
206	0xbd1cc256	-0.03827127
207	0xbd69164c	-0.05690603
208	0x3d133c57	0.035946216
209	0xbd22b9b1	-0.03972787
210	0x3e01d130	0.12677455
211	0xbd58e033	-0.052948188
212	0x3cdcc893	0.02695111
213	0x3dff0875	0.12452785
214	0xbd4067f0	-0.046974123
215	0x3bc0683c	0.0058718007
216	0x3d14b639	0.036306594
217	0x3dba638e	0.0910102
218	0x3c24dbc0	0.010062158
219	0x3dda242c	0.106514305
220	0x3e2e58cb	0.1702606
221	0x3beabac1	0.007163376
222	0x3c99b9b1	0.018765302
223	0x3d86f811	0.06590284
224	0xbd079b68	-0.03310719
225	0x3d972f5c	0.0738208
226	0xbc869d55	-0.016432444
227	0xbd510292	-0.051027842
228	0x3cc4928d	0.023995662
229	0xbd3bdb82	-0.045863636
230	0x3d10199d	0.035180677
231	0xbd86caa7	-0.065816216
232	0xbd0fe9a1	-0.035134915
233	0xbd43fdcf	-0.047849473
234	0x3da3db4e	0.080008134
235	0x3de74168	0.11291772
236	0x3dcc57f7	0.099777155
237	0xbd5869f8	-0.052835435
238	0x3d3f5e04	0.04672052
239	0xbdd9b1e8	-0.10629636
240	0x3d65970c	0.056052253
241	0xbe21ecc9	-0.15812983
242	0x3b845daf	0.0040394883
243	0x3daf607f	0.08563327
244	0x3b0d8e42	0.0021599685
245	0x3d87bb85	0.066275634
246	0x3e060f51	0.1309178
247	0xbd10de6d	-0.03536837
248	0xbced34e5	-0.028955886
249	0x3e199c86	0.15001115
250	0x3d7bcd5d	0.061475147
251	0xbd7e8eeb	-0.062148016
252	0xbbb2a73e	-0.0054520657
253	0x3d00c7d6	0.03144058
254	0x3dc003b5	0.09375707
255	0x3cb5671d	0.022143895

network.2.bias f4 [128]
0	0x3d5d4787	0.054023292
1	0xbb2e6d99	-0.0026615618
2	0xbdad2bcb	-0.084556185
3	0xbd85c263	-0.06531217
4	0xbd9a4f14	-0.07534614
5	0xbd8f8d76	-0.070094034
6	0x3df034bc	0.11728808
7	0xbc8ad028	-0.01694496
8	0x3d816680	0.063183784
9	0x3da09f6e	0.07842909
10	0x3dc40953	0.09572091
11	0xbd51ec16	-0.05125054
12	0xbda21279	-0.0791368
13	0x3ce08aae	0.027409878
14	0xbda43fc7	-0.08019977
15	0x3d821639	0.06351895
16	0xbd20c7eb	-0.039253157
17	0x3d99db22	0.075124994
18	0xbc1108f5	-0.008852233
19	0x3c1a209b	0.009407188
20	0x3a8100c6	0.000984215
21	0x3b904eb9	0.0044039157
22	0xbd569e4d	-0.05239706
23	0x3d11c310	0.035586417
24	0x3d838f9b	0.06423875
25	0x3d4cef19	0.05003271
26	0x3d924987	0.071429305
27	0x3c7a9b1b	0.015295769
28	0x3d1bceea	0.038039126
29	0x3de1826d	0.11011205
30	0xbc0ed72c	-0.008718293
31	0x3c78286a	0.015146354
32	0xbcb561a4	-0.022141285
33	0xbd92e5f5	-0.07172767
34	0x3c5f5780	0.0136317015
35	0x3d660fa0	0.056167245
36	0xbd7d2ea8	-0.061812073
37	0x3dae1cba	0.08501573
38	0x3db0d61f	0.0863459
39	0x3db1f035	0.08688394
40	0x3d045b5d	0.032313693
41	0x3d2c280e	0.042030387
42	0x3d97207c	0.07379243
43	0x3d1091f4	0.03529544
44	0xbd71e473	-0.059055757
45	0xbd2c4e72	-0.042067
46	0xbd84bdd2	-0.06481518
47	0x3d30c371	0.043155137
48	0x3dae02d8	0.08496636
49	0x3b5618e8	0.0032668654
50	0x3dbe10ba	0.09280534
51	0x3d4605d5	0.048345406
52	0x3d55ef5a	0.052230217
53	0xbd899aa0	-0.067189455
54	0xbd288000	-0.041137695
55	0xbca776ea	-0.020442445
56	0xbcf6a359	-0.030107187
57	0xbd9a1983	-0.07524397
58	0xbd9cb00f	-0.07650768
59	0xbc878470	-0.016542643
60	0x3cb9afa2	0.022666756
61	0x3d22cb5e	0.039744727
62	0x3d6ad24a	0.057329454
63	0x3d474b46	0.04865577
64	0xbd6d8fef	-0.057998594
65	0xbdd8c037	-0.10583537
66	0xbc683d01	-0.014174701
67	0x3b2647f8	0.0025372487
68	0x3c266004	0.010154728
69	0x3d74dcf9	0.05978105
70	0x3ca62376	0.020280581
71	0x3dcfea4c	0.101521105
72	0xbd534bb6	-0.051585875
73	0x3d8591ee	0.065219745
74	0xbd461f22	-0.048369534
75	0xbdb6e3ab	-0.08930143
76	0xbbd9df5c	-0.006648941
77	0x3cf2d058	0.029640362
78	0x3d7fa6db	0.062414985
79	0x3d1eb4a2	0.038746484
80	0x3da0d718	0.07853526
81	0xbd4423d2	-0.047885723
82	0xbc4a6951	-0.012354211
83	0x3d05c5c6	0.032659315
84	0x3d06bd4a	0.032895364
85	0x3c041258	0.008061014
86	0x3d36b7ea	0.044608988
87	0xbc6e5a83	-0.014547947
88	0xbcff0bcf	-0.03113356
89	0x3d2d2ab7	0.042277064
90	0xbd866ca2	-0.06563689
91	0xbd3cacf0	-0.046063364
92	0x3d964b12	0.07338537
93	0xbd9651d6	-0.07339828
94	0xbbfcc306	-0.0077136783
95	0xbd57cc83	-0.052685272
96	0xbc9af533	-0.018915748
97	0xbcaea08e	-0.021316793
98	0xbc8e4bfa	-0.017370213
99	0xbd858c24	-0.0652087
100	0x3c24d569	0.010060647
101	0x3d92633b	0.07147833
102	0xbb4fa595	-0.0031684388
103	0xbd28fee6	-0.041258715
104	0x3c4dd8ca	0.012563894
105	0x3c2a5e7c	0.010398503
106	0x3d146df3	0.03623767
107	0x3d9529a2	0.072833315
108	0xbdcc2f51	-0.099699624
109	0x3cb9ff24	0.022704668
110	0xbd783848	-0.06060055
111	0xbc60ed57	-0.013728461
112	0x3daf6ca7	0.08565646
113	0xbd995a0b	-0.074878775
114	0x3d9b0559	0.07569379
115	0xbd0f0a36	-0.034921847
116	0xbc902b7d	-0.017598862
117	0x3d02e78e	0.03195911
118	0xbcef2bb3	-0.029195642
119	0x3d9c0169	0.076174565
120	0x3d1adea7	0.037809994
121	0x3d99421e	0.07483314
122	0x3d41e5d7	0.047338333
123	0x3c600aef	0.013674482
124	0x3d6a0188	0.057130367
125	0x3c4517e1	0.012029619
126	0xbd8197d0	-0.06327784
127	0x3c28138c	0.010258567

network.4.weight f4 [2, 128]
0	0x3e1c7e69	0.15282597
1	0xbd85623d	-0.06512878
2	0xbce84ae7	-0.028356029
3	0x3da75a3a	0.08171506
4	0xbca76635	-0.020434478
5	0xbd818669	-0.06324465
6	0x3e05982f	0.13046335
7	0xbd7ad6a2	-0.061239846
8	0xbde47b07	-0.11156278
9	0x3d99fb7e	0.075186715
10	0x3dfed2dd	0.12442563
11	0x3d7292f5	0.05922218
12	0xbc6da8c9	-0.014505574
13	0xbd9e8946	-0.077410266
14	0xbc39810c	-0.011322271
15	0xbd4017fd	-0.046897877
16	0xbd3e5114	-0.04646404
17	0xbd7db954	-0.06194432
18	0x3c4d17a6	0.012517845
19	0x3dca9c74	0.09893122
20	0x3d0315be	0.032003157
21	0xbdca7de3	-0.09887292
22	0xbd4d78cc	-0.05016403
23	0x3ded598c	0.11589345
24	0x3dd36845	0.10322622
25	0x3e31f1be	0.17377374
26	0x3ddeb91a	0.10875149
27	0xbda6db05	-0.081472434
28	0xbdfaf9aa	-0.12254651
29	0x3dc670b0	0.09689462
30	0x3cea9e53	0.028639948
31	0xbd4d4fb2	-0.05012483
32	0x3e06532d	0.13117667
33	0xbe0946ce	-0.13405916
34	0x3d53dcc7	0.05172422
35	0xbe20ba86	-0.15696153
36	0xbd892551	-0.06696571
37	0x3e109ade	0.14121577
38	0x3e297c2d	0.16551276
39	0xbd833ed9	-0.064084716
40	0xbd894253	-0.067021035
41	0x3daf8767	0.08570748
42	0x3da4319d	0.080172755
43	0x3dceab2f	0.100912444
44	0x3d8074c2	0.0627227
45	0xbdae9730	-0.085249305
46	0x3a9b9315	0.0011869395
47	0x3dd7b9fb	0.1053352
48	0x3d4e19b5	0.050317485
49	0xbe1ec574	-0.1550501
50	0x3e121d4e	0.14268991
51	0xbd6285f5	-0.055303533
52	0xbc4cb20c	-0.012493622
53	0x3d0cfd6d	0.034421373
54	0xbdfab329	-0.12241203
55	0x3d43f5d2	0.047841854
56	0xbdf629d8	-0.120197
57	0x3bba26de	0.005680903
58	0xbc955b13	-0.018231904
59	0x3e01770f	0.12643073
60	0xbe04d3b7	-0.12971388
61	0x3d9d752b	0.07688364
62	0x3e1b4bb7	0.15165602
63	0x3c9b6ccb	0.018972775
64	0x3e089188	0.13336766
65	0x3d8ccc2f	0.068748824
66	0x3b920b30	0.0044569
67	0x3db36ca4	0.08760956
68	0x3d0e8e9c	0.03480397
69	0x3d40e0ec	0.047089502
70	0xbc914bcd	-0.01773634
71	0x3d8e623f	0.06952333
72	0x3de5448c	0.11194715
73	0x3d614b63	0.055003535
74	0xbdd75b37	-0.10515445
75	0xbd70af33	-0.058760833
76	0x3d8c9dcc	0.06866035
77	0x3d694cbc	0.056957945
78	0xbdd8e00b	-0.10589608
79	0x3cf41fbd	0.02980029
80	0x3dbdb1b2	0.09262408
81	0xbd8b53d4	-0.06803098
82	0x3c2359cc	0.00997014
83	0xbe1a2077	-0.15051447
84	0x3ce5ff11	0.028075727
85	0xbdd7b2bb	-0.10532137
86	0xbd51f4ab	-0.051258724
87	0x3e10bfa1	0.141356
88	0xbc042acb	-0.008066843
89	0xbd8713c9	-0.065955706
90	0x3d70f7e5	0.05883016
91	0xbbba93ea	-0.0056939023
92	0x3c334fdc	0.010944333
93	0xbc89dbe2	-0.016828481
94	0x3dc154f8	0.09440035
95	0xbc200838	-0.0097675845
96	0xbb8f7ea3	-0.00437911
97	0x3e055496	0.13020548
98	0xb95f7b24	-0.0002131281
99	0xbc443cc7	-0.011977381
100	0x3e1f7ff1	0.1557615
101	0xbd061ba6	-0.03274121
102	0x3c0bfe34	0.0085444935
103	0x3e35241e	0.17689559
104	0xbd305b84	-0.043056026
105	0xbcf4b58a	-0.02987172
106	0xbe0d6a68	-0.13810122
107	0x3e1f567a	0.15560332
108	0xbd16f158	-0.036851257
109	0x3ce637da	0.028102804
110	0x3b72c8eb	0.0037046026
111	0xbd248fb3	-0.040176105
112	0x3da22180	0.07916546
113	0xbd77909a	-0.060440637
114	0xbde46ae5	-0.11153201
115	0x3dbc07ff	0.09181213
116	0xbcbbbbf3	-0.02291677
117	0xbde9336b	-0.1138676
118	0xbe0f22aa	-0.13978067
119	0xbd9b6a03	-0.075885795
120	0x3df984f3	0.12183561
121	0xbdc7a560	-0.0974834
122	0xbd94b664	-0.07261351
123	0x3cb67ef7	0.022277338
124	0x3e08f567	0.13374864
125	0xbe143199	-0.14472045
126	0x3d5a2d9d	0.053266156
127	0xbe25a73c	-0.16177076
128	0xbe220567	-0.15822373
129	0x3db9fe34	0.090816885
130	0xbcc8f82d	-0.024532402
131	0xbde3a7d9	-0.11115999
132	0xbb4c60f3	-0.0031185716
133	0xbd244d9f	-0.040113088
134	0xbdbca6be	-0.09211491
135	0xbc5aa906	-0.013345962
136	0x3db27bab	0.08714994
137	0xbe2654a2	-0.16243222
138	0xbd54dc26	-0.051967762
139	0x3d8b1f6a	0.06793101
140	0xbcf6151d	-0.030039364
141	0xbcf76ac6	-0.03020228
142	0xbd2eec44	-0.04270579
143	0x3d97112c	0.07376322
144	0xbd4577f0	-0.048210084
145	0x3d080c20	0.03321469
146	0xbd8a7c53	-0.06761994
147	0xbd82f9a4	-0.063952714
148	0xbe0aee2a	-0.13567415
149	0x3dede8d1	0.11616672
150	0xbc9d8080	-0.019226313
151	0xbdfa3bae	-0.12218414
152	0xbdaf789d	-0.08567927
153	0xbda8bd56	-0.08239238
154	0xbce3adae	-0.027792778
155	0xbd93ae47	-0.07210975
156	0x3db591c9	0.08865697
157	0xbe260345	-0.16212185
158	0x3d8d501a	0.06900044
159	0xbd74264a	-0.059606828
160	0xbd0e7bc6	-0.03478601
161	0x3d6ed755	0.058310825
162	0x3cd7d0aa	0.026344616
163	0x3e2b3986	0.16721162
164	0x3d757782	0.059928425
165	0xbe189301	-0.14899828
166	0xbc62e4d5	-0.013848503
167	0xbd979cd1	-0.07402957
168	0x3de86d39	0.113489576
169	0xbe0e32a3	-0.13886504
170	0xbda83374	-0.08212939
171	0xbe0370ea	-0.12836042
172	0x3d5c2c4b	0.05375318
173	0x3ac6d8f7	0.0015170862
174	0x3d0e65f0	0.034765184
175	0xbddf90a9	-0.109162636
176	0xbdb941b9	-0.09045739
177	0x3d215b33	0.039393615
178	0xbd5836e2	-0.052786715
179	0xbcbbde60	-0.022933185
180	0x3d690987	0.05689385
181	0x3d918c69	0.07106859
182	0xbccf2682	-0.025286917
183	0xbc5c6d28	-0.013453759
184	0x3e05909a	0.13043442
185	0x3def7f64	0.1169422
186	0x3d8237ef	0.06358325
187	0xbd3a2c41	-0.04545236
188	0x3d982411	0.07428754
189	0x3d256e4e	0.040388398
190	0xbe150459	-0.1455244
191	0xbd53fb93	-0.05175359
192	0xbd7d52ba	-0.061846472
193	0x3cec8322	0.028871123
194	0xbd420730	-0.047370136
195	0xbe089079	-0.13336362
196	0x3da10287	0.0786181
197	0x3d9fb6e4	0.077985555
198	0x3b4462a6	0.0029966026
199	0xbe07853e	-0.13234422
200	0xbdc7b532	-0.09751357
201	0xbd9f3dee	-0.07775484
202	0x3dac78d8	0.084214866
203	0xbce514d8	-0.02796404
204	0x3d18806a	0.03723184
205	0x3d0ece4d	0.034864713
206	0x3e208646	0.15676221
207	0xbe346447	-0.17616378
208	0xbd0ec652	-0.0348571
209	0xbd8bc6d8	-0.06825036
210	0x3c3d2c6d	0.011546236
211	0x3e107f40	0.14111042
212	0x3cb28210	0.021790534
213	0x3e01a366	0.12659988
214	0x3d62dbcc	0.055385396
215	0xbe07eea7	-0.13274632
216	0xbd39b3b7	-0.045337405
217	0x3d666187	0.056245353
218	0x3d655ffd	0.055999745
219	0x3dad10c5	0.08450464
220	0xbdf2bcbb	-0.11852404
221	0xbd76db7f	-0.06026792
222	0xbdd6ed00	-0.10494423
223	0xbd4ea332	-0.050448604
224	0x3cc0a606	0.023516666
225	0xbe13d981	-0.1443844
226	0x3d39877b	0.04529522
227	0xbca09efa	-0.019607056
228	0xbcd6e279	-0.026231037
229	0x3ddf67cb	0.10908469
230	0xbcd57ba1	-0.026059927
231	0xbe0a1aaa	-0.13486734
232	0x3de961e0	0.11395621
233	0xbcba6998	-0.02275543
234	0x3c11ee3d	0.008906898
235	0xbc8041ff	-0.01565647
236	0xbcfc67a3	-0.030811137
237	0xbe1bf99a	-0.15231934
238	0xbcf17e42	-0.02947915
239	0x3d3c4d50	0.04597217
240	0xbd0f1135	-0.03492852
241	0xbce37e06	-0.027770054
242	0x3dd3dd12	0.103449
243	0xbe22fd1c	-0.15916866
244	0xbcff1e44	-0.031142361
245	0x3ded5085	0.115876235
246	0x3d99e830	0.075149894
247	0x3dffa0ff	0.124818794
248	0xbe0f0cdf	-0.13969754
249	0x3df65dc5	0.12029604
250	0x3e16540d	0.146805
251	0x3d114e3c	0.035475
252	0xbd3fc03b	-0.046814185
253	0x3d672376	0.056430303
254	0x3d581950	0.052758515
255	0x3dc6ce9b	0.097073756

network.4.bias f4 [2]
0	0x3c16b994	0.009199519
1	0x3d0014c6	0.03126981

network.0.weight f4 [128, 4]
0	0xbf536b0e	-0.8258523
1	0x3e8d47bf	0.275938
2	0xbe29d313	-0.16584425
3	0x3e803c20	0.25045872
4	0xbecb69e3	-0.39729223
5	0x3ec7def5	0.3903729
6	0x3e9f498d	0.31110802
7	0x3e4d24a4	0.20033509
8	0xbf14aa47	-0.5807232
9	0xbeb8ffe9	-0.36132744
10	0xbf01d936	-0.5072206
11	0xbe55773b	-0.20846264
12	0x3f39e2a1	0.72611433
13	0x3dfaecb5	0.122521795
14	0x3f471a9a	0.77774966
15	0xbc34a1ed	-0.011024934
16	0x3e1f3a38	0.15549552
17	0x3f02d1c6	0.5110134
18	0xbdd1f9bc	-0.10252711
19	0x3e64387d	0.22287174
20	0xbde8d4c7	-0.11368709
21	0xbdc26a39	-0.094929166
22	0xbd9eec89	-0.07759959
23	0x3e3baf20	0.18328524
24	0xbf05ef05	-0.5231784
25	0xbebff018	-0.37487864
26	0xbde8f7da	-0.11375399
27	0x3ed2d09e	0.41174787
28	0x3e8172d0	0.25282907
29	0x3d8cad2b	0.06868967
30	0x3d244139	0.040101264
31	0xbd1b78c1	-0.037956957
32	0xbf40bd7a	-0.7528912
33	0xbf02e7cc	-0.51134944
34	0x3de7cf21	0.113188036
35	0xbee34f41	-0.44396403
36	0xbf361ffc	-0.71142554
37	0x3d129514	0.035786703
38	0x3dff2aec	0.124593586
39	0x3eb435d6	0.35197324
40	0xbdc55d8d	-0.09636984
41	0xbe0f7c7d	-0.14012332
42	0xbe9f8de8	-0.31162953
43	0xbe9ecdac	-0.3101629
44	0xbed741d6	-0.42042416
45	0x3ee24f01	0.442009
46	0xbeb3ab83	-0.3509179
47	0xbecfbe65	-0.40574947
48	0x3e1cf14a	0.1532642
49	0xbeb9659c	-0.36210334
50	0x3c965f78	0.01835607
51	0xbed2a81e	-0.41143888
52	0x3c7ca686	0.015420562
53	0x3d2591d3	0.040422272
54	0xbec0e9ad	-0.3767828
55	0xbe945735	-0.28972784
56	0xbd7d0bf7	-0.06177899
57	0xbe7de06a	-0.24792638
58	0x3e9f8211	0.3115392
59	0x3ef25d26	0.47336692
60	0xbe7417f8	-0.23837268
61	0xbde12f62	-0.10995366
62	0x3e4ecd64	0.20195538
63	0x3e16462e	0.14675209
64	0xbd769f16	-0.06021031
65	0xbe32e177	-0.1746882
66	0xbee04d15	-0.4380881
67	0xbeb42569	-0.35184792
68	0xbda0547c	-0.07828614
69	0x3d44bc47	0.048031118
70	0x3e12e178	0.14343822
71	0xbf031e2e	-0.51217926
72	0x3e3bb429	0.18330444
73	0xbe282789	-0.16421331
74	0xbef3e108	-0.47632623
75	0x3f03cbe8	0.5148301
76	0xbf0c4910	-0.54798985
77	0xbe554c9a	-0.20830002
78	0xbda2a6ac	-0.079419464
79	0x3ef0fee0	0.47069454
80	0x3da88236	0.08227961
81	0xbf019bb6	-0.5062822
82	0xbe556fe7	-0.20843469
83	0x3cad0d2b	0.021124443
84	0xbf33c83e	-0.7022742
85	0xbed55173	-0.41663703
86	0xbea55a81	-0.32295612
87	0xbf0e03be	-0.5547446
88	0xbf0072b6	-0.50175035
89	0xbdafda95	-0.08586613
90	0xbd637992	-0.05553586
91	0xbeb54e0a	-0.35411102
92	0x3d99a61a	0.075023845
93	0xbd0f8a5b	-0.035044055
94	0x3deb2964	0.11482504
95	0x3ea4a342	0.32155806
96	0x3d08cd1f	0.033398744
97	0xbe21fe6b	-0.15819709
98	0xbefaa3ff	-0.48953244
99	0x3e35c102	0.17749408
100	0x3e372fb4	0.17889291
101	0xbe369cf9	-0.17833318
102	0xbe2ecafc	-0.1706962
103	0xbefefe6b	-0.4980348
104	0x3ee1f953	0.44135532
105	0x3f13ee54	0.57785535
106	0xbc01a7a5	-0.007913505
107	0xbeab5d57	-0.3346965
108	0xbe457313	-0.19282179
109	0xbad44e74	-0.0016197697
110	0x3ee216ec	0.44158113
111	0x3dedd503	0.116128944
112	0xbea58c35	-0.32333532
113	0x3e595075	0.21222098
114	0xbdfcd17d	-0.12344644
115	0xbeb0aec9	-0.3450835
116	0xbd580e76	-0.052748166
117	0x3e0a277a	0.13491622
118	0xbd9ac62b	-0.07557329
119	0xbe808b8a	-0.2510646
120	0xbe8c7b3c	-0.2743777
121	0xbe3a15cd	-0.18172379
122	0xbea35c45	-0.31906334
123	0x3d48fdff	0.049070355
124	0x3e9d5436	0.3072831
125	0x3dbeca25	0.093159
126	0x3c173273	0.009228337
127	0x3ed0c606	0.4077608
128	0x3dd99834	0.106247336
129	0x3e44619d	0.19177862
130	0xbe38be43	-0.18041329
131	0xbe86c124	-0.2631923
132	0xbf0fd0c2	-0.56177914
133	0x3eb0654e	0.3445229
134	0xbd64a84c	-0.055824563
135	0xbee32a99	-0.44368437
136	0x3e45836e	0.19288418
137	0x3e85bd9a	0.26121217
138	0xbedfbcc8	-0.43698716
139	0xbe3a9af7	-0.18223177
140	0xbe27cb76	-0.16386208
141	0x3ea7f6f3	0.32805595
142	0x3e2c6df2	0.16838816
143	0xbd69a2b0	-0.057039917
144	0x3ecc4fe2	0.39904696
145	0xbe75a20c	-0.23987597
146	0x3f049a27	0.5179772
147	0x3db4c9e2	0.088275686
148	0x3ecd8cd4	0.40146506
149	0x3edc0937	0.4297578
150	0x3f0d832e	0.5527829
151	0xbe5fa7cd	-0.21841355
152	0xbe5e5d7f	-0.21715353
153	0xbeb57141	-0.35437968
154	0x3e82beb9	0.25536135
155	0x3eaba14e	0.33521503
156	0x3e66275d	0.22475953
157	0xbd6cd921	-0.057824258
158	0xbeb84d8b	-0.3599666
159	0xbe74f77e	-0.23922536
160	0x3d8428af	0.06453072
161	0xbdc5bf49	-0.096556254
162	0xbed29369	-0.4112809
163	0xbe934b65	-0.2876846
164	0xbf280545	-0.6563304
165	0x3ecdc35c	0.4018811
166	0x3e3f19e9	0.18662228
167	0x3d51d8ad	0.05123203
168	0x3e3878fa	0.18014899
169	0xbeacf20a	-0.3377841
170	0xbd977ea3	-0.07397201
171	0xbe2f635a	-0.17127743
172	0xbe163c25	-0.14671381
173	0xbe3695b4	-0.17830545
174	0x3ef69070	0.48157072
175	0xbedd8043	-0.43261918
176	0xbe8345f9	-0.25639322
177	0xbf14f742	-0.58189785
178	0xbd902af7	-0.07039445
179	0x3d200082	0.039062984
180	0x3dfc5d28	0.12322456
181	0x3f05ca97	0.5226225
182	0x3e00bb44	0.12571436
183	0x3ef12c32	0.4710403
184	0x3ea7d8cb	0.32782587
185	0xbd8ec562	-0.069712415
186	0xbe4277c4	-0.18991
187	0x3ecac612	0.3960424
188	0x3d466900	0.04843998
189	0x3edeb679	0.4349859
190	0xbe86f624	-0.26359665
191	0x3ec00bdb	0.37509045
192	0x3e250a43	0.16117196
193	0xbc941039	-0.018074142
194	0xbe829f21	-0.2551203
195	0xbdba2644	-0.0908933
196	0xbeec592d	-0.46161786
197	0x3ebc42dc	0.3676976
198	0x3c862156	0.016373318
199	0xbe20919f	-0.1568055
200	0x3eac5013	0.33654842
201	0xbe1d56f9	-0.15365209
202	0xbe898be5	-0.26864544
203	0x3db14077	0.08654874
204	0x3e90583d	0.2819232
205	0x3e451f29	0.19250168
206	0xbeb898b8	-0.36054015
207	0x3e7e7949	0.24850954
208	0xbed517eb	-0.4161981
209	0xbef17151	-0.47156766
210	0xbf111600	-0.56674194
211	0xbec12bb5	-0.37728658
212	0xbe0e0725	-0.13869913
213	0xbeb7847e	-0.3584327
214	0x3d81c38e	0.06336127
215	0x3ee393f2	0.4444881
216	0xbe7d0a36	-0.24710926
217	0xbe5480b7	-0.20752226
218	0x3d720944	0.059090868
219	0x3edee1fa	0.4353178
220	0x3dfd2730	0.1236099
221	0xbeb09ef9	-0.34496287
222	0xbea16d66	-0.31528777
223	0xbe73f855	-0.238252
224	0xbdd8dee7	-0.1058939
225	0x3b241df4	0.0025042268
226	0x3dbc5c49	0.091972895
227	0x3d5137dc	0.051078662
228	0xbefcc7ac	-0.49371088
229	0xbea347de	-0.31890768
230	0xbe972427	-0.2951977
231	0x3ed69ff1	0.419189
232	0x3dffed29	0.124964066
233	0x3ca04e97	0.019568725
234	0x3caf68d2	0.021412287
235	0x3e36be30	0.17845988
236	0xbe0b064e	-0.13576624
237	0x3e027f84	0.12743956
238	0x3e97e484	0.2966653
239	0x3dabe11f	0.08392548
240	0x3e29b734	0.16573793
241	0x3e747b1c	0.23875087
242	0xbe74fe82	-0.23925212
243	0xbf07992a	-0.52968085
244	0xbe187459	-0.14888133
245	0x3c510ae6	0.012758946
246	0x3ecd7614	0.4012915
247	0x3dc6d77a	0.09709068
248	0xbee3e513	-0.44510707
249	0xbe45e601	-0.19326021
250	0xbe0ff52f	-0.14058374
251	0x3dc93a63	0.098255895
252	0x3e5be1aa	0.21472803
253	0xbf0f22f8	-0.55912733
254	0xbe3028f2	-0.1720312
255	0x3eca40e3	0.3950263

network.0.bias f4 [128]
0	0xbd8ae8d0	-0.06782687
1	0x3f24738a	0.642388
2	0xbe709b88	-0.2349683
3	0xbddd2c44	-0.107994586
4	0xbe688df7	-0.22710405
5	0x3eb969d0	0.3621354
6	0xbe764ef4	-0.24053556
7	0x3f11b416	0.56915414
8	0xbdfc5d42	-0.12322475
9	0xbe53bafe	-0.206768
10	0x3edeee4c	0.4354118
11	0x3f36a6f9	0.7134853
12	0x3eb7cbdc	0.3589772
13	0x3f0e7c79	0.5565868
14	0x3e5ce569	0.21571888
15	0x3ef22b77	0.47298786
16	0x3f199022	0.59985554
17	0xbd0d7590	-0.034535944
18	0x3d4cf6d1	0.05004007
19	0xbe7930db	-0.24335043
20	0xbe35bb35	-0.17747195
21	0xbdb79bd3	-0.08965268
22	0xbc8d6283	-0.017258888
23	0x3ec85fd5	0.39135614
24	0x3f121ef7	0.570785
25	0x3df2e096	0.118592426
26	0xbeb5cef6	-0.3550946
27	0x3ece212d	0.40259686
28	0x3f27a628	0.6548791
29	0x3ef99cbb	0.48752388
30	0x3f270b2d	0.6525143
31	0x3ece7109	0.40320614
32	0x3f037097	0.51343673
33	0xbe80163d	-0.25016966
34	0xbe3c97d8	-0.18417299
35	0x3e8a91af	0.27064273
36	0xbd950f53	-0.072783135
37	0xbea4b58d	-0.32169762
38	0x3e32d10f	0.17462562
39	0x3eea0603	0.45707712
40	0x3ee9a625	0.4563457
41	0xbdd40211	-0.10351957
42	0x3e885ea6	0.2663471
43	0x3ee5a451	0.44851926
44	0xbe932b73	-0.28744087
45	0xbe539637	-0.20662771
46	0xbccb15ce	-0.02479067
47	0xbe368294	-0.17823249
48	0x3eac3ba7	0.3363926
49	0xbe14661e	-0.1449208
50	0x3e84f10e	0.2596516
51	0x3ec2ade0	0.3802328
52	0xbcaab4b0	-0.020838112
53	0x3eccea12	0.4002233
54	0x3f1a60b7	0.60303825
55	0x3eae6368	0.34060216
56	0x3e6c9091	0.23102023
57	0xbe58e332	-0.21180418
58	0x3e9bc550	0.30423975
59	0x3e6347a6	0.221953
60	0x3e5e61da	0.21717015
61	0x3e9bfa1b	0.30464253
62	0xbddc7a90	-0.107655644
63	0xbec0acf5	-0.37631956
64	0x3f046c75	0.5172799
65	0x3f09af5e	0.53783214
66	0x3ef959dd	0.48701373
67	0xbe758993	-0.23978262
68	0x3f19ddda	0.60104144
69	0x3e93ddea	0.28880244
70	0x3efe9164	0.497203
71	0xbe50f052	-0.20404175
72	0xbea64a0c	-0.32478368
73	0x3f0d6381	0.55229956
74	0x3e879c9c	0.2648667
75	0x3eb7094f	0.3574929
76	0x3f1dcdf2	0.6164237
77	0x3f01b9e5	0.5067428
78	0x3f0e2775	0.55528957
79	0x3e5b416f	0.2141168
80	0xbdaeda63	-0.08537748
81	0xbe9e2d5a	-0.30893975
82	0x3f271d72	0.65279305
83	0x3ef7e223	0.48414716
84	0xbe875cc0	-0.2643795
85	0xbe1e3afe	-0.15452191
86	0x3d3f2d2d	0.046673942
87	0xbe60593e	-0.21909043
88	0x3f077019	0.5290542
89	0xbdee7447	-0.11643272
90	0xbe0cc081	-0.1374531
91	0x3e5afe4d	0.2138607
92	0x3ed3feb6	0.41405267
93	0x3f368cd0	0.7130861
94	0x3eeac5c9	0.45854023
95	0x3f25ed84	0.64815545
96	0xbd255677	-0.040365662
97	0xbebab8f9	-0.36469248
98	0x3f01e4a7	0.5073952
99	0xbe21e590	-0.15810227
100	0xbe1ed882	-0.15512279
101	0x3f2fcb2c	0.6866939
102	0x3ef57585	0.47941223
103	0xbe9044d6	-0.28177518
104	0xbe0b5d1b	-0.13609736
105	0x3f3109a6	0.6915535
106	0xbdaf1f51	-0.08550895
107	0xbed452ca	-0.41469413
108	0xbdcfa980	-0.101397514
109	0x3efaf4c6	0.49014872
110	0x3e5e772a	0.21725145
111	0x3f1f5ae2	0.6224805
112	0xbda0f4ba	-0.07859178
113	0xbe250814	-0.16116363
114	0x3e734f5b	0.2376074
115	0x3f1a59bc	0.60293174
116	0xbdfa3459	-0.12217016
117	0x3ee91208	0.4552157
118	0xbd36da09	-0.04464153
119	0x3f0455ab	0.5169322
120	0xbccd376f	-0.025050847
121	0x3e4b6e4f	0.19866298
122	0x3ea1d9f4	0.31611598
123	0x3f1d9c46	0.6156658
124	0x3eb1eb7a	0.34749967
125	0xbd2545ec	-0.040349886
126	0xbe036376	-0.1283091
127	0xbe2d3a05	-0.16916664

network.2.weight f4 [128, 128]
0	0xbec3a6ad	-0.382131
1	0x3e2b3c6c	0.16722268
2	0xbe3aed44	-0.18254572
3	0xbe90fb4c	-0.28316724
4	0xbe273d5b	-0.16331999
5	0x3e710969	0.23538746
6	0xbdaeb7b3	-0.085311316
7	0x3ddc7848	0.10765129
8	0xbe8635e6	-0.26212996
9	0xbec10d5c	-0.37705505
10	0x3e6293bc	0.22126669
11	0x3e0c62ef	0.13709615
12	0x3da07eb8	0.0783667
13	0x3e823e66	0.2543823
14	0x3e0aa49f	0.1353936
15	0x3e36e3a4	0.17860276
16	0x3e3df8d1	0.18551947
17	0xbcf6d180	-0.030129194
18	0xbcd9b15e	-0.026573833
19	0xbe1b67ac	-0.15176266
20	0xbdbb93d2	-0.09159054
21	0xbe8af459	-0.27139547
22	0xbe5b9e82	-0.21447185
23	0x3dd0bb5f	0.10191988
24	0x3e7c65e5	0.24648245
25	0xbd34e4aa	-0.044163384
26	0xbdf4a41d	-0.119453646
27	0x3e3f0142	0.18652824
28	0x3e2ecf25	0.17071207
29	0x3dc70c5c	0.09719154
30	0x3e14e2ba	0.14539614
31	0x3dd9319d	0.10605166
32	0x3e514278	0.20435512
33	0xbe10a75c	-0.14126343
34	0xbd8d7bd8	-0.06908387
35	0x3d02b1df	0.031907912
36	0xbeae44c6	-0.34036845
37	0xbe0effcc	-0.13964766
38	0x3d36e6dd	0.044653762
39	0x3e366394	0.17811424
40	0x3e764be0	0.24052382
41	0xbeb3b470	-0.350986
42	0x3e338121	0.17529728
43	0x3e3e1b9d	0.18565221
44	0xbe60e838	-0.21963584
45	0xbe4ddd21	-0.20103885
46	0xbc2a5792	-0.010396855
47	0xbe05fa7b	-0.13083832
48	0x3dd92f7b	0.10604759
49	0xbe1747c8	-0.14773476
50	0x3dcdcdd0	0.10049021
51	0x3e13c51c	0.1443066
52	0xbd8db6d4	-0.06919637
53	0x3d3ac627	0.04559913
54	0x3e2cbf0f	0.16869758
55	0x3dbdb382	0.09262754
56	0x3dfebd2d	0.12438426
57	0xbe090053	-0.1337903
58	0x3e217c15	0.1576999
59	0x3dffba92	0.12486757
60	0x3dbc8759	0.09205503
61	0x3e021989	0.12705053
62	0xbe89e130	-0.26929617
63	0xbc8e8baf	-0.01740059
64	0x3e4f6263	0.20252375
65	0x3e4c93ff	0.19978331
66	0x3e7900ec	0.24316758
67	0xbea0cac0	-0.31404686
68	0x3e666808	0.22500622
69	0x3dcb7225	0.09933881
70	0x3e79c222	0.24390462
71	0xbdb08b38	-0.08620304
72	0xbdc25799	-0.09489364
73	0x3e3c6b16	0.18400225
74	0x3da82f60	0.08212161
75	0x3e494918	0.1965679
76	0x3e32eb97	0.17472683
77	0x3e65f344	0.2245608
78	0x3e126c35	0.1429909
79	0x3c60463a	0.013688618
80	0xbde002ab	-0.10938009
81	0xbe4c4812	-0.19949368
82	0x3e31951a	0.17342034
83	0x3e25c99c	0.16190189
84	0xbe6793b5	-0.2261494
85	0xbdacaf42	-0.08431865
86	0x3d52f9aa	0.05150763
87	0xbdcf5d66	-0.10125236
88	0x3e25c796	0.16189417
89	0xbe694988	-0.22781956
90	0xbdd1c37b	-0.10242363
91	0x3e1429b3	0.14469032
92	0x3dac8f9f	0.08425831
93	0x3e164e1e	0.14678237
94	0x3d8c6904	0.06855968
95	0x3e2771bf	0.16351984
96	0xbdc4cb93	-0.09609141
97	0xbe64a549	-0.22328676
98	0x3e175491	0.14778353
99	0xbe86404a	-0.26220924
100	0xbe878c8f	-0.26474425
101	0x3e14773f	0.14498614
102	0x3db6f184	0.08932784
103	0xbea2d92c	-0.31806314
104	0xbe98da14	-0.2985388
105	0x3e5a3f23	0.21313147
106	0xbe902a09	-0.2815707
107	0xbdfc6898	-0.12324637
108	0xbea45aa2	-0.32100397
109	0x3e1adc70	0.15123153
110	0x3d9085b9	0.070567556
111	0x3dccac20	0.09993768
112	0xbd4229da	-0.047403194
113	0xbe31696b	-0.1732537
114	0x3bed4ad1	0.007241585
115	0x3e825dce	0.25462192
116	0xbe18c02a	-0.14917055
117	0x3e050cd6	0.12993178
118	0xbe498fa4	-0.19683701
119	0x3e820173	0.2539173
120	0x3d31931c	0.043353185
121	0xbbb3c0a3	-0.0054856106
122	0x3da6e27f	0.081486695
123	0x3e033897	0.12814556
124	0x3cc81f1e	0.0244289
125	0xbe8c0ad7	-0.2735202
126	0xbe9fbb12	-0.3119741
127	0xbe27facd	-0.16404267
128	0x3ea177f6	0.31536835
129	0xbdb6fad2	-0.08934559
130	0x3eaa5666	0.33269042
131	0x3e370b77	0.17875467
132	0x3e711bec	0.23545808
133	0xbd15829c	-0.036501512
134	0x3e257619	0.16158332
135	0xbdae1e05	-0.085018195
136	0x3e4e6ab9	0.20157899
137	0x3ebc48b4	0.36774218
138	0x39fbef4a	0.00048052735
139	0xbdb355c3	-0.08756592
140	0xbd2207da	-0.03955827
141	0xbdbd53f4	-0.092445284
142	0x3d6da8e2	0.058022387
143	0xbbb8fea2	-0.005645589
144	0xbd83c1d4	-0.06433454
145	0x3d62449f	0.055241223
146	0x3e324461	0.17408897
147	0x3e5cb631	0.21553876
148	0x3e569ab3	0.2095745
149	0x3e9b1462	0.30288988
150	0x3ea49f73	0.321529
151	0xbd8a5cdf	-0.06755995
152	0xbda3813a	-0.079836324
153	0x3e45b323	0.19306616
154	0x3e1dff0c	0.15429324
155	0x3d8b0592	0.06788172
156	0x3c2468be	0.010034738
157	0x3cc73154	0.024315514
158	0xbcf63fed	-0.030059779
159	0x3d62719f	0.05528414
160	0x3d9b0819	0.07569904
161	0x3e4df682	0.20113567
162	0x3e5e04eb	0.21681564
163	0x3ca47538	0.020075426
164	0x3ebdc7a0	0.37066364
165	0x3e7087f9	0.2348937
166	0x3e22abdf	0.15885876
167	0xbc97037a	-0.018434275
168	0x3cb41cea	0.021986444
169	0x3e9a6ac3	0.30159578
170	0x3df5f14c	0.12008914
171	0x3de0ce2a	0.10976823
172	0x3e8ed259	0.27894858
173	0x3e386afe	0.18009564
174	0x3d74ddb1	0.059781734
175	0x3e6be664	0.23037106
176	0x3d95ae74	0.07308665
177	0x3e8ff537	0.28116772
178	0x3dfcca01	0.12343217
179	0xbc1b3a93	-0.009474414
180	0x3e7f507c	0.24933046
181	0x3b55769c	0.0032571917
182	0xbd754cc9	-0.05988768
183	0x3dea6d81	0.114466675
184	0x3d82da5b	0.06389304
185	0x3dee6ed8	0.116422355
186	0xbc158cd8	-0.009127818
187	0xbcd8f150	-0.026482254
188	0x3e06b0ee	0.13153431
189	0xbd808d3b	-0.062769376
190	0x3e56022e	0.20899269
191	0x3e00aeab	0.1256663
192	0xbe0bb448	-0.1364299
193	0xbc7b962f	-0.015355631
194	0x3da9ab95	0.0828468
195	0x3e41f684	0.18941694
196	0x3b96cc80	0.004602015
197	0x3d5a1f3b	0.05325244
198	0x3d78b5e6	0.060720347
199	0x3e287080	0.16449165
200	0x3de960f4	0.113954455
201	0x3d8ad240	0.06778383
202	0x3cc9185c	0.024547748
203	0x3da4702f	0.0802921
204	0x3a7b0f2e	0.0009577152
205	0x3d478f82	0.048720844
206	0xbce1ff08	-0.027587429
207	0x3dfd2b77	0.12361806
208	0x3e38caf1	0.18046166
209	0x3e920a0b	0.28523287
210	0xbcdfda70	-0.027325839
211	0xbd5ce24b	-0.053926747
212	0x3e820b8e	0.2539944
213	0x3e3e5fc3	0.18591218
214	0x3e21f61c	0.1581654
215	0x3e417c2d	0.18895026
216	0xbd5315cb	-0.051534455
217	0x3ea3a7e0	0.31964016
218	0x3e6be80f	0.23037742
219	0xbcf745a0	-0.030184567
220	0x3c11e2b6	0.00890415
221	0xbe07a3fb	-0.13246147
222	0xbcfdbd46	-0.030974042
223	0xbd8a8960	-0.067644835
224	0x3e47cc0d	0.19511433
225	0x3e5fc622	0.21852925
226	0x3b34467c	0.0027507832
227	0x3ec25e27	0.37962458
228	0x3eaf1f16	0.34203404
229	0x3d0ac02a	0.03387467
230	0xbcc2ca6f	-0.023778168
231	0x3eb82583	0.3596612
232	0x3eab2bb0	0.33431768
233	0x3d873732	0.066023245
234	0x3e9f98dd	0.31171313
235	0x3d989fbd	0.07452343
236	0x3eb23b62	0.3481093
237	0xbdce1202	-0.100620285
238	0xbc988aaf	-0.018620817
239	0xbde18d9d	-0.11013339
240	0x3dd743a2	0.10510947
241	0x3e1c1bb0	0.15244937
242	0x3cb8b5e3	0.022547668
243	0xbd55472b	-0.052069824
244	0x3e6c4334	0.23072511
245	0xbdc87fbe	-0.0978999
246	0x3eb8445d	0.35989657
247	0xbd8b6190	-0.06805718
248	0x3e3f1029	0.18658508
249	0x3d14548e	0.03621345
250	0xbd140259	-0.03613505
251	0x3da2c091	0.079468854
252	0x3c32ad1d	0.010905531
253	0x3ec485f0	0.38383436
254	0x3e992906	0.2991411
255	0x3dc42294	0.09576908

network.2.bias f4 [128]
0	0x3e2b26c3	0.16714005
1	0xbde4f45e	-0.11179422
2	0x3b019b4c	0.0019776402
3	0xbd86bddf	-0.06579184
4	0x3d55c31c	0.052188024
5	0x3e16c302	0.14722827
6	0x3ce23d53	0.027617132
7	0x3e21ab43	0.15787987
8	0x3e811bca	0.25216514
9	0x3e06d491	0.13167025
10	0x3e85241d	0.26004115
11	0x3e8bfe1e	0.27342314
12	0x3e7a17e3	0.24423175
13	0x3dc51c51	0.096245416
14	0x3e463a64	0.19358212
15	0x3e78771a	0.24264184
16	0x3e6a7f1d	0.22900052
17	0x3d046d06	0.032330535
18	0x3c61d83c	0.013784464
19	0xbc9811e8	-0.018563226
20	0x3e740f61	0.23833992
21	0x3e87f4d6	0.26553982
22	0x3d0e8bbd	0.034801234
23	0x3dca59b4	0.09880391
24	0x3e4687dc	0.19387764
25	0xbd996dc2	-0.07491638
26	0xbdb42c0c	-0.08797464
27	0x3e89f1d3	0.2694231
28	0x3e69ec15	0.22843964
29	0x3e60877d	0.21926685
30	0xbd8ac98a	-0.06776722
31	0xbbe51878	-0.0069914423
32	0x3c8a2077	0.016861184
33	0x3c9550b3	0.018226957
34	0x3e61d832	0.22055128
35	0x3dc1aa88	0.094563544
36	0x3e514261	0.20435478
37	0xbc886856	-0.016651314
38	0x3de4ae23	0.111660264
39	0x3b1685eb	0.0022968005
40	0xbda93fc3	-0.08264115
41	0x3d9677f2	0.073470965
42	0x3dead8c8	0.11467129
43	0xbcd4fb4f	-0.02599874
44	0x3ce6c192	0.028168473
45	0xbd7ba74d	-0.061438847
46	0x3df56aae	0.11983238
47	0x3e75be37	0.23998342
48	0x3e347ea7	0.17626439
49	0x3d241f8d	0.04006915
50	0x3b94516b	0.0045263073
51	0x3df7f22b	0.12106737
52	0xbd88ef0c	-0.066862196
53	0x3e1d9f0c	0.15392703
54	0x3e66e5cc	0.22548598
55	0x3e332045	0.17492779
56	0x3d24eca0	0.040264726
57	0x3e40b313	0.18818311
58	0x3de2b301	0.110692985
59	0x3e72440d	0.23658772
60	0x3d199c0a	0.037502326
61	0x3e40a5ce	0.1881325
62	0xbd5bd04d	-0.053665448
63	0xbcd90095	-0.026489535
64	0x3e36d9d5	0.17856534
65	0x3e133564	0.14375836
66	0xbdc07115	-0.09396569
67	0x3dfffae3	0.12499025
68	0x3e83854c	0.25687635
69	0x3e01987f	0.12655829
70	0x3c5babeb	0.013407688
71	0x3e8bf952	0.27338654
72	0x3d618f4e	0.055068307
73	0x3dfbcfa0	0.12295461
74	0xbd13c623	-0.03607763
75	0x3e3d869d	0.18508382
76	0xbd2219cb	-0.03957538
77	0xbd0fb20c	-0.035081908
78	0x3e823c1c	0.25436485
79	0x3e832991	0.2561765
80	0x3dd108e8	0.10206777
81	0x3e57b2d4	0.21064311
82	0xbd77d639	-0.060507033
83	0x3e7c02a1	0.24610378
84	0xbca047ca	-0.019565482
85	0x3e6fea96	0.23429331
86	0x3e756571	0.23964478
87	0x3e81b904	0.25336468
88	0x3e7ffa09	0.24997725
89	0x3e34cb42	0.17655662
90	0x3e71772d	0.23580618
91	0xbc9d8a6f	-0.01923105
92	0x3e7d2d0c	0.24724215
93	0x3bcfa6ac	0.0063370075
94	0x3e6bf625	0.23043115
95	0x3d066144	0.032807603
96	0x3d5d2045	0.053985853
97	0x3e321b76	0.17393288
98	0x3e2a3a65	0.16623838
99	0xbdbb517c	-0.09146401
100	0xbd7eab4d	-0.062175084
101	0x3e6f06ec	0.23342484
102	0x3e8caaf7	0.27474186
103	0xbd48ef18	-0.049056143
104	0x3cd8b28d	0.026452327
105	0x3c96837f	0.01837325
106	0x3df905e4	0.12159327
107	0x3e1a8b48	0.15092194
108	0x3e572c68	0.21013033
109	0xbd529550	-0.051411927
110	0x3e135973	0.14389591
111	0x3e244b6b	0.16044395
112	0x3df8efd1	0.12155116
113	0x3de44960	0.11146808
114	0x3e86c05c	0.26318634
115	0x3e7d9410	0.24763513
116	0x3d951549	0.072794504
117	0x3e338024	0.1752935
118	0x3e827320	0.25478458
119	0x3e758654	0.23977023
120	0x3e844697	0.25835106
121	0x3e364c04	0.17802435
122	0x3cb26f21	0.021781506
123	0x3de77e47	0.11303382
124	0x3d7afd5e	0.061276786
125	0x3e89a0e9	0.26880577
126	0xbcdab47b	-0.026697388
127	0x3d8b3a49	0.067982264

network.4.weight f4 [1, 128]
0	0x3e93a6d3	0.28838214
1	0xbea1ec28	-0.31625485
2	0xbea02403	-0.31277475
3	0xbcf6a308	-0.030107036
4	0xbc7fab6f	-0.015604838
5	0x3e5261cb	0.20545118
6	0xbc8006f4	-0.015628316
7	0x3e4f55c0	0.20247555
8	0x3e85e122	0.26148325
9	0x3e8444fd	0.25833884
10	0x3e634361	0.22193672
11	0x3e832e15	0.25621095
12	0x3e828ed6	0.254996
13	0x3e90babd	0.2826747
14	0x3e82ed83	0.25571832
15	0x3e81ef4f	0.2537789
16	0x3e55574f	0.20834087
17	0xbe89c99d	-0.2691163
18	0x3d5a22e8	0.053255945
19	0xbd4d761c	-0.050161466
20	0x3e85e839	0.26153734
21	0x3e5fe6ee	0.21865436
22	0xbaed1bf5	-0.0018089997
23	0x3e846d8e	0.25864834
24	0x3e62fb74	0.22166234
25	0xbd00d8c9	-0.031456742
26	0xbd83af45	-0.064299144
27	0x3e55f1d2	0.20893028
28	0x3e831998	0.25605464
29	0x3e62554e	0.22102854
30	0xbda05b6a	-0.07829936
31	0xbe92168f	-0.28532836
32	0xbe6bee5e	-0.23040149
33	0xbd960809	-0.07325751
34	0x3e745cd5	0.23863538
35	0x3e8c6ab9	0.27425173
36	0x3e7776b0	0.2416637
37	0xbd7e7491	-0.062122885
38	0x3e54c998	0.20780027
39	0xbc663404	-0.014050487
40	0x3d21036c	0.039309904
41	0xbbc44ec9	-0.0059908372
42	0x3e88d3c8	0.26724076
43	0x3b193485	0.0023377251
44	0xbd3691a0	-0.044572473
45	0x3d651056	0.055923782
46	0x3e7e2269	0.24817814
47	0x3e886b46	0.26644343
48	0x3e749f7f	0.23888968
49	0xbd69c310	-0.05707079
50	0xbe9ea4bf	-0.30985066
51	0x3e7a83f7	0.24464403
52	0xbe62ce57	-0.22149025
53	0x3e972394	0.2951933
54	0x3e81a6a5	0.25322452
55	0x3e4cf0a3	0.2001367
56	0xbd9d8cf7	-0.076929025
57	0x3e84bf2f	0.25927112
58	0x3e87e1ec	0.26539552
59	0x3e8ed95c	0.27900207
60	0xbd61c96b	-0.055123728
61	0x3e88ef96	0.2674529
62	0xbd074245	-0.033022184
63	0x3d50ebc1	0.051006082
64	0x3e87aded	0.26499882
65	0x3e601a1b	0.21884958
66	0xbc049284	-0.008091573
67	0x3e76d5f9	0.24105062
68	0x3e72347a	0.2365283
69	0x3e5f317e	0.21796224
70	0xbd83b9ef	-0.064319484
71	0x3e51d64e	0.20491907
72	0xbd13d74d	-0.036094
73	0x3e4db6ac	0.20089215
74	0x3da9b3e8	0.082862675
75	0x3e914f7d	0.28380957
76	0x3d9924c1	0.074777134
77	0x3ba2a9f9	0.00496411
78	0x3e8de023	0.27710065
79	0x3e808182	0.25098807
80	0x3e71646b	0.23573463
81	0x3e58543c	0.21125883
82	0xbe926440	-0.2859211
83	0x3e6da63e	0.23207948
84	0xbe06d99e	-0.13168952
85	0x3e8e82b2	0.27834088
86	0x3e5a6eec	0.21331376
87	0x3e7e652a	0.24843279
88	0x3e525549	0.20540346
89	0x3e90615a	0.28199273
90	0x3e581a95	0.2110389
91	0x3d19ae1d	0.037519563
92	0x3e4b8eaf	0.19878648
93	0xbd82d475	-0.06388179
94	0x3e825b75	0.254604
95	0xbe970086	-0.29492587
96	0xbd07c05d	-0.033142436
97	0x3e761fe6	0.24035606
98	0x3e8b9155	0.27259317
99	0x3d6ebbfb	0.05828474
100	0x3d3d7759	0.046256397
101	0x3e6bb714	0.23019058
102	0x3e4b7b96	0.19871363
103	0xbd1c14db	-0.038105827
104	0xbe1b28ac	-0.15152234
105	0xbb13f592	-0.0022576791
106	0x3e816a6e	0.25276512
107	0x3e8a2981	0.2698479
108	0x3e7dde7e	0.24791905
109	0xbda1e8f8	-0.079057634
110	0x3e621fe7	0.22082482
111	0x3e5787d5	0.2104791
112	0x3e52298b	0.2052366
113	0x3e7696ba	0.24080935
114	0x3e4909c2	0.19632629
115	0x3e6ff2c5	0.23432453
116	0xbc88d88b	-0.016704818
117	0x3e7afc5f	0.24510334
118	0x3e606403	0.21913151
119	0x3e50362f	0.2033317
120	0x3e540982	0.20706752
121	0x3e6dde6d	0.2322938
122	0xbeadbb3c	-0.3393191
123	0x3e88d2b8	0.26723266
124	0xbd179571	-0.037007753
125	0x3e4c822c	0.19971532
126	0xbd6e80f5	-0.05822845
127	0xbcc945ac	-0.024569355
