week 6/checkpoints/reinforce_cartpole_seed3.pth (torch, 226393 bytes, 18 tensors)

network.0.weight f4 [128, 4]
000000 67 76 7b 3e d5 bb 2c 3e 85 39 dd 3e 24 0c 90 bd
       0.24556886 0.16868527 0.43207946 -0.07033566
000010 13 e6 c9 3e 5d 0c eb 3e d4 eb ea 3e d1 25 e7 3d
       0.39433345 0.4590787 0.45883048 0.1128651
000020 e9 d5 17 3e 39 d1 ca 3e 25 a5 18 bf 99 e9 d2 be
       0.14827694 0.3961275 -0.5962699 -0.41193846
000030 0c 08 ca be 7b b2 a2 bc 2f 92 98 3e 02 fe b5 3e
       -0.39459264 -0.019860497 0.2979903 0.35545355
000040 a0 37 8c be 32 ef d0 3e e5 d9 14 3f 97 60 05 3f
       -0.27386189 0.40807492 0.5814498 0.5210051
000050 7d a4 98 be 9c 24 83 be c0 4c ad be da 06 f1 3e
       -0.29812995 -0.25613868 -0.33847618 0.4707554
000060 18 61 57 3e f7 60 ba 3c 7f c8 67 be 9f 20 d6 be
       0.21033132 0.022751315 -0.22635077 -0.41821763
000070 6d 40 d5 3e ab 20 3b be d8 68 2c bd ba 16 0d be
       0.41650715 -0.1827418 -0.042092174 -0.13778201
000080 da 3a 7d be 39 1e 97 3e 79 35 1c 3f 52 33 11 3f
       -0.24729481 0.29515246 0.6101909 0.56718934
000090 62 bc be 3e 72 84 a5 bd 08 45 44 be 5a 61 63 3e
       0.372531 -0.080819026 -0.19166958 0.22205105
0000a0 ae 90 b3 3e 4a 44 b2 3e 82 33 a9 3d f0 05 a2 3e
       0.3507132 0.34817725 0.082617775 0.31645155
0000b0 94 e7 9c bd ad a8 c0 3c 40 99 bc bd b0 af 8d be
       -0.076613575 0.02351793 -0.092089176 -0.276731
0000c0 8f 4f 90 bd d0 16 89 3e 56 ed ee 3d fa 10 c8 bc
       -0.070464246 0.26775217 0.11666362 -0.024422158
0000d0 10 85 24 3d a0 74 a5 bd 70 e5 46 bd 74 8c 02 be
       0.04016596 -0.08078885 -0.048558652 -0.12748891
0000e0 5b f9 e0 3d 4e 6b 22 bd e9 90 b5 3e 23 2f 1b be
       0.10985061 -0.039653115 0.3546212 -0.151547
0000f0 f8 8d 10 be 81 b2 87 be 0a 8e 0a bf d9 65 25 be
       -0.14116657 -0.26503375 -0.54122984 -0.16152133
000100 8b d7 f0 3d ef 94 b0 3e c0 6a 9a 3d c6 55 a5 3e
       0.117598616 0.34488627 0.07539892 0.32292002
000110 24 74 d8 3d 73 45 e1 bc e6 ea da 3e 47 49 6f 3e
       0.10569027 -0.027498936 0.42757338 0.23367797
000120 db 15 f8 be af 21 ad 3e bc 0d 59 3d 25 2d d3 be
       -0.48454174 0.3381476 0.052991614 -0.4124538
000130 4e 36 b0 be 88 c1 1c be ce 64 f5 bd 74 8b 04 bf
       -0.3441643 -0.15308201 -0.119821176 -0.5177529
000140 03 0d bb be be 1a 31 3e eb df c6 be f5 11 35 3e
       -0.36533365 0.17295358 -0.3884271 0.17682631
000150 fc 72 bb b8 68 a8 c5 be 4d eb 62 3e 8a 23 0e be
       -8.9382724e-05 -0.38605046 0.22160073 -0.13880745
000160 84 85 0f bd 77 14 df be 3a cb 89 be c6 65 15 bf
       -0.03503944 -0.435703 -0.26912862 -0.5835842
000170 51 99 8c bd 82 bf 03 3f c5 c0 3a 3f 7b b3 21 3f
       -0.0686518 0.5146409 0.7295039 0.6316449
000180 5f ba 67 3e 8b 80 51 be 27 e1 47 be f5 61 76 bd
       0.22629689 -0.20459192 -0.19519483 -0.060152013
000190 ca 46 45 3c 44 3f c9 3e 76 39 a0 be c8 f2 cf be
       0.012040803 0.3930608 -0.3129384 -0.40614915
0001a0 d5 9d d5 3e a1 8e ec be 78 f5 ba 3e 38 25 f1 3d
       0.4172198 -0.46202567 0.36515403 0.11774677
0001b0 b3 61 7c 3d 01 49 83 bd 10 6a 61 be 0d 3d 94 be
       0.06161661 -0.06410409 -0.22013116 -0.28952828
0001c0 dd f1 c8 be d6 ab 5a bd 11 ed 1d be be df d5 bc
       -0.39247027 -0.05338653 -0.15422465 -0.026107665
0001d0 84 d3 07 3d 33 86 91 bd 77 90 33 bf 7f c6 b0 be
       0.0331607 -0.071056746 -0.7014231 -0.3452644
0001e0 48 61 af be ea 4a 5c 3e 9f 55 aa bd de 2e b0 be
       -0.34253907 0.21512952 -0.08317112 -0.34410757
0001f0 fc 48 67 bd bc 84 be 3e e3 59 5b 3f 25 71 77 3e
       -0.056466088 0.37210643 0.8568403 0.24164255
000200 81 58 30 be 3f c5 ba be d0 10 8a 3e 78 ca d2 be
       -0.17221262 -0.36478612 0.26965952 -0.41170096
000210 09 0c d8 bc 22 af ea 3e 38 55 4e 3f f0 8e d9 3e
       -0.026372926 0.4583674 0.80598783 0.42491865
000220 22 0d b7 bd 66 22 dd bd 46 aa 0f 3f 14 eb 8f 3e
       -0.08938052 -0.107975766 0.5611919 0.28109038
000230 16 1f d6 3e c8 3e cb be 71 7a 43 3e 4d 4f b8 3e
       0.41820592 -0.39696336 0.19089676 0.35998002
000240 05 57 83 bd 00 95 13 bf e6 8b 1f bf 0e a0 c1 be
       -0.06413082 -0.5764923 -0.62322843 -0.37817425
000250 aa 3d bf 3e 32 28 68 be 70 29 83 be 73 8b 9c 3d
       0.37351733 -0.22671583 -0.25617552 0.07643785
000260 70 8e 1c 3e 49 bb 8e be f4 2c 83 bd 4e 54 bc 3e
       0.1528871 -0.27877262 -0.064050585 0.3678307
000270 be b1 8e 3e 63 2f ab 3e 7f 7a 33 bf 72 f9 6e 38
       0.27869982 0.3343459 -0.7010879 5.6975936e-05
000280 ac d6 6d bc 26 fb 90 3e 0f 44 5f bf 4a 41 a0 be
       -0.014516514 0.2831661 -0.87213224 -0.31299812
000290 3e a9 8f 3d 55 cf 27 be 6d ef 03 be be 4f 23 3e
       0.07014702 -0.16387685 -0.12884302 0.15948388
0002a0 4c 56 85 bd 33 91 1d 3b 79 6c 12 3d 61 8d d1 be
       -0.065106004 0.0024042844 0.03574798 -0.40928176
0002b0 d3 66 81 be a5 fa e5 be 6e 16 ec be 03 9e ca be
       -0.2527376 -0.4491779 -0.46110862 -0.39573678
0002c0 54 4c af 3e f9 b3 c9 3e a0 d9 1c 3e 7d bc dd be
       0.3423792 0.3939512 0.15317392 -0.43307868
0002d0 be 44 6f bd 91 b1 b8 3e 1f 06 f3 3e 1c 5a 45 be
       -0.058415167 0.36072972 0.47465608 -0.19272655
0002e0 82 66 8b 3e 63 f6 b5 3e e5 bf 61 3f 5e 73 c4 3e
       0.27226645 0.3553954 0.8818343 0.38369268
0002f0 33 11 8e 3e 90 d2 bf be 6c 69 d0 3e f1 fc 3c 3e
       0.27747497 -0.37465334 0.4070543 0.18455864
000300 d1 87 fd 3c e0 a9 a0 3e 8d b4 15 bf 91 5e ef be
       0.030948551 0.31379604 -0.58478624 -0.46751836
000310 61 65 12 3d 38 ec f3 be 0b b7 96 be 4a a4 ec be
       0.035741214 -0.47641158 -0.29436526 -0.46219093
000320 37 f1 8d 3e 05 7d 49 be 06 90 82 3e 3f 14 04 3f
       0.27723095 -0.19676597 0.25500506 0.51593393
000330 50 db cd be 42 a1 c1 3e f2 83 42 3e 34 50 9d 3e
       -0.40206385 0.37818342 0.18995646 0.30725253
000340 26 19 c4 be 55 03 0b 3f ee b1 4e be b8 b8 bd 3e
       -0.38300437 0.5430196 -0.20185062 0.37054992
000350 9f ed fb bd d0 78 64 3d 34 58 40 3e 3c de 8c 3e
       -0.12301182 0.05577928 0.18783647 0.275133
000360 60 60 a5 be 60 82 2b 3e 47 ad 00 bf 75 cc ae be
       -0.3230009 0.16748953 -0.502644 -0.34140363
000370 82 44 bd 3e bf 64 95 bc d6 96 1c 3f 70 1a 14 be
       0.3696633 -0.018236516 0.6116766 -0.1446321
000380 e9 cb 85 be b9 6d 44 3e 97 ed f8 bd 16 d8 a5 be
       -0.26132134 0.19182481 -0.12154692 -0.32391423
000390 7e 8e e0 3e c2 5f 4e 3e d4 19 ac 3e 2f 33 99 3e
       0.43858713 0.20153716 0.33613455 0.29921862
0003a0 b5 f2 c6 3d 32 4d 88 be 9c f5 77 be eb 7d db bd
       0.097142614 -0.26621395 -0.24214786 -0.10717376
0003b0 e0 44 bd bd bd ff dd 3e 73 70 f7 3e ec 37 d7 3d
       -0.092416525 0.43359175 0.4832798 0.10508713
0003c0 29 42 01 3e 2a 8d 24 be fb e2 57 3e 2a 9f 42 3e
       0.12622894 -0.16069475 0.2108268 0.19006029
0003d0 f2 c4 bb 3e 1c fc 95 be 4d cb 4b bf 70 81 0a bf
       0.36673695 -0.29293907 -0.7960709 -0.54103756
0003e0 c9 aa 36 3e dd 70 b2 be e3 c5 a5 bd 4b 9f a4 3e
       0.17838587 -0.34851733 -0.080943845 0.3215278
0003f0 6d 4e f2 be 7f 3a 0e be 8e 8a a5 bd a1 c2 16 bf
       -0.4732546 -0.13889502 -0.08083068 -0.5889073

network.0.bias f4 [128]
000000 a7 7d d7 be 35 0d 61 bd d6 34 9d 3e 03 45 07 bf
       -0.42088053 -0.054944236 0.30704373 -0.5283968
000010 1b f1 d1 3e 6b 16 2c 3c 63 78 8f bc 26 48 47 be
       0.4100426 0.010503392 -0.01751346 -0.19461116
000020 c1 54 75 3e 1e 21 cb be 26 7f 41 be 78 a8 fc be
       0.23958112 -0.39673704 -0.1889616 -0.4934728
000030 42 d8 68 be fe 93 8e be f4 a9 89 bd 7a 99 12 3e
       -0.22738746 -0.27847284 -0.06721869 0.14316359
000040 11 b9 b9 3d a5 9e db 3e 39 f2 a0 be 20 c9 2e be
       0.09068502 0.42894474 -0.314348 -0.1706891
000050 34 d7 a2 3e 6f 7a 53 3e 4e cf 4a 3e 0c 70 02 3f
       0.31804812 0.20652173 0.19805643 0.5095222
000060 4e 72 1e be 5c e1 0a be 03 e0 85 3d 2c 71 57 3e
       -0.15473291 -0.1356253 0.065368675 0.21039265
000070 9a 77 46 be b4 5b c9 3e 80 86 55 be 79 f4 e0 3e
       -0.19381562 0.39327776 -0.20852089 0.43936518
000080 91 56 47 be 81 c2 0e 3e 46 05 b3 3e 1a e2 84 3e
       -0.19466616 0.13941385 0.3496496 0.25953752
000090 9d cb 44 be fb c8 dc bd 2f 0d a0 be 31 52 c4 3e
       -0.19218297 -0.107805215 -0.31260058 0.38343957
0000a0 fa 83 be 3e 3e 9e ad be c4 77 94 3d 75 eb 96 be
       0.37210065 -0.33909792 0.07249406 -0.29476514
0000b0 5e fc b0 be 3b 4e f8 be 5e 7c d1 3e d7 dd a2 be
       -0.3456754 -0.48497185 0.40915197 -0.31809875
0000c0 43 a2 b6 3e 19 80 f1 3e 53 e7 40 be 5a 44 52 3d
       0.3567067 0.47168043 -0.18838243 0.051334716
0000d0 cf 85 6b bb 9e af 18 3e 8f eb 5e bd 0e 49 60 3e
       -0.003593791 0.14910743 -0.054423865 0.21902868
0000e0 c6 c1 4b be ab 27 9f be 88 8a d3 bd f7 6d 4e be
       -0.19898137 -0.31084952 -0.10329157 -0.20159136
0000f0 17 5a d8 be 25 be e1 3e dd cc 0f be ee 1d ce 3e
       -0.42256233 0.4409038 -0.14042993 0.4025721
000100 9a 68 15 3d d2 2c b7 be b1 71 bc 3e 82 6d 8e 3e
       0.03647671 -0.35776383 0.3680549 0.27817923
000110 f6 53 d8 be 9b 68 ca bb f1 10 42 3e a2 9b e3 be
       -0.42251557 -0.0061770207 0.18951775 -0.44454676
000120 74 e9 e6 bd ba f0 39 be 12 62 db bd 54 9c 81 3d
       -0.112749964 -0.18158236 -0.10712065 0.06328645
000130 c3 65 9e be f5 58 26 be a7 ea 2f be 3e 6f 84 be
       -0.30937013 -0.16244872 -0.17179357 -0.2586612
000140 7d 30 d8 be 0e 8a db be 45 5a d0 be 63 70 c2 be
       -0.42224494 -0.42878765 -0.4069387 -0.3797637
000150 32 11 b0 3e a3 d7 5e 3e e1 4c bd be 2c 52 ad bc
       0.3438812 0.21761946 -0.36972716 -0.021157347
000160 32 42 df be 2d 3f c6 3d d7 c7 61 3d 65 17 b4 3b
       -0.4360519 0.096800186 0.055122223 0.005495953
000170 3e 7a 8c be 0e ed c6 3e 73 99 b1 be 41 ea c9 3d
       -0.27437013 0.38852733 -0.34687385 0.098591335
000180 88 3f af be 2b bc 77 3e 43 d9 f2 be 38 a2 b6 bd
       -0.34228158 0.24192874 -0.47431383 -0.089176595
000190 af 06 6f 3e 16 0d fa bd 76 a2 2a 3e d5 88 c2 be
       0.23342393 -0.12209527 0.16663536 -0.3799502
0001a0 47 3d a7 be b7 80 6b be 28 d3 6d 3e 69 d8 24 be
       -0.32663938 -0.2299832 0.23225081 -0.16098179
0001b0 fe 1f ad 3e 08 94 af be 04 7b 01 3f 46 24 cf be
       0.3381347 -0.34292626 0.5057833 -0.40457362
0001c0 27 99 59 be 5e 26 af be e7 88 06 bf 6e 59 07 3e
       -0.21249829 -0.3420896 -0.52552646 0.13217708
0001d0 51 a3 aa 3e d8 b9 5d be 85 eb ec 3d f5 aa 71 3d
       0.33327726 -0.21652925 0.11568359 0.059000928
0001e0 a5 9a 0c 3f fa 49 9d 3e 66 cb e2 3c 4a 21 ce be
       0.5492347 0.30720502 0.027684879 -0.40259773
0001f0 0a 9a bd be 17 d8 c5 3e d4 70 d9 be 9e 3d 4e 3e
       -0.37031585 0.38641426 -0.42468894 0.20140693

network.2.weight f4 [128, 128]
000000 94 ce 63 3c 79 ad b2 3d fa 48 11 3d fb 18 49 bd
       0.0139042325 0.087244935 0.035469986 -0.04909609
000010 a4 04 06 3e f9 d6 e8 bc 07 2f be bd 7c 9c e5 3d
       0.13087708 -0.02842282 -0.092863135 0.11211488
000020 49 df 8a 3d c7 36 24 bd b9 a8 ed 3d 4b ea cd bc
       0.067808695 -0.040091302 0.11604447 -0.025136134
000030 b1 dc 05 3e 60 41 91 3c 6c 73 85 3c f1 18 9f bd
       0.13072468 0.017731369 0.016290389 -0.07768429
000040 32 43 e7 3d de 39 81 3c 8a ae 06 bd a3 4c 56 bd
       0.11292113 0.015774664 -0.032881297 -0.05231918
000050 4d 56 61 bd a5 5a 1b bd cc 26 c2 bd 1e f4 20 3e
       -0.055013943 -0.037928242 -0.09480056 0.15718123
000060 5c 33 a9 3d f2 a5 42 bc 66 f4 4f bc 4f 39 a5 bc
       0.08261749 -0.011880385 -0.0126925465 -0.020168928
000070 dd b6 8e bc 63 79 d7 3c 35 2d f7 bd d9 3d 83 3c
       -0.01742118 0.026302999 -0.120691694 0.016020702
000080 7c de 93 bd f9 b2 1c 3e 52 e4 0c 3e c5 a7 f8 3d
       -0.0722017 0.15302648 0.13758972 0.121413745
000090 e2 21 17 bd f7 b5 d6 bc cd 62 bf 3d c1 b1 88 3d
       -0.036897548 -0.026209814 0.09345017 0.06674529
0000a0 bd 43 d7 bd 92 0f 70 bc 46 99 c8 bd e5 dc 49 bd
       -0.10510967 -0.01465215 -0.097948596 -0.049282927
0000b0 46 70 be 3d 2b f7 19 3c 14 45 9b 3c d5 bd 00 3d
       0.09298758 0.009397308 0.018953837 0.031431038
0000c0 d5 a8 78 bd 0c a0 96 bd fe a3 fc 3d df ca b8 3d
       -0.060707886 -0.07354745 0.123359665 0.090230696
0000d0 6d 60 2f 3d 66 ec d6 3d e8 11 47 bd c9 63 aa 3d
       0.04281657 0.10494308 -0.04860106 0.08319814
0000e0 21 a7 f5 bd 1f 08 2a 3c 33 af a0 3d 57 a5 d9 3d
       -0.11994768 0.010377913 0.078459166 0.10627239
0000f0 64 67 e0 bc 28 48 8e 3c ce 6b 5d 3d 72 ab 79 bd
       -0.02739305 0.017368391 0.05405789 -0.06095452
000100 40 c7 98 3d 56 55 77 3a f4 43 4f 3d 88 3a 8a 3d
       0.07459879 0.00094350183 0.050601915 0.06749445
000110 33 21 fe 3c d7 cc 00 bd 64 0c 4c bc d5 e0 72 bd
       0.03102169 -0.03144535 -0.012454126 -0.059296448
000120 27 89 e1 3c 4b 26 d8 3d 21 74 17 bd 80 01 ba bd
       0.02753122 0.10554179 -0.036975984 -0.09082317
000130 5c d8 01 3d 13 39 36 3d 58 25 91 3d 29 31 f4 bd
       0.031700477 0.044488024 0.07087201 -0.11923439
000140 3e 31 26 3c 75 03 b7 bc 75 ea c6 bb 20 7a 18 3d
       0.010143576 -0.022340516 -0.00607043 0.037225842
000150 33 56 91 3c 6c f0 30 3d 90 60 8f 3d fd 77 48 3d
       0.017741298 0.043198034 0.0700084 0.048942555
000160 1b 35 36 bd fa e2 0a be f7 d7 64 bd 6c db 68 3d
       -0.04448424 -0.13563147 -0.055870023 0.056849882
000170 be e5 73 3d 9f 3e aa 3c 16 f9 1b bd c0 b1 c1 3c
       0.05954527 0.020781813 -0.038079344 0.023644328
000180 f2 27 42 3d 68 37 04 bd 5b 82 e2 bd 77 e1 0b 3e
       0.047401376 -0.032279402 -0.110600196 0.13660227
000190 2e 92 9b 3d c0 ba e9 bc bd 1a b3 3b 6c 9f a2 3b
       0.07596241 -0.028531432 0.005465834 0.004962852
0001a0 93 6f d8 3c c5 6b c5 bd 0f 67 57 3d 24 69 50 3d
       0.02642039 -0.09639696 0.05258852 0.05088152
0001b0 bf a9 85 3d fe e9 30 bc 78 f1 af 3d f7 7a 95 3d
       0.06526517 -0.010797976 0.085909784 0.07298844
0001c0 3f 1b c1 bc 6d 45 a4 3b e1 eb 62 3c 7d 2c a8 bd
       -0.023572562 0.005013159 0.013850183 -0.082116105
0001d0 13 12 0a 3d 48 9e 8e bd 2b 6f c9 3c 00 f9 13 3e
       0.033708643 -0.069637835 0.024589142 0.14450455
0001e0 55 86 e2 3d 4d 71 f8 bc 7d c5 ca 3d 30 36 10 bd
       0.11060778 -0.030327464 0.09900949 -0.035207927
0001f0 d4 8a 0e 3d 72 e5 2c 3d 69 68 5b b7 1f 51 8b 3c
       0.034800366 0.042211004 -1.3077727e-05 0.017006455
000200 60 2b 99 bd af a2 d7 3c 1e b4 ef bc fd cc b3 3b
       -0.07478976 0.02632269 -0.029260691 0.005487083
000210 fd bb 30 bd 7f f1 8b 3d f3 b3 6d 3c 4a 60 54 3c
       -0.04314803 0.06833171 0.014508235 0.01296241
000220 81 b6 93 bd b7 54 73 3c 20 9d 08 3d 86 f7 af 3c
       -0.07212544 0.014851741 0.03335297 0.021480333
000230 c4 cb f0 bd 99 90 3c bd bc f8 66 bd ce 74 84 3b
       -0.11757615 -0.046036337 -0.056389555 0.0040422445
000240 7c 14 e8 bc dc fb e3 b8 4c ea 04 bd 29 13 e5 3d
       -0.02833008 -0.00010871116 -0.032450005 0.11185295
000250 42 51 9b bc c8 91 61 3d 38 05 86 3c 96 3d 01 be
       -0.018959645 0.05507067 0.01635991 -0.1262115
000260 26 50 4c bd a3 8a bc 3d f8 f9 64 bd dd c2 7e 3d
       -0.049881123 0.0920613 -0.05590245 0.062197555
000270 1f 13 98 3c 1c 9f 10 3e 10 46 f2 3d 44 9d 71 bd
       0.018563805 0.14123195 0.118297696 -0.05898787
000280 42 e6 c2 3d a3 48 cd bd 19 46 d4 bc e7 cf 50 3d
       0.095165744 -0.1002362 -0.025912331 0.05097952
000290 41 80 0e 3d 74 a9 3d ba c8 04 88 bd 14 7b 8c bd
       0.03479028 -0.00072350283 -0.06641537 -0.06859413
0002a0 bc c8 c9 bb c2 c6 b8 3d 41 4c 23 bc 83 86 33 3e
       -0.0061579626 0.09022285 -0.009966911 0.17531781
0002b0 bd 2e 2f bd 36 88 b4 bc c5 5a 17 bc 3e 26 b9 3c
       -0.042769182 -0.022037607 -0.00923795 0.022601243
0002c0 f5 78 da 3d f5 85 8f 3d 35 5c e4 bd be 0e 4d 3d
       0.10667602 0.07007972 -0.111503996 0.050062887
0002d0 9a e4 a7 3d 28 e7 8a 3d 33 e5 bf 3c 37 e5 a5 3d
       0.08197899 0.06782371 0.02342472 0.0810036
0002e0 ec 1f c0 3d e8 4e a9 3c 77 11 6a 3d 00 dd 98 bd
       0.093810886 0.020667508 0.057145562 -0.074640274
0002f0 a2 4b ef 3d 13 e4 f8 3c ab 0c 8e bb bc ff be bc
       0.11684348 0.030382192 -0.0043350062 -0.023315303
000300 90 57 4d bc e2 4c 98 3d 92 d0 5f bd 8d 50 37 bb
       -0.012533084 0.07436539 -0.054642268 -0.0027971596
000310 70 3f 26 3d 6e 55 1b 3d c7 77 04 bd 0a cc 4c bd
       0.040587842 0.03792327 -0.03234079 -0.049999274
000320 0f 09 e7 3c 61 f3 93 bd 7c 9f 08 bd b3 c7 99 3d
       0.028202562 -0.07224155 -0.03335522 0.07508793
000330 98 1b d8 3c 9a ea db 3c bd e1 b1 bc 3f 1f e7 3d
       0.026380345 0.026845265 -0.021714086 0.112852566
000340 c1 73 af bd c2 61 fc 3a 03 53 06 bd 54 c4 22 3d
       -0.08567 0.0019255208 -0.03279401 0.039738014
000350 e2 94 68 bd 2d 22 48 bd fe fc 6d bd 14 09 e2 bd
       -0.05678261 -0.048860718 -0.0581026 -0.11036888
000360 a2 8e 92 3d 46 03 2d 3e 1d a0 b8 bc 86 dd ea 3d
       0.07156111 0.1689578 -0.022537285 0.114680335
000370 a2 0a 8f ba d1 9c 39 bd a5 a0 8e 3d 2b 36 30 3d
       -0.0010913203 -0.045315567 0.06964234 0.04302041
000380 58 6a 02 be 1e 8d e5 3d 91 6e 5f 3d 65 24 93 bc
       -0.1273588 0.112085566 0.054548804 -0.01796169
000390 4a 84 dc 3d 25 43 ae 3b c7 35 8d 3d fa 6f d7 bd
       0.1076742 0.005318063 0.06895023 -0.10519405
0003a0 7b 8a ad 3d 8a a5 bb bc 5d ab e6 3c 73 6c 11 3d
       0.08473679 -0.022906084 0.028157884 0.035503816
0003b0 a5 e1 87 bd 2d 1f db 3c 3f a5 90 bd 49 ac de bc
       -0.06634835 0.026748264 -0.07062768 -0.027181761
0003c0 4d 20 54 bc 5b f1 03 be ea d8 84 bd 1e 58 ac bc
       -0.012947154 -0.12885039 -0.064866856 -0.021038111
0003d0 0e 7a 5c bd b3 d0 ea 3d cd 75 57 3c da 7d aa bd
       -0.053827338 0.114655875 0.0131506445 -0.083247855
0003e0 0e 44 e4 bd af 44 79 3d fe 8f 39 bd b6 2c f0 bb
       -0.11145793 0.060856517 -0.045303337 -0.0073295487
0003f0 6c 9d 00 3e cc 13 96 3c 86 13 87 3c fb ad 81 3d
       0.12560052 0.018319987 0.016488802 0.06332012

network.2.bias f4 [128]
000000 17 2b bf 3d 53 70 1d 3d e1 fc f3 b9 6c 4b 8a 3d
       0.093343906 0.0384372 -0.0004653698 0.06752667
000010 39 3a e8 3d 60 a4 e0 bc 13 c9 d9 3b 78 69 ae 3d
       0.1133923 -0.02742213 0.0066462844 0.0851621
000020 1d ff 81 bd 67 30 d8 bd dc 20 9a bd c2 38 97 3d
       -0.06347487 -0.10556107 -0.07525799 0.073838726
000030 ac 07 53 bd d5 74 dc bb f1 a7 0e 3b 22 e2 9d bd
       -0.05152099 -0.0067277947 0.0021767581 -0.07709147
000040 c1 ed 4a 3d 9c 1c a6 bd f2 73 86 3d 2b f1 87 bd
       0.049543146 -0.081109256 0.065650836 -0.06637796
000050 6f ba 26 3d 8a d8 c1 3c 75 7b e3 bb cf e3 22 3c
       0.04070514 0.023662824 -0.0069422075 0.009942009
000060 90 96 55 bd a8 ba c8 bc a8 bf 6a bd 53 43 31 3d
       -0.05214554 -0.024503067 -0.057311684 0.043277096
000070 5b 9e 2f 3d c3 13 98 3d aa 6a 83 bd c9 af 9c bd
       0.04287563 0.07425644 -0.06416829 -0.07650716
000080 96 07 02 bd 2d 26 a6 bd 09 8e c3 3d 04 c6 5a bd
       -0.031745516 -0.0811275 0.095485754 -0.0534115
000090 c5 70 76 bd eb 1f 67 3c 7b 1c 57 bd 5a cd 4f bc
       -0.06016614 0.014106731 -0.052517395 -0.012683237
0000a0 85 62 ef 3c bc df bf 3d 66 ad 35 bb a0 81 2a 3d
       0.029221782 0.09368846 -0.0027721762 0.041627526
0000b0 05 4b a1 bd e9 66 e4 3c 4f 8e 14 3d 45 81 0b 3d
       -0.07875637 0.027881103 0.03626853 0.034058828
0000c0 b8 30 c9 3c ec 32 6f bc dd cb bc 3d ec 56 5e bd
       0.024559364 -0.014599543 0.09218571 -0.054282114
0000d0 63 ea 0c 3c 5c fc f1 3c 7e 7d 2e bc bf ba b1 bd
       0.008600804 0.02953928 -0.010650037 -0.08678197
0000e0 bb 41 97 3d 5e f4 9b bb 34 20 b7 3d 26 91 b4 3d
       0.07385584 -0.0047593554 0.08941689 0.08816747
0000f0 46 13 33 3d 9a d5 c3 3c b4 e4 cf bd f3 d1 af 3c
       0.043719552 0.023905564 -0.101510435 0.021462416
000100 42 19 79 3d 70 fe c6 3d cc 52 84 3d 5e d7 ae 3d
       0.060815103 0.09716499 0.06461105 0.08537172
000110 dd 38 79 bc cb 6a a0 bc c1 46 be 3a e9 75 84 3d
       -0.015211311 -0.019582173 0.0014516936 0.06467802
000120 a7 ff 71 bd 68 3f 57 3d a4 66 42 3d 7f 2d 67 3d
       -0.0590817 0.052550703 0.047461167 0.056439873
000130 c8 ea 62 bd df bc 65 3c 8b 5f 7e bd 86 6e 99 bc
       -0.055399686 0.014022081 -0.062102836 -0.01872946
000140 1d 24 ba bd 61 8c 4c bd c9 68 fe 3d ce 7f 9d 3d
       -0.09088919 -0.049938563 0.1242233 0.076903924
000150 4c 54 7d 3d 6e bf dc 3d 68 76 99 bd 21 8a d6 bd
       0.06184797 0.107787 -0.07493287 -0.10475565
000160 81 6e 8f bc bb 6f eb bc 16 0b 14 bd fb ab 84 bd
       -0.017508747 -0.0287398 -0.036143385 -0.06478115
000170 61 0e a1 bd 41 7c b5 bd c1 62 32 3d a3 68 ba 3d
       -0.07864071 -0.0886159 0.04355121 0.09101989
000180 15 ea 5a bc 3e a8 b3 3d f2 39 0a 3d b4 a1 6a bc
       -0.013361474 0.08772324 0.033746667 -0.01432078
000190 35 1e 6f bd 63 bd 52 bb fd 5b 1d 3d 1e 14 ae 3b
       -0.058378417 -0.003215634 0.038417805 0.0053124567
0001a0 78 9a 39 bd ff 9a 03 3e c3 f1 82 3d ec cb 81 3d
       -0.04531333 0.12852095 0.06393769 0.06337723
0001b0 c7 2a d6 bc e0 d3 79 bd d8 12 b1 bd 74 74 88 bd
       -0.026143445 -0.060993075 -0.08646172 -0.06662837
0001c0 e1 ce 13 3c 5a ad 97 3b 93 bb 64 bd fc 92 fb bc
       0.009021492 0.0046288194 -0.055842947 -0.030709736
0001d0 69 f5 af bd 58 fb 8b 3d 92 56 44 bd 14 51 8e bc
       -0.0859173 0.068350494 -0.047934122 -0.017372645
0001e0 c9 50 89 bd a8 17 e3 3d 53 da 3c 3d 46 40 86 3c
       -0.06704862 0.110884964 0.046106648 0.01638807
0001f0 39 66 9b bd 44 4d 46 bc 0d 8f 3a 3b e5 3e 41 bd
       -0.07587857 -0.0121033825 0.0028466613 -0.04717912

network.4.weight f4 [2, 128]
000000 63 6a 01 be 64 2c 71 3d 36 0e d0 bc 80 f6 ab bc
       -0.1263824 0.058880225 -0.025397401 -0.020991564
000010 d2 3d 17 be 59 8e f4 3c 2f f2 87 3d a1 f9 38 bd
       -0.14769676 0.029853033 0.0663799 -0.04515994
000020 b6 21 9b 3d 35 30 14 bc d3 95 01 3d f2 98 2d 3e
       0.07574789 -0.009044697 0.031637024 0.16952875
000030 73 64 48 bd 18 37 0c 3c 2d b8 07 3d 83 f1 99 bc
       -0.04892392 0.008558057 0.033134628 -0.01879192
000040 49 15 c7 bd 20 f7 15 3d 29 f6 89 3d 2f 3a 4c bd
       -0.09720857 0.03661263 0.067364044 -0.049860176
000050 af bc 00 3e 6d 99 56 3c bf 83 7a 3d 48 98 83 39
       0.12571977 0.013098103 0.0611608 0.00025099725
000060 d9 33 13 3e 3b 3e f2 3c ce d6 8d 3d c3 a2 23 be
       0.14375247 0.02957069 0.06925736 -0.15980057
000070 4d 98 8f 3d cf 69 39 be b0 dd 1f 3d f1 de b1 bc
       0.07011471 -0.18106769 0.039029777 -0.021712752
000080 79 cc a2 3d eb 01 2d bd 24 59 2c be 26 65 33 3d
       0.07949156 -0.042238157 -0.1683088 0.043797635
000090 22 12 17 bd 39 2f dc bc c6 10 3d bc 9a 29 64 bd
       -0.036882527 -0.026877986 -0.011539644 -0.055703737
0000a0 83 55 c0 bd 94 9c 2a 3d 3d e9 26 be 81 6e 0d bd
       -0.0939131 0.04165323 -0.16299911 -0.034529213
0000b0 0f e3 90 3c c4 c3 f9 3d 03 4a f9 3d 14 88 93 3d
       0.017686395 0.121955425 0.1217232 0.07203689
0000c0 24 80 01 3e 1a 10 aa 3d 89 5e 94 bd 80 c6 28 bd
       0.12646538 0.083038524 -0.07244594 -0.04120493
0000d0 9e 2c 0a be 56 6b 65 3d 82 12 e8 bd c0 fb 1b 3d
       -0.13493583 0.056010567 -0.11331655 0.038081884
0000e0 94 ac 98 bc 2b 57 8e bc 54 72 22 3e dc 86 15 be
       -0.01863698 -0.01737555 0.15863925 -0.14602226
0000f0 fb be 9c bd 9d 01 41 3d a9 74 cc 3c dc 24 dd bd
       -0.07653614 0.04712068 0.024957972 -0.10798046
000100 b3 84 21 3e 62 75 e3 bd 3b 25 00 bc 30 07 a7 3d
       0.15773277 -0.11106373 -0.007821376 0.08155668
000110 47 d9 22 3d e6 10 b4 bd 22 45 1d 3e 7f 58 07 3e
       0.039757993 -0.087922856 0.15358403 0.13217352
000120 f0 9d b8 bb 96 7b cc bd 83 09 6d 3d ef ca 6d 3d
       -0.005634062 -0.0998451 0.0578704 0.05805486
000130 57 30 8a bd 0b 4a 2a be 6b b7 0d 3e d4 dc e2 3d
       -0.06747501 -0.16629808 0.138395 0.11077276
000140 ff 25 12 bd 76 e1 11 be 1a 8f 33 be 25 bf 0e be
       -0.035680767 -0.14246163 -0.17535058 -0.13940103
000150 83 7c 17 3e ff 36 f6 bd f6 b2 f2 3d 5b a2 78 3d
       0.14793591 -0.120222084 0.1185054 0.06070171
000160 d4 28 ea bc 69 af 8a 3d 9e 84 4f bd d6 4a a1 bd
       -0.028583921 0.06771738 -0.050663583 -0.07875602
000170 45 d2 34 3d 30 7b b0 bc 28 e5 f8 bc 20 2f 0a bd
       0.04414584 -0.021543115 -0.030382708 -0.03373635
000180 95 cd a1 bd fc 6a 17 be 0b 58 03 bd 9e da aa 3c
       -0.0790054 -0.14786905 -0.032066386 0.020856198
000190 b2 0f 82 3d ed fc 83 bd ec 12 93 bd d2 69 19 be
       0.0635065 -0.06444726 -0.071813434 -0.14981773
0001a0 0a 1e 72 3d 87 e1 88 bd 7c f4 ea bd ca 11 ad 3d
       0.05911068 -0.06683641 -0.11472413 0.084506586
0001b0 26 c9 e8 bc a1 36 b1 bd e6 17 94 bd 5b 86 1a 3c
       -0.028416228 -0.08652998 -0.07231121 0.009431447
0001c0 57 05 2d be c8 8e a0 3d 4d 59 b6 3d c6 ef 34 3c
       -0.16896568 0.07839733 0.089037515 0.011043495
0001d0 2f f8 d0 bc 14 57 f8 bc 8e 6e 27 ba 8b 99 43 3d
       -0.025508968 -0.03031496 -0.00063870184 0.04775385
0001e0 29 60 99 3c ef 35 39 be f4 ae f1 3b 71 85 25 bd
       0.01872261 -0.1808698 0.0073755924 -0.040410463
0001f0 4f 50 9e bd fd 83 cc bd 82 8b 91 bb c1 d6 aa 3c
       -0.077301614 -0.09986112 -0.0044416795 0.020854356
000200 b3 d6 e7 3c 39 4d bb bd 0b ce 06 bd a7 0a 22 3e
       0.028300619 -0.091455884 -0.03291134 0.15824376
000210 9b 34 a4 3c 80 1a c9 bc f3 fd 56 3d 38 2a 2e 3e
       0.020044615 -0.024548769 0.05248828 0.17008293
000220 51 d7 eb bc 95 60 2d 3c 7b fe 91 bd 6e 2d 3a bd
       -0.028789194 0.010582109 -0.071286164 -0.04545348
000230 35 c5 88 3d 7e 01 c2 bd 28 3b b9 bc b2 fc 04 bd
       0.06678239 -0.09472941 -0.022611216 -0.03246755
000240 5e 06 c9 3d bc 63 b9 3c 00 e3 28 be 13 91 04 bd
       0.098156676 0.022630565 -0.16492844 -0.032364916
000250 73 9e f0 bd 9a 11 a6 3c 14 e7 51 bc e3 82 05 3d
       -0.11748972 0.020272065 -0.012811441 0.032595526
000260 ab 65 2c bd 01 aa 3b 3d 42 81 ac bd cb a5 e2 3d
       -0.042089146 0.045816425 -0.084230915 0.11066779
000270 21 ee 13 be 67 e5 38 3d 5b 7d 07 3c 4f 7d 1a bc
       -0.14446308 0.04514065 0.008269633 -0.00942929
000280 f0 d4 d9 ba 71 46 93 3d 56 58 e5 3d 4f 8e 85 3d
       -0.0016619246 0.0719117 0.11198489 0.06521284
000290 fe 77 b5 bb bf 41 87 bd 2d 5c 08 3d 89 bf 48 3e
       -0.005537986 -0.06604337 0.03329103 0.19604315
0002a0 ab 04 2f 3e 26 53 2e be 4b 2f 64 3d af c6 2f bd
       0.17091624 -0.17023906 0.055709165 -0.04291409
0002b0 67 85 0c be b4 4e 26 be 35 ff f4 bd 44 84 b0 bc
       -0.13722764 -0.1624096 -0.119627394 -0.021547444
0002c0 08 c8 ed bd d4 5c 20 be 96 9c b8 3d 5c d6 1c bd
       -0.116104186 -0.15660411 0.090142414 -0.038290367
0002d0 da 18 e2 3d 44 b1 06 3c 06 f3 b3 3d 38 a4 9a 3d
       0.11039896 0.008220974 0.087865874 0.075508535
0002e0 2c cb 3f 3d 68 a7 f0 3d f3 fe f7 bd 8e a7 41 3e
       0.04682462 0.1175068 -0.121091746 0.18911573
0002f0 7e 7f fa 3c 4e 2b b1 bc 1b bb 45 3d 25 7b 24 3e
       0.030578371 -0.021627095 0.04827414 0.16062601
000300 d4 fc e1 bd 27 a7 05 3e c2 46 c7 bc da 37 d4 bd
       -0.11034551 0.13052045 -0.024325732 -0.10362215
000310 ad ba f2 bd 8c f8 a1 bd 55 a9 93 bd ce 59 1f be
       -0.11852012 -0.07908735 -0.07210032 -0.15561602
000320 11 4b 5b bd 33 66 2e 3e 2d 78 21 be 7c 25 10 be
       -0.053538386 0.17031173 -0.157685 -0.14076799
000330 06 39 88 bd fe 7e 2f 3e 9b 3b 23 be 8c 3d 73 bc
       -0.06651501 0.17138287 -0.15940706 -0.014846217
000340 60 3f 36 bd c5 36 12 3e 41 98 e1 3d d3 ba 12 3e
       -0.044494033 0.14278705 0.11015368 0.1432908
000350 68 52 cc bd 32 a4 e7 3d 91 e5 bf bd 8a 5a 6b 3d
       -0.09976655 0.11310615 -0.09369958 0.05745939
000360 d8 f4 9f 3d 13 61 04 be 7a 29 f1 bc a9 19 0d bd
       0.07810372 -0.12927656 -0.029438723 -0.0344483
000370 8a dd 70 bc 88 0a cd bc b8 0b 3f bd ab 32 0d 3e
       -0.0147012565 -0.025029436 -0.046642035 0.1378886
000380 67 a3 cd 3d a2 2e 0a 3e ca 43 54 3d 53 e3 60 3c
       0.10040932 0.13494352 0.05182246 0.013726073
000390 7d e9 e5 bc a0 43 43 bd 77 6a b0 3d 97 08 e5 3d
       -0.028065437 -0.047671914 0.086140566 0.11183279
0003a0 b7 b6 92 bd 7c 89 43 3e 9f a5 eb 3d d8 79 8b bd
       -0.07163756 0.19095415 0.11506199 -0.06810349
0003b0 dd 30 fd 3c ac b4 0e bd d8 c7 9a bd f3 50 4b bd
       0.030907089 -0.03484027 -0.075576484 -0.049637746
0003c0 a4 7e 29 3e 48 9e 60 3c a3 3d c2 bd 9a 5e d0 3b
       0.16552216 0.013709612 -0.094844125 0.0063589336
0003d0 1a 22 7c bc 93 f6 e5 3d 5a 0d 59 3b eb 61 2c 3d
       -0.01538899 0.11228671 0.003311953 0.04208557
0003e0 38 c9 37 bd d7 61 bf 3d a4 25 03 bd ab e5 2a 3d
       -0.04486963 0.09344833 -0.03201832 0.041722935
0003f0 73 68 42 bd 7c 75 d3 3d 90 22 11 be ce 7c dc bd
       -0.04746289 0.10325143 -0.14173341 -0.10765992

network.4.bias f4 [2]
000000 af bf 30 3c 74 b4 96 3d
       0.010787888 0.073586375

exp_avg f4 [128, 4]
000000 1f 17 d0 18 57 c3 a1 18 2d 57 d7 15 73 3c a2 98
       5.3790086e-24 4.1814767e-24 8.697535e-26 -4.1937057e-24
000010 df 50 09 39 f6 9f 02 3d 74 e3 72 bb ab 5e 4f bd
       0.00013095465 0.031890832 -0.0037061842 -0.05062739
000020 17 ed 36 3e 75 bc 37 bd 81 d3 04 3d 4f ab 0d 3b
       0.1786388 -0.04485746 0.03242827 0.0021617
000030 a7 da d3 bd 6a 0f 42 bd 92 c8 15 3d 8c 96 17 bd
       -0.10344439 -0.04737798 0.036568232 -0.037008807
000040 84 a7 87 3e 6b ed 0c bf 62 68 4f be 2d 35 c3 3e
       0.26494992 -0.5504977 -0.20254663 0.38126507
000050 be 01 b8 bd 20 80 ac 3c 05 5c 13 3c e4 2a ca bc
       -0.08984707 0.021057189 0.008994107 -0.024678655
000060 ea 30 98 bc 1d 91 ba 3c c8 c7 39 3d 02 48 ca 3d
       -0.018578012 0.022774274 0.045356542 0.09877016
000070 04 57 20 99 5d cf 1c 18 a2 c6 e4 97 ae 95 2b 98
       -8.289379e-24 2.026722e-24 -1.4784297e-24 -2.21768e-24
000080 4a ed e9 3e 83 53 6a bf f6 a7 99 be 52 f7 25 3f
       0.4568885 -0.9153368 -0.30010957 0.64830506
000090 56 01 c3 97 45 2f 51 99 c1 83 53 97 81 8b 20 19
       -1.2601917e-24 -1.0814593e-23 -6.8344074e-25 8.299979e-24
0000a0 90 5d 82 99 32 b2 83 18 b3 78 e0 97 e5 d1 cc 98
       -1.3479475e-23 3.4042638e-24 -1.4506129e-24 -5.2944703e-24
0000b0 a1 42 94 b0 d2 bd 42 30 4e 9b 15 2e d4 3a af b0
       -1.0787354e-09 7.084654e-10 3.4016616e-11 -1.2749646e-09
0000c0 01 c0 a0 3b 28 b9 14 bd be fb bc bc e4 85 23 3d
       0.004905701 -0.03630939 -0.023069259 0.03992261
0000d0 00 00 00 00 00 00 00 00 00 00 00 00 00 00 00 00
       0.0 0.0 0.0 0.0
0000e0 a4 57 f9 b9 58 23 97 38 f8 e9 ec b9 d5 a5 9f ba
       -0.00047558278 7.2068244e-05 -0.00045187748 -0.0012180159
0000f0 ab 4c 99 be 2d 28 d0 3e 98 90 1f 3e ea 92 97 be
       -0.29941306 0.40655652 0.15582502 -0.29604274
000100 c6 bd d9 3c ad fa c2 bc 70 28 25 bd 4e b1 a3 bd
       0.026579749 -0.023801172 -0.040321767 -0.079928026
000110 fb ba 61 3e 60 b2 ce be f6 8b 19 be 64 39 90 3e
       0.22043984 -0.40370464 -0.14994797 0.28168786
000120 00 b5 58 be 56 d7 17 3d c1 be 09 3e ce 57 21 be
       -0.21162796 0.037070595 0.13451673 -0.15756151
000130 2a a9 20 bf c3 23 f9 3c b8 fa 35 3e b5 7c a0 be
       -0.62758124 0.03041256 0.17771423 -0.31345144
000140 02 21 54 bd f2 9d 78 3d 2c 64 b0 3c f2 2a 45 bd
       -0.05178929 0.060697503 0.02153214 -0.04813666
000150 3d ae 2c b9 d5 6a 08 bc dc 7e 7a bb 24 70 e9 3b
       -0.00016468107 -0.008326252 -0.0038222587 0.007123964
000160 68 fd be be 16 7d 11 3f e1 06 5a 3e 43 ad d1 be
       -0.3730271 0.5683149 0.21291687 -0.409525
000170 02 2e f2 3e 57 df 52 bf 2f 29 9c be 93 39 13 3f
       0.47300726 -0.8237204 -0.3050017 0.57509726
000180 b7 f7 81 3a 74 50 8c 3b 37 30 be 39 24 68 16 bb
       0.0009915744 0.0042820517 0.00036275547 -0.0022950256
000190 b6 a8 0d bf db 1e 99 3d 00 db dc 3c 9b c8 66 bd
       -0.5533556 0.07476588 0.026959896 -0.056343656
0001a0 3b 0f c2 bd 7d 7e 85 be 5e 30 88 bc 4e 6d 8a 3d
       -0.09475561 -0.26073065 -0.016624626 0.067591295
0001b0 a0 7a 89 be 6e dc 57 3e 82 aa b9 3d b5 b7 1d be
       -0.26851368 0.21080181 0.09065725 -0.1540211
0001c0 4b 37 89 be 09 3c 53 3e 72 78 c8 3d f3 24 84 be
       -0.26799998 0.2062837 0.09788598 -0.2580944
0001d0 58 f1 91 be 42 e9 ab 3e 63 d7 02 3e 97 95 79 be
       -0.28504443 0.335764 0.12777476 -0.2437347
0001e0 81 31 bc be 91 c1 0e bd 09 77 09 3e c5 a9 25 be
       -0.36756518 -0.034852568 0.13424315 -0.16178043
0001f0 7f d7 ac 3e f4 03 2b bf 18 49 7a be 85 b2 ef 3e
       0.3375816 -0.66802907 -0.24441946 0.46815887
000200 8c 96 03 bf f5 10 19 3f 6a 7a 00 3e 2c e8 de be
       -0.5140159 0.597915 0.12546697 -0.43536508
000210 79 c3 75 3f 5a bc dd 3d 3a 5e 9b be 13 d1 de 3e
       0.9600139 0.10826941 -0.30345327 0.43518886
000220 64 b8 47 3e b2 f7 d1 be 29 04 1a be af 3a 90 3e
       0.19503933 -0.4100929 -0.1504065 0.28169772
000230 f3 51 45 3e 34 61 98 be 01 a4 1a bd 4b d4 e6 3d
       0.19269542 -0.2976166 -0.037754063 0.112709604
000240 47 e9 2b 3f 89 04 21 3f c3 40 de 3c 25 cd 6f be
       0.6715283 0.62897545 0.02713049 -0.234181
000250 f9 9d 33 bb bb 01 46 bc 50 28 35 ba 32 f5 d0 3b
       -0.0027407391 -0.0120853735 -0.0006910609 0.006376886
000260 c2 64 cc bc 72 e3 a3 bd 96 87 2d bb 4f ad 0a 3d
       -0.024950389 -0.08002366 -0.002647852 0.033856686
000270 1e 01 8a bb ef cd b5 bc 7a 1d 8e 3b 69 f7 06 3c
       -0.004211559 -0.022192923 0.00433701 0.008237698
000280 7c a3 ce be 1f 92 53 3d 4c 91 08 3e d0 aa 09 be
       -0.40359104 0.051653024 0.13336676 -0.13444066
000290 99 04 40 3b ff d3 37 3c 2e 30 e4 39 0d a8 e5 bb
       0.0029299615 0.011219977 0.00043523445 -0.0070085586
0002a0 2d 01 ea be 8e fa d0 bd 7c 3c b6 3d 24 86 c2 bc
       -0.45704022 -0.102040395 0.08898255 -0.023745604
0002b0 dd 2c b9 be a6 1a 6b 3f ba a5 54 3e cd 14 51 bf
       -0.3616704 0.9183754 0.20766345 -0.81672364
0002c0 cf ff ed 37 5e 81 b3 3a a3 ba 2b b9 82 e7 08 bb
       2.8371722e-05 0.0013695171 -0.00016377358 -0.0020889943
0002d0 18 4e 64 3d 5c 05 bb bc 9e 0c f5 ba f7 c3 a2 3c
       0.05573854 -0.022829704 -0.0018695777 0.019868834
0002e0 43 84 61 bd 5d 58 04 bf 6c 21 88 bd 78 07 87 3e
       -0.055057775 -0.5169733 -0.06647 0.26372886
0002f0 35 db 51 bd c7 7a 2b be 60 c2 d3 bb 5d fb 97 3d
       -0.051234443 -0.16746055 -0.0064623803 0.074209906
000300 d2 11 99 be 49 55 33 be 3c 15 99 3d be 10 d9 bb
       -0.29896408 -0.17513002 0.07474753 -0.0066243103
000310 21 65 64 be b0 05 98 3e 24 d6 e8 3d 8c 6a 5e be
       -0.22304203 0.2969184 0.11368969 -0.21720332
000320 a2 a5 3e be f8 fe e6 be 43 be ea 3a be 8a 21 3e
       -0.18617871 -0.451164 0.0017909486 0.15775582
000330 a0 fc aa 3e 87 28 59 bd f5 63 db bd b1 2c 5f 3e
       0.33395863 -0.053017166 -0.10712425 0.21794392
000340 7c 21 a9 3e 54 2c 8e 3d 82 ff bf bd 21 de fb 3d
       0.3303336 0.06942049 -0.09374906 0.12298227
000350 5c 88 02 3e 7b f9 78 be 19 6d a9 bd 21 20 34 3e
       0.1274733 -0.24313919 -0.08272762 0.17590381
000360 94 9e 5c bf 01 88 6d be ee ed 7a 3e 79 d3 36 be
       -0.8617947 -0.23196413 0.24504825 -0.17854108
000370 36 f5 4a bd 47 f9 38 be 49 d2 a1 bc ca e4 9c 3c
       -0.049550258 -0.18063842 -0.019753592 0.019152064
000380 af 40 84 be 6d 35 a7 bb d8 95 d5 3d 51 76 d3 bd
       -0.258306 -0.0051028044 0.10428971 -0.103253014
000390 8d 4b 31 99 c9 e5 d4 16 95 79 ee 96 bd 69 16 98
       -9.165943e-24 3.4395462e-25 -3.8527703e-25 -1.944043e-24
0003a0 45 f8 9a 3c 0a 2a 47 3d 6f 12 83 ba e4 e1 d8 bc
       0.018917212 0.048624076 -0.001 -0.0264749
0003b0 e2 99 da 3d 4d fd 12 bd 03 fe 5a bd 00 96 c2 3d
       0.10673882 -0.035886098 -0.0534649 0.095012665
0003c0 b5 6c 9c b6 c3 d7 af b7 ff b2 80 33 ab 4d 64 37
       -4.6618175e-06 -2.0962098e-05 5.993024e-08 1.36079425e-05
0003d0 71 53 04 3e 94 88 c3 3e 01 16 db 3c 3c 24 df bd
       0.12922455 0.38190138 0.02674389 -0.10895583
0003e0 bd 13 a2 bd 4a f7 34 be d8 9a de 3a 8c 28 90 3d
       -0.07913921 -0.17672458 0.0016983403 0.07038984
0003f0 dc 41 8a be d5 88 c7 3e 8a 79 13 3e 03 56 90 be
       -0.27003372 0.38971582 0.14401832 -0.28190622

exp_avg_sq f4 [128, 4]
000000 10 cc 59 3e b4 44 33 3d 19 a7 18 3a db df 97 3c
       0.2126925 0.043766692 0.00058232393 0.01853936
000010 18 63 48 3f 49 6a 93 3e 8e be f1 3b 8b ba 31 3e
       0.78276205 0.28792027 0.007377452 0.17356317
000020 8a 56 01 40 d8 14 92 3e 27 c2 14 3c b0 5f f8 3d
       2.020907 0.28531528 0.009079493 0.12127626
000030 82 92 9d 3f 5c ca 50 3d 08 c6 b5 3a 35 97 c9 3c
       1.2310336 0.050974235 0.0013868222 0.024608234
000040 34 47 41 42 7b d0 a5 40 a7 46 d6 3d 49 ec e1 3f
       48.319534 5.1816993 0.104626946 1.7650234
000050 4b e3 cd 3e 45 86 5b 3d 6b c5 8a 3a 2c 3e 94 3c
       0.40212473 0.053594846 0.00105874 0.018096052
000060 7f c5 e6 3f fa 54 20 3f 36 2e 88 3c 5f 50 87 3e
       1.8029021 0.62629664 0.016623598 0.26428506
000070 cf 94 8f 3e d2 20 cc 3d 95 28 1d 3b a7 d6 3a 3d
       0.2804322 0.099671975 0.0023980488 0.045614865
000080 55 2f de 42 f3 06 3f 41 cf db 6d 3e e9 cb 80 40
       111.092445 11.939197 0.23228382 4.0248914
000090 49 a9 c1 3c 23 4a ad 3b 26 f5 1e 39 73 3d 19 3b
       0.023640292 0.005288379 0.00015159379 0.0023382574
0000a0 32 d8 86 3f 56 ba 95 3e f2 89 da 3b 77 8f 0f 3e
       1.0534728 0.29243726 0.0066692764 0.14019571
0000b0 69 24 fd 38 20 d4 1b 38 07 29 00 35 04 82 c4 38
       0.00012070762 3.7152437e-05 4.774342e-07 9.3702256e-05
0000c0 60 bb 61 3f d3 be 40 3e b0 d1 72 3a 43 7d 7f 3d
       0.88176537 0.18822794 0.0009262813 0.06237532
0000d0 00 00 00 00 00 00 00 00 00 00 00 00 00 00 00 00
       0.0 0.0 0.0 0.0
0000e0 be 39 bc 3d 65 b2 ed 3c 1e b6 18 3a 94 59 b3 3c
       0.09190701 0.02901573 0.00058254774 0.0218933
0000f0 87 9b eb 41 36 8f 54 40 4a 9e 97 3d 64 c2 9e 3f
       29.450941 3.321241 0.07403238 1.2403073
000100 11 dc 86 40 b0 36 be 3f 0c 56 13 3d cb 15 34 3f
       4.2143636 1.4860439 0.035970733 0.70345753
000110 da 97 c5 41 5d 9a 1a 40 aa 61 49 3d 54 2f 52 3f
       24.699146 2.4156716 0.049165405 0.82103467
000120 c8 c7 0f 42 12 c1 dd 3f 69 55 6c 3d f5 7c 51 3f
       35.9451 1.7324545 0.05769864 0.81831294
000130 68 17 77 42 eb 83 83 40 f9 94 e1 3d 32 23 c6 3f
       61.772858 4.1098533 0.110147424 1.5479491
000140 32 0d 97 3f 6e 89 46 3e 76 cb 8e 3b c4 26 97 3d
       1.1800902 0.19388363 0.0043577505 0.07380441
000150 c0 2e cd 3e c6 e0 8c 3d 05 76 13 3b da df 17 3d
       0.4007473 0.0687881 0.0022500765 0.037078716
000160 2b c3 51 42 f3 46 c8 40 2e 6e 0d 3e 21 cd 18 40
       52.440594 6.258661 0.13811561 2.38752
000170 c0 2c d6 42 92 68 35 41 4a 91 72 3e 80 54 81 40
       107.0874 11.33803 0.23688236 4.041565
000180 03 54 d0 3d 00 c1 a8 3c 1b 2c dc 39 9f 79 13 3c
       0.10172274 0.020599842 0.0004199453 0.009001165
000190 ec 60 cb 40 51 fa 89 3f be 9f 8b 3c ce d7 f1 3e
       6.3555813 1.0779516 0.017043944 0.47234958
0001a0 b0 07 d4 3d e9 4f 5f 3e 6c cc 3d 3b af 91 37 3d
       0.10353029 0.21807827 0.0028960956 0.04481667
0001b0 bb 75 36 41 fd 87 db 3f be 86 23 3d 56 1e 27 3f
       11.403743 1.7150875 0.039923422 0.65280664
0001c0 fe e4 9a 41 a2 e5 ce 3f 27 67 15 3d 63 58 16 3f
       19.361813 1.6163828 0.036475327 0.5872862
0001d0 f1 77 a6 41 f2 77 36 40 1e 4c 7c 3d 0f d1 8a 3f
       20.808565 2.851071 0.06159603 1.084505
0001e0 36 47 e6 41 80 d9 b6 3f 58 d5 48 3d d1 50 2c 3f
       28.784771 1.4285126 0.049031585 0.67310816
0001f0 13 b8 87 42 cf 62 d6 40 36 57 11 3e 12 6a 18 40
       67.85952 6.6995616 0.14193425 2.381474
000200 25 02 b2 41 e7 06 d1 3f 9c 9c 01 3d 56 a1 06 3f
       22.251047 1.6330231 0.031643495 0.5258993
000210 5b c1 22 43 c9 38 ec 40 6d 77 81 3e 60 c7 8a 40
       162.7553 7.381932 0.25286427 4.336838
000220 4f 05 d3 41 d8 7e 30 40 a5 81 61 3d 6d d4 6c 3f
       26.377592 2.757742 0.05505528 0.92511636
000230 97 84 c7 3f ff d8 97 3f 4a 7e 7f 3c fd 3f b2 3e
       1.5587338 1.1863097 0.0155940745 0.34814444
000240 68 22 67 41 11 ce 65 40 b5 15 11 3d 2a e0 42 3f
       14.4459 3.5907023 0.035421092 0.761233
000250 2c f9 de 3c 92 9a 33 3c 54 93 84 39 4d c9 8e 3b
       0.027218424 0.010962145 0.0002528677 0.004357493
000260 73 1a 91 3d 0a 58 57 3d d5 21 da 39 96 f6 95 3c
       0.07085123 0.052574195 0.00041605407 0.018306058
000270 87 af 43 3e ea ea 76 3d ec 02 a5 3a e4 95 c9 3c
       0.19109927 0.060282625 0.0012589372 0.024607606
000280 50 6a cb 41 e0 73 25 40 49 13 91 3d 18 db 81 3f
       25.42691 2.5851974 0.070837565 1.0144987
000290 c6 ad 61 3c 82 df a6 3c da 7c a0 38 f7 e8 08 3c
       0.013774341 0.020370249 7.65265e-05 0.008356324
0002a0 ce 09 19 41 af 41 57 3f 63 af cb 3c 0b f8 97 3e
       9.564894 0.840846 0.024863904 0.2968143
0002b0 ee 78 6e 42 f7 54 90 40 27 04 96 3d 54 9c b2 3f
       59.618095 4.5103717 0.07325011 1.3953958
0002c0 14 9b 4a 3d 33 f7 aa 3c cd a4 58 39 ea c6 3f 3b
       0.0494643 0.020869827 0.00020660758 0.002926285
0002d0 91 76 9d 3d 56 96 4a 3d 55 59 12 39 c2 0d 85 3c
       0.0768863 0.049459778 0.00013956924 0.016241912
0002e0 2a fa d6 41 6e b0 a5 40 7d f4 fb 3d 00 33 09 40
       26.87215 5.177787 0.12302492 2.1437378
0002f0 1e 01 1c 3e 6f e7 f4 3d cc fe 84 3a 87 38 14 3d
       0.15234801 0.11958205 0.0010146736 0.03618672
000300 17 e8 0a 41 3c 4a 57 3f ea d7 e1 3c a2 4a af 3e
       8.681663 0.8409765 0.027568776 0.34236628
000310 9f bf 90 41 2c c5 25 40 0e bd 6e 3d d2 90 83 3f
       18.093565 2.5901594 0.058285765 1.0278571
000320 f1 ad 5f 3f 47 07 36 3f 8f de ea 3b 2e d2 63 3e
       0.8737479 0.71104854 0.0071676443 0.22248146
000330 7c 08 e9 41 cb 76 25 40 96 1d 67 3d 46 a7 67 3f
       29.129143 2.5853755 0.0564247 0.90489614
000340 29 2e 92 41 83 ae bd 3f c0 3a 04 3d d6 ae 06 3f
       18.27254 1.4818882 0.03228259 0.5261053
000350 d6 05 f8 40 26 0f 4c 3f 74 67 7a 3c 69 51 80 3e
       7.7507124 0.79710615 0.015283454 0.2506211
000360 c1 8a a2 42 6f 62 9c 40 f2 64 22 3e fd e4 09 40
       81.271 4.887016 0.1585882 2.1546013
000370 47 04 91 3e 6f 63 aa 3e 66 49 ff 3b 5e b8 f9 3d
       0.28323576 0.33278987 0.007790732 0.121933684
000380 df 4a c2 41 90 8f 92 3f cf dd 1b 3d 43 aa 0d 3f
       24.286558 1.1450062 0.03805333 0.55337924
000390 55 b5 d8 3e e2 6c e2 3d 69 9c 28 3b 85 37 67 3d
       0.42325845 0.11055924 0.0025727993 0.056449432
0003a0 d1 6e b3 3e 90 a3 28 3e bf 53 25 3b 36 d6 86 3d
       0.35045484 0.16468644 0.0025226919 0.06583826
0003b0 fe 3e a3 40 4e 8b da 3e 69 e6 d2 3b ed ec 30 3e
       5.1014395 0.42684406 0.0064361584 0.1727788
0003c0 4f 21 51 3c 3b 78 ac 3c 62 59 2d 38 39 99 45 3c
       0.012764289 0.021053424 4.132966e-05 0.012060457
0003d0 63 de c7 40 e7 e5 e2 3f c9 89 11 3d 7f c3 2e 3f
       6.245897 1.7726411 0.035531793 0.68267053
0003e0 a9 c7 cf 3d 6e 68 d1 3d c7 7d 80 3a 46 c3 c2 3c
       0.10145504 0.102249965 0.000980311 0.023774754
0003f0 34 cb db 41 5e 8a 5b 40 47 57 99 3d 90 20 9d 3f
       27.47422 3.4303203 0.0748735 1.2275562

exp_avg f4 [128]
000000 dd a1 f6 18 c8 8e b2 3d e8 4e 31 be 3a 8b 13 3d
       6.375295e-24 0.087186396 -0.17315257 0.03602145
000010 62 0f 3b 3f 68 0a d9 3c 9d 5f 00 bf 01 5a 4e 99
       0.7307035 0.02649422 -0.50145894 -1.06681265e-23
000020 1d 53 75 3f 8c ee d4 18 13 17 5d 99 8b 00 74 30
       0.95829946 5.5041586e-24 -1.1430092e-23 8.8767454e-10
000030 25 91 fa 3c 00 00 00 00 63 6c 15 ba 80 83 fc be
       0.030586788 0.0 -0.000570005 -0.49319077
000040 f5 cb e5 3e 67 64 07 3f cd 26 a4 bd 35 4e a9 3e
       0.4488217 0.52887577 -0.08015213 0.3306748
000050 51 e2 7a bd 4c 3e 95 3c 3c 1c 34 bf 0c f5 86 3f
       -0.06125099 0.018218182 -0.7035558 1.0543532
000060 79 57 67 bb 12 a9 49 3e 2a e1 cc 3e 72 1d 74 be
       -0.003529994 0.19693401 0.40015537 -0.23839357
000070 c9 b9 ba 3c 2d 2b c4 be 88 9b 06 3e 5b 61 5e 3f
       0.022793667 -0.3831419 0.13145268 0.868673
000080 b5 ae 17 be 65 07 f2 be 4c 0f 0c 3f af d0 9e 3e
       -0.14812739 -0.47271267 0.5471084 0.31018588
000090 26 d4 6d bf cf b1 24 3c 89 1e 8c 3d 72 4e 10 3b
       -0.9290184 0.0100521585 0.068417616 0.0022019413
0000a0 a4 c7 19 be 6f 26 07 bc 9d e2 62 3d 8a e3 ac be
       -0.15017563 -0.008248909 0.055391897 -0.3376735
0000b0 f1 8f 58 3b e0 ad fb bc 29 8e 4a 3f 28 7f 1d 3e
       0.003304478 -0.030722558 0.7912317 0.15380538
0000c0 13 43 c0 3d 74 12 b6 be 5c c1 c3 3e f8 24 6f be
       0.093877934 -0.35560954 0.3823346 -0.23353946
0000d0 b9 92 66 be 32 75 86 3e e3 c2 2d 3d 33 17 bb 3e
       -0.22516908 0.26261288 0.042422187 0.36541137
0000e0 f6 f7 e7 bc 74 30 14 99 dd 50 e2 bc e6 a8 15 ba
       -0.02831648 -7.661206e-24 -0.02762645 -0.0005709067
0000f0 d9 1c 57 37 36 6b 0a bf 24 e5 17 3e f7 3d ef be
       1.2821715e-05 -0.5406984 0.14833504 -0.46726963
000100 89 af 76 3e 97 6c 5b b8 b9 8c 24 3c 71 0e a0 3f
       0.24090399 -5.23148e-05 0.0100433165 1.2504407
000110 13 b8 56 b5 ed ae 49 bc 5c d6 3f bd bc 48 a4 3c
       -7.9989076e-07 -0.012309772 -0.04683529 0.020054214
000120 fc 26 4b 3d d7 c0 a1 3e 7c af 97 3d 18 64 97 be
       0.049597725 0.31592438 0.07406518 -0.29568553
000130 9d 7c d0 3d 6c b4 79 bc 7f 2e 59 3e 2d bf cb be
       0.10180018 -0.01524077 0.21209143 -0.39794293
000140 58 9c 8a 98 00 00 00 00 a6 ec 86 16 34 00 46 be
       -3.583003e-24 0.0 2.1798214e-25 -0.19336015
000150 f8 0e f0 3d 9f 0e 6a bb 6f 02 5c 98 8b 47 7a bd
       0.11721605 -0.0035714281 -2.8435562e-24 -0.061103385
000160 00 00 00 00 c2 45 da bf 7f a2 0b bd 1d 4c 0b be
       0.0 -1.7052538 -0.034090515 -0.13603254
000170 09 fc 8c bc 23 56 13 3f 94 b0 a2 3c d5 c5 b5 3d
       -0.017210023 0.5755331 0.01985959 0.08875624
000180 50 ad 14 99 55 53 22 bf 7a 6d 8d 3d 7c 24 ce 3e
       -7.686421e-24 -0.63408405 0.069056466 0.4026221
000190 65 ee 8b be be 6e 44 35 55 c7 59 bc 10 b1 5b 3c
       -0.27330318 7.317684e-07 -0.013292153 0.013408914
0001a0 57 49 fe 3d ad 34 36 3b 54 d4 d5 3e a9 a8 a9 3e
       0.12416332 0.0027802393 0.41763556 0.3313649
0001b0 d3 e9 d5 3e b1 12 cd bd 70 d8 bf 3d dd 7e c8 3c
       0.41779956 -0.10013331 0.09367454 0.024474556
0001c0 2c 09 93 99 ae 1b 79 bc 4e 7d 3f ad 5c a5 bc be
       -1.5203148e-23 -0.015204353 -1.0884916e-11 -0.3684491
0001d0 ce 79 e6 3e e8 79 37 bc 3c 27 93 3e 88 cf 42 be
       0.45014805 -0.011198498 0.2874087 -0.1902448
0001e0 d4 00 5c 3e 2a ed 13 bf e7 f8 a6 3c 02 49 d5 33
       0.21484691 -0.5778376 0.020382358 9.9318655e-08
0001f0 e8 9c b5 be 38 37 33 3d ce 5c 96 ba bf 92 79 3d
       -0.35471272 0.043753833 -0.001147175 0.060930964

exp_avg_sq f4 [128]
000000 c5 9f b5 3d 94 7c 5d 3f 96 ff db 3f d1 b2 d9 3e
       0.08868364 0.86518216 1.7187374 0.4251924
000010 bb c8 d5 41 96 84 be 3e 1d 4d e3 3f ad bd 79 3e
       26.723013 0.3721053 1.7757908 0.24388762
000020 5b d2 7c 42 1f 6f 84 3c e6 d3 3f 3f 3a ee 2a 38
       63.205425 0.016166268 0.74932706 4.0753024e-05
000030 aa b0 9b 3e 00 00 00 00 c2 41 b5 3d 1a f5 9d 41
       0.3040822 0.0 0.08850433 19.744678
000040 fb 51 bb 40 07 c2 56 41 e7 7e 90 41 4c 1c 06 42
       5.8537574 13.42237 18.061964 33.527634
000050 34 95 96 3f 32 c4 99 3e 23 fc 05 42 c7 9d 71 42
       1.1764283 0.30032498 33.496227 60.40408
000060 5e 9c 15 3d 4d f5 8a 40 05 c4 b6 3e 47 3c 02 41
       0.036526076 4.342444 0.35696426 8.139716
000070 cd a7 34 41 54 eb 61 41 93 4d 6c 41 83 fe 14 42
       11.290967 14.119953 14.768939 37.248547
000080 a2 24 20 41 86 d7 a7 42 35 94 63 41 b8 6a 2f 40
       10.008944 83.920944 14.223683 2.7408886
000090 1b a4 ed 40 40 26 ac 3c 60 48 a1 3d 1e 33 28 3e
       7.4262824 0.021014333 0.078751326 0.1642575
0000a0 f8 67 87 41 08 e1 6a 3c 99 8c cd 40 f1 ab d3 41
       16.925766 0.014335878 6.423413 26.458956
0000b0 bb ec b6 3c ea 8d 11 3d 92 2d f1 41 9a 9b 35 3e
       0.022329679 0.03553573 30.147251 0.17735139
0000c0 1d 90 c5 40 2d 31 48 41 46 ad 87 3f c5 a9 68 41
       6.173842 12.512006 1.0599754 14.541448
0000d0 52 ae 05 41 cd 73 74 40 74 50 38 42 2c 84 86 3f
       8.355059 3.819568 46.078568 1.0509086
0000e0 65 29 43 41 41 a4 7d 3e bd fc a2 3e cc 6e fb 3f
       12.197606 0.24769689 0.3183345 1.9643188
0000f0 1a 54 34 3c d3 58 e2 40 26 54 16 3e 94 6d 9b 41
       0.0110063795 7.073343 0.14680538 19.428505
000100 7a 28 9d 40 2a 56 9c 3d 2a 28 54 3f a4 85 ca 41
       4.911191 0.07633622 0.82873785 25.315254
000110 c7 e3 7b 3a 54 ac d3 3f ce e9 a7 3f d1 b9 35 3d
       0.00096088316 1.6536965 1.3118227 0.04436666
000120 18 5c 19 3f cd 7a 3f 3f 3e 37 20 3f d0 f5 72 41
       0.5990615 0.74796754 0.6258429 15.185013
000130 50 13 97 41 f3 53 58 3d c5 36 b3 3f 02 ab c3 41
       18.88443 0.052814435 1.4001089 24.4585
000140 c3 10 35 3d 00 00 00 00 e0 45 77 3c c0 ac d7 40
       0.04420544 0.0 0.015092343 6.7398376
000150 52 28 47 3f e2 a0 8d 3d 90 44 a9 3e 61 a2 1c 3f
       0.777959 0.069154516 0.33060122 0.6118527
000160 00 00 00 00 0f 81 c8 42 7c f2 94 3f ab da 3c 40
       0.0 100.25207 1.16365 2.9508464
000170 6c d7 47 3c 55 ac 65 41 67 56 91 3e 7e 9d 8d 41
       0.012197357 14.354573 0.28386232 17.7019
000180 da a4 0b 3e d2 4a 03 42 65 79 92 41 59 90 7b 3f
       0.13637105 32.823067 18.309275 0.9826713
000190 ca a9 3d 3f 7d 99 5a 3c 36 12 dd 3e 87 c8 53 3e
       0.740872 0.0133422585 0.43177956 0.20681964
0001a0 12 9d 02 41 06 3b a6 3d 93 21 ec 40 ae 68 ab 41
       8.163347 0.081167266 7.3790984 21.426113
0001b0 94 1a 33 41 23 74 7e 3f f5 be 3d 40 c1 90 4f 3d
       11.193989 0.9939596 2.96478 0.050675157
0001c0 af a2 08 3e ae aa 86 3c b5 21 a5 3a 60 e8 53 40
       0.13343309 0.016438808 0.0012598546 3.311058
0001d0 89 6f f8 3f b0 af 38 3e 41 8e ad 40 ec b9 97 41
       1.9409038 0.1803577 5.423615 18.965782
0001e0 fd 02 da 41 4f 4f 03 41 41 d1 73 41 03 fb 8f 3d
       27.25146 8.206862 15.238587 0.070302986
0001f0 f4 f3 9e 40 a4 9e d2 3f 89 83 c7 3c 87 2c 18 40
       4.9672794 1.6454663 0.024354713 2.3777177
