week 6/checkpoints/reinforce_cartpole_seed1.pth (torch, 226393 bytes, 18 tensors)

network.0.weight f4 [128, 4]
00000000: 8990 d73e 3ed8 2f3e 3188 9f3e 6a9d d7be
00000010: 7091 bf3e 207a c8be aabc 23be 0b06 b4be
00000020: 5109 54bd 156b dbbb 5b51 a23d d4bd 54be
00000030: e2aa 443e a061 a0bc 0362 093f b52d cf3e
00000040: 2b4b dbbe 9ea8 72be de54 6a3e 7143 773e
00000050: d34a b23e 71bd c03e ad1e 4c3f daee 163f
00000060: 8694 7d3e 1461 bb3e a17c 74be ba49 f3be
00000070: 847d b83e 4c12 1abe 4cea abbe bc53 f3be
00000080: 15f5 28be 0fd7 f6bd 626a 98bc 99b3 1dbf
00000090: 8085 66be ef4a ab3e ce16 f03d 58ef ea3e
000000a0: 2b8a c8be 73c3 b2be f69e b23e f240 653e
000000b0: cdd5 f43e 8095 2a3e d582 10be 38c2 973e
000000c0: ae45 cd3a 94c8 be3e 9940 4cbd 2626 593e
000000d0: a180 e03c b361 e73e 5a37 463f 118d d43e
000000e0: ad7a bcbe f03c 93bd af89 063f cc31 9abb
000000f0: 8fa3 f6be 058f ecbe a605 47bf 61d4 debe
00000100: b3cb 95be a8dd acbe 6fe8 ddbe 8921 df3e
00000110: 294f ff3d 8032 92be 42cc 77be 6e7d b6bb
00000120: fbdb d13e 8688 e6be 6d1d f4be d067 ce3d
00000130: 2a33 6b3e dc2b 15be 0a45 bcbe 89f6 b23e
00000140: 87df e13e 9f0b e83e c5cf 2a3e d540 b3bd
00000150: c97f babe 7114 36be 69fd 1fbf 190c 28bd
00000160: 53a0 433e 7986 6f3e 9dd6 f7be 73be 82be
00000170: 581d 23be bfad a73e ae1e 103f 344c 033e
00000180: f6df b8be 978c d93e 938d 3abe cdf5 a6be
00000190: eb7c 02be 1959 c0be 46f4 2d3f a004 953e
000001a0: 0007 39bc 00b3 5ebb e0bf 82bd 0080 5d3a
000001b0: ca45 803e 9cd2 d8bd f82f 19be 7ced 65bc
000001c0: c890 fcbd 80e3 243c c046 883d e052 e5bd
000001d0: 7685 163e 94ae 023e aff5 96be a104 04bf
000001e0: 32e0 61be 0281 72be ea70 98be 98b9 24be
000001f0: 33f9 89bd 76e9 18bc 0eb9 723e 097b 663e
00000200: 6c63 e43d b7c3 e4be 9ad9 6d3e e817 b43e
00000210: 1232 6abe 98c6 ed3d e69b 29bf 8ab0 73be
00000220: 410b c4be 4f4d 28be cfa5 d33d cae3 81be
00000230: 173c f4be 5491 e03e cbbc 113f c88d 383e
00000240: 4ef5 debc 412c 08be 82d1 35bf 0998 9d3d
00000250: 81d0 ac3c ed4c 32be 2ccc 31bd a93f 0cbe
00000260: 6820 e8be 5cae d63d 1afc 69bf b2bc 9fbe
00000270: 562d 5d3e e3ac a5bc 5eba 17bf 44d6 5ebe
00000280: 0c30 bd3e d96c 9d3e 0d2d 3f3f 783a b43d
00000290: e7b5 cdbe 4710 e4be 1fa6 8ebd b393 02bf
000002a0: f981 1c3e 4650 24bd a568 bd3e 2318 8d3e
000002b0: 42f0 b73d 701a 3f3e da48 98be 3d87 01bf
000002c0: 7102 c4be 293b acbe b48c 2b3f a862 593e
000002d0: 5bb9 9ebd b38a 84bd f8a5 863e 2e57 dd3e
000002e0: 3490 013e 5197 063f 16bb eb3e 270f d43e
000002f0: ba40 58bc f4f3 96be e704 60be 8fef 003f
00000300: b000 d53d ea6b b03e 69f2 5f3d 1f89 b6bd
00000310: 413f b93e d075 8f3c 8af7 c53e 3ec9 81be
00000320: 5314 8fbe febe bfbe 9b5e 6f3e b80e 483e
00000330: 3f50 22be 6f2d 88be 6d92 eabe f47d f13c
00000340: 1c1d 9d3e 1671 c03e 2092 be3e fc53 c73e
00000350: 9afa ac3e b36e f73d 9572 643d 4533 da3d
00000360: 39ba 4e3e 1a77 cfbd 438c d8be 40e4 6cbe
00000370: ff6d 89bd 087a b9bc 274f ccbd 0bfb 943e
00000380: 35a9 853d b8e0 7c3c a12e 4abd 5374 bcbe
00000390: 8fcc 473e 7659 02bf 3fae 08be 59c7 f93e
000003a0: 8ead 2cbd 351c 8dbd e435 933e 33be 573e
000003b0: de00 013c 25b4 c53e cd04 2a3f cdd7 9dbc
000003c0: 4598 9cbd 69ee 0f3f 54d8 353f 89de 093f
000003d0: 2718 c73e 3d45 713e 1848 33bd 797a df3e
000003e0: 4ad5 fbbe 41ea a13e 9f39 003f 95b9 063f
000003f0: 0984 bb3e c517 96be 5491 fdbe 9acc 913d
0.4210246 0.17172334 0.31158593 -0.42112285 0.37415648 -0.39155674 -0.15989938 -0.3516086
-0.051766697 -0.006696115 0.079256736 -0.20775539 0.19205812 -0.019577801 0.5366518 0.4046456
-0.42830786 -0.23697135 0.22883937 0.2414682 0.3482271 0.37644532 0.7973431 0.5895821
0.24763688 0.36597502 -0.23875667 -0.47517186 0.3603326 -0.15046042 -0.33577192 -0.47524822
-0.16499741 -0.12052738 -0.018605415 -0.6160217 -0.22511864 0.33455607 0.117231 0.4588573
-0.39167914 -0.3491474 0.34886903 0.22388056 0.47819367 0.16658592 -0.14112408 0.29640365
0.0015661025 0.37262404 -0.049866293 0.21205959 0.027405085 0.45191726 0.7742821 0.41513875
-0.36812344 -0.07189357 0.5255384 -0.0047056433 -0.4817166 -0.46202865 -0.77742994 -0.43521407
-0.29256973 -0.3376286 -0.43341395 0.43580273 0.124662705 -0.28554153 -0.24199012 -0.0055691516
0.40988144 -0.45026034 -0.476787 0.100783944 0.22968736 -0.14567512 -0.36771423 0.34953716
0.4411585 0.45321366 0.1668082 -0.087526 -0.36425617 -0.17781235 -0.6249605 -0.041027162
0.19104128 0.23391141 -0.48405924 -0.25535926 -0.15929163 0.32749745 0.56296813 0.12822038
-0.3610837 0.42490074 -0.18218069 -0.32609406 -0.12742965 -0.37567976 0.67950857 0.2910509
-0.011293173 -0.0033981204 -0.063842535 0.00084495544 0.25053245 -0.105870456 -0.14959705 -0.0140336715
-0.12332302 0.010064006 0.066541195 -0.11197448 0.14699349 0.12761909 -0.29484317 -0.51569563
-0.2205818 -0.23682025 -0.29773647 -0.16086423 -0.06736984 -0.009333005 0.23703405 0.22507872
0.11151776 -0.4468057 0.2322754 0.3517449 -0.22870663 0.116101444 -0.6625351 -0.23797813
-0.38289836 -0.16435741 0.1033436 -0.25369102 -0.47702095 0.43860877 0.569287 0.18022835
-0.02721658 -0.13298132 -0.7102281 0.07695014 0.021095516 -0.17412157 -0.043407604 -0.1369616
-0.45337224 0.10482475 -0.914003 -0.3119865 0.21599326 -0.02022404 -0.5926875 -0.21761423
0.3695072 0.30747107 0.7467812 0.088002145 -0.40177843 -0.4454367 -0.06965279 -0.5100662
0.15283956 -0.040115617 0.369939 0.27557477 0.089813724 0.18662429 -0.2974308 -0.5059698
-0.38283113 -0.33638886 0.6701157 0.2122904 -0.077501975 -0.06471767 0.262985 0.43230575
0.12652665 0.5257464 0.46041173 0.4141781 -0.013199026 -0.29482996 -0.2187687 0.5036554
0.10400522 0.34457332 0.05467454 -0.089128725 0.3618107 0.017512232 0.3866542 -0.25348848
-0.27945194 -0.37450403 0.23375933 0.19536865 -0.15850924 -0.26597163 -0.4581484 0.029479004
0.3068627 0.37586278 0.3722086 0.38931262 0.33784944 0.12081661 0.055773336 0.1065431
0.20188226 -0.10130139 -0.4229451 -0.23133945 -0.06710433 -0.022641197 -0.099760346 0.2909778
0.06526414 0.0154344365 -0.049360875 -0.36807498 0.19511627 -0.50917757 -0.1334772 0.48784903
-0.042157702 -0.06890146 0.28752053 0.21068649 0.007873742 0.38614002 0.66413575 -0.01926794
-0.076462306 0.5622316 0.71033216 0.53855187 0.38885614 0.23561569 -0.043769926 0.43648127
-0.49186164 0.31624034 0.5008792 0.52626926 0.36624172 -0.2931501 -0.4952494 0.07119103

network.0.bias f4 [128]
00000000: bd32 a7be 4ebb c2be 007c 8ebe 76d2 643d
00000010: 7e4f 19be d91e bc3e 0592 ac3e 99d0 a4be
00000020: 4c7a 043e 7a7e 9fbe 961f dabe bd00 873e
00000030: 0656 6b3e 1f37 a23e 2efd b43e e6e0 143e
00000040: 99d2 dabe 8094 69bd cab0 353e a4f4 e6be
00000050: 31ed 01bf cf0b 77bd cf9f ec3d 023d 40bd
00000060: bc6f 0d3e 8cf1 d3bd 9047 33be 4ec6 21be
00000070: 3267 fabe 97cb 4a3e 9c58 853b 097c acbe
00000080: 82f2 9bbe d0ba 143e b453 1dbd a28c 24be
00000090: 6cc4 df3e 131e 9e3d 9cc6 8a3e 8574 eb3e
000000a0: 23d2 e33e df5e aa3e 3cda b43e 6d2f 853e
000000b0: eed7 ed3d 461c 813e 4108 05be 79a9 babe
000000c0: deec 8c3e 75ef 92be f81f dbbe 9cb1 df3e
000000d0: 03ea 22be e8f2 803e cd44 22be 74ea a5bd
000000e0: a3a4 17be bcb5 c2be b8c8 bfbe 1c50 023f
000000f0: 28e7 de3b 0379 113b 8cf5 1e3e bd33 62be
00000100: 78b5 083d a842 21be d453 6abe 8fd8 ed3e
00000110: 834b 53be 38bb e93e 302c fbbd 2049 ac3e
00000120: d874 3f3e cc1a 973e cf02 923e 85a2 e23d
00000130: e34d efbd c3a8 063e 88f1 04be 12c0 6c3d
00000140: 922e b33e 0838 b0be a110 14be 64c1 90bd
00000150: 67df 06be 930c 63be 6da0 6e3e bdd6 9e3d
00000160: bbd1 bfbe 93ba c6be 1ce3 e43e 02e7 5bbe
00000170: 6576 06be 4b55 92be 6aae cd3e c610 e7be
00000180: eb75 5cbd 5f44 c13e d36f a5bd 37dd a2be
00000190: bb4c 33be afe0 d33e 3f67 183e 8780 20bd
000001a0: 8e61 bebd a0a2 5ebe 5af7 5d3e 1a55 8ebd
000001b0: 7d39 273e 9834 a03e 1070 c43e 170a a1be
000001c0: cc18 503e 0006 31be e97e 1ebe a680 043e
000001d0: a466 9fbe a51e 043f 5627 f1be 21f7 113e
000001e0: 72ce 9dbc e973 973e 43f4 fcbe cec7 763e
000001f0: b84a a8be a88a 853c 776c e4be 7cc3 acbe
-0.32655898 -0.38033527 -0.2782898 0.055864774 -0.1497173 0.36742285 0.33705154 -0.32190397
0.12937278 -0.3115118 -0.42602223 0.2636775 0.22982034 0.3168268 0.3534941 0.14538917
-0.42738798 -0.057026386 0.17743221 -0.4510852 -0.5075255 -0.060313996 0.115539186 -0.04693318
0.13812155 -0.10348806 -0.17507768 -0.15798303 -0.48906857 0.19804226 0.004069401 -0.3368838
-0.30458456 0.14524388 -0.038409904 -0.16069272 0.43704545 0.0772058 0.27104652 0.45987335
0.4449626 0.33275506 0.3532275 0.26012745 0.11613451 0.25216883 -0.1299143 -0.36457422
0.27524465 -0.28698316 -0.42797828 0.43690193 -0.15909581 0.25185323 -0.15846558 -0.08101359
-0.14808898 -0.38029277 -0.37457824 0.5090349 0.0068024583 0.0022197373 0.15523356 -0.22090049
0.033376187 -0.15748084 -0.2288354 0.46454284 -0.20634274 0.4565065 -0.122642875 0.3364954
0.18696916 0.29512632 0.28517768 0.110661544 -0.116847776 0.13150315 -0.12982762 0.05780036
0.34996468 -0.34417748 -0.14459468 -0.07068136 -0.13171159 -0.22172765 0.23303385 0.07755802
-0.374647 -0.3881422 0.4470452 -0.21474841 -0.13131101 -0.28580698 0.4017213 -0.45129985
-0.053823393 0.37747476 -0.080779694 -0.318094 -0.17509739 0.41382357 0.14883135 -0.039185073
-0.09295951 -0.21741724 0.21676388 -0.069498256 0.16330524 0.31290126 0.38366747 -0.3145301
0.2032196 -0.17287445 -0.154781 0.129397 -0.31132996 0.5160926 -0.47100323 0.14254428
-0.01926348 0.2958062 -0.49405107 0.24099657 -0.32869506 0.016301468 -0.44614002 -0.33742893

network.2.weight f4 [128, 128]
00000000: 3ad8 4b3c a021 30bc 57a6 dc3c 5177 c03d
00000010: b3d6 a73a 173e b23d 2ae5 a13c b759 e5bd
00000020: a0d9 d5bd 1136 e1bc 0e3c 69bd 68eb df3d
00000030: 9f9c f03b 8ded ac3d 044d 30bb 7ae0 02be
00000040: 0369 70bd 3a0d babd 8dd0 d4bc be51 80bd
00000050: e6da 693d 47cc 47bc cbde 863d 0b9c 1d3e
00000060: e134 b6bd 6ff6 b03d a6e6 203c 0907 bf3d
00000070: a74b 3fbd 4485 c6bb 3e46 57bd 74e8 113d
00000080: ac34 5ebd ae0b 8ebd bc32 0fbd 153d b33d
00000090: 73cf 473d c171 2cbd 5368 37bd 3f64 41bd
000000a0: 8aa6 f4bb c13b 46bd b400 193d 8449 c2bd
000000b0: 9473 9b3c a291 cb3d 55a8 cabb 704f b13c
000000c0: 01f4 b93d ae58 8f3d 139f 983c 7d5f 873c
000000d0: d397 f03d 4da8 9e3c 491a 403c 04d6 7cbd
000000e0: 5e5a 433b 2bd6 f93b fe61 053d 03cb cc3d
000000f0: bd60 653e 8245 3e3d 3c31 1a3e dbbf 2d3c
00000100: 204e 133e fb7a a63d c847 b7bc ff4b 6abd
00000110: cbad bb3d 9fef 26bd aed6 29bd 5a9c 183e
00000120: 30a9 d2bd dad6 d83c 2c8d f83c 4378 743d
00000130: 0c89 39bd 6d45 6bbd 84a0 cebc 162c 303d
00000140: 1176 c33d bb58 05bd b9b0 8cbc 2c24 0b3e
00000150: 5c93 033e 98a8 b33d a133 cf3d d0b1 2fbc
00000160: f27a 5fbd 7862 b0bd 82d1 263d f3f7 6bbd
00000170: 45c3 823c f5e8 5c3c 8433 a7bc 82bc c73c
00000180: d156 523c 59ea 0f3c 3895 33bd c9fb 3fbd
00000190: ab36 fa3c fc01 683b 0c17 213d 5350 aabd
000001a0: 1de3 8bbd 8249 2e3d 1a62 1dbe 12f3 26bd
000001b0: f1ec e3bd 2ad5 b8bd 818e ab39 fd45 9dbd
000001c0: 972e 71bc ebae 7c3d 072c cdbd 3097 723d
000001d0: d53c ebbc 1e25 453d afa1 30bd d4c9 f4bb
000001e0: 50df 3b3d 7431 d03d 0351 263d 3b18 963c
000001f0: 0f9a bebd b0f4 23bd 6ad3 b9bd 9e02 b4bd
00000200: 19ad 81bd 41c5 6b3d 1075 873d 13fc 9bbd
00000210: af86 f7bc e447 2bbc 881e 08bd e50c a23d
00000220: 1a04 d43b ae2a 063d 08e8 d1ba 3821 94bd
00000230: d4c2 193d abb8 1f3d 318b 2a3d 0b04 94bd
00000240: 7141 4c3d 96d2 0dbd 3b6a 9e3d 4729 59bd
00000250: 671c 97bd 8ba0 a43d c451 9ebd 6218 073d
00000260: 7e46 21bd 7477 89bd 6722 b13c 232c ee3c
00000270: 1ea5 9a3d e006 ce3c 96b8 473d ed38 52bc
00000280: 2e78 9e3d 7cca 57bc 7660 73bd 478d 52bd
00000290: f6f4 c1bd f32d b8bd c9d0 883d b659 e63b
000002a0: f8fb 80bc 6d7f adbd 6f41 c8bd e792 7dbd
000002b0: 6220 74bd 5d9a 9f3d 0a02 a1bd 8256 94bc
000002c0: a29e 383d b238 a23d a90a 553c 03d0 8a3d
000002d0: c35b 9b3d 60ff f7bc aca1 88bd cb08 e9bc
000002e0: 836c 06bd 4ac1 49bc f94a 3ebd c91c 72bd
000002f0: 8114 87bd 53e7 9bbd 9318 83bd 9ffd 80bc
00000300: 3aa1 95bd 591c 84bd bdb7 2dbd 5123 aabb
00000310: 8d09 a03d b6a3 2e3d d05b 223d d244 31bc
00000320: 9519 983c 4b82 0b3d 9834 8fbd 9371 833d
00000330: 6ea7 4fbd 79be 233d 4d11 a3bd 6f7e 293d
00000340: 5d3c d33c 39d2 76bc 29fc 47bd 151f 463d
00000350: a450 1e3d 6479 0dbd 947f 9dbd ada2 863b
00000360: fd02 5b3d 1516 85bb 4765 8c3d 3149 933d
00000370: 1bc9 b4bd acf4 6b3d 7d4c 04bd aa58 b2bc
00000380: 3673 913d 3b36 75bd d625 3cbd 8877 93bc
00000390: f4aa 59bd 0c42 0b3d a1a3 0fbc 489e f4bc
000003a0: 4336 7abd ea9a 563d 1d53 143c 57ae 8cbd
000003b0: 6710 9b3d 2790 c0bd 6d6a 74bd 5695 073d
000003c0: 7cc9 88bd 6251 633d 27de 46bd 96e6 673d
000003d0: 26df 4abd 6d7c 2e3d ce48 82bd df64 89bd
000003e0: 53bb 21bc 9a76 b63c e3a6 ffbc d5a5 8fbd
000003f0: edbc ad3b 5ce4 47bd 6747 f33c 0a1f 5abd
0.012441689 -0.010750204 0.026934786 0.09397758 0.0012805074 0.08703249 0.019762594 -0.111987524
-0.10441899 -0.027491601 -0.05694204 0.10933572 0.0073428894 0.08443747 -0.0026901374 -0.12780944
-0.058693897 -0.09084554 -0.025978351 -0.06265591 0.057093523 -0.0121947 0.06585463 0.15391557
-0.088968046 0.086407535 0.009820616 0.09327514 -0.046703007 -0.006058367 -0.052557223 0.035622075
-0.05424945 -0.069358215 -0.034960493 0.08751885 0.048781823 -0.04210067 -0.044777226 -0.047214743
-0.007466142 -0.04839683 0.037354186 -0.09486678 0.01897601 0.09939887 -0.0061846175 0.021644324
0.09079743 0.06999336 0.01863054 0.016525025 0.11747708 0.019367361 0.011725017 -0.06172754
0.0029808502 0.0076244078 0.032564156 0.09999659 0.22400184 0.046453007 0.15057844 0.010604824
0.14385271 0.081289254 -0.022373095 -0.05720138 0.09164008 -0.040755864 -0.0414645 0.14903393
-0.10286176 0.026469637 0.030340753 0.059685003 -0.045296714 -0.057439256 -0.025223024 0.043010794
0.09544004 -0.032555323 -0.017174112 0.13588017 0.12849182 0.08772391 0.10117269 -0.010723546
-0.05456061 -0.086125314 0.040727146 -0.05760951 0.015962252 0.013483276 -0.020410307 0.02438188
0.012838081 0.0087839 -0.043843478 -0.04687098 0.030543646 0.0035401573 0.03932862 -0.08316102
-0.06830428 0.04255057 -0.15369454 -0.040759154 -0.11129177 -0.09025033 0.00032721835 -0.07679365
-0.014720581 0.061690252 -0.10018163 0.059226215 -0.02871553 0.0481311 -0.043122943 -0.007470349
0.045867264 0.101656824 0.040604603 0.0183221 -0.09306728 -0.040028274 -0.09073527 -0.08789562
-0.06331844 0.057561163 0.06614125 -0.07616439 -0.03021559 -0.010454152 -0.033232242 0.07912616
0.0064702155 0.032755546 -0.0016014585 -0.072328985 0.03753932 0.038994472 0.04163665 -0.07227334
0.049867097 -0.03462466 0.077351056 -0.05301788 -0.07378464 0.08038434 -0.07730439 0.032982238
-0.039373867 -0.06712237 0.02162285 0.02907378 0.07551025 0.025149763 0.04876002 -0.012830955
0.07737766 -0.013170835 -0.059418164 -0.051404264 -0.09470551 -0.08993139 0.066804476 0.0070297373
-0.015745148 -0.0847157 -0.097781055 -0.061907675 -0.059601195 0.07793114 -0.07861717 -0.018107656
0.04507316 0.0792097 0.01300303 0.06777956 0.075858615 -0.03027314 -0.066714615 -0.028446576
-0.03281833 -0.01231415 -0.04645822 -0.059109483 -0.06595708 -0.07612481 -0.064011715 -0.015745936
-0.07306142 -0.064507194 -0.042411555 -0.0051921983 0.07814322 0.042636596 0.03963834 -0.010819631
0.018566886 0.034059804 -0.06992453 0.06418147 -0.050696783 0.03997657 -0.07962284 0.041380342
0.02578562 -0.015064769 -0.048824463 0.048369486 0.038651124 -0.034539595 -0.07690349 0.004108748
0.053469647 -0.0040614703 0.068552546 0.071916945 -0.0882742 0.057606384 -0.032299507 -0.021770794
0.07102053 -0.05986617 -0.04593452 -0.018001333 -0.05314155 0.033998534 -0.0087670395 -0.02986063
-0.061086904 0.05239383 0.009053019 -0.0686919 0.07571488 -0.09402495 -0.059671808 0.033101402
-0.06679055 0.055497535 -0.048551705 0.05661639 -0.049529217 0.04259913 -0.06361543 -0.06708693
-0.009871322 0.02227335 -0.031207507 -0.07014052 0.0053020627 -0.048801765 0.029697133 -0.053252257

network.2.bias f4 [128]
00000000: 3661 a13d efe4 9ebd 27cf 55bd 49dd e8bb
00000010: de3a da3d b489 d2bd 4053 8b3d 2f0a 37bd
00000020: 8c58 703d 5aaa 253b b255 93bd a77a 6a3d
00000030: 23f7 9cbd 18d9 49bc 5b2d 1d3d 627c 173d
00000040: 6c18 c43d f3fb c63c e3a2 c53d a4e3 0a3d
00000050: c1da dd3c a3fd a93c a2e2 66bc 7912 8fbd
00000060: 4069 1abd 6fcd c2bd b4b4 7c3d b882 d33d
00000070: 397e 903d 2373 8abd dd7a 6f3a 7319 49bd
00000080: 2711 4c3d eb5e 62bd c57d 8fbd 78e3 66bd
00000090: 766f b43d bd32 c7bd 4f09 9db9 63d9 0fbd
000000a0: bcaa 69bc 46d0 98bd 3ed6 11bd 943b 9a3d
000000b0: 2395 ae3d a89e e5bc e09c 39bd 15ef 87bd
000000c0: 4ab3 c5bd 41ab d2bd db3f a1bd a29b 07bd
000000d0: 7b0a c2bd baa6 803d e726 aa3d b87b 8f3d
000000e0: 47e0 a0bd 8af1 85bd c12e aabd 114f cbbd
000000f0: bdf8 863d c660 9f3d 27b7 223d 1991 773d
00000100: 474c c3bd 5d30 c83d a5da b0bd 0c67 d83d
00000110: 7e14 8abb 3b47 b13d 7093 7ebd a7c6 d8bd
00000120: 3cb7 bc3c e094 d8bc 8609 823d 295a a7bb
00000130: faeb 9cbd 139b ab3d 3cd0 a13d 152a a8bc
00000140: 4f8c 223c 07c4 dabc 90cf 4bbd bb48 40bd
00000150: 8e98 6d3d e142 66bd 3509 663d a482 b6bd
00000160: 3ffc df3c ade1 12bc 4a50 403d 91c4 753d
00000170: 11f6 6abd 1442 0a3c 569e 38bc 41e2 c7bd
00000180: 56bd 1e3d 3054 133d 76c0 9dbd f01b 29bd
00000190: 8873 ee3d c517 dd3c 8e98 273d 6d44 57bd
000001a0: d3f6 28bd 6fdf 763d 5e5b 8ebd 92b4 96bd
000001b0: 196b 04bd a3b8 b43d 89be 18bd 3aa1 d9bd
000001c0: e574 cd3c 6562 753c 1a7a 4f3d e324 893d
000001d0: 7f7e 98bd 367d 20bc 6c09 963d 5622 573c
000001e0: 724d e0bc 7821 753d d3ec c23c 851a e13c
000001f0: ea30 ae3d 87c7 443b 1a08 b93c efba 96bc
0.0787987 -0.07758509 -0.05219951 -0.0071064574 0.10655759 -0.10280171 0.06802988 -0.044687446
0.058678195 0.002527854 -0.071940795 0.057245877 -0.07664325 -0.012319826 0.038373332 0.036983855
0.095749706 0.02429006 0.09650209 0.0339085 0.027081849 0.020750826 -0.014092119 -0.06985945
-0.03769803 -0.095118396 0.06169577 0.10327667 0.07055325 -0.06760242 0.00091354345 -0.049096536
0.049821045 -0.055266302 -0.070064105 -0.056369275 0.08810322 -0.097264744 -0.0002995231 -0.035119426
-0.014261898 -0.074616 -0.035604708 0.07530895 0.08524539 -0.028029755 -0.045315623 -0.06637398
-0.09653337 -0.1028657 -0.078735076 -0.033107407 -0.09474655 0.062818006 0.08308201 0.07006019
-0.078552775 -0.065402105 -0.08309699 -0.0992719 0.06590412 0.0778213 0.03972545 0.06044111
-0.09536033 0.097748496 -0.08635453 0.1056653 -0.0042138686 0.08656164 -0.062152326 -0.10584765
0.023036592 -0.026438177 0.06349473 -0.0051071835 -0.076621965 0.083791874 0.07901046 -0.020527879
0.0099211475 -0.026704801 -0.049758494 -0.04694436 0.058006816 -0.056216124 0.056161124 -0.089116365
0.02734196 -0.008964938 0.04695157 0.060001913 -0.057363573 0.008438606 -0.011268219 -0.097599514
0.038754784 0.03596896 -0.07702725 -0.04128641 0.116431296 0.026988873 0.04091697 -0.05255549
-0.041251015 0.060271677 -0.06951021 -0.0735866 -0.0323287 0.08824279 -0.037291083 -0.10626455
0.025080154 0.014977072 0.050653554 0.06696489 -0.07446002 -0.009795478 0.07326016 0.013130745
-0.027380679 0.05984637 0.023794567 0.027478466 0.08505423 0.0030026154 0.022586871 -0.018399684

network.4.weight f4 [2, 128]
00000000: 00d1 25be a290 42bd 101e ba3d 1b97 3ebd
00000010: db8c 11be 4d6c eabb e579 383d 1090 373d
00000020: 8384 02bc 8657 03be 459f 9d3c 6e50 e2bd
00000030: ba47 b23d 0172 d83d 14f1 99bd 472c 9bbb
00000040: f64a 2dbe 2157 8f3d 9e85 893d f243 753d
00000050: 7ac0 f33d e83c c3bd 99d3 123e 146d f3bb
00000060: 834d 6a3d 9b72 81bd 7d3b 9b3d 2bc7 2dbe
00000070: 5c04 e6bd 72d4 adb9 0ed4 e7bd e901 04be
00000080: 442f d6bd 23ab d8bc 05f2 11bc 29e5 f7bc
00000090: d521 efbd 550b 5d3d aec9 b03c faea c1bd
000000a0: d44b 2dbe afd9 da3d 2904 833d 0e12 323e
000000b0: f62a dcbd 05d2 d5bb 2942 a93b a017 97bc
000000c0: dedb 5dbd bd2a 01bd 8d2d 6cbd d192 5bbd
000000d0: 71d5 a7bd fc0d d73d 5988 dbbd d349 853d
000000e0: 6594 403d 0dac 6f3d 0ab6 b5bc e1d5 a0bd
000000f0: 6a40 ae3d 3f1a d0bd 25c2 6cbd 45a4 19be
00000100: 74af 5c3b 43ff cc3d 6236 dd3b 72f7 19be
00000110: c2f7 fabd 559b cf3d 8a28 97bd d769 9cbd
00000120: 2fe3 9bbc e78e cabc aa67 5b3d 4036 7b3d
00000130: a76c aebc 663a 213d 33eb e4bb 0c62 0e3e
00000140: 99e2 e0bc 7ed0 07be eddc 0f3d 9cbd 9b3d
00000150: 7bcb a63d e2ce 08bd 06ce 973d 6241 d43c
00000160: a585 da3d 0a78 90bd ef88 0abe 30fc b8bd
00000170: f439 7c3d 3cd6 f93c 6a8c 99bd 0978 9fbd
00000180: ab48 ce3d 55bc c6bd 726a 2ebd 479a 203d
00000190: a7fb 2cbd d88d 6d3c 2ed2 153d cac8 ba3d
000001a0: 6564 903d 6496 f0bc 7a79 9b3d 554c cf3d
000001b0: c729 9b3c ea51 ffbd 11b9 3c3d 3b32 7dbd
000001c0: ea72 58be 7bd6 333d 52d5 efbc 32f9 31be
000001d0: 6b1e 9a3a fa19 11be ca83 ebbc 428e 89bd
000001e0: 2725 5fbd dfe9 b13d e7a5 84bd c502 fe3c
000001f0: 96e4 89bd 73c4 b4bc 167a a93b 2c9b cbbd
00000200: e9e0 303d a6d2 733d 76d4 f3bd 8db1 983b
00000210: acdf 133e 8763 253d 5c7e 12be 7e90 373d
00000220: db4b 033d 2f11 aa3d c269 d4bd 62c4 a43d
00000230: 6eab 07be 5a6d d4bd 5dc2 9bbd f407 073e
00000240: 25b1 a13d 1610 eebc 30c0 fabd b0f4 dabd
00000250: a799 a6bd 265a 123e 8ef7 e6bd a66d 84bb
00000260: f5be 0fbe 7bf2 82bd 42ba f1bd 19a8 0d3e
00000270: b86b 123e cee9 aa3d fcc6 b83d 9bd9 093e
00000280: 7258 143d 7d61 4fbd c57b aebd f83e 4a3d
00000290: d5e3 5b3d 1176 863d 79d6 40be 4772 263e
000002a0: 0678 143e bd33 a3bd 2497 80bb 37b3 c4bd
000002b0: 9ea4 b23c de63 bcbc 38d4 983c ffb0 333d
000002c0: 5b42 68bd d505 47bd 3c5d eabc 0d3b bcbb
000002d0: 0b25 6cbd 71f4 c9bd 81d6 503d 1bd3 c9bd
000002e0: 2e46 21bd 2398 563a c257 7abd 44d9 71bd
000002f0: a5e0 f2bd 1d7c 053e 85f5 1cbc a8e8 0a3e
00000300: 1a48 41bd bb07 cabd 58dd 843b a9fb 1e3e
00000310: 3bd3 0d3e 88ae b9bd a7c5 a0bd f1b3 8e3c
00000320: 7642 d4bc b167 853d d628 803d 678d ce3c
00000330: 03bc e73b ee31 c5bd 88cc 443d e7fd e6bd
00000340: 3ae5 26bb 832f 853d d703 713d 2217 b3bd
00000350: 87f3 f2bd d1d7 68bd 02f5 06be 9895 64bc
00000360: c686 84bd d2c8 3a3e 4986 ea3d 7f23 9d3d
00000370: b24d 22be b177 d1bd ec4d 2f3e 1338 963b
00000380: 63c9 fdbd b1f4 e83d a270 25ba 63a8 1fbe
00000390: cee9 0a3e dfe6 16be 4c48 5c3c 1c62 5a3d
000003a0: f8d5 8d3d 97f2 77bc d146 80bd 1270 a1bd
000003b0: 3e04 213c 67b7 0f3d 634a 533d 12ff 8dbd
000003c0: 7417 143e 71a9 b9bd b508 f1bd 2000 fb3c
000003d0: 31e7 66bc d38c 403e 8514 bfbc d786 be3d
000003e0: 518d 9a3d 548d 0fbe 6493 053e ecd7 efbb
000003f0: d3e9 713d b802 37bb 4c91 1fbe e3bd 7a3d
-0.16193008 -0.047501214 0.09087765 -0.046530824 -0.14213888 -0.0071540237 0.045038123 0.044815123
-0.007966164 -0.12826356 0.019240985 -0.11050497 0.08705087 0.105686195 -0.07516685 -0.004735503
-0.16923127 0.069990404 0.067149386 0.05987925 0.11901946 -0.09533101 0.1433853 -0.0074287746
0.057202827 -0.063206874 0.07579706 -0.16970508 -0.112313 -0.00033155415 -0.11319743 -0.12891354
-0.10458234 -0.026448792 -0.0089078 -0.03026064 -0.11676375 0.053965885 0.021580543 -0.09468646
-0.16923457 0.10686051 0.06397278 0.173897 -0.10750382 -0.0065252804 0.0051653576 -0.018443882
-0.05416476 -0.0315349 -0.057660628 -0.053606812 -0.081950076 0.10500714 -0.107193656 0.065082215
0.04701652 0.05851369 -0.02218153 -0.07853294 0.0850838 -0.10161256 -0.05780234 -0.1500407
0.0033673914 0.10009625 0.0067508677 -0.15035799 -0.12254287 0.10137049 -0.07380779 -0.07637375
-0.019029228 -0.024726344 0.05356566 0.061331034 -0.021292044 0.039362334 -0.0069860457 0.1390459
-0.0274518 -0.13263127 0.0351228 0.076045245 0.081442796 -0.033400424 0.07412343 0.025910083
0.10670022 -0.07054146 -0.13528799 -0.09032476 0.061578706 0.030497663 -0.07497485 -0.07786567
0.10072454 -0.0970389 -0.042581983 0.03920963 -0.042232182 0.01449915 0.036577396 0.09120329
0.07050399 -0.029368587 0.07591529 0.10121981 0.01894082 -0.12466796 0.04607493 -0.06181548
-0.21137586 0.043905716 -0.029276524 -0.17380217 0.0011758333 -0.14170066 -0.028749365 -0.06716587
-0.05447879 0.086871855 -0.06476956 0.03100718 -0.067330524 -0.02206633 0.0051720245 -0.09941706
0.04318324 0.059527062 -0.11905758 0.0046598376 0.14440793 0.04037812 -0.14306015 0.044815533
0.032054763 0.08304059 -0.10371734 0.080452695 -0.13248989 -0.1037242 -0.07605431 0.13186628
0.07895116 -0.029060405 -0.12243688 -0.10691202 -0.081347756 0.14292201 -0.11277686 -0.0040413914
-0.14037688 -0.06393906 -0.11803104 0.13833655 0.14298904 0.08345376 0.09022328 0.13461916
0.03621716 -0.05063008 -0.08519701 0.049376458 0.053684074 0.06565488 -0.18831815 0.16254531
0.1449891 -0.07968853 -0.0039242674 -0.09604495 0.021807011 -0.02299684 0.018655881 0.04386997
-0.056703907 -0.048589546 -0.02860891 -0.005744344 -0.057652514 -0.098610766 0.050985817 -0.09854718
-0.03937357 0.0008186122 -0.06111885 -0.05904509 -0.11859254 0.13035627 -0.009580021 0.13565314
-0.047187902 -0.09864756 0.0040547065 0.15525688 0.1385011 -0.09066492 -0.07850199 0.017419787
-0.025910597 0.06513918 0.06257789 0.02521391 0.0070719733 -0.09628664 0.04804662 -0.11278897
-0.002546622 0.06503203 0.058841553 -0.087446466 -0.118628554 -0.056846444 -0.131794 -0.013951682
-0.064710185 0.1824067 0.11451394 0.07672786 -0.15849951 -0.102279074 0.17119569 0.0045843213
-0.12391927 0.11374796 -0.0006311034 -0.15591578 0.13565752 -0.14736508 0.013444971 0.05331622
0.06925577 -0.0151335215 -0.06263507 -0.07882704 0.009827672 0.035087015 0.051584613 -0.069334164
0.14462072 -0.090655215 -0.11769239 0.030639708 -0.014093206 0.1880372 -0.023325214 0.093030624
0.07546485 -0.14018756 0.13044506 -0.007319441 0.059060883 -0.0027925204 -0.1558277 0.061216246

network.4.bias f4 [2]
00000000: 3fa5 5abd 83ba 9d3c
-0.053380247 0.019253975

exp_avg f4 [128, 4]
00000000: 5e6a 87b7 fde4 cab8 a229 1037 3706 2739
00000010: 086a 8bac becd 552d 1df5 c52b da9d 73ac
00000020: b8a8 d89d 450d 069d 9b61 9a1c 2075 c31b
00000030: 034e 8abd 14c7 6abd f01c b7bd 9c03 e63d
00000040: 52ca abbd fa6b 5bbd 53c1 14bb c911 e33c
00000050: f659 8ec0 7b9e 93bf 7e72 8fbd a41e aa3d
00000060: 5521 6dbb c266 4a3c a4a2 083b f56d b8b9
00000070: aa43 d6b6 ef4b 08b8 7929 e636 33fe 7b38
00000080: e5ba 1a40 d7d6 fd3e 68c3 5d3d 342a d43d
00000090: b735 15bc 2780 233a 42d2 133a 12ee eb3a
000000a0: ee8a b13d 158d 113d 69cc 573b 435a d8bc
000000b0: cf62 723e 6081 0a3d 1e6b 9abb 7b7e 23bd
000000c0: 4238 c2bf 346d b2be 8852 01bd 896a 16bc
000000d0: 7d42 93c0 d0cc 78bf f4ca debd 4ba0 e0bd
000000e0: 3126 edbe aaf5 d0bd f909 30bc 1ee5 253b
000000f0: c08a 4940 e798 313f babe 973d 554a 843d
00000100: 707c 8e3d 6129 3a3d f23e 583b 4cda dfbc
00000110: 1249 6cbc 56ff ebbd 42c6 c63c 1b18 103d
00000120: 6066 203e 7d27 9c3d 25b1 8c3c 2b9a eabc
00000130: 169e 20b7 546f bdb9 5146 f6b7 dc44 8939
00000140: 77f6 30ae 673b 3faf 0b36 422d fc70 d52e
00000150: bce3 0640 963c ea3e f56f f63c 1928 d6bc
00000160: a198 9abc 0342 d73b e355 823c 71a8 6f3d
00000170: 484f cdbf 17d7 09be ec9d 353c 213a bebe
00000180: cddf 273f 49f5 613e 52e3 723c efe7 0cbd
00000190: 2fcf 42bf 7e38 45be 82cb cc3a 2f2a b03d
000001a0: 0000 0000 0000 0000 0000 0000 0000 0000
000001b0: 9755 f1ab f026 3c2c a2dd 0a2b 89c1 912b
000001c0: 0000 0000 0000 0000 0000 0000 0000 0000
000001d0: 2ebd ef3e 6fba 843d 5219 8f3c dfe2 a33d
000001e0: 6517 0540 5e51 f73e 2016 463d faec 863b
000001f0: d0e4 e19e e2d0 629e 31f1 bf1a 4ac6 ff1d
00000200: 797f 583c aa08 10bd 8064 f33a 992e 3c3c
00000210: 9945 2340 5eb2 193f 96eb 663d 8fe6 1c3d
00000220: d609 4c3f 2370 5c3e 5c05 973c 25ab b4bc
00000230: df28 d0bf 9bed d4be 1b97 45bc 1f4f b03c
00000240: 241a 553f afa4 2d3e cd54 a03c decc 173d
00000250: de4a ea3e b874 a23d dfdf 273c 3d32 dd3c
00000260: 8c63 2c40 b6b4 183f 48d5 823d 4ac6 8e3d
00000270: 8d89 193f 46a4 033e 0f52 5b3c 4b80 f53c
00000280: dd18 04c0 ab43 eabe c111 3ebd 4850 ecbc
00000290: 444f fb3f d866 e03e 3c71 3e3d 7d17 393d
000002a0: adc0 0cc0 8d31 f9be ebdf 58bd aea7 10bd
000002b0: b799 923e f2dc 3b3d 182c d23b 3892 193d
000002c0: 1d2c 3cbf c194 4fbe 0805 96bc c1b6 0a3d
000002d0: 39b4 c0bf b5ed b6be 28b6 11bd 7446 013c
000002e0: 22bf 083d f5db 31bd 1fd2 94ba 65b6 a43c
000002f0: 2d1c b13c e395 813c 54bb d33b 87cf 8ebc
00000300: 58f8 1bbf 12e2 c9bd fea1 1fbc d81d e7bc
00000310: 54fb f527 a916 67aa 5ac1 3428 dfbb 562a
00000320: a7a1 823d 8bd6 ac3c 59f9 5bba b3aa 93bc
00000330: 5dc8 2f3f 0c84 073e 120a 6b3c 7fa7 2f3d
00000340: 6049 d2ae 3c8b ffb0 dd99 48ad 853d 6e30
00000350: bcf2 953e 0711 b93a 2680 81bc e2ff 81bd
00000360: 35a0 17b7 1b86 0cb8 4eb7 5537 8bed ca38
00000370: 9b0d 57be e798 c5bd 8e34 c73a 13ab 3a3d
00000380: 56a7 07bb fa92 32bc a241 bc3a d07c 553c
00000390: 2539 f1bc a646 babd e209 043a 34b7 273d
000003a0: 9e48 e927 d984 3629 0cb8 35a7 0b4e e3a8
000003b0: fe1a ecbf e4c3 cebe f8d2 34bd b676 9bbc
000003c0: ab85 acbf b758 aabe edb7 133d c4d9 eabd
000003d0: a8a4 e8bb 37a0 19bc dc67 093c b5b3 afb9
000003e0: 15d0 7bc0 cd93 6bbf 9e1e afbd 4af6 e83c
000003f0: 33c2 af3b ad0f e13c 3ee4 163b 26ac 13bc
-1.6142785e-05 -9.674763e-05 8.592762e-06 0.00015928676 -3.9623894e-12 1.2153332e-11 1.4065724e-12 -3.4620002e-12
-5.7349175e-21 -1.7741613e-21 1.0216096e-21 3.2335734e-22 -0.06753161 -0.057318762 -0.08941066 0.11231157
-0.08388199 -0.05356977 -0.0022698238 0.027718442 -4.4484816 -1.1532739 -0.070042595 0.083066255
-0.0036183198 0.012353601 0.0020848894 -0.0003517714 -6.385574e-06 -3.2495645e-05 6.859362e-06 6.0079805e-05
2.4176571 0.49577972 0.054141432 0.10359612 -0.009107045 0.0006237053 0.0005638936 0.0018000028
0.08669077 0.035534937 0.0032928234 -0.026410228 0.23670505 0.033814788 -0.0047124764 -0.039915543
-1.5173419 -0.3484894 -0.03157285 -0.009180673 -4.6018662 -0.9718752 -0.10878554 -0.109680735
-0.463182 -0.10203107 -0.010744565 0.0025313566 3.1490936 0.69373935 0.07409425 0.0645949
0.06957328 0.04544962 0.0032996503 -0.027325772 -0.014421718 -0.11523311 0.024264459 0.03517924
0.15664053 0.07624719 0.017174313 -0.028637966 -9.57355e-06 -0.00036131835 -2.9358229e-05 0.0002618198
-4.023667e-11 -1.7392453e-10 1.1039623e-11 9.7061886e-11 2.1076498 0.45749348 0.030082682 -0.026142167
-0.018871607 0.0065691485 0.015910095 0.058510248 -1.603982 -0.13460957 0.011085015 -0.37153724
0.6557587 0.22066225 0.014824705 -0.034400877 -0.7609739 -0.19259831 0.0015624615 0.08601796
0.0 0.0 0.0 0.0 -1.7147836e-12 2.6738022e-12 4.9335026e-13 1.0356586e-12
0.0 0.0 0.0 0.0 0.4682402 0.06480872 0.017468128 0.080022566
2.079553 0.48304266 0.048360944 0.0041176053 -2.3917436e-20 -1.2007536e-20 7.9385414e-23 6.7702964e-21
0.013213986 -0.035164513 0.001856938 0.011485719 2.551123 0.6003779 0.056377016 0.038305815
0.7970251 0.21527152 0.018435173 -0.022054264 -1.6262473 -0.4158753 -0.012059952 0.021522103
0.8324301 0.16957353 0.019571686 0.03706061 0.45760244 0.079324186 0.010246246 0.027001495
2.6935759 0.59650743 0.063883364 0.069714144 0.5997551 0.12855634 0.0133862635 0.029968401
-2.0640175 -0.45754752 -0.04640365 -0.028846875 1.9633565 0.43828464 0.046494707 0.045188416
-2.19926 -0.48670617 -0.05294792 -0.03531616 0.286329 0.045865007 0.006413948 0.03749296
-0.7350481 -0.20271589 -0.018312946 0.033865694 -1.5055 -0.3572823 -0.03557411 0.0078903325
0.033385403 -0.043422658 -0.0011354125 0.020106504 0.02161988 0.015818542 0.0064615402 -0.017432941
-0.6092582 -0.098575726 -0.009743212 -0.028212473 6.827365e-15 -2.0524783e-13 1.0033934e-14 1.9072199e-13
0.06378489 0.021098396 -0.00083913427 -0.018025732 0.68665105 0.13233966 0.014345663 0.042884346
-9.5627284e-11 -1.8593265e-09 -1.1402848e-11 8.667132e-10 0.29286754 0.0014119454 -0.015808176 -0.06347634
-9.0376025e-06 -3.3503497e-05 1.2738468e-05 9.6763564e-05 -0.21001284 -0.096483044 0.0015198158 0.045573305
-0.0020699105 -0.0108993 0.0014362822 0.013030246 -0.029446194 -0.09095506 0.0005036873 0.0409462
6.4749223e-15 4.0527345e-14 -2.5218568e-15 -2.5235908e-14 -1.8445737 -0.40383828 -0.044146508 -0.018977504
-1.3478292 -0.3327081 0.036064077 -0.11467317 -0.0070997067 -0.009376577 0.008386578 -0.00033512493
-3.9345753 -0.920224 -0.08550762 0.028437752 0.0053637265 0.027473295 0.0023024227 -0.009013211

exp_avg_sq f4 [128, 4]
00000000: 8b06 543e f352 9b3d aa90 d039 1f06 8d3b
00000010: 2aab 9d3f 7d6e 203e 2c47 753a 58b3 8e3c
00000020: 5cc9 2d3c feb6 063b 0bde b237 8602 c03a
00000030: 9333 1641 d359 8140 ef78 9e3d 3b47 833f
00000040: 1f4e d73e 6221 4b3e 4391 353b 0bb9 cb3c
00000050: 5473 a141 4fe9 2a41 08b3 843e 5ddb 4740
00000060: 7a4e 463f b1ed 953e d526 923b 97ba 203d
00000070: 9ef8 9340 d7d4 703f b954 c63b be60 b23d
00000080: d367 d440 5698 8840 aac0 f03d 3bee a43f
00000090: 5bd9 1a3e 4660 083d e588 463a 1c31 103c
000000a0: b313 913d c289 583d 79a8 153a bfa4 c13b
000000b0: 6d15 b13e 1cad ca3e 4c29 2f3c 1ce8 033e
000000c0: 6032 0a40 81a0 3f3f 5ee5 b83c ec1c 873e
000000d0: a5a6 c841 1728 3141 969d 923e 2a2e 5b40
000000e0: 8ff9 623e 98b8 8f3d 9ced c53a f1be 8d3c
000000f0: f9c2 ee40 750a a040 180c 0d3e 83a1 d23f
00000100: ae03 cb3d 58df 8d3d a6e9 223a 13ac d53b
00000110: a553 8740 08db c63f a25c ab3c 8487 be3e
00000120: fa96 0f40 8340 263f 8ca1 393c 9e9b 0e3e
00000130: 4540 b73d 8c4d 623c 7598 0439 ed6c c73b
00000140: 4228 fc3d e5f7 db3c 8f3b 6a39 5e49 b63b
00000150: b316 fd3f 4f5a 8d3f 3242 c93c e595 b93e
00000160: 0510 a23f 317c fa3e d084 093c 7137 b23d
00000170: 9db8 bc40 64fd 1240 574c 553d d1bf 303f
00000180: cbbe fe3e 2df2 dd3e 7499 583c 12cb 013e
00000190: 9ebd 203f e784 ae3e 06e6 a23b 7665 843d
000001a0: 0000 0000 0000 0000 0000 0000 0000 0000
000001b0: 539b 303f a15d 2d3e 34dd 953a d124 713c
000001c0: 0000 0000 0000 0000 0000 0000 0000 0000
000001d0: 3f0f 4440 91f6 913f 29bb c73c 1919 673e
000001e0: fe18 1e40 4386 b23f 6ea8 143d 2846 fa3e
000001f0: 6191 253c 1f7d 353b da0b 2837 8e6e 823a
00000200: ad0f c93d 62b7 113e 79fa 923a 2ae7 0e3d
00000210: a906 ab40 5187 7e40 b0f6 e23d aefb 9b3f
00000220: f012 f03e 4b85 9f3e 3ebd df3b 1500 c93d
00000230: d216 0f40 0b53 383f 9c25 843c 17b6 633e
00000240: 7793 f23f e962 583f 9b04 8f3c cb70 5d3e
00000250: f985 9c3f 3230 a23e 8643 dc3b e35c ae3d
00000260: 8e4d c740 44e6 9940 b04d 073e 62ff bf3f
00000270: e4ed 2140 9a4b 813f 3994 933c 2832 553e
00000280: da4c 3d40 d5cd d63f d037 393d 3d43 083f
00000290: f927 7540 0f78 3140 9246 9b3d 1ae3 623f
000002a0: f453 9740 742a 1c40 1be4 7c3d 1bc1 363f
000002b0: b822 b53f c705 0d3f d460 2b3c 7af1 c53d
000002c0: ed7d 693f 98de d33e e2a2 133c d3f5 c83d
000002d0: 1cd5 2a40 1e95 993f 0cc7 003d d8ad a83e
000002e0: 68bf 2540 84fc 843f b0b9 f53b 4185 383e
000002f0: dff8 7f3d 5a65 863d 1262 eb39 55dd 663c
00000300: 0be2 793e fb54 d13d 66e9 1c3b 6b1c de3c
00000310: 7bbb db3c 7ccb 6d3c c12e ac38 c2ff 373a
00000320: ff49 843d 812f 5f3d a222 063a 1399 a53b
00000330: b385 433f a1a1 ed3e 2dbc 483c b506 243e
00000340: ae70 ec3f e3f2 c63e e0ae 893b b0c2 6e3d
00000350: 548a 823e 5e89 8e3e c333 e93b 8c6c b53d
00000360: bd4d fe3f 6e62 df3e ac64 373b d446 1e3d
00000370: 9bac 043f 7f82 9d3e a72d 6a3b 1a7c 403d
00000380: 249f 503f 6f46 a03e 315f fa3a 6c94 4b3d
00000390: 90ae 153e 2fa2 343e 2bb6 c13a 83c7 523d
000003a0: fccf ae3a 659f 483a 7375 d635 6909 2239
000003b0: 8f20 3b40 10e5 9a3f a9dc 053d d41c c53e
000003c0: e17a 8f41 f04b f040 a36b 163e 04cb 0740
000003d0: 683c 7440 5bc9 9f3f 491a 053d 499a 903e
000003e0: f44f 7b41 ef8f 0d41 a08d 533e 6114 2940
000003f0: 567c a53f b62e 853e 76c3 293b a812 3e3d
0.20705621 0.07584181 0.00039780635 0.004303708 1.231786 0.15667148 0.0009356614 0.017419502
0.01060709 0.002055585 2.132265e-05 0.001464919 9.387591 4.042215 0.0773791 1.0256113
0.4205179 0.19836953 0.002770499 0.024868509 20.181313 10.68196 0.2591784 3.1227639
0.77463496 0.29282907 0.0044601955 0.039240446 4.624099 0.9407477 0.00605258 0.08709858
6.637674 4.2685957 0.11755498 1.2885202 0.15121977 0.03329494 0.00075734995 0.008800771
0.070838355 0.05286575 0.00057090033 0.005909532 0.3458666 0.39585197 0.010690998 0.12881511
2.1593246 0.74854285 0.022570308 0.26389253 25.08137 11.072288 0.28635854 3.4246926
0.22165512 0.0701763 0.001510072 0.017302962 7.4613004 5.0012765 0.13774145 1.645554
0.09912811 0.06927365 0.0006214626 0.006520757 4.2289605 1.5535593 0.020918194 0.37212765
2.2435899 0.6494219 0.01133002 0.13926551 0.08947805 0.013812434 0.00012645296 0.006085983
0.12312366 0.026851604 0.00022338166 0.0055629453 1.9772552 1.1043185 0.024567697 0.36247173
1.2661139 0.48922876 0.008393481 0.08701981 5.897536 2.2967157 0.052074756 0.6904269
0.49754938 0.43348828 0.01322018 0.12675121 0.6278933 0.3408577 0.0049712686 0.06464665
0.0 0.0 0.0 0.0 0.68987006 0.16930248 0.0011433722 0.01471825
0.0 0.0 0.0 0.0 3.0634305 1.1403371 0.024381237 0.22568168
2.4702754 1.3947223 0.03629344 0.4888165 0.010105462 0.0027692986 1.001634e-05 0.0009951161
0.09817443 0.14230111 0.0011213563 0.034888424 5.344563 3.977009 0.11082208 1.2186182
0.46889448 0.31156382 0.0068279793 0.09814469 2.2357678 0.72001714 0.016131215 0.2223743
1.8951253 0.84525925 0.01745825 0.21625058 1.2228385 0.31677395 0.0067219166 0.085138105
6.228217 4.8093586 0.13213229 1.4999812 2.5301447 1.0101197 0.018015014 0.20819914
2.9578156 1.6781565 0.045219243 0.532276 3.8305647 2.7729528 0.075818196 0.8862778
4.728998 2.4400911 0.061740976 0.71388406 1.415122 0.5508694 0.010460097 0.096651986
0.9120777 0.41380763 0.009011002 0.09812512 2.6692572 1.1998632 0.031439826 0.32945132
2.5898075 1.0389562 0.0074989423 0.18019582 0.0624932 0.065623 0.0004489576 0.014090856
0.24402635 0.10221287 0.0023942827 0.02711316 0.026822796 0.0145138465 8.210308e-05 0.0007019007
0.06459426 0.054488663 0.0005116855 0.0050536483 0.76375884 0.46412376 0.012251896 0.16018184
1.8471887 0.38857183 0.004201755 0.058291137 0.2549616 0.27839178 0.007116766 0.08858594
1.9867474 0.43629783 0.002798359 0.038641766 0.51825875 0.30763623 0.0035732777 0.046993352
0.8149283 0.31303737 0.0019101856 0.049702093 0.14617372 0.17639993 0.0014779022 0.0514598
0.0013337131 0.0007653146 1.5978425e-06 0.0001545303 2.9238622 1.2101154 0.03268114 0.38498557
17.935 7.5092697 0.14689498 2.121766 3.816187 1.2483324 0.03249577 0.2824271
15.70702 8.84764 0.20659494 2.6418688 1.2928569 0.260122 0.0025903857 0.04640451

exp_avg f4 [128]
00000000: e091 84b9 a8f6 56ad b9b4 f31c 094f ae3c
00000010: b2dc c33d 6ca5 ae40 98ef c33c afdd b0b8
00000020: 3e82 3fc0 f137 213c ad7d bdbd 6d20 97be
00000030: bd84 f83f 55f9 b940 5cd7 183f 02fe 7bc0
00000040: f504 adbd 073a bd3d a661 92be 0088 ab39
00000050: 2873 52af 4944 12c0 6728 a33b d00b c33f
00000060: 8543 4ebf aa3a 6e3f 0000 0000 0a9a 92ac
00000070: 0000 0000 57a6 1dbf 1b41 20c0 a78f 581e
00000080: 5ded 863d 718b 4bc0 ba1a 77bf 8b97 f03f
00000090: c2d4 84bf 55f9 11bf 3973 57c0 ec70 3bbf
000000a0: 4aff 2640 3995 1cc0 f1db 3140 baf8 abbe
000000b0: 7f7d 5e3f 6ab2 ed3f 07ef 81bd 67a8 0abd
000000c0: d1c1 453f b5e3 2daa aea4 7ebd f9d9 57bf
000000d0: 12ab 11b1 90dd ccbe de83 24b9 a878 623e
000000e0: dd53 abbc 7493 203e 3de2 d9a8 69ad 1540
000000f0: fd91 5a3f b88f a1bd c168 9740 669c fbbc
00000100: fafb 8fbe 62dd e136 4356 7dbf da4e 3fc0
00000110: e42f 51af 2640 b53f 9a38 9bba 24d7 5740
00000120: 4903 32c0 a020 a4bf 6d48 2d40 574b 253e
00000130: f1ad 80be fd70 adc0 24b9 633c 5f1d 573f
00000140: 47a5 503f 056b 5498 bd6c b238 b2c6 c43f
00000150: 016b 88ac a3c0 ffaa 0d1a 2240 237a 8a3f
00000160: 1b53 263b 1c84 7bbd e4b5 b53f 051a aeb8
00000170: 8621 0ec0 a4fb e33c 8a3b a13f e562 5dbd
00000180: ecd5 0ebd fcb7 0fc0 ed39 0dc0 29c1 9a38
00000190: 9414 5aba 50c1 dbbf 1ad0 8140 8795 0ebe
000001a0: 42b0 693e 0f5f 0d2b b022 48c0 130d 5dbf
000001b0: 82b0 1ec0 9b64 cabe c23f b0bf 12a3 a0be
000001c0: a30d 403e 2877 38bb bdc8 bfb9 5f5a febe
000001d0: 7bb8 1599 dd29 d93f 72b6 b02a 52c2 423f
000001e0: 3ac6 9b3e e6af b940 8c60 dc1a c0cc 8b3d
000001f0: eb0c 822a 499f 9b3e df60 f3ba 1eae 703e
-0.00025285687 -1.221926e-11 1.6127107e-21 0.021277921 0.09563579 5.457693 0.023917958 -8.433626e-05
-2.9923244 0.009839998 -0.092524864 -0.29516926 1.9415509 5.811686 0.5970361 -3.9373784
-0.08448211 0.092395835 -0.28590125 0.0003271699 -1.91403e-10 -2.2854178 0.0049791816 1.523798
-0.80571777 0.93058264 0.0 -4.1666713e-12 0.0 -0.6158194 -2.5039737 1.1464651e-20
0.06588242 -3.1803858 -0.96525156 1.8796247 -1.0377429 -0.57021075 -3.3664076 -0.7321918
2.6093316 -2.4466078 2.7790492 -0.335882 0.8691024 1.8570073 -0.06344419 -0.033852007
0.77248865 -1.5444488e-13 -0.06216877 -0.84316975 -2.119752e-09 -0.4001279 -0.00015689383 0.22116339
-0.020914013 0.15681249 -2.4189955e-14 2.338709 0.8537901 -0.0788874 4.7315373 -0.030714225
-0.2812193 6.731295e-06 -0.9895975 -2.9891877 -1.9025453e-10 1.4160202 -0.001184243 3.3725061
-2.7814505 -1.2822456 2.7075455 0.16142021 -0.25132707 -5.4200425 0.013899121 0.8402919
0.81502193 -2.7454389e-24 8.5079555e-05 1.5373137 -3.8772323e-12 -4.5430768e-13 2.53284 1.0818523
0.0025379125 -0.061405286 1.4196134 -8.301813e-05 -2.220796 0.027829953 1.2596295 -0.05404939
-0.03487198 -2.2456045 -2.2066605 7.379271e-05 -0.00083191064 -1.7168369 4.056653 -0.13924228
0.22821143 5.0225183e-13 -3.1271172 -0.86348075 -2.4795232 -0.3952988 -1.3769457 -0.31374413
0.18755202 -0.0028147195 -0.0003657992 -0.49678323 -7.740375e-24 1.6965901 3.1390477e-13 0.7607776
0.30424672 5.802722 9.114585e-23 0.06826162 2.3101603e-13 0.30394962 -0.0018568299 0.2350392

exp_avg_sq f4 [128]
00000000: ab2d 8e3d 76c9 b73e 425f 3a3b ccf8 9841
00000010: f6b4 963e 4fce 7342 e752 403f 6af7 bd3f
00000020: e721 cb41 d95c 643d 14dd 583d 6651 2140
00000030: 587c 9f40 f8c4 8442 bbec a63e c759 ff41
00000040: 4f1d 783d 2cd0 9340 893a 3640 5db7 fd3c
00000050: 1702 3f3d 4b8f fb40 f887 e13f 5d71 5841
00000060: 45c9 2c40 3bbf 6a3f 0000 0000 e925 753e
00000070: 0000 0000 f956 a440 ddc2 2741 f449 413b
00000080: c440 603e a232 ca41 d34f d83f df14 6d40
00000090: 462e 8640 7821 c93f e798 ec41 9037 7140
000000a0: f93c 3241 d758 8541 fe07 5d41 608e 0340
000000b0: c801 f23f e669 d940 7a19 f33f 53c4 8d3d
000000c0: 0f06 0d3f 0cc9 0c3c 7f9f 2d3d 62d0 3f40
000000d0: 6d1e 773f f72b d93f 9ad1 2f3f 88bd ef3e
000000e0: eeaa ce3e 2f44 923e 1d4e a039 1f0e fd40
000000f0: c0e0 1c42 ea87 b140 ddec 4842 3410 0e3f
00000100: 6521 0440 a724 1c3e a27c 7a40 ad43 da41
00000110: bf5b 8e3d 44bc b040 d6dd 763e e857 af41
00000120: 6123 ab41 d6f2 bd40 1e2a 3942 216d 8f41
00000130: 3481 4c40 aba8 9a42 0e0d 6340 0819 353f
00000140: 0412 913f 6a41 a83b e74f 863d 176a 9c40
00000150: ba70 a73e 27d5 573c f6bc a641 c670 ca3f
00000160: e050 3d3e b79a 843d 516a d640 2c2a 963f
00000170: a547 0d41 c282 e93f e07c 2440 ee54 443d
00000180: f42a 473f 8a1f 9f41 fbc0 c540 8891 973e
00000190: f9a3 ce3d ebd2 2941 6a0a 0542 64ec 1d40
000001a0: c5ac 3340 4484 fc3e e01c 1442 c3da 6c3f
000001b0: 0240 8841 4220 973f d4ea 0141 014a b03f
000001c0: e25d 4541 95db 873e bb9b 823f e749 373f
000001d0: daf9 b03b 6aa8 9140 3ebf 463e f94a 7340
000001e0: a597 f640 dfeb 8b42 21a3 2f3d 985f d340
000001f0: 4878 403b f832 a43e d030 c23c 776f 283f
0.06942304 0.3589589 0.0028438126 19.121483 0.29434937 60.951473 0.751265 1.484113
25.391554 0.05575261 0.05294521 2.5205932 4.9839287 66.384705 0.32602486 31.918837
0.060574826 4.6191616 2.8473227 0.030971223 0.046632852 7.861242 1.7619619 13.527677
2.6997845 0.91698045 0.0 0.23940243 0.0 5.135617 10.485074 0.0029493542
0.21899706 25.274723 1.689936 3.7043989 4.1931486 1.5713339 29.57466 3.7690163
11.139886 16.668379 13.814451 2.0555649 1.8906794 6.794177 1.899215 0.069222115
0.5508737 0.008592855 0.042388435 2.9970937 0.965308 1.6966542 0.686792 0.46824288
0.40364784 0.28567645 0.00030575777 7.907974 39.219482 5.547841 50.23131 0.55493474
2.0645382 0.15248357 3.913857 27.283045 0.06951093 5.5229816 0.24108061 21.917923
21.392275 5.935893 46.29113 17.928286 3.195386 77.32943 3.5476718 0.7074132
1.1333623 0.005134751 0.06558209 4.8879504 0.3270319 0.013173378 20.842266 1.5815666
0.18487883 0.06474822 6.700478 1.173162 8.829991 1.8243029 2.5701218 0.047932558
0.77799916 19.8904 6.179807 0.2960322 0.10089869 10.613994 33.26017 2.4675531
2.80742 0.4931966 37.0282 0.92521304 17.031254 1.1806719 8.119831 1.3772584
12.335421 0.26534715 1.0203775 0.7159714 0.0054008784 4.5518084 0.1940889 3.801451
7.7060113 69.960686 0.04288018 6.605419 0.0029368568 0.32070136 0.023704916 0.6579508

exp_avg f4 [128, 128]
00000000: e7b8 0cae 6280 552a ddb1 901a 7759 bfba
00000010: cf34 193e fafd bcbb 5eec eabb 6097 279a
00000020: 95d5 af3d 0484 1d38 0803 ae3c f805 d33b
00000030: f641 5b3d c281 8f3d 50d3 8c3e 7289 8a3e
00000040: 4c51 993c 4505 9cbb c94b 743c de67 97b6
00000050: 26a1 f3ab f001 083e 78a1 96bb be8a 983b
00000060: 2c2f c83d 3e8b 703d 0000 0000 1e15 362a
00000070: 0000 0000 ba01 61bb 365a d23d f672 159c
00000080: 2efb 59ba 2830 e33d 0509 fe3d 95f2 5b3d
00000090: d190 533e 9287 153d 3ed1 753e 2668 c03d
000000a0: c0b1 27bb 4ca4 993e 06a9 d23d a6b2 a83c
000000b0: 2cc6 723e ab53 243e d5fd e7b9 e908 033b
000000c0: 288e 9f3c 1b75 3a9a d20a 853b 5936 883e
000000d0: 90a0 67ad 183e 54bc e289 f429 3f81 513c
000000e0: 9e52 3fb5 9de6 d0b9 29e5 c024 5857 0a3e
000000f0: 5d6c 6ebc 75fe 99ba 0f61 633e 6608 243a
00000100: 745a 6fbb 9e87 0734 d53b e73c 477f 793e
00000110: 58e8 192c 285f ad3d afcb ce3d 0679 873e
00000120: 1cf4 1e3e aa36 383e b538 953d 59cf 373a
00000130: cc0b b939 ef50 473d d1f5 d93a 5e8c e13d
00000140: 06d5 6c3e 0cd3 0e99 05d8 68b3 cc89 e93c
00000150: 3a61 82a7 29cd efa8 5e11 5e3d 6d7f c23d
00000160: adf6 1a3c 14c0 2e3b 6662 e53d 287f b028
00000170: 6319 5d3d ea53 3e3b 1791 a33e 2ed0 59ba
00000180: 6dc1 443a 4ccb 983d c5de 493e ae1b 0caf
00000190: 2be1 da38 94b3 6c3e 7439 203d 3ded 063b
000001a0: b778 8abb d712 a726 faba 0e3d 974e 7e3d
000001b0: 0243 193e 1748 713e 023a 1a3e c779 3d3a
000001c0: 4c63 983b b0e5 edbb c288 402a 7eee 2c3e
000001d0: 3aad 0399 92c7 853e fa78 2599 6175 6b3c
000001e0: 0a9c 8538 efdb be3d ca58 9e98 368d e63b
000001f0: 9831 8098 7fad 733a 6939 a22a 0a51 5a3a
00000200: 0000 0000 0000 0000 0000 0000 0000 0000
00000210: 0400 0000 0400 0000 0400 0000 0000 0000
00000220: 0400 0000 0400 0000 0400 0000 0400 0000
00000230: 0400 0000 0500 0000 0400 0000 0400 0080
00000240: 0000 0000 0000 0000 0000 0000 0000 0000
00000250: 0000 0000 0400 0080 0400 0000 0400 0000
00000260: 0500 0000 0400 0000 0000 0000 0000 0000
00000270: 0000 0000 0400 0000 0400 0080 0000 0000
00000280: 0000 0000 0400 0000 0400 0000 0400 0000
00000290: 0400 0000 0400 0000 0400 0000 0400 0000
000002a0: 0400 0000 0400 0000 0400 0000 0400 0000
000002b0: 0400 0000 0400 0000 0400 0000 0000 0000
000002c0: 0400 0000 0000 0000 0000 0000 0400 0000
000002d0: 0400 0000 0400 0000 0000 0000 0400 0000
000002e0: 0000 0000 0000 0000 0000 0000 0500 0000
000002f0: 0400 0000 0400 0000 0600 0000 0000 0000
00000300: 0000 0000 0000 0000 0400 0000 0400 0080
00000310: 0000 0000 0000 0000 0400 0000 0400 0000
00000320: 0400 0080 0400 0000 0400 0000 0400 0000
00000330: 0400 0000 0000 0000 0000 0000 0400 0000
00000340: 0400 0000 0000 0000 0400 0000 0400 0000
00000350: 0000 0000 0000 0000 0400 0000 0400 0000
00000360: 0400 0000 0000 0000 0400 0000 0000 0000
00000370: 0400 0000 0000 0000 0400 0000 0400 0000
00000380: 0000 0000 0000 0000 0400 0000 0400 0080
00000390: 0000 0000 0400 0000 0000 0000 0000 0000
000003a0: 0000 0000 0000 0000 0400 0000 0400 0000
000003b0: 0400 0000 0400 0000 0400 0000 0400 0000
000003c0: 0000 0000 0000 0000 0000 0000 0400 0080
000003d0: 0000 0000 0500 0000 0000 0000 0000 0000
000003e0: 0400 0000 0400 0000 0000 0000 0000 0000
000003f0: 0000 0000 0400 0000 0000 0000 0000 0000
-3.199654e-11 1.8962742e-13 5.984436e-23 -0.0014598806 0.14961551 -0.005767581 -0.0071692904 -3.465707e-23
0.085856594 3.7554666e-05 0.02124168 0.0064399205 0.053529702 0.07007171 0.2750497 0.27057987
0.018715523 -0.0047613704 0.014910647 -4.5122424e-06 -1.7310916e-12 0.13281989 -0.0045968853 0.004655211
0.09774622 0.05872654 0.0 1.6172174e-13 0.0 -0.0034333305 0.102711126 -4.944855e-22
-0.0008315322 0.110931695 0.12404064 0.05369814 0.20660712 0.036506243 0.24005601 0.09394865
-0.0025588125 0.3000816 0.10286145 0.020592999 0.23708409 0.16047542 -0.00044248873 0.0019994325
0.019476965 -3.8558496e-23 0.004060128 0.26603964 -1.3166482e-11 -0.012954257 1.08596956e-13 0.012787162
-7.127327e-07 -0.00039844672 8.365494e-17 0.13509881 -0.014552203 -0.0011748808 0.22204994 0.0006257355
-0.003652242 1.2622192e-07 0.028226772 0.24364959 2.1871584e-12 0.08465415 0.10097443 0.2645952
0.15522808 0.17989603 0.07286207 0.0007011793 0.0003529474 0.04866117 0.0016629045 0.11013101
0.23128137 -7.3838485e-24 -5.4213178e-08 0.02850809 -3.618766e-15 -2.6623304e-14 0.05421578 0.09496961
0.009458226 0.002666478 0.11200409 1.959507e-14 0.05397929 0.0029041716 0.31946632 -0.0008308914
0.00075056293 0.07460651 0.19713886 -1.274276e-10 0.00010436991 0.23115379 0.03911729 0.0020588182
-0.004225816 1.1593059e-15 0.034846283 0.062086668 0.14966968 0.23562656 0.1506119 0.0007227924
0.004650509 -0.007260047 1.7100473e-13 0.16887853 -6.807524e-24 0.26128823 -8.554731e-24 0.014371247
6.370999e-05 0.09319293 -4.0931697e-24 0.0070358766 -3.31373e-24 0.0009295567 2.8816817e-13 0.0008328116
0.0 0.0 0.0 0.0 6e-45 6e-45 6e-45 0.0
6e-45 6e-45 6e-45 6e-45 6e-45 7e-45 6e-45 -6e-45
0.0 0.0 0.0 0.0 0.0 -6e-45 6e-45 6e-45
7e-45 6e-45 0.0 0.0 0.0 6e-45 -6e-45 0.0
0.0 6e-45 6e-45 6e-45 6e-45 6e-45 6e-45 6e-45
6e-45 6e-45 6e-45 6e-45 6e-45 6e-45 6e-45 0.0
6e-45 0.0 0.0 6e-45 6e-45 6e-45 0.0 6e-45
0.0 0.0 0.0 7e-45 6e-45 6e-45 8e-45 0.0
0.0 0.0 6e-45 -6e-45 0.0 0.0 6e-45 6e-45
-6e-45 6e-45 6e-45 6e-45 6e-45 0.0 0.0 6e-45
6e-45 0.0 6e-45 6e-45 0.0 0.0 6e-45 6e-45
6e-45 0.0 6e-45 0.0 6e-45 0.0 6e-45 6e-45
0.0 0.0 6e-45 -6e-45 0.0 6e-45 0.0 0.0
0.0 0.0 6e-45 6e-45 6e-45 6e-45 6e-45 6e-45
0.0 0.0 0.0 -6e-45 0.0 7e-45 0.0 0.0
6e-45 6e-45 0.0 0.0 0.0 6e-45 0.0 0.0
