week 6/checkpoints/reinforce_cartpole_seed4.pth (torch, 226393 bytes, 18 tensors)

network.0.weight f4 [128, 4]
000000 b4 7e d4 bc 64 95 55 be 6b 5d 8d 3e f4 e6 c3 be
       -0.025939323 -0.20857769 0.27610335 -0.3826214
000010 5f 14 2e 3e 90 9b 4c be 16 ba 6a be ac d4 f2 be
       0.16999958 -0.19981217 -0.22922549 -0.4742788
000020 65 fd c6 3e 60 00 ff 3e d9 af 80 be 6c f4 8d 3e
       0.388652 0.49804974 -0.2513416 0.27725542
000030 9c 41 c3 be da 23 0b bd fa 40 ef be 08 1f b5 be
       -0.38135993 -0.033969738 -0.4672926 -0.35375237
000040 b4 99 a6 be 80 b1 b4 3d 0c b7 c7 be 63 44 31 3e
       -0.3253914 0.08822918 -0.3900684 0.17311244
000050 59 b3 04 3e 0c 79 9e 3d 71 fc 9b 3d 2f 0d aa 3e
       0.1295904 0.077379316 0.07616509 0.33213183
000060 2e aa 64 3c aa 66 e9 be 37 e3 e7 bc 3c 14 bf 3e
       0.01395659 -0.4558614 -0.028306587 0.37320125
000070 56 88 f0 bd 95 5a f0 3d 19 d7 6a be c3 bb d0 bd
       -0.11744754 0.11736027 -0.22933616 -0.10192063
000080 9c 3e 89 3e ed 24 21 be 82 c3 b4 bd 85 e0 6f 3e
       0.2680558 -0.15736742 -0.08826353 0.23425491
000090 65 83 b6 3e f0 ea b8 be 25 2c b2 bd 9c 64 f9 be
       0.3564712 -0.36116743 -0.08699826 -0.4870957
0000a0 01 a3 18 be 15 6a 01 be f7 81 2a 3e 48 1e 98 3e
       -0.14905931 -0.12638123 0.1665114 0.29710603
0000b0 b0 30 81 bd 8c 73 49 3d 79 15 04 3e 48 4c e5 be
       -0.063081145 0.04918246 0.12898816 -0.4478476
0000c0 1d da 0b 3e bb 0b 9b 3d a3 98 8f 3d ff 35 32 bd
       0.13657422 0.07570597 0.07011535 -0.043508526
0000d0 36 c2 71 3e 67 6a 4c 3e f0 b7 11 3f 08 37 31 3e
       0.23609242 0.19962464 0.5692129 0.17306149
0000e0 1d 71 83 3e 51 d0 5d bd fe 21 20 3f 4c ed c7 3e
       0.25672236 -0.054153744 0.6255187 0.3904823
0000f0 48 64 ef 3d 02 0e d0 be 74 a0 11 bf 8c 8d b7 3d
       0.11689049 -0.40635687 -0.5688546 0.08962545
000100 b1 ae 46 3e d2 3f 83 be 79 20 4e 3f 25 58 ed 3e
       0.19402577 -0.2563463 0.805183 0.4635631
000110 53 01 13 3c 0a ca f4 be 23 37 ee be 3a 83 80 be
       0.008972484 -0.47810394 -0.4652644 -0.25100118
000120 c9 4e 24 3b 14 ac 6d be 09 c3 bc 3e 60 10 06 3f
       0.0025071374 -0.23210174 0.3686755 0.52368736
000130 91 82 a8 3e 93 dd 31 3e 07 12 3c 3e 74 fb b7 be
       0.32912114 0.1736968 0.18366252 -0.3593403
000140 92 42 d9 3d c0 12 e6 3e 12 18 67 bd 55 7b a4 be
       0.106084004 0.4493618 -0.05641944 -0.32125345
000150 0c dd b8 3c 2f 5e ac be eb e7 59 3e c9 b4 51 bd
       0.02256634 -0.33665606 0.21279876 -0.0511978
000160 e1 9c e2 be fe d0 19 3e 5d b7 91 3e 37 cc ea 3d
       -0.44260314 0.1502113 0.28460208 0.11464732
000170 98 33 0f be 1d 8d 01 be f7 58 2b 3e ff 1b 37 be
       -0.13984525 -0.12651487 0.16733156 -0.17881773
000180 dd 65 81 be 3d eb b7 be ad 59 40 be 4c 62 4c 3d
       -0.25273028 -0.3592166 -0.18784209 0.04989843
000190 87 7a 83 3e fc f8 5d be d5 dd c4 be 78 68 1a be
       0.25679418 -0.21677011 -0.38450494 -0.15078914
0001a0 91 37 b5 3e e8 34 89 be 5d b6 0d be 49 c2 6e 3e
       0.35393956 -0.26798177 -0.13839097 0.23316301
0001b0 53 d9 ea 3e c7 1b c8 3e d6 6e 07 3f 12 7d 92 be
       0.4586893 0.39083692 0.529035 -0.28611046
0001c0 f6 d6 a4 bd cb 9f ad be 7c 3f 2a 3e b9 60 e1 3c
       -0.08048813 -0.33910975 0.1662578 0.027511941
0001d0 4e d2 94 be c6 dd 7f 3e a2 4d 57 be 1d 94 e9 3e
       -0.290667 0.24986944 -0.21025708 0.45620814
0001e0 ee 45 56 3c 45 00 af 3e 2f 11 83 be f8 5d 5e be
       0.013078196 0.34179893 -0.25599048 -0.21715534
0001f0 f1 97 96 3e 66 43 89 be f3 a4 7c 3e fc 84 ed 3e
       0.29412797 -0.26809233 0.24672298 0.46390522
000200 03 cd 93 be b9 c0 1e 3e 8c f1 41 3f b9 f4 de 3e
       -0.2886735 0.15503205 0.75759196 0.43546084
000210 92 b0 f3 be 45 30 c0 be 8b c4 1b 3f 9d 81 f8 3e
       -0.4759565 -0.37536827 0.60846776 0.48536387
000220 a4 f6 4e 3e 08 c9 09 bf d0 3d af be c5 8d 78 be
       0.20211273 -0.53822374 -0.34226847 -0.24272831
000230 80 88 7e bd f2 84 a3 be 17 8a 12 bf 7e 50 84 3d
       -0.062141895 -0.31937367 -0.5724196 0.06460665
000240 63 f5 f8 3e 6b 6f c0 be 37 3b ae 3e 0b 7f d9 3e
       0.48624715 -0.37585005 0.34029552 0.4247974
000250 57 d0 34 3e 7b 5f a3 bd c8 95 d1 3d df e4 e7 be
       0.176576 -0.07977196 0.10233647 -0.45291802
000260 85 d7 55 be 2f ce 96 bd ab ec 3d bf fe be c5 be
       -0.20882995 -0.07363545 -0.7418925 -0.38622278
000270 90 65 de be 86 36 d2 3e 58 f2 99 3e b7 0d 7c 3d
       -0.4343686 0.41057223 0.30067706 0.061536517
000280 cf 31 9f be 42 62 c6 3e 8d 83 5a be 52 00 d4 be
       -0.31092688 0.3874684 -0.21339245 -0.41406494
000290 1a 42 ce 3e be cf d2 3e 53 64 cb be 5c e5 d1 be
       0.40284806 0.4117412 -0.3972498 -0.409953
0002a0 b5 7c 87 bd 33 f8 dc 3e 7f 24 dc be 8c 96 93 be
       -0.06615583 0.4315811 -0.42996594 -0.28825796
0002b0 b2 16 14 3e 31 ef 65 3e 3c 2d 81 be a0 0f ef be
       0.14461783 0.22454526 -0.25229824 -0.46691608
0002c0 09 4c b8 3d fa 66 bf be 55 bd 7d bd 75 94 e3 be
       0.089988776 -0.37383252 -0.06194814 -0.444492
0002d0 b0 a9 85 be ae d5 99 be 5e f3 21 bf 4c 2e b7 3d
       -0.26106024 -0.30045837 -0.63261974 0.08944377
0002e0 c2 9b 7c 3e e5 d8 f6 3d 83 f1 61 bc 74 94 52 bd
       0.24668792 0.12053088 -0.013790491 -0.051411107
0002f0 42 be c3 3e a8 23 4d 3e fb 46 2d bf 4f b4 9e be
       0.38231093 0.20033133 -0.6768643 -0.3099694
000300 28 95 00 3e d6 28 b9 be 06 2e a0 be 19 c8 f5 3e
       0.12556899 -0.36163968 -0.31285113 0.48004225
000310 7d 4f 80 bd 3f 97 34 3e e4 c5 eb bd fb 2d c3 3e
       -0.06265161 0.17635821 -0.11512354 0.38121018
000320 0a 4f 8e 3e 84 dd be be 51 4a a4 3d db 64 ea 3e
       0.27794677 -0.37278378 0.08021987 0.45780072
000330 4e aa ba 3e a7 4c cd bd 93 39 76 be 3f b7 48 be
       0.36458057 -0.10024386 -0.240454 -0.19601153
000340 61 e2 e9 be 9d 38 dd 3e 73 cf ff 3e ec b5 08 3f
       -0.45680526 0.43207255 0.4996296 0.5340259
000350 55 27 cd be 45 67 34 3c 51 5f 2b 3f 3a 3c 28 3e
       -0.4006907 0.0110109495 0.66942316 0.16429225
000360 ae e6 26 3e 96 f1 97 be f3 e0 46 3f c5 29 d8 3e
       0.16298935 -0.29676503 0.77686995 0.42219368
000370 2d f6 f6 bd 8a 5c 42 be 68 b1 4a bd 84 e4 c5 3e
       -0.12058673 -0.18980613 -0.049485594 0.38650906
000380 4e f2 17 be 33 98 cf 3e 85 5b 17 bf 42 96 e5 be
       -0.14838526 0.40545806 -0.5912402 -0.448412
000390 ef 12 e0 3d cb be 06 bf e5 09 1e bf 08 80 02 bf
       0.10941111 -0.52634877 -0.6173385 -0.5097661
0003a0 2d b9 73 be bd ff f4 3e 19 69 0d 3f 45 a4 c0 be
       -0.23801108 0.47851363 0.5523849 -0.37625328
0003b0 5e 71 06 3e 9b 09 c0 bc 63 53 f7 3d e9 7a 3f 3e
       0.13129184 -0.02344208 0.12076452 0.1869923
0003c0 74 54 b7 bd af a5 d1 3d 11 8c ca bc 37 70 dd be
       -0.08951655 0.1023668 -0.024724992 -0.43249676
0003d0 c4 53 d3 be 2d 05 92 bd ac 7b 48 3f e8 9c 06 3f
       -0.41274846 -0.071298935 0.7831371 0.5258317
0003e0 23 6e 6c 3e 60 4b e0 be 0b d2 de be 3d 53 9c 3e
       0.23088889 -0.43807507 -0.43519625 0.30532256
0003f0 d8 d4 e8 bd 5c 0e aa be 0d d5 f7 be 8b eb 79 3e
       -0.11368722 -0.3321408 -0.48404732 0.24406259

network.0.bias f4 [128]
000000 93 54 cb be 87 38 71 3e 24 02 e5 be b7 d9 9d 3b
       -0.39712963 0.2355672 -0.44728196 0.0048172134
000010 5d d7 9a be 68 07 de be 5f f0 e5 be b7 2d d4 be
       -0.30242434 -0.43365026 -0.4490995 -0.41441128
000020 fc 72 b4 3e 26 90 48 3e 41 91 3e be 99 64 ff be
       0.35243976 0.19586238 -0.18610097 -0.49881437
000030 84 48 9f 3b c0 af d3 3e 7e 5a d4 3e 85 5a 71 bd
       0.0048609395 0.41345024 0.4147529 -0.058924217
000040 87 92 e3 3e 00 86 63 be 1d 9c 97 3e 98 95 db be
       0.4444773 -0.22219086 0.29611292 -0.42887568
000050 6e ac a6 3e aa c4 09 be 71 b2 a1 be b2 9f b6 bd
       0.32553428 -0.13453928 -0.31581452 -0.08917178
000060 1c 9c a5 3e a1 70 86 be de 0c b6 be 2d 31 fd be
       0.32345665 -0.26257804 -0.35556692 -0.4945158
000070 a4 e1 2c be f0 fe d4 be c1 f4 19 3d dd 04 d4 3e
       -0.1688295 -0.41600752 0.03758693 0.4140996
000080 ae b4 dd 3e e3 62 81 3d 55 e5 fe bd cd 8b 8e be
       0.4330191 0.06317689 -0.12446085 -0.27841035
000090 05 73 a7 be a5 c5 f5 bd a3 6d c2 3e 8c 8d 3f be
       -0.3270494 -0.12000588 0.3797427 -0.1870634
0000a0 5e 21 8c bc 6f c2 c8 3e 15 9c e1 bd fe 7f 94 3e
       -0.017105754 0.3921084 -0.110160984 0.290039
0000b0 20 c1 d8 be 06 03 e9 3e 82 46 32 be 29 a0 9b ba
       -0.42334843 0.4551012 -0.17409709 -0.0011873293
0000c0 35 02 66 3e e3 75 df be 7b 14 8a be 7c 18 91 3e
       0.2246178 -0.43644628 -0.2696875 0.28338993
0000d0 5b 16 9a 3e ab b2 6d 3e 37 08 b6 3d b4 e3 18 be
       0.3009518 0.23212688 0.088882856 -0.14930612
0000e0 66 6b d7 3e dc 90 fb bc 17 39 dc be fd e4 16 be
       0.42074126 -0.030708723 -0.43012306 -0.1473579
0000f0 05 68 f3 3d fd 6a 96 3e fa b3 8b 3d ca 66 d8 bd
       0.118850745 0.293785 0.06821437 -0.105664805
000100 bc 6d 96 be cf e9 97 be c8 ce f3 3e da 38 de 3c
       -0.29380596 -0.2967057 0.476187 0.027126718
000110 2f 0e 06 bf ae 51 f9 be e0 26 b1 3e 89 cd 74 3e
       -0.5236539 -0.4869513 0.34599972 0.2390653
000120 10 e1 be be fc d9 63 3e 9a 51 d8 be 2d 04 1a 3e
       -0.37281084 0.22251123 -0.42249757 0.15040655
000130 15 df 64 3e 4d 0a cd be 09 a9 07 3f 92 e8 5c be
       0.22350724 -0.4004692 0.529923 -0.21573094
000140 96 da dc 3d 40 87 f3 3d 4a 98 a8 be 86 1e 65 3d
       0.107838795 0.11891031 -0.32928687 0.055937313
000150 63 2b 64 3e cd 9b e5 be e4 e3 87 3e 0d 9e 69 3e
       0.22282176 -0.4484543 0.26541054 0.22814198
000160 6a 3e b9 3d 89 63 fe 3d 59 a7 e7 3d fc 51 93 3e
       0.09045108 0.124213286 0.11311216 0.28773487
000170 76 a5 d7 be 5d 70 74 be af 5c b5 3e de 4a 9e 3e
       -0.42118424 -0.23870988 0.35422274 0.30916494
000180 26 59 84 3d a5 3e a2 3e 7b f5 fb be e3 36 f4 bd
       0.06462316 0.3168842 -0.49210724 -0.11924531
000190 36 2e 2e 3e 6d 37 d5 3e a4 5f cf be 78 08 24 3e
       0.17009816 0.4164385 -0.40502656 0.16018856
0001a0 bd 54 b4 3d 2d b0 65 3e 5f 9d 07 be 84 6a 33 3e
       0.08805225 0.22430487 -0.13243626 0.17521101
0001b0 cd 58 1e 3d 43 aa b6 3e e1 a4 36 be a9 21 bc 3e
       0.038658906 0.35676774 -0.17836334 0.3674443
0001c0 d7 9a 93 be 0c e6 88 be 15 0f 03 bf d6 a8 59 3e
       -0.2882907 -0.26738012 -0.5119489 0.21255812
0001d0 78 96 12 bf 00 92 d7 3e f6 9a 5b 3e a6 7f cc 3e
       -0.5726085 0.42103577 0.21445832 0.39941138
0001e0 28 e2 d0 3d 1f c0 aa be c3 ca 1f be d0 ad cc 3e
       0.10199386 -0.33349702 -0.15604691 0.39976358
0001f0 3d 41 a8 3e 4f 9f 7c bd f2 bf 39 bd 1b 1c 2a be
       0.32862273 -0.061675366 -0.04534907 -0.16612284

network.2.weight f4 [128, 128]
000000 d0 72 62 3d 03 eb 84 bc 46 2f 37 3c 81 bc f0 3b
       0.055285275 -0.016225344 0.011180704 0.00734669
000010 57 2d d5 3c 95 7f 3e 3c c1 15 7e bd c0 b3 6d 3d
       0.026022596 0.011627098 -0.062032465 0.05803275
000020 14 92 2d bd 3e 03 af bd d7 99 32 3d 68 ec 53 bd
       -0.04237564 -0.0854554 0.043603744 -0.051739126
000030 6b 8a 4e 3d 49 ec ea 3c 5d 32 00 3e e2 ee a1 bd
       0.050424974 0.028677123 0.12519212 -0.079068914
000040 61 54 14 3c dc ef 74 bd fc e4 14 bd 33 8c c6 bc
       0.009053321 -0.05979906 -0.03635119 -0.024236774
000050 0c 02 4f bd 41 50 f1 bd fc 38 b4 3d 16 b4 c1 3c
       -0.05053906 -0.11782885 0.087999314 0.023645442
000060 73 23 c6 3d 72 5c e1 bd 64 e6 cf bd 5b 18 04 3d
       0.0967473 -0.11003961 -0.101513654 0.03224979
000070 3a f4 02 3d 6c b9 36 3d 57 1f 2d 3c 77 43 31 bd
       0.031971194 0.044610426 0.010566554 -0.04327723
000080 92 08 a9 3d 18 f8 1e bd 6e 2c 19 be fd fc df bb
       0.08253588 -0.03881082 -0.14958355 -0.0068355785
000090 f7 ed d1 bd e1 9f 3e bd bf 1c 59 3d 32 9c 1d 3e
       -0.10250466 -0.04653919 0.05300593 0.15391615
0000a0 ba 02 4f 3b 57 44 31 bd f7 4b 31 3d 52 40 69 3d
       0.0031587319 -0.043278065 0.043285336 0.056946106
0000b0 9d a9 16 3d 8a ef 20 bd 18 06 79 bd 22 46 4f 3b
       0.03678285 -0.039290942 -0.060796827 0.0031627496
0000c0 44 3c 6f 3d 95 85 71 3a 30 f3 03 be 4a c3 65 3d
       0.058407083 0.00092133257 -0.12885737 0.056094445
0000d0 4e 9c 54 3d 3b 5e 1b 3d 4d 16 9a 3d ab 76 20 bc
       0.051906876 0.037931662 0.07523785 -0.009793918
0000e0 e3 d0 ca 3c 63 12 e4 bd 6c 40 55 3d 10 4c 04 3d
       0.024757808 -0.111363195 0.05206339 0.0322991
0000f0 23 6e f4 bc d2 00 35 3d 70 8f 88 3b 5b da 8e bd
       -0.029837674 0.044190235 0.0041674897 -0.06975242
000100 22 68 73 3b d7 1c 90 bd 50 ed c2 3b c9 9e 16 3d
       0.0037140925 -0.07036751 0.0059487 0.036772523
000110 a5 34 b1 3d 46 37 74 3d c3 60 25 3e 77 1b 6a 3d
       0.08652619 0.059623025 0.16150193 0.0571551
000120 64 59 48 3d 86 69 0d bd 80 fa 34 3c 0d 84 44 bc
       0.048913375 -0.034524463 0.011046052 -0.011994374
000130 de 09 b6 3d d6 83 d4 3b 56 11 a8 3d c0 9b 54 3d
       0.08888601 0.0064854426 0.082064316 0.051906347
000140 7a f6 46 bb 14 81 02 be 1a 89 a7 3d 85 19 70 3d
       -0.0030359314 -0.12744552 0.08180447 0.058618087
000150 86 33 26 3d 2e 3a 84 bd 2b a6 25 3d cb 62 be bd
       0.04057648 -0.064564094 0.040441673 -0.09296187
000160 1b 25 59 3e 5b 3b f1 3b 9b 52 d4 bd 6b 4a 0e 3e
       0.21205561 0.007361812 -0.10367318 0.13895576
000170 81 43 14 bd 63 3e 0a 3e 16 d3 de 3d 21 81 cd 3d
       -0.03619719 0.13500361 0.10880105 0.10034395
000180 86 fc 97 bd 50 eb d5 3d 0f 20 44 3c fe ec 1e bd
       -0.07421212 0.10445273 0.011970534 -0.038800232
000190 66 18 4b bc ad 6b 2c bc 14 07 1b bd e7 6f 1e 3c
       -0.012395954 -0.010523719 -0.037848547 0.009670234
0001a0 2b d5 33 bd a7 a4 36 3d 84 8a 85 bd 8c 71 0e 3e
       -0.043904465 0.04459062 -0.065205604 0.13910502
0001b0 39 d7 78 bc 13 d1 64 3c 0a ae e3 3d 51 27 1c 3e
       -0.015188032 0.013965863 0.1111718 0.15249373
0001c0 7b 9b 9e 3d fc 7d 1d 3e 40 3d 75 3c 9b e5 c4 bd
       0.07744499 0.1538009 0.014968216 -0.09614106
0001d0 fa df 1a 3c 9b f7 0b bd 07 41 67 3d 26 73 a1 3d
       0.009452814 -0.03417168 0.0564585 0.07883291
0001e0 fb 7a 4f 3e 03 55 70 bd 4f 30 a1 bd c3 c8 90 bc
       0.20261757 -0.058674823 -0.07870542 -0.017673856
0001f0 0c 24 c6 3d bd bc b6 3d 33 2a 37 3c 0b 9b 3e bc
       0.09674844 0.08922718 0.011179495 -0.011633645
000200 8a e7 b2 3c a9 5c 99 3c a0 a4 56 bc cc 0c 6c 3d
       0.021838922 0.018720942 -0.013100773 0.05762939
000210 20 e6 92 bd a8 04 9e bc 2b 74 ce bc f8 ad 1e bc
       -0.07172799 -0.01928933 -0.025201878 -0.009685032
000220 0c 17 ce 3d 80 2e 65 bd 6e 36 2e 3d bd cc 09 bd
       0.100629896 -0.05595255 0.042532377 -0.03364252
000230 1c 2f 12 bd b1 b6 28 3d 36 e7 45 3d d7 74 16 bc
       -0.03568946 0.041189853 0.048316203 -0.00918313
000240 8f e4 3f 3d 7f db 14 bd 9f 75 9b 3d 76 0b 6c bd
       0.04684883 -0.03634214 0.07590794 -0.057628118
000250 73 d5 ef 3b a7 03 86 bd 4b 61 54 3d 42 47 dc 3c
       0.0073191463 -0.065436654 0.0518506 0.026889447
000260 bb 7f 85 3c ac b0 25 bc 58 bc 84 3d 4f 30 85 3d
       0.016296258 -0.010112923 0.06481236 0.06503355
000270 a4 30 d8 3c 94 49 f2 3c b3 ed 3b 3c a4 69 a8 3d
       0.026390381 0.0295761 0.011470246 0.08223274
000280 eb 07 9c 3d a3 75 21 3d ac e3 ef bd 42 31 a4 3c
       0.07618698 0.039418828 -0.11713347 0.02004302
000290 6c 0d 8c bc 2e 64 0b 3d b0 3a 00 bd f4 fd 95 3d
       -0.017096244 0.034031086 -0.03130597 0.07323828
0002a0 29 fa dd 3d 44 c0 bb 3d a0 ce ac 3b 8f 7d 84 bd
       0.1083873 0.09167531 0.005273655 -0.06469261
0002b0 46 86 3d 3d 04 68 e4 3c 27 87 b5 3d 8b 92 d8 3b
       0.04627063 0.02788163 0.08863669 0.006609266
0002c0 0a 58 80 bc 73 93 c0 bc 5f 56 55 3d 63 b3 7e 3c
       -0.01566698 -0.02350781 0.052084323 0.015545699
0002d0 19 2d ae 3d 75 16 d8 3c b0 76 9d 3d b8 d7 71 3c
       0.085046954 0.026377896 0.076886535 0.014760904
0002e0 d2 ff ae 3a a4 dc 0f be 38 f7 09 3d 20 a9 2d bd
       0.0013351387 -0.14049011 0.03368303 -0.04239762
0002f0 1b ef 6e bd fa a2 78 3d 60 20 42 3c 05 04 85 bc
       -0.058333497 0.0607023 0.011848539 -0.016237268
000300 26 9c 56 bd 9b 08 01 be 6c 93 9e 3d 19 02 de 3c
       -0.05239501 -0.12600939 0.07742962 0.02710061
000310 12 f0 79 3b c2 aa 19 bd cf 85 d5 3d c5 a1 b7 bd
       0.0038137478 -0.037516363 0.104259126 -0.08966402
000320 92 2b 04 3d 9d 91 94 3d be bd bc 3d 63 48 b1 3d
       0.032268114 0.07254336 0.09215878 0.08656385
000330 ce 3d e0 3c ee 0e ff 3c 58 3d 29 3c fd 32 c8 3d
       0.02737322 0.031135049 0.010329567 0.0977535
000340 a7 2b 5d 3d 6a 1d f1 bd 7e 37 5f 3d c1 69 49 3a
       0.05399671 -0.117731884 0.05449628 0.00076833
000350 ad c6 c5 bd bb c0 a4 bd 4d ed 37 bc 83 ae 5d bd
       -0.09657035 -0.08044573 -0.0112260105 -0.054121505
000360 67 53 3f 3e b6 59 ae 3d a8 5b 92 bd 7d 53 c1 3d
       0.18684159 0.08513205 -0.07146388 0.09439752
000370 bb 02 d3 3c 16 10 41 3d ff 3b 9f 3d 20 ec d7 3c
       0.025758138 0.04713448 0.07775115 0.02635771
000380 a0 fc 15 be 33 65 39 3d 1a 58 96 3d 98 58 8b 3d
       -0.1464715 0.045262527 0.07341023 0.06804007
000390 f2 96 20 3d ab e6 ce bd 98 b2 58 bc ab b1 e8 bc
       0.039206453 -0.1010259 -0.013226174 -0.028405031
0003a0 c1 d6 2a be d8 fd aa 3c 54 82 12 3d 51 5a 5d 3d
       -0.16683485 0.020872995 0.03576882 0.05404121
0003b0 9d 28 4d 3d 94 02 f4 3b 83 13 0e bd f0 1d 2d 3d
       0.05008756 0.0074465964 -0.034686577 0.04226488
0003c0 b3 fb 8a 3d bc d5 53 3d 46 b1 c8 3d ed a9 22 be
       0.06786289 0.051717505 0.09799437 -0.15885134
0003d0 d6 53 4c 3d 2d 0d b5 bd ad fb cf 3d 6b 4e 17 3e
       0.04988464 -0.08840404 0.10155425 0.14776008
0003e0 61 c8 4d 3e 2e bb c7 bd 51 71 b0 bd 0b 6d c3 bc
       0.2009597 -0.097524986 -0.086153634 -0.023855707
0003f0 56 69 81 3d e1 00 9d 3d fc d1 07 3c af 69 9e bd
       0.06318919 0.07666183 0.00828981 -0.07735001

network.2.bias f4 [128]
000000 17 7f c8 3d e8 92 19 3d b8 83 d3 bd ef a0 9a 3d
       0.097898655 0.037493616 -0.10327858 0.07550227
000010 17 cb 34 bd 0f 83 b7 3c 8c 0c a2 bd ff cc 9c 3d
       -0.044138994 0.02240136 -0.079125494 0.076562874
000020 f3 6a 89 ba a9 94 92 bd fb 58 41 bd 01 c1 69 3c
       -0.0010484144 -0.07157261 -0.047204 0.014267207
000030 87 92 59 bd 22 18 de 3c fc 4e c0 bd c3 f2 ee bc
       -0.053118255 0.027111117 -0.09390065 -0.029168492
000040 e6 f8 20 3d 4d 84 c1 ba f9 dc b5 bc 73 fa 8a 3d
       0.039299868 -0.001476416 -0.022200095 0.06786051
000050 b9 f7 11 3c 30 d6 96 3c 7f 25 bf bb a9 08 99 bc
       0.008909159 0.01841268 -0.0058333273 -0.018680887
000060 ff e5 b3 3d 87 df b1 bd a3 ce e8 3c 1e 5e d0 3c
       0.08784103 -0.086852126 0.028418845 0.025435504
000070 df 09 c7 bc 22 e7 2e 3d 9c 2a a0 3a 76 b3 86 bc
       -0.0242967 0.042700894 0.001221973 -0.016442996
000080 33 e3 53 bd bc 30 a8 3a d2 78 16 3c 61 93 74 bd
       -0.051730346 0.0012831907 0.009184079 -0.059710864
000090 65 17 55 ba 0e 66 9a bb 2e 51 94 3d b7 98 c3 bd
       -0.0008128791 -0.004711873 0.07242046 -0.095506124
0000a0 81 2e ed bc 44 98 2c 3c c7 80 bc bd a3 4c 53 bd
       -0.028952839 0.01053435 -0.0920425 -0.05158676
0000b0 1e 5b 9e 3d ee 91 ba 3a 15 da b8 3d a4 80 36 bd
       0.07732223 0.0014234164 0.09025971 -0.044556275
0000c0 b9 81 fe 3c c6 df a0 bc bb 3c 14 3d 51 c1 79 bd
       0.031067716 -0.019637953 0.03619073 -0.060975377
0000d0 1b d3 a1 bd 9f fd 2e 3d fa d9 85 bd a4 bc 64 bb
       -0.07901593 0.04272234 -0.06535716 -0.0034902478
0000e0 70 3c 87 bd 56 86 27 3d 81 c8 24 3d 7d a3 b1 3d
       -0.066033244 0.040899597 0.040230278 0.08673761
0000f0 34 f2 99 bd b3 be e9 ba c7 15 aa bd 24 1a 88 bd
       -0.075169 -0.0017833322 -0.08304935 -0.06645611
000100 d7 02 bc bd 47 4a a1 bc 7f 14 b0 bc 51 f1 8c 3d
       -0.09180229 -0.019688739 -0.021494148 0.06881965
000110 b2 dc 53 bd f4 ee 80 3d e5 c0 0c 3d dc eb ac 3d
       -0.051724143 0.06295577 0.034363646 0.08443424
000120 8c bf a1 bd 49 a7 90 3d 14 9f 67 3d de d6 0c bd
       -0.07897863 0.07063157 0.056548193 -0.0343846
000130 08 16 86 3d 6a 07 d3 3c 19 2d 09 3b 36 a7 53 3d
       0.06547171 0.025760371 0.0020931421 0.051673137
000140 4c 5a 20 bd 6f e9 87 bb d9 ec 9f 3d b9 e1 ba 3c
       -0.039148614 -0.0041477005 0.07808847 0.022812711
000150 55 5d ae bd a2 11 11 bc 3d 6c 91 bd 7c 12 9c bd
       -0.085138954 -0.008854302 -0.07100723 -0.07620713
000160 37 0b ba bd 7d 4b c6 3d fa 68 4f bd 0f e5 2b bd
       -0.0908417 0.09682367 -0.050637223 -0.041966494
000170 b4 d3 17 3d a0 9a 5e 3d 79 84 09 3c 4b f3 9a 3d
       0.03706713 0.05434668 0.0083934 0.07565936
000180 b2 b2 38 bb 18 59 00 bd 99 56 74 bd fb 69 89 3c
       -0.0028182683 -0.031334966 -0.0596529 0.016774168
000190 ac 3a a1 3d 60 1c 6f bd 94 f3 4f 3b 52 a3 71 bd
       0.07872519 -0.05837667 0.0031730877 -0.058993645
0001a0 5e 5a 55 3b 86 f1 a2 bd e0 2d 8c 3d 13 c2 bc 3c
       0.0032555084 -0.07956223 0.068446875 0.02304176
0001b0 20 fb 6a 3d 0e 27 a4 3c 2d 04 9d 3d ec 85 79 bd
       0.057368398 0.020038154 0.07666812 -0.060918733
0001c0 06 a2 a6 bc 8f 45 2c 3d 3b 22 a3 3d 04 a2 9a bd
       -0.02034093 0.042058524 0.07965513 -0.07550433
0001d0 18 46 3e bb 5a f9 d2 3c 20 b9 14 bd 2a 48 22 bc
       -0.0029033478 0.025753666 -0.03630936 -0.009904901
0001e0 df cc 9d bc 7a b1 2b 3d cd 30 8a 3d 4d d8 ce bc
       -0.01926273 0.0419173 0.06747589 -0.025249625
0001f0 74 42 25 3d 0a f2 8e 3d 6b c1 31 bc 5f b3 43 3c
       0.040346578 0.06979759 -0.010849337 0.011944621

network.4.weight f4 [2, 128]
000000 e2 2b 5b bd dc f1 a9 bd 47 dd 31 bd 9d 1f a6 3c
       -0.053508647 -0.08298084 -0.043423917 0.020278746
000010 1d 78 88 3d 39 dd fe bd 10 8d 7b bd e7 fb 01 3e
       0.06663535 -0.124445386 -0.061413825 0.1269375
000020 75 e0 c2 bd 42 39 8f 3d 69 eb 89 3d 94 6a 0d bd
       -0.09515468 0.06993343 0.06734354 -0.03452547
000030 7e 24 8c bd 90 dc b3 bd 4f 34 6b 3d 02 f5 2d 3d
       -0.06842898 -0.08782303 0.057422932 0.042469986
000040 bb ce c9 bd c8 9b 0b 3d 08 a6 bd bd 15 6f e7 3d
       -0.09853884 0.03408411 -0.092601836 0.11300484
000050 c9 f0 4f bd 3f 31 88 3c 18 42 b3 3d 56 ba 22 be
       -0.05076674 0.016625045 0.08752841 -0.15891394
000060 1a 20 3d bc e5 3b 97 bd e5 2c 88 bd 10 8b 03 be
       -0.011543298 -0.07384471 -0.06649188 -0.12846017
000070 44 ff 1b 3d 5a 55 b9 3d 84 9f 21 bd 2c a8 a0 bc
       0.038085237 0.09049483 -0.039458767 -0.01961144
000080 58 54 94 bc 2b ee da 3c bb 8b ac bd b0 be f1 3d
       -0.018106624 0.026724895 -0.08425089 0.11803949
000090 ca 36 94 3c e1 b6 e1 bd 39 36 02 3d 46 78 9f 3b
       0.018092532 -0.110212095 0.031789992 0.0048666326
0000a0 04 85 dc 3d 55 5c e7 3d a1 98 89 3d 60 15 2a bd
       0.10767558 0.11296908 0.06718565 -0.04152429
0000b0 5c 13 ed 3d 29 ff 26 3d d9 3f 17 be bd a7 ad 3d
       0.11575958 0.040770683 -0.1477045 0.08479259
0000c0 47 5b 13 be c4 ff 97 bc f4 27 88 3d 9e 06 fd bc
       -0.14390288 -0.018554576 0.066482455 -0.030886944
0000d0 53 47 40 3d 62 99 99 3d 07 c7 42 bd e9 da 1e bd
       0.04694302 0.074999586 -0.04755309 -0.038782988
0000e0 d5 91 ae bc 43 8f 9a bc ba 32 56 bc b0 ea 28 bd
       -0.021309773 -0.01886714 -0.013073618 -0.04123944
0000f0 9c 0c 79 3c 51 2d fe 3c 8d 83 8a 3d b0 72 bf bc
       0.01520076 0.031027468 0.067633726 -0.023370117
000100 4f f8 c1 bc 50 3d f4 3c 3a 43 02 3d a6 03 23 bd
       -0.023677973 0.029814392 0.031802393 -0.0397984
000110 17 51 0b bd a0 e3 7a bd c6 70 94 3d 88 4d 98 bd
       -0.03401288 -0.061252236 0.07248072 -0.07436663
000120 da 97 98 bd dc e9 2a 3d 35 c8 b5 bd 3c 00 d5 3d
       -0.074508384 0.041726932 -0.08876077 0.10400435
000130 4d a5 c3 3d 3c 74 7b 3b 83 49 c0 bd 45 a2 c5 bd
       0.09553013 0.0038368842 -0.09389021 -0.09650091
000140 1b c8 52 3c 56 8e 30 be 7f 08 b4 bd 95 68 0f 3c
       0.012865092 -0.17241797 -0.08790683 0.008752962
000150 5d 98 c5 3d 25 7f 3c bd 29 ec 89 3c fa 1c ef bc
       0.096482016 -0.046019692 0.016836243 -0.029188622
000160 58 58 1a bd 96 33 17 be a6 4e 1e bc a4 16 0b 3d
       -0.037681907 -0.14765772 -0.009662306 0.03395714
000170 5f 07 58 bd 55 06 4b bc 31 ba 8c bd 59 23 3c be
       -0.052741405 -0.012391646 -0.06871451 -0.18372859
000180 f8 2a 81 bd 9f cf 29 bc 5c 18 5d bd 46 e5 cd 3c
       -0.06307024 -0.010364442 -0.05397831 0.02513374
000190 bf 22 ad 3d 9f 84 4c 3d c8 ee 1b 3e 49 ca b6 3d
       0.08453893 0.049931165 0.15227807 0.089253016
0001a0 9f 0f 0b 3e 25 6a 9a 3d 8c 4d fa bd 14 44 12 be
       0.13580178 0.07539777 -0.12221822 -0.14283782
0001b0 2f 27 00 be 5b f1 8b bd 01 4e 0e 3e a7 74 29 3d
       -0.12514947 -0.06833144 0.13896944 0.041371014
0001c0 45 9b 94 3d e9 34 b5 3d 1f 70 00 be 89 28 3f 3d
       0.07256178 0.088479824 -0.12542771 0.046669517
0001d0 07 45 00 bd c9 74 c5 bb 28 ba 31 3d ed bf 01 3d
       -0.03131583 -0.0060258848 0.043390423 0.031677175
0001e0 07 3e 66 3d 21 36 0a 3d 29 4f 49 3d 0b 02 93 3d
       0.056211498 0.033743028 0.04914776 0.07178124
0001f0 43 60 b0 3c bc 0d e9 3d 71 bb 19 3d f3 75 40 3a
       0.021530276 0.11379573 0.037532274 0.00073417946
000200 db 87 fb 3d 67 c2 d0 3d 49 3e 12 bd 9d cb ab bc
       0.12281772 0.10193329 -0.03570393 -0.020971114
000210 c3 34 67 3d 0a ea 03 3e e3 84 5c 3d eb a0 e7 bc
       0.056446802 0.12882248 0.05383767 -0.028274974
000220 8f 42 f4 3d af 2b 8a bd 59 61 9a 3d 3d 25 33 3d
       0.119267575 -0.06746613 0.07538099 0.043736685
000230 98 ea 5e bd a8 71 22 3e 7e 0f 85 3a 38 e0 58 3a
       -0.054422945 0.15863669 0.0010151712 0.00082731573
000240 5b 47 f2 3c 90 5b b5 bd 9e 5f f0 3d dc 05 25 3d
       0.02957504 -0.08855355 0.117369875 0.04028879
000250 23 51 83 3d 10 a3 7e bd 49 4a 58 bd 69 be aa 3d
       0.0641196 -0.062167227 -0.05280522 0.08337099
000260 c6 e1 15 3e 9a ac 9e bd 88 fe d3 3d a6 3f 15 3e
       0.14636907 -0.07747765 0.10351282 0.14575061
000270 bd 43 a8 bd 18 bb 9a bd cf b9 1a 3e 5c 8a 4f bd
       -0.08216045 -0.075552166 0.15109943 -0.05066906
000280 3b 94 88 3d 75 3a ca bd 6b 23 8a bd 7f f5 7e bd
       0.06668898 -0.09874431 -0.06745037 -0.062245842
000290 9f 94 d1 bd 9c b7 bc 3d 52 f8 53 bd b5 61 f1 bb
       -0.10233425 0.09214708 -0.05175049 -0.007366384
0002a0 db 7e 22 be 7b b3 f9 bd eb 9b c7 bd e2 89 26 bd
       -0.15868704 -0.12192436 -0.09746536 -0.04065884
0002b0 1a e0 f8 bd 03 a5 11 be 50 c2 14 3e 78 e8 f0 bc
       -0.12152119 -0.14223103 0.1452725 -0.029407725
0002c0 e9 85 09 3e 28 b3 e2 bc 68 2e fb bd 06 f7 95 3c
       0.13429989 -0.027673319 -0.12264711 0.018306267
0002d0 1c a2 e0 bd 65 9f 63 bc c2 d0 41 bd 92 96 6f bc
       -0.1096842 -0.013892983 -0.047318228 -0.014623301
0002e0 c5 43 98 bc 4e e0 c5 3b 79 a5 3a bd b3 11 d5 bd
       -0.018587003 0.006038702 -0.045567963 -0.104037665
0002f0 0e c8 9f bc f9 6d 99 3c 1c fe 0d be f4 3e 35 3d
       -0.019504573 0.018729197 -0.13866466 0.04424949
000300 b7 84 82 bd b9 c4 0d 3d 08 9e 91 bd 00 c2 38 bd
       -0.063729696 0.034611437 -0.0711022 -0.045106888
000310 cd 77 8e 3c 0a 6e d6 3d 36 ab 39 bd f9 af db 3d
       0.01739111 0.10470207 -0.045329295 0.107269235
000320 97 c2 9d 3d b5 61 4c bd 22 74 0c 3e 72 73 2b 3c
       0.07703131 -0.04989787 0.13716176 0.010464536
000330 de 7d 57 bd 35 ef b8 bd f1 15 ad 3d 7e 18 b2 3b
       -0.05261027 -0.0903 0.084514506 0.0054350486
000340 01 d3 92 bd e5 3f 27 3e 2d ab 49 3d 8a f3 b4 bd
       -0.07169152 0.16332968 0.04923551 -0.08835514
000350 b7 c6 bd bc e7 7a 0b 3e ff 9e 15 3d 4a 2e ee bb
       -0.023166044 0.13621102 0.036528584 -0.0072687017
000360 a8 5c 71 3d 70 62 21 3e 59 39 03 be 5e 58 cf 3c
       0.058926255 0.15760207 -0.12814845 0.025310691
000370 14 78 c4 bd 59 1c 40 bc 04 3b 0f 3e f0 21 20 3e
       -0.095932156 -0.011725509 0.13987356 0.15637946
000380 c6 70 7e bd 64 2b 7b 3c 2b 40 16 3d f3 10 b7 3c
       -0.062119268 0.015330169 0.03668229 0.02234695
000390 ff 7a ce bd cc 6a 1b bd 3f 8d 71 bd 68 0d cc bd
       -0.100820534 -0.037943646 -0.058972593 -0.099634945
0003a0 8c c3 7c bd 74 2c 72 3d a7 8d 0f 3e 82 23 cd 3d
       -0.061709926 0.059124425 0.1401888 0.10016538
0003b0 27 43 9c 3d 9b 6a 8e 3d 22 1d 3b bd 41 2b 5c 3d
       0.07629996 0.06953927 -0.04568208 0.053752188
0003c0 01 82 53 3d e3 93 ea 3c 24 bc 72 3d 85 4a f5 3b
       0.051637653 0.028634971 0.059261456 0.00748569
0003d0 e3 e6 17 bd 99 1e 22 be ee 27 a4 3c 89 b3 88 3d
       -0.037085425 -0.15831985 0.020038571 0.066748686
0003e0 0c 4e b5 bd 17 ad b2 3c f6 c1 d7 bd 1a c1 6e bb
       -0.08852777 0.021811051 -0.10535042 -0.0036431015
0003f0 2e 03 41 bc 74 03 25 bd 82 e3 63 bd 05 ad 48 3d
       -0.011780543 -0.040286496 -0.05563689 0.04899313

network.4.bias f4 [2]
000000 7a 38 be bd 83 43 5b bc
       -0.09288116 -0.013382795

exp_avg f4 [128, 4]
000000 47 9a 93 bd fc 2b 4f bd 3d 9d 52 bb 21 96 92 bb
       -0.072071604 -0.050579056 -0.0032137178 -0.004473463
000010 51 ec 9f 3e c7 ca b6 bd 54 64 fc 3b b6 48 10 3f
       0.31234983 -0.089253955 0.0077023897 0.5636095
000020 2b b3 16 16 ee 2c 92 16 7e aa 18 95 5f 9a 3a 96
       1.2173439e-25 2.3615927e-25 -3.083065e-26 -1.5073671e-25
000030 a9 36 b1 3d f1 53 ca bd 8a 76 a0 bb 5c 79 56 3e
       0.08653004 -0.09879292 -0.0048969435 0.20944732
000040 db a3 d5 bd 1e 21 d3 3a 05 40 68 39 64 98 ba bd
       -0.104316436 0.0016107892 0.00022149093 -0.091110975
000050 c6 56 b1 8c aa 92 87 0d 09 e2 f3 0a 84 aa 88 8d
       -2.7323393e-31 8.355325e-31 2.3485074e-32 -8.422697e-31
000060 a4 4a 02 bc ae 54 57 bb f9 ed a9 3a 68 2e 2a 3c
       -0.007952366 -0.003285687 0.0012964598 0.010387041
000070 2f 76 7d 18 15 46 fd 97 f6 b6 c5 14 de 9b 1a 18
       3.2759151e-24 -1.6367433e-24 1.9964082e-26 1.9982726e-24
000080 f4 41 a1 3d 36 e2 3e 3d 80 c3 7f 3a 51 00 6a bc
       0.07873908 0.04660245 0.000975661 -0.014282302
000090 38 b6 0c 3f e6 e8 ab 3e 22 ad e8 3c 71 83 5b 3e
       0.54965544 0.33576125 0.028402869 0.2143686
0000a0 90 95 b9 bd 5c 1b dc bc c3 ee 0e bb d6 78 9e bd
       -0.0906173 -0.026868515 -0.0021809794 -0.077378914
0000b0 d5 50 6c b8 78 b6 6c ba 0d 28 a5 36 fa 15 a4 3a
       -5.6342065e-05 -0.00090298755 4.9220457e-06 0.0012518757
0000c0 d4 94 73 3b d7 55 a3 3c aa 05 7c bb a5 58 17 bd
       0.0037167566 0.019938393 -0.0038455524 -0.036949772
0000d0 7f a0 7d bc 60 23 a0 bd e4 2b 92 bc 62 97 ba bd
       -0.01548016 -0.07819247 -0.017843194 -0.09110905
0000e0 d3 f7 48 3f d0 69 0b 3f 4b dd cd 3c 4d 35 5b be
       0.7850315 0.5445833 0.025129935 -0.21407051
0000f0 20 21 8f 3e 8b b4 78 3d 73 8d 4f bc 3e 40 60 3e
       0.2795496 0.060719054 -0.012668001 0.21899506
000100 eb dd ac be 36 08 2c bc 16 80 14 bc d3 2a d8 be
       -0.3376306 -0.0105000045 -0.009063741 -0.42220172
000110 37 cb 60 3e 45 0c 42 3d e5 b9 42 b9 d3 a9 49 3e
       0.2195252 0.047374982 -0.00018570533 0.19693689
000120 3d 67 46 be ba b4 9f bc 99 6f d4 bb 4d 8c 6b be
       -0.1937532 -0.019495357 -0.00648303 -0.23002739
000130 e0 ed bb b8 7f 28 c8 ba 77 a1 cb b6 1f bc 0d 3b
       -8.9611625e-05 -0.0015270858 -6.0686684e-06 0.0021627021
000140 3c 4c 10 bc 37 17 1a bc cd c9 ac bb ea af e4 bc
       -0.008807238 -0.009404949 -0.00527308 -0.027915914
000150 71 92 f5 3c 36 b0 08 3c 5d 8c 8c 3b 7e 5f 4d 3d
       0.029977055 0.008342793 0.0042891935 0.050139897
000160 ac 0b 85 be 6f 1e 77 3d 7f a5 4e 3b 48 e3 99 be
       -0.25985467 0.060331758 0.0031531749 -0.30056214
000170 0d f0 c5 bd d3 00 9c bc 60 e6 b5 ba 3b 25 56 bd
       -0.09664927 -0.019043362 -0.0013877861 -0.0522816
000180 de 8e 5e 3c 54 b4 85 bc a8 54 d4 ba 58 19 10 3d
       0.013583867 -0.016321339 -0.0016199546 0.03518042
000190 0f 5d 3b 9f 77 09 5e a0 90 42 ee 9e cd 2d 0a 1f
       -3.9675767e-20 -1.8807263e-19 -2.522676e-20 2.9260522e-20
0001a0 42 f5 15 bb 4f 75 70 bc f9 fd 4f ba bf d5 ff 3b
       -0.002288178 -0.014676406 -0.0007934268 0.007807463
0001b0 5e 59 1b 39 bb 07 1f 3b 4e ea 76 36 06 7d 60 bb
       0.00014815244 0.0024266082 3.679324e-06 -0.0034254207
0001c0 da fd 1f 3c ff 16 0b 3c 0e cc 38 3a 00 58 b6 3b
       0.009765113 0.008489369 0.00070494495 0.0055646896
0001d0 ff 68 aa bc f7 4d 90 bc 9c c7 84 ba bf 37 a5 3b
       -0.02080202 -0.017615302 -0.0010130289 0.005042046
0001e0 68 d2 71 bb cb 93 29 bc ff 69 81 3a 3a 9e 72 3c
       -0.0036899094 -0.010350178 0.0009873508 0.014808232
0001f0 6c 85 56 3e 21 54 80 3e 19 fd 74 3c 09 2f 72 be
       0.20949334 0.25064185 0.014952921 -0.23650755
000200 bc c7 05 bf bb cf d7 3c 21 63 9b bc 64 a6 3c bf
       -0.52257895 0.02634417 -0.018968167 -0.7369139
000210 65 dc 62 be 24 63 8c bd 12 98 3a 3b 13 54 16 be
       -0.22154386 -0.06854847 0.0028471989 -0.1468051
000220 f7 0c fc 3e 6b a9 be 3d 41 cf 9a bc d0 d7 e8 3e
       0.4922864 0.09309658 -0.018897654 0.45477152
000230 9b 17 91 3d df 47 8a 3b cb cf b5 3a 42 2b a6 3d
       0.070845805 0.0042199935 0.0013871131 0.081137195
000240 75 81 69 bc 42 ce 48 bd d7 06 da 39 49 db c8 3c
       -0.014252056 -0.049024828 0.00041585296 0.024518626
000250 26 bf 5c bc 01 a2 7a bd 5c c5 25 3c 5d 4f c5 3d
       -0.013473308 -0.061189655 0.010117855 0.09634278
000260 73 8d 99 3e a5 31 a5 bc 96 74 20 3c 96 59 dd 3e
       0.2999073 -0.020165274 0.009793421 0.4323241
000270 b8 00 65 bf db 1d 87 be 0e a2 b9 bc 72 26 ea be
       -0.8945422 -0.26389965 -0.022660282 -0.45732456
000280 2f cf 85 be ea ed 08 be eb 76 48 bc 63 24 90 bd
       -0.2613463 -0.13372007 -0.0122353835 -0.0703819
000290 ef 61 ed ba 24 61 88 bb 5c c9 8d bb 61 7c b7 bc
       -0.0018110852 -0.0041619707 -0.0043269824 -0.022398176
0002a0 26 91 80 bc b0 fa 4c bd 58 5b 04 3c 65 c0 9f 3d
       -0.015694212 -0.05004376 0.008078419 0.07800368
0002b0 d1 1b f9 3c 03 72 13 bc 51 1a e4 ba 3f b9 da 3c
       0.030408772 -0.0089993505 -0.0017402862 0.02669966
0002c0 35 20 4d bd b1 c8 ef bc 00 a6 37 bb c0 69 15 bc
       -0.050079543 -0.029270502 -0.0028022528 -0.009119451
0002d0 01 c3 3e 3d d4 6b d7 bc 75 31 ec ba ce e5 b3 3d
       0.04657269 -0.026296534 -0.001802011 0.08784066
0002e0 5a 46 2a 95 15 0d 1a 17 53 94 24 15 af 67 a9 96
       -3.4386724e-26 4.9776596e-25 3.3236543e-26 -2.7368856e-25
0002f0 81 4e b9 bb af ff 83 bd 75 1e d0 bb a0 34 82 3d
       -0.0056551103 -0.06445252 -0.006351287 0.06357694
000300 ef 7b a3 3d e3 24 6a 3c fe db 81 3b 1a ca a0 3d
       0.07982623 0.014291021 0.0039629927 0.07851048
000310 a2 b4 06 80 57 75 04 80 72 09 01 80 ae 18 06 80
       -6.15812e-40 -4.09436e-40 -9.5224e-41 -5.59866e-40
000320 17 23 5b 3c ce 4c 2f 3c f0 cb 08 ba 31 9e b9 bb
       0.013375065 0.010699464 -0.00052183773 -0.00566461
000330 17 16 f3 3a 59 b6 4c 3b fa 1e 2f ba 51 d0 99 3c
       0.0018546012 0.0031236617 -0.0006680336 0.01877609
000340 95 2e 3c bf 3c 5d a3 bd 3e 9b 3b bd 8e 6e 75 bf
       -0.7350858 -0.079767674 -0.045802347 -0.9587182
000350 1f 68 8c be 43 f9 d4 3a 3a d2 5a bc fd cb c0 be
       -0.27423188 0.0016248602 -0.013355786 -0.3765563
000360 7e c8 58 3f dc 5e 15 3f df 6b 5c 3d 7c 12 bf bd
       0.84680927 0.5834787 0.05381381 -0.093296975
000370 7b 4c a5 bd cd 95 8e bc 62 55 4d bb ae 11 a2 bd
       -0.08071228 -0.017405415 -0.003133141 -0.079135284
000380 50 1d 93 3e 53 47 b8 3d 46 b8 0c 3a f8 2e 0a 3e
       0.287333 0.08997979 0.0005368035 0.1349448
000390 34 80 3c 3f 59 2a 91 bd 12 26 c9 3c 90 b4 8a 3f
       0.7363312 -0.07088155 0.024554286 1.0836353
0003a0 3e 81 01 3c 34 c2 b1 3b a7 d1 9e ba db 25 67 bb
       0.007904349 0.005424762 -0.0012116925 -0.0035270366
0003b0 93 f4 a5 39 44 c2 2e 3b 92 2e 79 39 ab 09 d0 ba
       0.00031653474 0.0026666084 0.00023763839 -0.0015872022
0003c0 1f c1 cc bc f1 6b 27 bb fa 7b 89 ba 47 9d ba bc
       -0.024994431 -0.0025546516 -0.0010489218 -0.022780074
0003d0 2d 59 b6 be 13 07 f6 bc b2 9e 47 bc 16 66 da be
       -0.3561491 -0.03003267 -0.012183832 -0.4265601
0003e0 d3 73 2b 3e b6 46 29 3d 65 c5 a5 bb ec fb f8 3d
       0.16743402 0.0413272 -0.0050589317 0.12157425
0003f0 c7 0f 8d 3d 68 3a 3a 3c 50 b3 8f ba f6 01 85 3d
       0.06887775 0.011366464 -0.0010963473 0.06494515

exp_avg_sq f4 [128, 4]
000000 df 65 95 3e ba f0 87 3e e8 fc 1e 3a d2 24 5e 3b
       0.29179284 0.26550847 0.00060649076 0.0033896458
000010 6c 38 96 41 9c 20 b7 40 c6 72 61 3d 3e a7 31 3f
       18.77755 5.7227306 0.055041097 0.69395816
000020 d8 99 76 3e 22 ca 0c 3e 8f de 9d 3a 0d e5 6a 3c
       0.24082124 0.13748983 0.0012044477 0.0143368365
000030 27 a1 ca 40 67 c9 cb 3f ff 5e a1 3c d3 8c 9c 3e
       6.332172 1.5920838 0.019698618 0.3057619
000040 26 d5 3d 3f 0e d3 06 3e 55 c8 a3 3a da 85 d5 3c
       0.74153364 0.13166448 0.0012495617 0.026064802
000050 0b 7f 38 3b 84 9b 89 3a fb 3a ab 36 62 99 42 39
       0.0028151895 0.0010498618 5.1030634e-06 0.00018558421
000060 23 b7 3d 3e 1e 46 13 3e 61 ce d5 39 b0 bc 4a 3b
       0.18526892 0.14382216 0.0004078029 0.003093522
000070 7a 34 2e 34 9b fc 4f 33 d2 73 c2 2e d1 19 8f 33
       1.6224104e-07 4.8425687e-08 8.8426724e-11 6.6636524e-08
000080 eb b9 88 3e c6 be 44 3e f4 83 bb 3a 2a c7 72 3c
       0.26704344 0.192134 0.0014306293 0.014817992
000090 48 06 0d 40 dd 0e 13 40 86 08 07 3d 8c 8d cf 3e
       2.2035084 2.2977822 0.032967113 0.4053768
0000a0 f7 7d 1d 3f d5 0b 99 3e 7b f7 41 3a d5 f3 00 3c
       0.6152033 0.2989184 0.0007399243 0.007870634
0000b0 79 de c2 3b 6b d8 2e 3b 7e 92 54 37 7e 41 4b 3b
       0.005946931 0.0026679288 1.2670293e-05 0.0031014378
0000c0 39 42 07 3c 35 af 44 3c b4 cd 99 39 54 16 ca 3b
       0.008255535 0.012004663 0.00029335695 0.0061672125
0000d0 92 1b 7b 3f 1a 9a 60 3f 26 8a cf 3c d2 d3 b1 3e
       0.98088944 0.8773514 0.025334429 0.3473192
0000e0 5c 5d 31 41 b2 6d bb 40 c4 d5 7c 3d 88 63 37 3f
       11.085293 5.8571405 0.0617273 0.7163625
0000f0 bc 87 6e 40 00 08 a7 3f db 4d d7 3b 27 2c 8f 3d
       3.7270346 1.3049316 0.0065705604 0.06990843
000100 6b 3e 7c 41 ed 76 aa 40 2f fd 1f 3d d3 30 d5 3e
       15.765239 5.3270173 0.039059814 0.41638812
000110 f9 d5 b5 40 5e d1 b1 3f 6a b9 a0 3b 1c bc ae 3d
       5.6823697 1.3892019 0.0049049156 0.08531973
000120 30 a8 ae 40 82 dd ef 3f 09 70 41 3c ac 8e db 3d
       5.4580307 1.8739474 0.011806496 0.10720572
000130 47 d8 96 3c b4 1a 7c 3c 05 fc 2d 39 e8 f2 9c 3a
       0.018413676 0.015387226 0.0001659245 0.0011974247
000140 f1 4f 60 3e c4 b4 0a 3e 25 38 14 3b 77 76 92 3c
       0.21905495 0.13545519 0.0022616473 0.017878754
000150 e6 90 de 3e cd 96 07 3e 04 eb 76 3a 52 d7 a9 3c
       0.43469924 0.1324112 0.00094191753 0.020732556
000160 e8 bb 42 40 63 c9 68 3f 10 7d 20 3b 1a 68 14 3d
       3.042719 0.9093229 0.0024488606 0.03623209
000170 6b f9 13 3f c8 b0 ff 3d f3 75 12 3b 74 af 3b 3d
       0.57802457 0.1248489 0.0022348135 0.045821622
000180 15 b0 8d 3f 19 34 91 3e 2f b7 f6 3b c4 06 dd 3d
       1.1069361 0.2836006 0.0075291614 0.10792306
000190 5b af 12 3d 97 93 13 3c 24 23 e0 38 b6 50 d9 3a
       0.035811763 0.009007356 0.00010687698 0.001657984
0001a0 d9 43 83 3a 59 da 54 3b a0 60 35 38 e8 2c 79 3a
       0.0010014727 0.0032478778 4.3243752e-05 0.0009505288
0001b0 50 49 83 3d 7c 8c 27 3d c8 f3 8e 39 a0 90 ce 3b
       0.064104676 0.04090546 0.00027265982 0.0063038617
0001c0 e3 03 bb 3e 77 5b d2 3d 91 0f a7 3a 07 90 f3 3c
       0.36526403 0.10271352 0.0012745728 0.029731764
0001d0 5c 26 07 3f c0 cf 5d 3d 56 85 6f 3a 54 03 aa 3c
       0.52792907 0.054153204 0.0009136995 0.02075354
0001e0 75 8e 1b 3e 78 da aa 3d 08 5e b0 3a ae 6e 35 3c
       0.15191062 0.08342451 0.0013455758 0.011073751
0001f0 34 1d d0 40 53 f3 43 40 7e f0 cb 3c b9 18 82 3e
       6.503565 3.0617263 0.024894949 0.25409487
000200 63 67 da 41 c8 d4 09 41 b4 c5 7a 3d a3 fb 50 3f
       27.300482 8.614449 0.0612237 0.8163397
000210 93 f4 13 40 64 92 6b 3f 64 36 87 3b 77 fa 0e 3d
       2.3118026 0.9202025 0.004126357 0.03490683
000220 25 7c 1c 41 d2 b3 ab 40 3c 1e d1 3c 86 5f 47 3e
       9.780309 5.3657007 0.025527112 0.19470033
000230 23 9b b9 3f 20 41 9e 3e 59 ab b9 3a 42 a9 31 3d
       1.4500469 0.3090906 0.0014165445 0.043374307
000240 5a 97 6e 3d 6a e2 ce 3d 38 6d 83 3a f7 58 b5 3c
       0.05824981 0.10101779 0.0010027057 0.022137148
000250 40 5d 14 3f 17 32 c2 3e 64 cb b5 3b 09 c9 f7 3d
       0.5795479 0.3792884 0.0055479277 0.12098891
000260 43 92 a2 41 2b 84 bb 40 93 bc 8a 3d 0b e3 79 3f
       20.321417 5.859884 0.06774249 0.97612065
000270 72 75 33 41 89 6a 23 40 92 b1 30 3c 1d ea 40 3e
       11.216173 2.5533774 0.010784524 0.18839307
000280 98 27 94 3f b7 40 8b 3e 00 97 94 3b be 90 81 3d
       1.1574583 0.2719781 0.004534602 0.063264355
000290 67 80 cd 3d b6 6e 91 3d 6e ea 8a 3a f0 f7 06 3c
       0.100342564 0.071011946 0.001059843 0.008237824
0002a0 52 c4 2a 3f a7 87 8d 3e 0d 86 9a 3b 9f 04 92 3d
       0.6670581 0.27642557 0.004715687 0.07129788
0002b0 25 d1 20 3f 3e 45 9f 3e b9 cc d0 3b ea 52 75 3d
       0.6281913 0.31107515 0.006372061 0.059893526
0002c0 4d 55 5a 3e bd de 7b 3e 2a 62 2a 3a 30 4e 35 3b
       0.21321602 0.24596687 0.0006499613 0.0027665012
0002d0 e4 71 03 40 ff 65 00 3f b2 8b 2e 3c 1b 27 27 3e
       2.0538263 0.50155634 0.010653423 0.16323511
0002e0 3e e8 e9 3c a4 f0 7d 3c 8f 22 1e 39 a6 47 0e 3b
       0.028553125 0.015499268 0.00015080928 0.0021710186
0002f0 7a cd a2 3e 8c f0 78 3e f3 e5 a5 3b eb 8a 82 3d
       0.3179739 0.24310511 0.0050628125 0.06374153
000300 43 1c 96 3e 7c 60 b4 3d 47 d1 2f 3a d5 57 f3 3b
       0.29318437 0.088074654 0.0006706905 0.007426242
000310 b1 ee a0 36 81 ba 8f 36 6c a5 be 33 e0 ef 2b 37
       4.796159e-06 4.283444e-06 8.8776545e-08 1.02482445e-05
000320 66 2c 69 3d e8 54 cd 3d a8 38 e3 39 57 ca c7 3b
       0.056927107 0.1002596 0.00043339026 0.006097119
000330 f6 61 58 3e 9e 11 32 3e ed 00 56 3b 6e 4f 05 3d
       0.21131119 0.17389533 0.003265436 0.032546453
000340 1f 23 3d 42 d0 80 62 41 89 3d d0 3d 5b 10 ba 3f
       47.284298 14.156448 0.10167987 1.4536241
000350 bf ec 91 40 37 63 cb 3f 29 74 07 3c 01 da d6 3d
       4.5601497 1.5889653 0.008267441 0.104908
000360 79 79 fb 40 ad 48 80 40 e7 6e cd 3c 5f 29 4e 3e
       7.858578 4.0088716 0.025077296 0.2013297
000370 43 e9 4b 3f e1 e5 ca 3e 73 f9 aa 3a ec 82 4a 3c
       0.79652804 0.3962851 0.0013044312 0.012360316
000380 c6 d1 b4 40 7a e2 c1 3f 81 77 c1 3c 30 ce 8a 3e
       5.650607 1.514724 0.023616554 0.27110434
000390 c0 46 75 42 64 a6 87 41 22 73 cd 3d 92 7d b3 3f
       61.31909 16.956245 0.100317255 1.4022696
0003a0 db bf 1e 3f 61 6f 30 3e 38 f5 3b 3b 13 d1 fc 3d
       0.620115 0.17229988 0.0028680097 0.12344565
0003b0 44 01 99 3c 35 9b 17 3c e9 4e a2 38 f7 79 54 3a
       0.018677361 0.009253313 7.73946e-05 0.00081053324
0003c0 8a b0 d6 3f b0 5f eb 3e 0f bb 03 3c ca 8b a3 3d
       1.6772625 0.4597144 0.008040204 0.07985647
0003d0 31 fd 22 41 f3 d2 5a 40 88 92 9a 3c af 8a 51 3e
       10.186814 3.4191253 0.0188687 0.2046306
0003e0 83 b9 20 3f 2e ac 73 3e 62 95 ac 3a 4c dc 3e 3c
       0.6278307 0.2379615 0.0013167078 0.011649203
0003f0 77 fc f6 3f 96 b8 d9 3e fb 0f ad 3b 94 e6 b7 3d
       1.9295796 0.4252364 0.005281446 0.08979526

exp_avg f4 [128]
000000 77 53 05 3d 91 7e 3d bf 32 4e 9c 16 69 d2 25 be
       0.0325503 -0.7402125 2.5252507e-25 -0.16193546
000010 41 2f 86 3d e4 9d 36 8d 75 91 f6 bb 3f 67 e1 97
       0.06551982 -5.6273134e-31 -0.007524664 -1.4566347e-24
000020 de 1b ae 3b 0f 2b 50 bf c6 6b c2 3d c9 fd 96 ba
       0.0053133806 -0.813157 0.094932124 -0.0011519726
000030 97 6c c3 3d 8d be 03 3f 95 6c 49 3e 22 96 12 be
       0.09542196 0.5146263 0.19670327 -0.14315084
000040 42 a2 24 3f 7e 0b 5a be 05 e6 b7 3e 5d 01 19 bb
       0.64310086 -0.21293446 0.35917678 -0.002334676
000050 8a 25 c8 3d ae 20 89 bd 48 e9 32 3e 53 ed 2f 3d
       0.09772785 -0.06695686 0.17471802 0.04295094
000060 40 37 e9 bc cd 32 17 20 ad 4a 1a 3c 73 39 6f 3b
       -0.028468728 1.2807006e-19 0.009417218 0.0036502748
000070 36 0d 50 bc 8d 33 15 3c 95 3a f3 bc 3c 80 5d 3e
       -0.012698462 0.009106529 -0.02969102 0.21630949
000080 ac f7 8b 3f f6 09 19 3e 43 64 9b be 6f 36 8b bd
       1.0934958 0.14945206 -0.3034993 -0.06797492
000090 37 fc 97 3c bb ac 64 be 9b 4b 1f bf dd e6 0f 3f
       0.018552883 -0.22331516 -0.6222474 0.56211644
0000a0 69 b6 63 3e 44 ee 9d 3d ca 5b 4b be 2e 75 ca bc
       0.22237553 0.07711461 -0.19859233 -0.024714079
0000b0 19 92 bc 3c da 71 b3 bd 79 90 16 17 e1 5c 85 bd
       0.023018884 -0.0876195 4.8649964e-25 -0.06511856
0000c0 0c 9b e1 bd 0b 4d 05 80 38 b7 22 3b 80 1e a5 bd
       -0.11015901 -4.86815e-40 0.0024828445 -0.08062458
0000d0 f8 a1 c8 3f 81 74 15 3f 76 0d de be 13 92 b0 3d
       1.5674429 0.58380896 -0.43369645 0.086216114
0000e0 37 2f 5b be c5 51 c9 bf d4 b6 18 bb 17 ae e7 ba
       -0.2140473 -1.5728079 -0.0023302333 -0.0017675784
0000f0 ac 1b 0d 3d c6 c6 28 3f ea a9 a8 bd 52 b7 5e bd
       0.034450218 0.65928304 -0.082355335 -0.054374047
000100 84 f1 fe bc c5 01 0c 3f a9 82 4c 3f 9d 58 c6 3e
       -0.031121023 0.546902 0.7988687 0.38739482
000110 57 c1 06 3e 68 bd c3 bc ce 82 61 3f 11 56 78 bd
       0.13159691 -0.023894027 0.8809022 -0.060628954
000120 7e f6 1d bd f5 2b c9 3d ca 79 2a 3a 01 30 91 3d
       -0.03856515 0.09822837 0.00065031333 0.07089234
000130 77 72 a9 3c b0 c8 cc 3b 53 82 da 3e b5 57 a6 ba
       0.020684464 0.0062495098 0.42677554 -0.0012690934
000140 36 93 5d be 6b 29 b4 bf 0a 00 00 00 30 74 cf 3d
       -0.21638188 -1.407514 1.4e-44 0.10129583
000150 7d a5 4c bf 8c b0 69 bc 24 04 09 bf 80 79 35 bf
       -0.79940015 -0.014263283 -0.53521943 -0.7088852
000160 b3 96 81 3f 5d 27 17 3e b8 18 9f bf a3 16 fd 3e
       1.0124115 0.1476111 -1.2429419 0.49431333
000170 04 00 00 00 09 26 7f bd ec 35 ab 3d 6c 4f 83 3f
       6e-45 -0.062292133 0.08359894 1.0258613
000180 64 cf 5a bf 65 1a a7 3e 48 1f 97 bd 7e e0 71 3c
       -0.854727 0.32637325 -0.07379013 0.014762996
000190 be 54 ab be f1 0d ac be e7 d8 ba b7 d2 2d 1a 3f
       -0.3346309 -0.33604386 -2.227393e-05 0.60226166
0001a0 46 ef bc bf f2 c8 4f 3e a9 34 5c be ef e2 8c 3f
       -1.476052 0.20291498 -0.21504463 1.1006755
0001b0 df f0 5a 3d f9 56 ab 3e e5 c7 22 3c b3 0d 4a 3f
       0.05345237 0.33464792 0.009935354 0.78927153
0001c0 93 86 3a 3d f7 8f f5 3b 15 09 03 3e c3 e3 9f bf
       0.045538496 0.0074939686 0.12796433 -1.2491382
0001d0 44 50 13 25 8b 9b 70 bf 7f f6 52 be 5f 6f a8 3e
       1.2777413e-16 -0.9398734 -0.20601843 0.3289747
0001e0 c6 1f fd 3f 39 4e 92 bb 87 3f 34 bd d9 c2 10 be
       1.9775321 -0.0044648913 -0.044005897 -0.14136828
0001f0 4f ae d4 3e c0 d9 23 3e 7e b2 79 3e 70 a0 63 16
       0.41539237 0.16001034 0.24384496 1.8387539e-25

exp_avg_sq f4 [128]
000000 aa 49 94 3d a4 83 25 41 29 54 d7 3d 07 e9 67 40
       0.07240613 10.344639 0.10514099 3.6235979
000010 2d 61 80 3e df 91 2f 3a 1b a1 58 3d 18 73 19 33
       0.2507414 0.00066974567 0.052888017 3.5727766e-08
000020 e0 57 63 3e 98 5a a6 40 bc b2 26 3e ff 41 4a 3b
       0.2220149 5.198559 0.16279119 0.003086209
000030 fb 15 45 3d 81 58 6f 40 89 05 29 41 97 e9 b4 3f
       0.048116665 3.7397768 10.563851 1.4133786
000040 10 c7 fa 40 c1 e3 c6 3f 75 15 0f 40 68 0e 2e 3c
       7.8367996 1.5538255 2.2356846 0.010623552
000050 d7 86 71 3e 2c 4c 4a 3e 94 95 39 3f 38 14 bc 3e
       0.23586594 0.1975562 0.72493863 0.36734176
000060 31 ef a3 3f fa b3 20 3c 14 e2 5c 3b 78 bf fe 3c
       1.280737 0.009808535 0.003370409 0.031097159
000070 fd a3 6d 3e 31 5a 17 3e 73 7c 26 3e fb 3d 8e 40
       0.23207088 0.14780499 0.16258411 4.445066
000080 01 d0 43 41 54 71 44 3f 3e 31 94 40 cb 15 ef 3e
       12.238282 0.76735425 4.631011 0.46696314
000090 d8 45 01 3e 54 75 66 3f 9e c2 47 41 a9 31 37 40
       0.126243 0.9002278 12.485014 2.862406
0000a0 93 86 3b 3f f7 50 e8 3d f7 9e 18 3f 6d 56 52 3f
       0.7325222 0.11343568 0.5961756 0.82163125
0000b0 e7 ce 78 3d 2c 13 f8 3f 59 c0 5f 3c a1 39 40 3f
       0.060744192 1.9380851 0.013656699 0.75087935
0000c0 9b 40 0f 3e b6 0d 54 36 26 db 51 3d c9 63 e8 3e
       0.13989489 3.1598443e-06 0.051234387 0.4538863
0000d0 36 14 aa 41 42 a5 e5 3f d6 25 90 40 5b 14 7e 3e
       21.259869 1.7941058 4.5046186 0.24812452
0000e0 e8 fe 74 40 c1 f4 c1 41 ae 74 be 3e e6 48 c9 3b
       3.8280582 24.244509 0.37198395 0.0061427234
0000f0 e1 f1 9b 3f 5f 7d 73 40 71 4c 8d 3e 3b 8e 83 3f
       1.218319 3.804527 0.27597383 1.027778
000100 8a 63 06 3d 4b 25 8e 3e 40 c9 08 41 b4 a3 39 40
       0.03280977 0.27762827 8.549133 2.9006166
000110 97 0b 18 3e 68 29 86 3c 43 e8 a7 40 2f 35 20 3f
       0.14848171 0.016377166 5.2471023 0.6258115
000120 3b 4a f4 3d 67 e2 23 3f fd 07 1b 3c 11 79 8f 3f
       0.11928221 0.6401734 0.009462354 1.1208822
000130 0c 05 a8 3e 7c 81 0e 3e ba 70 54 40 6d be 5c 3d
       0.3281635 0.13916582 3.3193803 0.05389254
000140 21 41 f3 3f ef ea 03 42 56 72 1b 30 b1 0f f1 3f
       1.9004251 32.979427 5.655115e-10 1.8832914
000150 ac f3 8e 41 f6 d2 52 3d 12 bd 1b 41 2d c3 2b 41
       17.86898 0.05147072 9.73366 10.73515
000160 fe cc 8b 41 2a f2 c2 3f ae 71 fa 41 25 c3 fc 3f
       17.475094 1.5230153 31.305508 1.9747053
000170 5a 4e 90 34 24 9d 32 40 52 56 8b 3d 51 69 44 41
       2.6879098e-07 2.790841 0.06803574 12.275712
000180 d1 27 8f 41 48 b3 d8 3f 75 3b 71 3c 7a c7 35 3f
       17.894442 1.6929712 0.014723648 0.710075
000190 e8 25 d3 3f 7a 52 a1 40 5c 21 44 38 ef 0e 8f 40
       1.6495943 5.041318 4.676111e-05 4.470573
0001a0 b1 5a 74 41 a1 05 23 3f a6 75 4c 3f 6b ee 86 41
       15.272141 0.63680464 0.7986702 16.866415
0001b0 42 1e c4 3e f4 f1 02 3f ea 15 c6 3e 92 6c 2e 41
       0.38304335 0.5115044 0.38688594 10.901506
0001c0 be 3b 40 3d 68 5e d3 3f 62 0b a0 3e 6a 9c e4 41
       0.046931975 1.6513186 0.31258684 28.576374
0001d0 68 40 72 39 be da 54 41 f9 ff 03 40 d5 0c e6 40
       0.00023102912 13.303404 2.0624983 7.1890664
0001e0 80 c6 69 42 c9 5b ff 3b 22 5c 68 3e 2f ba 42 41
       58.443848 0.007792924 0.22691396 12.170455
0001f0 05 f5 e8 3f 5e ff a2 3e e9 61 46 3f 63 02 4f 3c
       1.8199774 0.31835455 0.7749315 0.012634846
