week 6/checkpoints/reinforce_cartpole_seed0.pth (torch, 226393 bytes, 18 tensors)

network.0.weight f4 [128, 4]
0	0xbebb33b3	-0.3656288
1	0x3e8ee856	0.27911633
2	0xbe5652f6	-0.20930085
3	0xbd4fcaa4	-0.050730363
4	0x3e58278b	0.21108834
5	0x3ede1a25	0.43379322
6	0xbdca02bc	-0.09863803
7	0x3ee9c6a2	0.45659357
8	0xbe6e62fb	-0.23279946
9	0x3eabd7a6	0.33562964
10	0x3e87d869	0.26532295
11	0x3e600848	0.21878159
12	0x3ec5d3fe	0.386383
13	0xbd886c80	-0.0666132
14	0xbe4655fc	-0.19368738
15	0x3df2d22f	0.118564956
16	0x3c9d312f	0.019188492
17	0xbddbdcce	-0.107354745
18	0x3eccc718	0.39995646
19	0x3e12592e	0.14291832
20	0x3c91e7bf	0.0178107
21	0xbe0d33b4	-0.13789254
22	0xbcc96ce2	-0.024588052
23	0xbe86ea67	-0.2635071
24	0xbf017a5a	-0.5057732
25	0x3e93ff83	0.28905877
26	0xbf0628d6	-0.5240606
27	0xbee513a8	-0.4474156
28	0xbec4d604	-0.3844453
29	0xbe109968	-0.1412102
30	0xbeb690cb	-0.35657343
31	0xbf002e68	-0.5007081
32	0x3df06f99	0.117400356
33	0xbe4225dd	-0.18959756
34	0x3f0b279d	0.5435732
35	0x3f047c92	0.5175258
36	0x3efbadb4	0.49155962
37	0x3ee8aeaf	0.45445773
38	0x3ecb7f1c	0.39745414
39	0x3eda8f71	0.42687562
40	0xbe25dc71	-0.16197373
41	0xbec952ea	-0.3932107
42	0xbd56ff7f	-0.052489754
43	0x3ea0c834	0.31402743
44	0xbe8c8216	-0.27442998
45	0x3d4920d2	0.049103566
46	0x3f199ad4	0.60001874
47	0x3debf9e4	0.11522272
48	0x3eebcb54	0.46053565
49	0xbe2320f0	-0.15930533
50	0x3e36d884	0.17856032
51	0x3e8db23e	0.2767505
52	0x3b1d20c8	0.0023975838
53	0x3def56fc	0.11686513
54	0xbf2bf583	-0.67171496
55	0x3d676684	0.05649425
56	0x3e536162	0.20642617
57	0xbec65661	-0.38737777
58	0xbdc24838	-0.09486431
59	0xbd0fa5df	-0.035070296
60	0x3edd48c2	0.43219572
61	0x3e67c3ad	0.22633238
62	0x3b407fdb	0.0029373083
63	0xbe88f58f	-0.26749846
64	0x3b9b9e3b	0.004749087
65	0x3ef50a08	0.47859216
66	0x3f2dc6a1	0.6788121
67	0x3f0afc86	0.5429157
68	0x3eb531e6	0.35389632
69	0xbed7a50b	-0.42118105
70	0xbe364cd6	-0.17802748
71	0xbefd30b3	-0.49451217
72	0xbea750cd	-0.32678834
73	0x3d4c684f	0.049904164
74	0xbed2dded	-0.4118494
75	0xbe277705	-0.16353996
76	0x3e98dede	0.29857534
77	0x3e9e58d2	0.3092714
78	0x3ecb71ad	0.39735165
79	0x3cc9fa8d	0.024655605
80	0xbe10234c	-0.14075965
81	0x3e3b0a48	0.1826564
82	0xbe8a1a0e	-0.26973003
83	0x3e18c28b	0.14917962
84	0xbe092d1e	-0.13396117
85	0xbe321acc	-0.17393035
86	0xbe7d4b85	-0.2473584
87	0x3ed5e960	0.41779613
88	0xbdb8c22c	-0.0902141
89	0x3e30f348	0.17280304
90	0x3efc0eb3	0.49229965
91	0x3ed01505	0.40641037
92	0xbe0e3155	-0.13886006
93	0x3e9594f7	0.29215214
94	0xbee7e469	-0.4529145
95	0xbe8b98e1	-0.27265075
96	0xbddec54a	-0.10877474
97	0x3e95b7d5	0.29241815
98	0xbf0d3405	-0.551575
99	0xbdaa9bd2	-0.083305016
100	0xbe1f360d	-0.15547962
101	0x3de98fd0	0.11404383
102	0xbdc2bb5e	-0.09508394
103	0xbd78e5b7	-0.06076595
104	0x3e9398d3	0.28827533
105	0xbebb982a	-0.3663953
106	0x3f383bba	0.71966136
107	0x3dd9f5b3	0.106425665
108	0xbe4a697a	-0.19766799
109	0xbe391111	-0.18072917
110	0x3e430980	0.19046593
111	0x3e53b596	0.20674738
112	0xbe642ffe	-0.22283933
113	0x3ec72d25	0.3890163
114	0x3ee0e93d	0.43927947
115	0x3ede8536	0.43461007
116	0xbe8287fe	-0.2549438
117	0x3ee0d7b6	0.43914574
118	0x3ec19761	0.37810805
119	0x3f054c6d	0.5206974
120	0x3ed72286	0.42018527
121	0x3ecca2b2	0.39967877
122	0x3e3a6a08	0.1820451
123	0xbec689e4	-0.38777077
124	0x3ede6b02	0.43441015
125	0x3ee0d5d2	0.43913132
126	0x3e837aa0	0.25679493
127	0x3eeb1cb7	0.45920345
128	0xbeccb3c1	-0.3998089
129	0xbe81288b	-0.25226244
130	0xbd7739c7	-0.060357835
131	0xbef6bb35	-0.48189703
132	0x3d92d67b	0.07169815
133	0x3e963903	0.2934037
134	0x3eded52c	0.43522012
135	0x3e176aaa	0.14786783
136	0x3ee16fad	0.44030514
137	0xbdd7148b	-0.10501965
138	0xbda1bac0	-0.07896948
139	0xbeb6c3d9	-0.35696295
140	0xbca1ae47	-0.019736422
141	0xbe61b68e	-0.22042295
142	0xbeec1a5a	-0.46113855
143	0x3e9c2ce9	0.30503014
144	0x3ed51acc	0.41622007
145	0xbd880e08	-0.06643301
146	0x3e8aeffd	0.27136222
147	0x3e4258e9	0.18979229
148	0xbe021bff	-0.12705992
149	0xbe366f31	-0.17815854
150	0x3e6b7d86	0.22997102
151	0x3f098b83	0.53728503
152	0x3ee1fb08	0.44136834
153	0x3ecc58e2	0.39911562
154	0xbd70a433	-0.058750343
155	0xbf039b64	-0.5140898
156	0x3e98ae1a	0.2982033
157	0x3e016010	0.12634301
158	0x3f30b948	0.69032717
159	0x3d7d2adc	0.061808452
160	0xbecfe5dd	-0.4060506
161	0x3ecb4ba8	0.3970616
162	0xbbd7f9c8	-0.0065910555
163	0xbef21324	-0.47280228
164	0x3e43c31e	0.191174
165	0xbe9ce206	-0.30641192
166	0xbef31608	-0.47477746
167	0xbb956562	-0.004559205
168	0xbede4590	-0.43412447
169	0xbea7bac0	-0.32759666
170	0x3ef86073	0.48511085
171	0x3eba674e	0.3640694
172	0x3d3dbf1d	0.046324838
173	0x3dab25fc	0.08356854
174	0x3eaf045b	0.3418301
175	0x3ed10ac2	0.4082852
176	0x3eb9ee82	0.3631478
177	0x3e06eccc	0.13176268
178	0xbed60270	-0.41798735
179	0xbe831108	-0.2559893
180	0xbeabab47	-0.33529112
181	0x3e8958ad	0.26825467
182	0xbf15dfbf	-0.58544534
183	0xbf0162bf	-0.505413
184	0x3ee4c805	0.44683853
185	0x3ed1d218	0.409806
186	0xbdaf85c2	-0.08570434
187	0x3eaf2d40	0.3421421
188	0xbe977ba1	-0.2958651
189	0xbed12696	-0.4084975
190	0x3f45bedf	0.7724437
191	0x3e9a4dd4	0.30137503
192	0x3e35c11a	0.17749444
193	0x3ef07a56	0.46968335
194	0x3df06481	0.117379196
195	0x3ea0e812	0.31427056
196	0xbeb23dc8	-0.3481276
197	0x3e090277	0.13379847
198	0x3ec44914	0.38337004
199	0x3f030687	0.51181835
200	0xbece0bbb	-0.40243325
201	0x3e623eb0	0.22094226
202	0x3e184378	0.14869487
203	0x3f0d8353	0.5527851
204	0xbea6c6cf	-0.32573554
205	0x3e81c965	0.25348964
206	0x3e923529	0.28556183
207	0xbe88b2d1	-0.26698926
208	0x3ea4e30c	0.32204473
209	0x3e9cb7c1	0.30608943
210	0x3df8d7b2	0.121505156
211	0x3e534e8d	0.20635433
212	0xbe8c53d3	-0.27407703
213	0x3d1f263d	0.038854826
214	0x3efda14f	0.4953713
215	0xbe5aaec6	-0.21355733
216	0x3de6478c	0.11244115
217	0xbe5fd85a	-0.21859875
218	0x3f4b8cb5	0.79511577
219	0x3f117ea2	0.5683385
220	0xbe277c78	-0.16356075
221	0xbe4013e0	-0.18757582
222	0x3f578461	0.8418637
223	0x3ecea104	0.4035722
224	0xbda8c1ba	-0.082400754
225	0xbedc0cfb	-0.42978653
226	0xbf2ef3a3	-0.6834051
227	0xbead6924	-0.33869278
228	0x3cd2284e	0.025653984
229	0x3eb1f9eb	0.34760985
230	0x3e5740b4	0.21020776
231	0x3d1d32b2	0.038378425
232	0xbeb84406	-0.35989398
233	0xbde5039a	-0.111823276
234	0xbecd4c07	-0.40097067
235	0x3e7f9d1b	0.24962275
236	0x3e3b3d34	0.18285066
237	0x3eb19242	0.34681898
238	0xbf19046c	-0.5977237
239	0xbe2585cd	-0.16164322
240	0xbeb191f7	-0.34681675
241	0x3e2e549f	0.17024468
242	0x3e2e2d7a	0.17009535
243	0xbe366254	-0.17810947
244	0x3ec3b185	0.38221374
245	0x3c292149	0.010322877
246	0xbf584d7b	-0.84493226
247	0xbd76efa9	-0.06028715
248	0x3eec226e	0.46120018
249	0x3eae4461	0.34036544
250	0x3efca213	0.49342403
251	0x3eb69378	0.35659385
252	0xbd852ec3	-0.0650306
253	0x3f0690a1	0.52564436
254	0x3e06d9d0	0.13169026
255	0x3ed03406	0.4066469

network.0.bias f4 [128]
0	0xbe2965e9	-0.16542782
1	0x3e5c24dc	0.21498436
2	0x3eac5b95	0.33663622
3	0xbdf57f7f	-0.119872086
4	0xbec2d1d0	-0.380507
5	0x3e7edc65	0.24888761
6	0x3e9f0788	0.31060433
7	0x3e89e5c7	0.2693312
8	0x3e1c9e2d	0.15294714
9	0x3ec09918	0.376168
10	0x3e3bfc0d	0.18357868
11	0x3debd9dc	0.11516163
12	0xbeebbf57	-0.46044418
13	0x3e51546c	0.2044236
14	0x3e02171a	0.12704125
15	0x3dd1bfa5	0.102416314
16	0x3e55bb94	0.20872337
17	0x3e9d54ef	0.30728862
18	0xbeab8efb	-0.33507523
19	0xbedf7b3a	-0.43648702
20	0xbe1e3409	-0.15449537
21	0xbe8f0ffe	-0.2794189
22	0x3e2b61b1	0.16736485
23	0x3ea23cd5	0.31687036
24	0xbe5ee3d7	-0.21766602
25	0xbe92cb96	-0.2867095
26	0xbdce0e3e	-0.1006131
27	0x3e810fa0	0.25207233
28	0x3e75355f	0.2394614
29	0x3e2343bb	0.15943806
30	0x3e8631f6	0.26209992
31	0x3eb708c8	0.35748887
32	0xbdfe5c67	-0.12419968
33	0x3d4d0691	0.05005509
34	0xbd42d301	-0.04756451
35	0xbedb8967	-0.42878267
36	0xbe6b4a67	-0.22977601
37	0x3e360dec	0.17778748
38	0xbee81d05	-0.4533464
39	0x3ef3cd96	0.47617787
40	0x3ea86d5a	0.3289593
41	0xbe416221	-0.1888509
42	0x3ecf1ef4	0.40453303
43	0xbed3f332	-0.4139648
44	0xbea6bbd7	-0.32565185
45	0xbe349040	-0.17633152
46	0xbd9c50a8	-0.076325715
47	0x3e03f1ab	0.12885158
48	0x3e9200d7	0.28516266
49	0xbd20e28f	-0.039278563
50	0x3dd8352c	0.10557017
51	0xbeaa00af	-0.33203647
52	0xbefc8ee5	-0.4932777
53	0x3e4fa8dd	0.2027926
54	0x3ec63281	0.38710406
55	0x3d970a52	0.07375015
56	0x3efaf7b0	0.49017096
57	0xbd7f4ab9	-0.06232712
58	0x3cf52bb1	0.02992806
59	0x3d1a4e58	0.03767237
60	0xbf0ffacd	-0.56242067
61	0x3de652e1	0.11246277
62	0xbc3cd292	-0.011524813
63	0x3c959b96	0.018262666
64	0xbd942d88	-0.07235247
65	0x3e325ab8	0.17417419
66	0xbe8e93cf	-0.27847144
67	0x3d055777	0.032554116
68	0xbe856252	-0.26051575
69	0xbf088801	-0.53332525
70	0x3d002efc	0.031294808
71	0xbecbdedf	-0.39818475
72	0xbe98d5a7	-0.29850504
73	0x3e8d7711	0.27629903
74	0x3e17e529	0.14833511
75	0x3dfd29df	0.12361502
76	0xbe97e924	-0.2967006
77	0x3e1fadc9	0.15593638
78	0x3ee37957	0.44428512
79	0xbe6b5ceb	-0.22984664
80	0xbe882464	-0.26590264
81	0xbdde9e31	-0.10870016
82	0x3deb252c	0.11481699
83	0x3d9074bf	0.070535176
84	0x3ed8e5b6	0.42362756
85	0xbe5f3717	-0.21798359
86	0xbeaed572	-0.3414722
87	0x3e96e915	0.29474702
88	0xbed81fc3	-0.42211732
89	0x3e8da96e	0.27668327
90	0x3e3391c6	0.17536077
91	0xbe95677c	-0.29180515
92	0x3ef0fcce	0.47067875
93	0xbee6bcdf	-0.45065972
94	0xbdb0565e	-0.08610223
95	0xbe8c7581	-0.27433398
96	0xbe3c3750	-0.18380475
97	0xbe64405b	-0.22290175
98	0x3e86485a	0.26227075
99	0xbea1ef64	-0.31627953
100	0x3ef0f142	0.47059065
101	0x3edfa754	0.4368235
102	0xbe8900e9	-0.26758507
103	0xbe796498	-0.2435478
104	0x3e359217	0.1773151
105	0x3dca7430	0.09885442
106	0x3c4206c4	0.011842433
107	0x3e8ea17a	0.27857572
108	0x3ed1791e	0.40912718
109	0x3e7ecb77	0.24882303
110	0x3d57aa7b	0.052652817
111	0xbe5013d2	-0.20320061
112	0xbeec4db2	-0.46153027
113	0xbef4cfa9	-0.47814682
114	0xbee6e202	-0.45094305
115	0xbf091cfc	-0.5355985
116	0xbe925a4f	-0.28584525
117	0xbed4eb2d	-0.41585675
118	0x3e15aac4	0.14615923
119	0x3e866864	0.2625152
120	0x3ebedd32	0.37278134
121	0x3e3ef75b	0.18649046
122	0x3e3405c7	0.17580329
123	0x3ea190c4	0.3155576
124	0x3ef2489b	0.4732102
125	0xbe2531a4	-0.16132218
126	0x3e97143e	0.2950763
127	0x3e8d8edf	0.27648064

network.2.weight f4 [128, 128]
0	0x3d96d1e1	0.0736425
1	0xbd65f318	-0.056140035
2	0xbd7ecf70	-0.062209547
3	0xbd45b29e	-0.048266046
4	0xbd041848	-0.03224972
5	0xbd10dec1	-0.035368685
6	0x3d594be7	0.0530509
7	0x3e16caae	0.14725754
8	0xbd26fa10	-0.040765822
9	0xbd87e98a	-0.06636341
10	0x3d70c036	0.058777057
11	0xbd93a79d	-0.07209704
12	0x3bcc9c4a	0.006244217
13	0x3da5c3a3	0.08093955
14	0xbcddc1ea	-0.027070004
15	0x3d9ddf02	0.07708551
16	0xbe0adfdc	-0.13561958
17	0x3b6635bc	0.0035127243
18	0x3dc99c54	0.0984427
19	0xbe0822e1	-0.13294555
20	0xbc1b2c50	-0.009471014
21	0xbce0e556	-0.027453106
22	0xbd1e4b3f	-0.03864598
23	0x3ca26b9e	0.019826706
24	0x3d2c298f	0.04203182
25	0x3cf438df	0.029812275
26	0xbd6b8715	-0.05750187
27	0xbdb02727	-0.08601218
28	0xbd959961	-0.07304645
29	0xbdb5bfa6	-0.08874445
30	0xbd92db26	-0.071707055
31	0xbdadb172	-0.08481111
32	0x3dd51484	0.10404304
33	0xbd749149	-0.059708867
34	0xbd47e6ef	-0.04880422
35	0x3c03303a	0.008007104
36	0xbce3e4d4	-0.027819075
37	0xbd99bbd6	-0.0750653
38	0xbcd34dd4	-0.025793947
39	0xbddbc657	-0.1073119
40	0x3c53967f	0.012914299
41	0x3d142ec0	0.036177397
42	0xbd96e161	-0.07367206
43	0x3cc42f4b	0.023948332
44	0xbd0869bc	-0.03330396
45	0xbad9e14e	-0.0016622932
46	0xbd0fe6d1	-0.035132233
47	0xbdc7e6cd	-0.09760819
48	0x3d70a83d	0.058754195
49	0x3d418137	0.04724237
50	0xbc311512	-0.010808246
51	0x3dc83198	0.09775084
52	0xbe01d4a8	-0.12678778
53	0x3d79dbcc	0.06100063
54	0xbd72cb3a	-0.059275843
55	0x3b4ccafc	0.0031248918
56	0x3d83a0f3	0.06427183
57	0xbbe761a8	-0.007061202
58	0x3da96ae8	0.08272344
59	0xbb45b829	-0.0030169582
60	0xbcbf8e4f	-0.023383288
61	0x3e0247a3	0.1272264
62	0xbe058aa2	-0.13041165
63	0xbd8801ea	-0.0664099
64	0xbdfc9546	-0.12333159
65	0x3cfd96a3	0.030955618
66	0xbd0c050d	-0.034184504
67	0xbe152c5f	-0.14567707
68	0xbc8a1529	-0.016855793
69	0xbd0fef3b	-0.035140257
70	0x3dad95fd	0.084758736
71	0xbb87ac41	-0.0041404073
72	0x3dcefea9	0.10107166
73	0x3b094fc1	0.0020952078
74	0xbd63a9b6	-0.05558177
75	0x3e1b38a7	0.1515833
76	0xbc58bda2	-0.013228806
77	0xbe2b3d95	-0.1672271
78	0x3dd32b52	0.10310997
79	0x3da9a00b	0.08282479
80	0xbd0e7add	-0.03478514
81	0x3d404ea6	0.046950005
82	0x3d362ee6	0.04447832
83	0x3dd053d9	0.10172243
84	0x3dc58c5c	0.09645912
85	0xbc8f3cd7	-0.017485065
86	0x3d818a53	0.063252114
87	0x3d2de932	0.04245872
88	0x39bd3609	0.00036089148
89	0x3d51a846	0.05118587
90	0x3ca1ff70	0.019775122
91	0xbcc85e77	-0.024459107
92	0x3cf9eaa9	0.030507402
93	0xbd271a60	-0.040796638
94	0xbc15c8ba	-0.009142095
95	0xbdd9699d	-0.10615847
96	0x3c9beda4	0.019034214
97	0xbcebf7b1	-0.028804632
98	0x3d5db89b	0.05413113
99	0x3dc471b5	0.095920004
100	0xbd969cd6	-0.07354133
101	0x3d0ce613	0.034399103
102	0x3d5741c0	0.05255294
103	0xbd3bc757	-0.045844402
104	0x3cc6cc95	0.024267474
105	0xbde9fc8b	-0.11425122
106	0x3db820b7	0.08990615
107	0x3d9afec5	0.07568125
108	0x3b11891c	0.0022206968
109	0x3d0e772b	0.034781616
110	0x3d582c52	0.052776642
111	0xbd2e2b21	-0.0425216
112	0xbb9b497b	-0.004738984
113	0x3ccc2f3b	0.024924865
114	0x3d117307	0.03551009
115	0xbdc1007d	-0.09423921
116	0x3c9aa546	0.018877637
117	0xbd4d803f	-0.050171133
118	0x3e5b7fee	0.2143552
119	0x3d411511	0.04713923
120	0xbdff4f3b	-0.12466284
121	0x3d54f968	0.051995665
122	0xbcce53ca	-0.025186438
123	0x3da012bb	0.078160726
124	0xbde82160	-0.11334491
125	0xbd5af9ce	-0.05346089
126	0xbd840926	-0.064470574
127	0x3d5162b8	0.051119536
128	0x3d8ca809	0.06867988
129	0x3cec563b	0.028849712
130	0x3db79b02	0.08965112
131	0x3dc95c2f	0.09832036
132	0xbdca01ad	-0.09863601
133	0x3cedfeac	0.029052101
134	0xbd99522f	-0.074863784
135	0xbd7ac37e	-0.061221592
136	0x3e1edbc3	0.1551352
137	0x3dcec66a	0.10096438
138	0x3d38778e	0.04503589
139	0xb9981e2c	-0.0002901418
140	0x3d027fc6	0.031860135
141	0x3d983216	0.07431428
142	0xbd8358f3	-0.0641345
143	0x3d7550ed	0.05989163
144	0x3e6f8f8b	0.23394601
145	0xbd815195	-0.06314389
146	0x3c3b2f87	0.011424906
147	0x3de569fc	0.112018555
148	0xbde2ad0e	-0.11068164
149	0xbd48a412	-0.048984595
150	0x3e49a339	0.19691171
151	0xbd66cb26	-0.05634608
152	0xbd903af2	-0.07042493
153	0xbda7c606	-0.08192067
154	0x3df42386	0.11920838
155	0x3ddd66b5	0.108106054
156	0x3e1ea5a3	0.15492873
157	0x3d4f6b2e	0.050639324
158	0xbd59d80b	-0.05318455
159	0x3cadc2a0	0.021210968
160	0xbb96349d	-0.0045839087
161	0x3d5f3117	0.054490175
162	0x3c479da5	0.0121835815
163	0xbc2a65ca	-0.010400245
164	0x3d16b169	0.036790285
165	0x3d39352e	0.04521673
166	0x3d3b0253	0.045656513
167	0x3ba66699	0.0050781486
168	0x3d16d1fa	0.036821343
169	0xbc018645	-0.0079055475
170	0x3dad72c3	0.08469155
171	0xbd52caf2	-0.051463075
172	0x3ca4c1bb	0.02011191
173	0xbb9e2367	-0.0048259976
174	0xbb383a02	-0.0028110747
175	0x3de9ff83	0.11425688
176	0x3cdf9d46	0.027296674
177	0x3dc9d47a	0.0985498
178	0x3e0d88f3	0.13821773
179	0xbda56f16	-0.080778286
180	0xbb873da6	-0.004127222
181	0x3d898500	0.06714821
182	0x3e32246e	0.1739671
183	0x3cc81cee	0.024427857
184	0xbd9a1b39	-0.075247236
185	0x3d9aac3c	0.07552382
186	0xbd6341f9	-0.05548284
187	0x3d192077	0.037384477
188	0x3ca90bf6	0.020635586
189	0xbad4e563	-0.0016242679
190	0x3e05e1d4	0.13074428
191	0x3dc432a7	0.09579974
192	0x3d87d86d	0.06633077
193	0x3d235deb	0.03988449
194	0x3d71bfe8	0.059020907
195	0x3e0ce320	0.13758516
196	0xbd83432f	-0.06409299
197	0xbcbf4881	-0.023350002
198	0xbd3824ac	-0.044956848
199	0x3dce1ff5	0.10064689
200	0xbd769c89	-0.060207877
201	0xbdc4523a	-0.09585996
202	0x3d9181cf	0.07104837
203	0xbdbe9ad1	-0.09306873
204	0xbdfea79f	-0.12434315
205	0x3e13d066	0.14434966
206	0x3d6b01da	0.057374813
207	0xbca02c75	-0.019552449
208	0x3d94faf8	0.07274431
209	0xbd2ecc5b	-0.042675357
210	0xbd1dbd0a	-0.03851036
211	0xbe28baff	-0.16477583
212	0x3cf65f6d	0.0300748
213	0xbd22d1c2	-0.039750822
214	0xbcd60fcc	-0.02613058
215	0x3d4e770c	0.0504065
216	0xbb5e0b6e	-0.0033881324
217	0x3d633f9f	0.055480596
218	0x3c335481	0.01094544
219	0x3be9c780	0.007134378
220	0xbd80afe0	-0.062835455
221	0xbd8dfe27	-0.06933241
222	0x3b950bc3	0.0045485212
223	0x3d9afa5b	0.07567283
224	0x3ce83b9f	0.028348742
225	0x3c434c4c	0.011920046
226	0xbd8b00aa	-0.06787236
227	0xbd8218c0	-0.06352377
228	0x3d9e89e2	0.07741143
229	0xbd048804	-0.032356277
230	0xbd931854	-0.071823746
231	0x3ce277c6	0.027645003
232	0x3d9854bf	0.07438039
233	0x3e002008	0.12512219
234	0xbe00aa18	-0.12564886
235	0x3d42c44a	0.047550477
236	0x3dacceab	0.08437856
237	0xbd5ccb17	-0.05390462
238	0x3d12047e	0.035648815
239	0xbc0fc840	-0.008775771
240	0x3d8bc566	0.0682476
241	0xbd9eccca	-0.07753904
242	0xbd874136	-0.06604235
243	0x3db4106d	0.087921955
244	0x3d2f5cef	0.042813238
245	0x3caec7f5	0.021335581
246	0xbe04b47d	-0.12959476
247	0xbd70fa97	-0.05883273
248	0x3dddc968	0.10829431
249	0xbd1fbefa	-0.03900049
250	0x3dbe9a3f	0.09306764
251	0xbdb6c9da	-0.08925219
252	0x3d4e6a54	0.05039437
253	0x3c14815a	0.009064043
254	0x3e417d01	0.18895341
255	0x3d0e613d	0.034760702

network.2.bias f4 [128]
0	0x3d2727eb	0.040809553
1	0x3d2d7d85	0.042356033
2	0xbd8e37b6	-0.0694422
3	0x3ca8c729	0.02060278
4	0xbcc9d051	-0.024635466
5	0x3caaeb34	0.020864107
6	0x3d7c8dbd	0.06165861
7	0xbd4f75c4	-0.05064942
8	0xbdd72df8	-0.10506815
9	0x3b2e335d	0.0026580908
10	0x3d1acf1e	0.03779518
11	0xbc2ce5b2	-0.0105528105
12	0xbcd262e3	-0.025681918
13	0xbd6b947a	-0.057514645
14	0x3d68c736	0.056830607
15	0x3d50ec6b	0.051006716
16	0xbd29705d	-0.041366924
17	0x3ccc4188	0.024933591
18	0x3db902b3	0.09033718
19	0x3d969449	0.07352502
20	0xbc2dd8df	-0.010610788
21	0x3dd273ae	0.102759704
22	0x3dd218d5	0.102586426
23	0x3d31db32	0.04342193
24	0xbd94cfb9	-0.072661825
25	0x3d136e38	0.035993785
26	0x3d8aa0f9	0.06768984
27	0xbdbab0ec	-0.091157764
28	0xbc5adc7c	-0.013358232
29	0xbdeb5aac	-0.11491904
30	0x3d80eda7	0.062953286
31	0xbd2f9d8d	-0.04287486
32	0xbd404d4d	-0.04694872
33	0x3d45f02a	0.04832474
34	0x3d1fafe5	0.038986105
35	0xbca5d70e	-0.020244148
36	0xbd8ce38f	-0.06879341
37	0xbcfc8bfd	-0.03082847
38	0x3c0ee1a5	0.00872079
39	0x3dc9b445	0.09848837
40	0xbd788023	-0.060669076
41	0xbd3f227d	-0.04666375
42	0x3d70fb4c	0.058833405
43	0x3d8df896	0.0693218
44	0xbdeac4d8	-0.11463326
45	0x3d00f683	0.031485092
46	0x3d9afaf6	0.07567398
47	0xbc23a9eb	-0.009989242
48	0x3d7d9303	0.06190778
49	0xbc91f7dc	-0.017818384
50	0x3d91deb6	0.07122557
51	0xbd84cc6a	-0.064843014
52	0xbdce721a	-0.10080357
53	0xbd4ab368	-0.0494875
54	0xbc87e95d	-0.016590768
55	0x3d81bb34	0.06334534
56	0x3d8f7c0e	0.070060834
57	0x3db4554d	0.08805332
58	0xbd8a284a	-0.06745966
59	0xbcda7b61	-0.02667016
60	0xbbcd83fe	-0.006271838
61	0x3bc183ee	0.00590562
62	0xbcd7b9cc	-0.026333712
63	0x3daf6829	0.08564789
64	0xbd90f73c	-0.07078406
65	0x3dd4a184	0.10382369
66	0x3d771a62	0.060327895
67	0x3b3b231c	0.0028554862
68	0xbd8b39b7	-0.067981176
69	0x3ca0034c	0.019532822
70	0xbd5014f6	-0.05080124
71	0x3ceaa787	0.028644336
72	0x3d40e8e9	0.04709712
73	0x3c64f97b	0.013975496
74	0x3cc27944	0.023739465
75	0x3d9c1eae	0.07623039
76	0x3d023bf4	0.031795457
77	0xbc1c929f	-0.009556442
78	0xbd21f48c	-0.03953986
79	0xbcd7601d	-0.026290948
80	0x3c86a237	0.016434772
81	0xbd32e0af	-0.043671306
82	0x3d5a9021	0.05336011
83	0x3d9211be	0.0713229
84	0x3d9664b4	0.07343426
85	0xbbb8eb0f	-0.0056432555
86	0xbc54abc1	-0.012980402
87	0x3d9d7ecd	0.07690201
88	0xbd08f0c1	-0.033432726
89	0x3c3b619b	0.011436845
90	0x3d254bd6	0.040355526
91	0xbdc3b966	-0.09556846
92	0x3de955f7	0.113933496
93	0xbd806d87	-0.06270891
94	0xbc941812	-0.018077884
95	0x3c32db22	0.010916503
96	0x3d13c42c	0.036075756
97	0x3da28418	0.07935351
98	0x3ccf63c3	0.025316125
99	0xbd9f784b	-0.07786616
100	0xbcecc8a6	-0.02890427
101	0x3d4e46aa	0.05036036
102	0x3d8ec43e	0.06971024
103	0x3da4d398	0.08048171
104	0xbc6a9bab	-0.014319341
105	0x3b098749	0.0020985177
106	0x3be4958e	0.006975836
107	0x3c831434	0.016000845
108	0xbcd9351b	-0.02651458
109	0x3cab0f12	0.02088121
110	0x3dbba8f8	0.091630876
111	0xbe071944	-0.13193232
112	0xbcbd4d8a	-0.023108263
113	0xbd863a45	-0.06554083
114	0x3da74fb9	0.08169503
115	0xbdae9722	-0.0852492
116	0xbcdb5858	-0.026775524
117	0x3d5ac9c0	0.05341506
118	0xbda5f05e	-0.08102487
119	0x3db2676d	0.08711133
120	0xbd0ae6f0	-0.033911645
121	0x3b924965	0.0044643157
122	0x3da24611	0.0792352
123	0xbba95d68	-0.0051686056
124	0x3d9ae9b1	0.07564104
125	0xbc868b49	-0.016423838
126	0x3c24394b	0.010023425
127	0x3c17bb9c	0.009261038

network.4.weight f4 [2, 128]
0	0x3dbb2103	0.09137156
1	0xbe139011	-0.14410426
2	0x3d8a4f99	0.06753463
3	0x3d7fc5ed	0.062444616
4	0xbd451532	-0.048115917
5	0x3db5a221	0.08868814
6	0x3e22165b	0.1582884
7	0xbd8c06d8	-0.06837243
8	0x3d4e3196	0.050340258
9	0x3d9898b4	0.07451001
10	0x3ddab4ad	0.106789924
11	0xbd111f5f	-0.03543031
12	0xbd80eee8	-0.06295568
13	0x3d88ef09	0.06686217
14	0x3d8908ac	0.06691107
15	0x3d64a28b	0.055819076
16	0xbe3b6d00	-0.18303299
17	0x3dc4b5de	0.09605001
18	0xbe1bb6fd	-0.15206523
19	0x3c38079b	0.011232282
20	0x3d4781b4	0.04870768
21	0xbd81c35d	-0.06336091
22	0xbdaba22a	-0.0838054
23	0xbdcbe12b	-0.09955057
24	0xbd966429	-0.07343323
25	0xbc8d32d6	-0.017236155
26	0xbd3c6c00	-0.046001434
27	0x3bc5e524	0.0060392786
28	0xbdd8d89d	-0.10588191
29	0x3d9aeb85	0.07564453
30	0x3d00fcd9	0.031491134
31	0x3e13d0b6	0.14435086
32	0xbd25b86e	-0.04045909
33	0x3d190ac7	0.037363794
34	0xbd81601a	-0.06317158
35	0xbd1818e3	-0.03713311
36	0x3bec0ff1	0.007204049
37	0x3c8dc29f	0.017304717
38	0xbde14ea5	-0.110013284
39	0xbe4c8e8b	-0.19976251
40	0xbd801a8c	-0.062550634
41	0x3d19d19b	0.03755341
42	0xbdba0270	-0.09082496
43	0x3e021983	0.12705044
44	0x3d3bbf59	0.04583678
45	0x3d99e320	0.07514024
46	0x3b06d725	0.0020575013
47	0x3d9da99b	0.07698365
48	0xbccba58a	-0.024859209
49	0x3d73debe	0.059538595
50	0x3df37f48	0.11889511
51	0xbcfcfc8d	-0.030882144
52	0x3d49f2da	0.049303867
53	0x3d31b929	0.043389473
54	0xbe31324f	-0.17304347
55	0xbde0dd39	-0.10979695
56	0x3cc4dac4	0.024030097
57	0xbddb7779	-0.10716147
58	0x3d250802	0.04029084
59	0x3e1becff	0.15227126
60	0x3d8f15ef	0.069866054
61	0xbd8f9679	-0.07011122
62	0xbd06195c	-0.03273903
63	0x3d648239	0.055788253
64	0xbd3f0796	-0.046638094
65	0xbe02c87f	-0.12771796
66	0xbde6df5d	-0.11273072
67	0x3d72f4cc	0.059315488
68	0xbcb782bd	-0.022401208
69	0xbc83ab0e	-0.016072776
70	0xbe154c9e	-0.14580008
71	0xbd3e5f52	-0.046477623
72	0xbd4cf9e9	-0.05004302
73	0xbdd6fa5e	-0.104969725
74	0x3e115a71	0.14194657
75	0xbe2b0417	-0.16700779
76	0xbde60d84	-0.11233047
77	0xbd932583	-0.07184889
78	0x3e33fc48	0.17576706
79	0x3dcf82ba	0.10132356
80	0xbd6a8324	-0.05725397
81	0xbe1aee02	-0.15129855
82	0x3db80fa2	0.08987357
83	0x3e0fe38a	0.14051643
84	0x3db76439	0.08954663
85	0x3dd56565	0.1041973
86	0xbc93e93e	-0.018055554
87	0xbded2909	-0.115800925
88	0xba95ca57	-0.00114281
89	0x3d2b9f39	0.041899893
90	0xbd4a1983	-0.049340736
91	0xbd7d14b9	-0.06178734
92	0xbe0d7dbe	-0.13817498
93	0x3dd4a134	0.103823096
94	0xbe054f46	-0.13018522
95	0xbd02af44	-0.031905428
96	0x3d70ae9c	0.05876027
97	0x3db19b38	0.08672184
98	0x3dace52e	0.0844215
99	0xbd04830d	-0.032351542
100	0x3caff287	0.02147795
101	0x3d4c613c	0.049897417
102	0xbdc85eff	-0.09783744
103	0x3dd181c4	0.10229829
104	0x3c95a2e8	0.018266156
105	0x3ddd3648	0.10801369
106	0x3e1867f0	0.14883399
107	0xbd851bc3	-0.06499436
108	0xbac6ff52	-0.0015182293
109	0x3dde9971	0.108691104
110	0xbd5e522e	-0.05427759
111	0xbd093449	-0.03349713
112	0xbe284be1	-0.16435196
113	0x3b033b27	0.0020024271
114	0xbde356ef	-0.11100566
115	0x3d72ece5	0.05930795
116	0xbdfef551	-0.12449134
117	0x3d878b11	0.06618322
118	0x3c8cde52	0.017195854
119	0x3d6e4e7d	0.05818032
120	0xbc18ece7	-0.009333826
121	0xbd9f468a	-0.07777126
122	0x3e11e400	0.14247131
123	0x3df45330	0.11929929
124	0xbd046eba	-0.03233216
125	0x3dfd95db	0.12382098
126	0x3d64d299	0.055864904
127	0xbc8ae194	-0.016953267
128	0xbdb01138	-0.08597034
129	0x3cea118e	0.028572824
130	0x3d9f39cc	0.07774696
131	0xbca91792	-0.020641122
132	0xbd628a58	-0.055307716
133	0xbdf33aca	-0.118764475
134	0xbe0b967b	-0.13631622
135	0x3e0a189c	0.1348595
136	0x3d8e6f0f	0.069547765
137	0x3d6729a4	0.056436196
138	0xbd97a8fa	-0.074052766
139	0xbd8aa4b9	-0.067696996
140	0xbd68c06b	-0.05682413
141	0x3c9e0c94	0.019293107
142	0xbe01c396	-0.12672266
143	0x3d50b8e1	0.050957564
144	0x3e17626f	0.14783643
145	0xbcdba74c	-0.026813172
146	0x3c8f4ecc	0.017493628
147	0xbbf942dc	-0.007606847
148	0x3da661c6	0.081241176
149	0x3ab44015	0.0013752008
150	0x3e1c8e37	0.15288626
151	0x3d7a2d58	0.0610784
152	0xbc72ced0	-0.014819816
153	0x3e2bd461	0.16780235
154	0x3d87a4fb	0.066232644
155	0x3d3c376f	0.045951303
156	0x3e18698d	0.14884014
157	0xbbd0f227	-0.006376523
158	0xbd900f97	-0.070342235
159	0xbca2ea90	-0.019887239
160	0xbd5d96fe	-0.054099075
161	0x3d3ea817	0.04654702
162	0x3d87d4b2	0.06632365
163	0xbd187386	-0.037219547
164	0xbd5e1884	-0.0542226
165	0xbd8e1b6f	-0.06938826
166	0x3e08f676	0.13375267
167	0x3dff33d0	0.12461054
168	0x3d022e4b	0.03178243
169	0x3c0dfe7e	0.008666633
170	0x3dd5e4ab	0.104440056
171	0x3cac9b01	0.021070005
172	0x3daf48f0	0.085588336
173	0xbe1e9ec1	-0.15490247
174	0xbdd441d4	-0.10364118
175	0xbd3ae440	-0.045627832
176	0x3d266e37	0.040632453
177	0xbe14240a	-0.14466873
178	0xbe0ce7c7	-0.13760291
179	0x3b05c153	0.002040942
180	0x3d60d92c	0.05489461
181	0x3c9ac1e6	0.018891286
182	0x3d0f9577	0.03505465
183	0x3e0ac74e	0.13552591
184	0xbe12b49a	-0.14326707
185	0x3d7dccdb	0.061962944
186	0xbd339238	-0.043840617
187	0xbd3c5600	-0.045980453
188	0xbdd9e03c	-0.106384724
189	0x3d15e6fa	0.03659723
190	0xbcf53c56	-0.029935997
191	0xbd85cd80	-0.06533337
192	0x3d0fcc35	0.035106856
193	0x3e385aea	0.18003431
194	0x3e2442f1	0.16041161
195	0x3daf4205	0.08557514
196	0x3b5a1762	0.0033278097
197	0xbc38f10c	-0.011287939
198	0x3e225f81	0.15856744
199	0xbb1c6bfb	-0.0023868072
200	0xbd0195a4	-0.03163685
201	0x3d8fd80c	0.070236295
202	0xbdc2a050	-0.095032334
203	0x3e02bb5a	0.12766781
204	0x3dfb0fd8	0.12258881
205	0x3da9b88d	0.082871534
206	0xbe0db1c5	-0.13837345
207	0xbdec55f6	-0.11539833
208	0xbcc57b09	-0.02410652
209	0x3e173148	0.14764893
210	0x3d8e9fd4	0.069640785
211	0xbe0edc00	-0.13951111
212	0xbda5d7a3	-0.0809777
213	0xbe054f2c	-0.13018483
214	0xbc797699	-0.01522603
215	0x3e1f2114	0.15539962
216	0xbdc3723f	-0.09543275
217	0xbd0d52ea	-0.0345029
218	0xbd519a7a	-0.05117271
219	0xbc9446e6	-0.018100213
220	0x3e392d46	0.18083677
221	0xbdc1b079	-0.094574876
222	0x3df14fda	0.117828086
223	0x3dc18eb2	0.09451045
224	0xbe20fb51	-0.1572087
225	0xbe09648c	-0.13417262
226	0xbdc11fd9	-0.094299026
227	0xbd0f38d6	-0.034966312
228	0xbbe3312a	-0.006933351
229	0xbc184d43	-0.009295764
230	0x3dfe2d43	0.12410977
231	0xbe12928d	-0.14313717
232	0x3c84654d	0.016161585
233	0xbd2f662a	-0.04282204
234	0xbe36ed48	-0.17863953
235	0xbcc7548f	-0.024332313
236	0xbc2d2f22	-0.010570319
237	0xbd8fe2da	-0.070256904
238	0x3e179b83	0.14805417
239	0xbdc0a82b	-0.094070755
240	0x3dda8831	0.10670508
241	0xbd18833e	-0.037234537
242	0x3ca89d3a	0.020582784
243	0xbc4b80d0	-0.012420848
244	0x3e342f28	0.17596114
245	0xbd548937	-0.05188867
246	0x3c55129a	0.013004923
247	0xbde5daa9	-0.11223347
248	0xbbb76928	-0.0055972524
249	0xbc8cbb55	-0.01717917
250	0xbdb94424	-0.090462
251	0xbd406cdf	-0.046978828
252	0x3e15445d	0.1457686
253	0xbd3d819f	-0.046266194
254	0xbd486c7d	-0.048931587
255	0xbc6c81f4	-0.01443528

network.4.bias f4 [2]
0	0x3bda4ad9	0.0066617546
1	0xbcb9da43	-0.022687083

exp_avg f4 [128, 4]
0	0xbecc4217	-0.39894173
1	0xbec74ff1	-0.38928178
2	0x3d7b80c7	0.06140211
3	0x3e1f14a4	0.15535218
4	0xbfb987a1	-1.4494516
5	0x3f217d9e	0.630823
6	0xbcad7ae1	-0.021176757
7	0xbe0889a2	-0.13333753
8	0x3ee6bb29	0.45064667
9	0x3f15de42	0.58542264
10	0xbd4cd499	-0.050007436
11	0xbe257bc7	-0.16160499
12	0xb6a69851	-4.9649175e-06
13	0x3884e75b	6.337344e-05
14	0x37238d7b	9.748498e-06
15	0xb8228249	-3.8745147e-05
16	0x9c9b94b5	-1.0295479e-21
17	0x1e7e2dbd	1.34561065e-20
18	0x9c714d5d	-7.98402e-22
19	0x9e37e9b0	-9.736265e-21
20	0xbe96624f	-0.29371879
21	0xbe8f4322	-0.27980906
22	0x3ce58f06	0.0280223
23	0x3da56550	0.080759645
24	0xbf906129	-1.1279651
25	0xbfa100c6	-1.2578361
26	0x3df14c1e	0.11782096
27	0x3eb33a3f	0.35005376
28	0xbfd10f12	-1.6332724
29	0xbfefb958	-1.8728437
30	0x3e329122	0.17438176
31	0x3f07d7ce	0.53063667
32	0x3f5c6025	0.86084205
33	0x3f5b133f	0.8557624
34	0xbcaed0d0	-0.021339804
35	0xbe628b7d	-0.22123523
36	0xbe3bc6b2	-0.18337515
37	0x3e3ad26a	0.18244329
38	0x3c0d0cd1	0.008609013
39	0xbd7a60fd	-0.06112765
40	0x3eae625f	0.34059426
41	0x3e9616bd	0.29314223
42	0xbcbd5e2c	-0.023116194
43	0xbd9926c1	-0.07478095
44	0x3e9ee546	0.31034297
45	0x3ef30cfd	0.47470847
46	0xbd22c42d	-0.03973787
47	0xbe013608	-0.12618268
48	0xa0d414b3	-3.5927895e-19
49	0x238d8db5	1.5347266e-17
50	0xa1656976	-7.7727794e-19
51	0xa317144a	-8.190023e-18
52	0xbea14271	-0.31496003
53	0xbe9fc326	-0.31203574
54	0x3ce1087d	0.027469868
55	0x3dab4629	0.08362991
56	0x3db18de6	0.08669643
57	0x3d72451c	0.05914794
58	0x39a945eb	0.00032286285
59	0xbc91f209	-0.017815607
60	0x3883dd32	6.2877676e-05
61	0xbaf054fd	-0.0018335875
62	0xb9c99f7f	-0.0003845654
63	0x35ac780a	1.2849935e-06
64	0x4059b161	3.4014513
65	0x40293c11	2.6442912
66	0xbe93c92c	-0.2886442
67	0xbf5d5c84	-0.8646929
68	0xbe774941	-0.24149038
69	0xbe888539	-0.2666414
70	0x3bb8d97d	0.005641161
71	0x3d0bae76	0.034101926
72	0xbeee58ac	-0.46552026
73	0xbf0817d4	-0.5316136
74	0x3d98f4cf	0.074685685
75	0x3e2ca487	0.16859637
76	0x2a45e3ef	1.7576195e-13
77	0xab95383e	-1.0602697e-12
78	0x2882f6cf	1.4539935e-14
79	0x2b238b23	5.8102324e-13
80	0xbe2c4cba	-0.16826144
81	0xbec0963e	-0.37614626
82	0x3d7c5263	0.061602008
83	0x3e0baae9	0.13639416
84	0xbc6a5042	-0.0143013615
85	0x3de676d7	0.11253136
86	0x3c2b7a30	0.0104661435
87	0xbd5d336c	-0.054004118
88	0x400d77d6	2.2104392
89	0x4031c406	2.7775893
90	0xbe76607e	-0.24060246
91	0xbf3fd34a	-0.74931777
92	0xbf22cadc	-0.6359079
93	0xbf2a7cb3	-0.66596526
94	0x3d8f2908	0.06990248
95	0x3e4231ee	0.18964359
96	0x3e5380be	0.2065458
97	0xbdb8be46	-0.09020667
98	0x3bb9c1bf	0.0056688483
99	0x3d086b3f	0.033305403
100	0x3ea4826b	0.3213075
101	0xbe6ede0d	-0.23326893
102	0xbc094add	-0.008379665
103	0x3daffe3e	0.08593415
104	0x3ea66173	0.32496223
105	0x3eb71f91	0.3576627
106	0xbc3feaeb	-0.011713724
107	0xbd225d8f	-0.039640006
108	0x3e3b8850	0.18313718
109	0x3ea4cb76	0.32186478
110	0xbcddae8e	-0.027060773
111	0xbdb8042a	-0.08985169
112	0x3facc872	1.3498671
113	0x3fc9f0c1	1.5776597
114	0xbe40a226	-0.18811855
115	0xbf0792a1	-0.5295811
116	0x3ff7c391	1.9356557
117	0x401de8b5	2.4673283
118	0xbe736470	-0.23768783
119	0xbf52eda1	-0.8239384
120	0x3cb9c9eb	0.02267929
121	0xbc945b9b	-0.018110087
122	0x3b22f94a	0.0024867826
123	0x3bf2d47e	0.007410585
124	0xbea88590	-0.329144
125	0x3ea77685	0.3270761
126	0x3ce051bf	0.02738273
127	0xbdf30a66	-0.11867218
128	0xbf77fcfc	-0.968704
129	0xbf86b799	-1.052478
130	0x3dd1c730	0.1024307
131	0x3e9d1726	0.30681723
132	0xbe985fc3	-0.2976056
133	0x3f07f63f	0.53110117
134	0xbca3dd7a	-0.02000307
135	0xbe6258ab	-0.22104137
136	0xb9ad8e1f	-0.0003310302
137	0xbbd71e2e	-0.006564877
138	0xb91e23de	-0.00015081416
139	0xba22aec0	-0.00062058493
140	0x3b9a1466	0.0047021387
141	0x3c01cec5	0.007922833
142	0x396b1333	0.00022418499
143	0xbb1d79c9	-0.0024028888
144	0xa588256c	-2.3617597e-16
145	0x25902ecb	2.5011726e-16
146	0x242a66f4	3.695008e-17
147	0xa56abd0e	-2.0360319e-16
148	0x3f3fcd44	0.74922585
149	0x3f386dc2	0.7204248
150	0xbd61b385	-0.055102844
151	0xbe30c76f	-0.17263578
152	0xb6f582f0	-7.316812e-06
153	0xb7e07217	-2.6756008e-05
154	0x363ab1af	2.7819585e-06
155	0x382d63a0	4.1339197e-05
156	0x3f1ddc99	0.6166473
157	0x3f38885e	0.7208308
158	0xbd9f9ad3	-0.07793202
159	0xbe193470	-0.1496141
160	0xbeb2c969	-0.3491929
161	0xbeb596f7	-0.3546674
162	0x3d0d0d7c	0.034436688
163	0x3dcee543	0.10102322
164	0xbbb2b47b	-0.005453644
165	0x3ba82c2d	0.0051322193
166	0x3b2fdb4f	0.00268336
167	0xbb027abc	-0.0019909581
168	0x3ed49594	0.4152037
169	0x3f1c5431	0.61065966
170	0xbd5556a5	-0.052084584
171	0xbe2dbe36	-0.16967091
172	0x1f33dc55	3.808698e-20
173	0x1eacffc9	1.8316999e-20
174	0x1c2c4074	5.699333e-22
175	0x1de84450	6.1480522e-21
176	0xabdb3ba2	-1.5577437e-12
177	0x2cfe6419	7.2302273e-12
178	0xaadcba7b	-3.9209247e-13
179	0xac823125	-3.7002784e-12
180	0xbea72fa2	-0.32653528
181	0xbf3458ed	-0.7044819
182	0x3e0ecab5	0.13944514
183	0x3e9de7c6	0.30840892
184	0x396e22c8	0.00022710406
185	0xb9807c7c	-0.0002450681
186	0x37d2e3b8	2.513999e-05
187	0x38eccb3a	0.00011291211
188	0x3f476585	0.7788928
189	0x3f1509e1	0.582182
190	0xbd78165b	-0.060568195
191	0xbe1b3f60	-0.15160894
192	0xbf1402f7	-0.57817024
193	0x3ef8f8f9	0.4862745
194	0xbd1b0747	-0.037848737
195	0xbe300eec	-0.17193192
196	0x3f14ef69	0.5817781
197	0x3f4f084a	0.80872023
198	0xbd88e71f	-0.06684708
199	0xbe6dbfc4	-0.23217684
200	0x3f6ec1b5	0.93264323
201	0x3f9ca976	1.2239215
202	0xbddadd3c	-0.10686728
203	0xbeb32a75	-0.3499333
204	0xbe69b2e3	-0.22822146
205	0xbec75d37	-0.38938305
206	0x3daf91fc	0.08572766
207	0x3d8f45ba	0.06995721
208	0xa290e3b8	-3.9272385e-18
209	0xa20841b9	-1.846623e-18
210	0x9ec1b4d6	-2.0509462e-20
211	0x20a0ba83	2.7228477e-19
212	0xbba70192	-0.0050966227
213	0x3d6c4132	0.057679363
214	0xba91d2a6	-0.00111254
215	0xbc7caeaa	-0.0154225025
216	0x405723cd	3.36156
217	0x3f7020e5	0.93800193
218	0xbe836280	-0.25661087
219	0xbd660211	-0.056154314
220	0x3fc1ca69	1.5139896
221	0x3fbba4f2	1.4659712
222	0xbe0556c4	-0.1302138
223	0xbec4b57a	-0.38419706
224	0xbf977973	-1.1833938
225	0xbfa9be3c	-1.326118
226	0x3dfb6e42	0.122768894
227	0x3ebff065	0.37488094
228	0xbf1a5b17	-0.6029524
229	0x3eb97f85	0.36230102
230	0x3c90355f	0.017603574
231	0xbe1d9c4e	-0.15391657
232	0xbe288207	-0.16455851
233	0xbdf14008	-0.11779791
234	0x3c3ace52	0.01140173
235	0x3cfd1880	0.030895472
236	0x3da0e898	0.07856864
237	0xbd2e9a69	-0.042627726
238	0x3b71945b	0.0036862108
239	0x3c25a62f	0.010110422
240	0xbf0f3d68	-0.55953074
241	0xbee715b0	-0.45133734
242	0x3d392924	0.04520525
243	0x3e216314	0.15760452
244	0x3ca36f17	0.019950433
245	0x3d60d8e0	0.054894328
246	0x3b13bb5d	0.0022542097
247	0xbc2e4a2c	-0.010637801
248	0xbb44c753	-0.0030026033
249	0xbad722ab	-0.001641353
250	0x3b197137	0.0023413429
251	0x3a9c1a46	0.0011909686
252	0x3fee966f	1.8639659
253	0x3fd1d7e4	1.639401
254	0xbe9d3833	-0.3070694
255	0xbf0a02e4	-0.5391066

exp_avg_sq f4 [128, 4]
0	0x3fa7561d	1.3073155
1	0x3ead7c2b	0.33883795
2	0x3ba6d188	0.005090896
3	0x3d6e8c80	0.05823946
4	0x4047cc3a	3.12184
5	0x3fa60484	1.2970128
6	0x3cc46bfd	0.023977274
7	0x3e995838	0.29950118
8	0x3f8a2eab	1.0795492
9	0x3e884c8c	0.266209
10	0x3b636afd	0.003470122
11	0x3d1a94af	0.037739452
12	0x3ebe208b	0.37134203
13	0x3de30a04	0.11085895
14	0x3b0e7829	0.0021739102
15	0x3cca635d	0.024705583
16	0x3a8eb5dd	0.001088794
17	0x3a86f3b6	0.001029602
18	0x35c9d8c2	1.5038752e-06
19	0x3a2ec1e9	0.0006666468
20	0x4025aab3	2.5885437
21	0x3f69dfd1	0.9135714
22	0x3c324310	0.010880247
23	0x3e012157	0.12610374
24	0x410bb47c	8.731564
25	0x4081d998	4.0578117
26	0x3d66882d	0.05628221
27	0x3f11a7f1	0.56896883
28	0x41831b25	16.388254
29	0x40e2927a	7.0803804
30	0x3de397bd	0.11112926
31	0x3fa1c8ea	1.2639439
32	0x4161cdd6	14.112753
33	0x409b51a3	4.8537154
34	0x3d93e5f2	0.07221593
35	0x3f0a678a	0.5406424
36	0x40ab2345	5.3480554
37	0x402566a3	2.5843894
38	0x3d3013ea	0.04298774
39	0x3f09292b	0.5357844
40	0x3f0a8177	0.541038
41	0x3e69cd53	0.22832231
42	0x3b212ce6	0.0024593412
43	0x3c740f87	0.01489628
44	0x3f796d84	0.9743273
45	0x3ea03ca7	0.31296274
46	0x3b491cf6	0.0030687428
47	0x3cc46dae	0.02397808
48	0x3f8a6d4d	1.0814606
49	0x3e8c139b	0.27358708
50	0x3b73cd3e	0.0037201191
51	0x3d42c448	0.04755047
52	0x40278645	2.6175702
53	0x3f6fafb7	0.93627495
54	0x3c2acbc9	0.010424563
55	0x3df4d67b	0.119549714
56	0x3f0b3288	0.5437398
57	0x3e18dbed	0.14927645
58	0x3b0f5de5	0.0021876034
59	0x3cb71b31	0.022351833
60	0x3f47f5a8	0.78109217
61	0x3ea52a4c	0.32258832
62	0x3b356e65	0.0027684208
63	0x3ccbac4a	0.024862427
64	0x4268844e	58.129204
65	0x417ac94c	15.674145
66	0x3e8525e2	0.26005465
67	0x40411f54	3.017537
68	0x40901ffa	4.5039034
69	0x3fea9b86	1.8328712
70	0x3ca82aa6	0.020528149
71	0x3e787edb	0.24267142
72	0x3fae5bee	1.3621805
73	0x3edffa1c	0.43745506
74	0x3b97ca98	0.0046323054
75	0x3d259abd	0.040430773
76	0x409b81a7	4.8595767
77	0x3fad0bc6	1.3519218
78	0x3c2fcc97	0.01072993
79	0x3e124f7b	0.14288132
80	0x3f5ebde9	0.8700853
81	0x3e56ad54	0.20964557
82	0x3b4b0dea	0.0030983635
83	0x3d2708ed	0.040779997
84	0x3e54cd08	0.20781338
85	0x3e098097	0.1342796
86	0x3a5e566e	0.0008481507
87	0x3bec8d92	0.007219025
88	0x420713d1	33.769352
89	0x413343a1	11.204011
90	0x3e12e3b4	0.14344674
91	0x3fe20822	1.7658732
92	0x40dcc7cb	6.899389
93	0x4011824d	2.273578
94	0x3cee64b3	0.029100752
95	0x3e8d146d	0.27554646
96	0x3e50bbdf	0.20384167
97	0x3e2d27f4	0.16909772
98	0x3a337de8	0.00068470696
99	0x3c5e464f	0.013566568
100	0x3d4e2379	0.050326798
101	0x3d20a3c5	0.039218683
102	0x39ca38d2	0.00038570777
103	0x3c1828d4	0.009287078
104	0x406d3b24	3.7067347
105	0x40162e48	2.3465748
106	0x3cdd5745	0.027019152
107	0x3e90bb7f	0.28268048
108	0x3ecacbed	0.39608708
109	0x3e232b09	0.15934385
110	0x3af79dae	0.0018891597
111	0x3c64b861	0.013959975
112	0x418c020e	17.501003
113	0x40a6aedf	5.2088466
114	0x3d951b82	0.07280637
115	0x3f53e143	0.827656
116	0x4206a592	33.66169
117	0x412c46db	10.767299
118	0x3e12a589	0.14320959
119	0x3fd4db4e	1.6629426
120	0x3f898aa6	1.0745437
121	0x3edefec5	0.4355375
122	0x3b87fcc7	0.0041500065
123	0x3d1ce7b6	0.038306914
124	0x40a19fb1	5.0507436
125	0x401b4af4	2.4264498
126	0x3d23e624	0.0400144
127	0x3efdf6ee	0.49602455
128	0x4070cda3	3.762551
129	0x3f99bfa3	1.2011608
130	0x3c721760	0.014776081
131	0x3e34f9f2	0.17673472
132	0x40a0bf4c	5.0233517
133	0x3fefeb91	1.8743764
134	0x3d03f0cc	0.032212064
135	0x3eb82a3e	0.35969728
136	0x3ff18d51	1.8871251
137	0x3f3a5507	0.7278599
138	0x3bbc82ac	0.005752882
139	0x3d840ee9	0.064481564
140	0x3d751b09	0.059840236
141	0x3dae67d6	0.08515899
142	0x39cb8ea1	0.00038825444
143	0x3c5868bd	0.013208565
144	0x3f090b82	0.53533185
145	0x3e0dfb1a	0.13865319
146	0x3b38eb6e	0.00282165
147	0x3d07253b	0.03299449
148	0x4033e796	2.81101
149	0x3f628463	0.88483256
150	0x3c22a1f7	0.009926311
151	0x3d97763e	0.073956
152	0x3e83e882	0.25763327
153	0x3e06458a	0.13112465
154	0x39d217dc	0.00040072098
155	0x3b878d3d	0.00413671
156	0x40002ef7	2.0028665
157	0x3f2f31d8	0.6843543
158	0x3c46fa45	0.01214463
159	0x3e14587e	0.14486882
160	0x3fc7ef0d	1.5619828
161	0x3f619993	0.8812496
162	0x3c1fb00a	0.009746561
163	0x3dd345d8	0.10316056
164	0x3f3550d1	0.7082644
165	0x3df1a369	0.11798746
166	0x3b32b6d3	0.0027269616
167	0x3d15313a	0.0364239
168	0x3fbcbf08	1.4745798
169	0x3f081f93	0.5317318
170	0x3bb731ba	0.0055906447
171	0x3d31a397	0.043368902
172	0x3a1d8112	0.00060083077
173	0x39d27260	0.00040139537
174	0x35ec09a9	1.7586182e-06
175	0x397be18b	0.00024021247
176	0x3f04a478	0.5181346
177	0x3e614e4a	0.22002521
178	0x3a6dd9cf	0.00090732885
179	0x3c29fe5f	0.010375588
180	0x41007909	8.02955
181	0x4016546b	2.3489025
182	0x3cec40fc	0.02883958
183	0x3ed26d09	0.41098812
184	0x3ff54bc4	1.9163747
185	0x3f368a90	0.7130518
186	0x3c2dcf3a	0.010608489
187	0x3e03dc1f	0.12876938
188	0x402324a1	2.5491107
189	0x3f4dc9c1	0.8038598
190	0x3c0d9757	0.008642039
191	0x3d6d9aab	0.05800883
192	0x3faf6927	1.3703965
193	0x3eea738e	0.45791286
194	0x3c27167e	0.010198234
195	0x3de7d5a4	0.113200456
196	0x403b0441	2.9221346
197	0x3f3f2c68	0.74677134
198	0x3be9ff33	0.007141018
199	0x3d8cd716	0.06876962
200	0x40c8bd5e	6.273116
201	0x4000b9ab	2.0113323
202	0x3cd2aea8	0.025718048
203	0x3e8bc474	0.2729832
204	0x3fa0fc4a	1.2576993
205	0x3ec04a46	0.37556666
206	0x3bad0e3c	0.005281238
207	0x3d8f1fec	0.069885105
208	0x4016e900	2.3579712
209	0x3f0aa2a8	0.54154444
210	0x3bb031b5	0.0053770193
211	0x3d80e674	0.062939554
212	0x3d87dd8d	0.06634054
213	0x3da4b8af	0.08043038
214	0x3a8170bb	0.0009875515
215	0x3c27edd9	0.010249578
216	0x41824a26	16.286205
217	0x4095de3f	4.6833797
218	0x3d89a8e9	0.0672167
219	0x3f1001bf	0.56252664
220	0x41367acc	11.40498
221	0x40552ae7	3.3307436
222	0x3d21a63b	0.03946517
223	0x3ea56326	0.32302207
224	0x4180888a	16.06667
225	0x40957f57	4.6717944
226	0x3db32d6e	0.087488994
227	0x3f7a236f	0.9771032
228	0x3f872f9f	1.0561408
229	0x3ee21372	0.4415546
230	0x3bba5f02	0.0056875953
231	0x3da9220a	0.082584456
232	0x3e1993cf	0.14997791
233	0x3e27eaa2	0.16398099
234	0x3b2c3cb0	0.002628129
235	0x3d371c2a	0.044704594
236	0x3f942193	1.1572746
237	0x3eec4c12	0.46151787
238	0x3b711405	0.0036785614
239	0x3d01b311	0.03166491
240	0x3ee8843e	0.45413393
241	0x3d9d6b07	0.076864295
242	0x3b0b037c	0.0021211794
243	0x3c8a64a4	0.016893692
244	0x40c53ab9	6.1634183
245	0x40229c5f	2.5407941
246	0x3ce3ab5c	0.027791671
247	0x3ea7e444	0.3279134
248	0x40ac0d0f	5.376594
249	0x40081f27	2.1269014
250	0x3d02b8e2	0.0319146
251	0x3ec854ad	0.39127102
252	0x41df71e3	27.930609
253	0x41056775	8.337758
254	0x3dea68e6	0.11445789
255	0x3faacd33	1.3343872

exp_avg f4 [128]
0	0x3e815372	0.25258976
1	0x3f30a98e	0.6900872
2	0xbeedc782	-0.46441275
3	0xb8d4fd01	-0.000101560734
4	0x9e12eebe	-7.778546e-21
5	0x3e9348a8	0.2876637
6	0x3f901b4d	1.1258332
7	0x3fd2774e	1.6442659
8	0xbfb088d0	-1.3791752
9	0xbddaa7b7	-0.1067652
10	0xbeb6b5de	-0.3568563
11	0xbeb24ede	-0.34825796
12	0xa304721b	-7.179897e-18
13	0x3ea2ce08	0.31797814
14	0xbdaf5bc8	-0.08562428
15	0x3c026aa9	0.00796
16	0xc032e52d	-2.7952378
17	0x3eb7b10c	0.35877264
18	0x3e95b6d8	0.2924106
19	0xab1cc6a0	-5.569798e-13
20	0x3d80f6f3	0.06297102
21	0xbd2870ea	-0.04112331
22	0xc01558eb	-2.3335521
23	0x3f1fe2dc	0.62455535
24	0xbe01f1ce	-0.12689897
25	0xbe4f7f75	-0.20263465
26	0xbea33bab	-0.3188146
27	0xbe553d2e	-0.2082412
28	0xbf9d7bca	-1.2303402
29	0xc0016fdc	-2.0224524
30	0xbc33cd58	-0.010974251
31	0xbcbb9b17	-0.022901101
32	0x3f4ed97c	0.80800605
33	0x3e786f2b	0.24261157
34	0x3c5a9edf	0.013343542
35	0xbbc4029d	-0.005981757
36	0xa62aaadc	-5.9212156e-16
37	0xbf565fb6	-0.83739793
38	0xb89beac9	-7.434708e-05
39	0xbf31c41a	-0.6943985
40	0x3eb736ea	0.35784084
41	0xbcc812dd	-0.024423057
42	0xbee5840e	-0.44827312
43	0x1e9a4581	1.633413e-20
44	0x2c8736ba	3.8430066e-12
45	0x3da104f1	0.078622706
46	0x3948b863	0.00019142176
47	0xbf318740	-0.69347
48	0x3e1152f1	0.14191796
49	0xbf104dfb	-0.5636899
50	0xbf78dbc5	-0.9721034
51	0x3e009ec5	0.12560566
52	0xa20f3bd5	-1.9411789e-18
53	0xbc26dc46	-0.010184353
54	0xc026c614	-2.6058397
55	0xbfbdf41b	-1.484012
56	0x3f98392d	1.1892449
57	0x3ebd55ae	0.3697943
58	0x3e25e96a	0.16202322
59	0xbd2e2f24	-0.042525426
60	0x3ea5ad85	0.32358947
61	0x3d152011	0.036407534
62	0xbcaada6f	-0.02085611
63	0xbf89767b	-1.0739282
64	0xbf3b7b59	-0.7323509
65	0x3e8fd8e6	0.28095168
66	0x3f1ac680	0.60459137
67	0xbe894d92	-0.26816994
68	0x3ef7f4a7	0.48428842
69	0x2cd245f9	5.9763275e-12
70	0x3ec901c4	0.3925916
71	0xab439433	-6.9483584e-13
72	0x3f09f342	0.53886807
73	0x3d3b4cfa	0.045727707
74	0x3f1a592b	0.6029231
75	0x40164891	2.348179
76	0x3f205fef	0.62646383
77	0xc076946a	-3.8528085
78	0x3ec69988	0.3878901
79	0x3e940218	0.28907847
80	0x33a0c977	7.487227e-08
81	0xbce818af	-0.028332083
82	0x3f78303c	0.969486
83	0x4002150b	2.0325344
84	0x3f5617c0	0.8362999
85	0x3e532687	0.20620166
86	0xbd89a91b	-0.067217074
87	0x3d4c8f6b	0.04994146
88	0x005a3c16	8.28675e-39
89	0xbe0abd05	-0.13548668
90	0x3f35fa85	0.7108539
91	0x3d8b50d7	0.06802528
92	0x3e1eab68	0.15495074
93	0x3d3d375f	0.046195384
94	0x3e154da4	0.14580399
95	0xa22fa284	-2.3802958e-18
96	0xbdce3abf	-0.10069799
97	0x3e8d704d	0.2762474
98	0xbc27f74a	-0.010251829
99	0x3da236f3	0.07920637
100	0xbf3c401e	-0.73535335
101	0xbef29710	-0.47380877
102	0x338e734e	6.633364e-08
103	0x00000000	0.0
104	0xbea4f2a3	-0.32216367
105	0xc008726f	-2.1319845
106	0x3e290405	0.1650544
107	0x3c095b32	0.008383559
108	0xbf1ed5ef	-0.62045187
109	0xbdbdbfde	-0.092651114
110	0xbcca573c	-0.0246998
111	0xbdb7c3ef	-0.08972918
112	0xbbd79600	-0.0065791607
113	0x3c0b9957	0.008520446
114	0x394d079c	0.00019553158
115	0xb7d9b49b	-2.5952517e-05
116	0x3f66aa7c	0.9010389
117	0x3480a4e1	2.3961823e-07
118	0x3fb26e1f	1.3939856
119	0x3f685a68	0.9076295
120	0xbfbbcc16	-1.4671657
121	0xbf1ccf71	-0.6125403
122	0xbebae6eb	-0.365043
123	0x3f1d04be	0.6133536
124	0xbf134f6f	-0.5754308
125	0x2267be54	3.1407097e-18
126	0xc0833f2f	-4.101463
127	0x3f127518	0.5720992

exp_avg_sq f4 [128]
0	0x3f9e6e40	1.2377396
1	0x40a5a575	5.1764474
2	0x3f8826d5	1.063685
3	0x3e522d9f	0.20525216
4	0x39dd51e6	0.00042213424
5	0x3ff4d2e9	1.9126865
6	0x4156b7c2	13.419863
7	0x41db9382	27.447025
8	0x41825136	16.289654
9	0x410f330a	8.949961
10	0x3edfe760	0.43731213
11	0x3f63b923	0.8895437
12	0x3eba56c0	0.3639431
13	0x400e8f69	2.227503
14	0x3e710974	0.23538762
15	0x3e9bf53d	0.3046054
16	0x427c5ff2	63.093697
17	0x40714156	3.7696128
18	0x3f2ec2bd	0.682659
19	0x3fb6be88	1.4276896
20	0x3f12a21e	0.5727862
21	0x3db90961	0.09034992
22	0x42269ac6	41.651146
23	0x40cae524	6.3404713
24	0x3de1f1fc	0.11032483
25	0x3d1a8606	0.03772547
26	0x40321d4e	2.7830386
27	0x3e9771cb	0.29579005
28	0x41aa04d8	21.252365
29	0x422976cf	42.366024
30	0x3efdded6	0.49584073
31	0x410565f5	8.337392
32	0x4082d4cc	4.088476
33	0x40d543ec	6.6645412
34	0x3f3abfe9	0.7294908
35	0x3d18bb55	0.03728803
36	0x3e80315d	0.2503766
37	0x402b1d98	2.6736813
38	0x3d9817cf	0.07426416
39	0x4052ae9b	3.291907
40	0x3ff90558	1.9454756
41	0x3e8814da	0.26578408
42	0x3fafa186	1.3721168
43	0x3943575f	0.00018629197
44	0x3e1ae0cf	0.1512482
45	0x40ede97f	7.434753
46	0x3f9f0b59	1.2425338
47	0x40187872	2.3823514
48	0x40268132	2.6016355
49	0x401ea106	2.478578
50	0x40ebb12e	7.3653784
51	0x3f56f341	0.83964926
52	0x3f1f3f01	0.6220551
53	0x3df0a575	0.117503084
54	0x4189a495	17.205362
55	0x413a1417	11.629905
56	0x418efab9	17.872423
57	0x3f823baa	1.0174458
58	0x3f09b614	0.53793454
59	0x3f0092ae	0.50223815
60	0x3e3f54f3	0.1868475
61	0x4090229b	4.5042243
62	0x408771e7	4.232654
63	0x41d36a57	26.426924
64	0x401238c3	2.2847145
65	0x3ffe983d	1.989021
66	0x3f40f770	0.7537756
67	0x41031017	8.191428
68	0x3f9040c4	1.1269765
69	0x3e7b33ed	0.24531527
70	0x3ff0cd28	1.8812609
71	0x3f91e56a	1.1398137
72	0x401c0008	2.437502
73	0x40babba3	5.835405
74	0x413d7d2d	11.8430605
75	0x423a8f4d	46.639942
76	0x3fc2e34b	1.5225614
77	0x42d22a24	105.082306
78	0x40c05304	6.0101337
79	0x3ed03f89	0.40673473
80	0x3d6a5364	0.057208434
81	0x3fc92901	1.5715638
82	0x414f182d	12.943402
83	0x420bcec0	34.951904
84	0x41289b79	10.537957
85	0x3f0d7be1	0.5526715
86	0x3ca69836	0.020336252
87	0x3f0e98a3	0.55701655
88	0x3792b7fe	1.7490234e-05
89	0x3e89b61a	0.26896745
90	0x409a5665	4.823046
91	0x3c39220f	0.011299624
92	0x400d5fc0	2.208969
93	0x3ed6da25	0.41963306
94	0x3e027a89	0.12742056
95	0x3f2c133c	0.6721685
96	0x3eeda67c	0.4641608
97	0x3f0867a6	0.53283155
98	0x40a33a2b	5.1008506
99	0x3c9d1b6a	0.019178111
100	0x40474f74	3.1142244
101	0x3f96242b	1.1729788
102	0x3b89dcf8	0.0042072497
103	0x00000000	0.0
104	0x40fd53b7	7.916469
105	0x41c3302f	24.398527
106	0x4096ac20	4.7085114
107	0x4090edbf	4.5290217
108	0x3fdab1dd	1.708553
109	0x3ebe7410	0.37197924
110	0x4002ecc8	2.045702
111	0x3eae04d4	0.3398806
112	0x3c83e161	0.01609868
113	0x3f0cf193	0.55056113
114	0x3d7f34b8	0.062306136
115	0x3c8488d6	0.01617853
116	0x40353a4a	2.8316827
117	0x3c1b93bd	0.009495673
118	0x4241aec8	48.420685
119	0x40b6c7a0	5.7118683
120	0x40d3e77d	6.622008
121	0x3faaec8f	1.3353442
122	0x41b20473	22.252172
123	0x4094dfc9	4.6523175
124	0x3fe7ce8d	1.8109909
125	0x3e180836	0.14846882
126	0x424e33d6	51.55062
127	0x40916234	4.5432377
