week 6/checkpoints/reinforce_baseline_cartpole_seed1.pth (torch, 450447 bytes, 33 tensors)

network.0.weight f4 [128, 4]
0	0xbaa43574	-0.0012528137
1	0xbe1e9185	-0.15485199
2	0x3e97fb1b	0.29683766
3	0xbe639113	-0.2222331
4	0x3e7271b5	0.23676188
5	0x3eebdcce	0.46066898
6	0x3ec911f3	0.39271507
7	0xbeb292fe	-0.3487777
8	0xbe24c37f	-0.16090201
9	0x3e22e2f6	0.15906891
10	0x3e23fc38	0.16014183
11	0xbe5ec529	-0.21754898
12	0xbc777c06	-0.015105253
13	0xbeb06f68	-0.34459996
14	0xbf2251eb	-0.63406247
15	0xbefd0426	-0.49417228
16	0xbe4ad32d	-0.1980712
17	0xbda02ab6	-0.078206465
18	0x3e7e95af	0.24861787
19	0x3f021b35	0.50822765
20	0x3d6c0ae5	0.057627577
21	0xbd8549a0	-0.065081835
22	0xbf122c05	-0.5709842
23	0xbdd6a486	-0.10480599
24	0x3db5b107	0.08871656
25	0x3d693a75	0.056940515
26	0xbed844a8	-0.4223988
27	0xbef2eb6f	-0.47445247
28	0xbf000626	-0.5000938
29	0xbe4f12ef	-0.20222066
30	0x3eb53144	0.3538915
31	0xbdfa71b2	-0.12228717
32	0xbe9a4496	-0.30130452
33	0x3edbe308	0.4294665
34	0xbef2bd73	-0.47410163
35	0x3de8fbbc	0.113761395
36	0xbd4e068c	-0.050299212
37	0xbc293bdf	-0.010329216
38	0xbd2e8eba	-0.042616583
39	0x3e92e922	0.2869349
40	0xbf066844	-0.52502847
41	0xbe3d6c13	-0.18498258
42	0xbefb3e33	-0.49070892
43	0x3df12629	0.117748566
44	0xbe937b87	-0.2880518
45	0xbefc2cc2	-0.49252898
46	0xbed390c5	-0.41321388
47	0xbf02dc75	-0.5111764
48	0x3e0843a0	0.13307047
49	0x3ecb3433	0.39688262
50	0x3eca4f18	0.3951347
51	0xbc2d0096	-0.010559222
52	0x3ea1e249	0.31617954
53	0xbe9378cd	-0.288031
54	0xbf019f28	-0.5063348
55	0xbe8c1c30	-0.27365255
56	0x3bd00639	0.006348398
57	0xbea8b25e	-0.32948583
58	0xbed86880	-0.42267227
59	0xbdfc1cbb	-0.123101674
60	0x3ef9fe02	0.48826605
61	0x3e026c8d	0.12736721
62	0xbe74be72	-0.23900774
63	0xbe6baa1c	-0.2301411
64	0xbeaff50f	-0.34366652
65	0x3e0604e4	0.13087803
66	0xbecd6b65	-0.40120998
67	0xbefd736f	-0.4950213
68	0x3dfc9d55	0.12334696
69	0x3ecb03e5	0.3965141
70	0x3e6241bc	0.22095388
71	0xbefe4883	-0.49664697
72	0x3ebe67bf	0.37188527
73	0x3ec66eea	0.38756496
74	0x3bc39633	0.005968833
75	0x3cbbe8f8	0.022938237
76	0xbed2cd1c	-0.4117211
77	0xbe999c04	-0.30001843
78	0x3c8fc54f	0.017550139
79	0xbea69589	-0.3253596
80	0xbeee162f	-0.465013
81	0x3ee41e3d	0.4455432
82	0xbe8b77c9	-0.27239826
83	0xbec72747	-0.38897154
84	0xbc9f9d37	-0.019484146
85	0xbdbfd384	-0.09366515
86	0x3eeb4f26	0.45958823
87	0x3dc35c7f	0.095391266
88	0x3ed051e9	0.40687492
89	0xbe9eb0d3	-0.3099428
90	0xbf033466	-0.5125183
91	0xbe24244b	-0.1602947
92	0x3ee72607	0.451462
93	0x3e343be6	0.17600974
94	0xbe04d64a	-0.1297237
95	0x3ef5592b	0.47919592
96	0x3e8e68d6	0.27814358
97	0xbe5b37d6	-0.21408018
98	0x3f013a7f	0.5047988
99	0xbb047c25	-0.0020215597
100	0xbec323f3	-0.38113365
101	0x3f0b5e6c	0.5444095
102	0x3eb1ae8f	0.3470349
103	0x3e086b15	0.13322099
104	0xbd9f81e6	-0.07788448
105	0x3e135042	0.14386085
106	0x3f41ee01	0.7575379
107	0x3ea6d141	0.32581523
108	0xbd7485e8	-0.059698015
109	0x3a61a7b0	0.0008608056
110	0xbd83d754	-0.06437555
111	0xbb85fa77	-0.0040886956
112	0xbcb47002	-0.022026066
113	0xbea2b86d	-0.3178133
114	0xbeb52175	-0.35377088
115	0xbef9faf8	-0.48824286
116	0xbd689cf6	-0.056790315
117	0xbec193de	-0.37808126
118	0xbf435afd	-0.7631071
119	0xbf0b46bf	-0.54404825
120	0x3c6f51e3	0.014606926
121	0x3e38149f	0.17976616
122	0x3ee01c9e	0.43771833
123	0x3d0edd6c	0.034879133
124	0xbdc05dbc	-0.093928784
125	0x3ed098ad	0.40741482
126	0x3daaae5b	0.08334037
127	0x3d80f6f7	0.06297105
128	0x3e23aeb9	0.1598462
129	0xbe572030	-0.21008372
130	0x3efa6279	0.48903254
131	0xbe60f715	-0.21969254
132	0x3ec0c260	0.37648296
133	0xbee07147	-0.43836424
134	0x3e8a00a2	0.26953608
135	0xbe9c5b58	-0.3053844
136	0xbdfc0edd	-0.123075224
137	0x3d834512	0.064096585
138	0xbe8c90a4	-0.27454102
139	0xbf0e42fe	-0.5557097
140	0x3dc3f957	0.09569042
141	0xbea640c0	-0.32471275
142	0xbedb6566	-0.42850798
143	0xbe29b755	-0.16573842
144	0x3ee90ceb	0.45517668
145	0xbe1e987c	-0.15487856
146	0xbf1ba813	-0.60803336
147	0xbeaab0a6	-0.33337897
148	0xbea607ed	-0.32427922
149	0x3d519abe	0.051172964
150	0x3c70bd3d	0.014693555
151	0xbf03fadd	-0.5155466
152	0x3e40e470	0.18837142
153	0x3ed33862	0.41253954
154	0xbcbf0962	-0.023319904
155	0x3ecaee85	0.396351
156	0x3a9130dc	0.0011077183
157	0x3dbc6d69	0.09200556
158	0x3e91264f	0.2834954
159	0x3eb22140	0.34790993
160	0xbe1d8081	-0.15381052
161	0x3f078052	0.52930176
162	0xbe76796f	-0.2406976
163	0x3eaa10d0	0.33215952
164	0x3ef00453	0.468783
165	0x3e63e6fa	0.2225608
166	0xbee0567e	-0.43815988
167	0xbeadfe08	-0.33982873
168	0x3eb47be3	0.35250768
169	0xbecd59de	-0.40107626
170	0x3f4bcc68	0.79608774
171	0x3eed7379	0.4637716
172	0xbe6590e0	-0.22418547
173	0x3eda68b7	0.42658016
174	0x3ea11424	0.3146068
175	0x3eb7148d	0.35757867
176	0x3d0a0d86	0.033704303
177	0xbe8bc23e	-0.27296633
178	0x3ef081e1	0.4697409
179	0x3f169b8e	0.5883111
180	0x3ebf936b	0.37417158
181	0xbe8ccaa1	-0.27498344
182	0xbdf6354a	-0.12021883
183	0x3d82e848	0.063919604
184	0x3d0c358f	0.034230765
185	0x3eb6524b	0.3560966
186	0x3e046523	0.12929206
187	0xbe8d5809	-0.27606228
188	0xbd917e69	-0.07104189
189	0xbe6a5997	-0.22885738
190	0xbf1e2594	-0.6177609
191	0xbcccb721	-0.024989666
192	0xbe93999e	-0.28828138
193	0x3e877ef0	0.26464033
194	0x3cc0a0c7	0.023514165
195	0x3eacd6d6	0.33757657
196	0xbeb5c179	-0.3549917
197	0x3ea68517	0.32523414
198	0x3f0cd973	0.550193
199	0x3e5925e7	0.21205865
200	0xbd6e85dc	-0.058233127
201	0xbe7564bc	-0.23964208
202	0xbea7fc06	-0.32809466
203	0x3eb01c02	0.34396368
204	0x3eeef57a	0.4667166
205	0xbe4faa83	-0.20279889
206	0x3efdb945	0.49555412
207	0x3efa283c	0.4885882
208	0x3cdb9f29	0.026809292
209	0x3ebb0297	0.36525413
210	0xbe6d9d5f	-0.23204564
211	0xbefa26b2	-0.48857647
212	0xbd0c93a8	-0.034320503
213	0x3ea9d3dd	0.3316945
214	0x3eacabfa	0.33724958
215	0x3e89d725	0.26921955
216	0x3e399e54	0.18126804
217	0x3c86317d	0.01638102
218	0x3f562f02	0.8366548
219	0x3e7f3ef7	0.24926363
220	0x3ce4c958	0.02792804
221	0x3ed85148	0.42249513
222	0xbe048314	-0.12940627
223	0xbe254535	-0.16139682
224	0xbec295d8	-0.38004947
225	0x3f143092	0.5788661
226	0x3f2c779f	0.6737003
227	0x3eb5c5c4	0.35502446
228	0x3e7b0bf7	0.24516283
229	0x3c07463a	0.008256489
230	0xbd7f964c	-0.062399194
231	0xbee975ee	-0.45597786
232	0x3e90de45	0.28294578
233	0xbea8829b	-0.32912144
234	0x3edd6b5e	0.43245977
235	0x3e41f226	0.18940029
236	0xbe51d5ce	-0.20491716
237	0xbd97c9b9	-0.074115224
238	0xbe01eb2e	-0.1268737
239	0xbe207f63	-0.15673594
240	0xbecfedca	-0.40611106
241	0xbb4891fb	-0.003060459
242	0xbe9a4cf4	-0.30136836
243	0xbec090ee	-0.37610573
244	0xbee07044	-0.43835652
245	0xbdebcee0	-0.11514068
246	0xbe94cc3a	-0.29062063
247	0x3ec5dc2b	0.38644537
248	0xbe234cbd	-0.15947242
249	0xbea34a18	-0.31892467
250	0xbbe45020	-0.0069675595
251	0xbea3cba8	-0.31991315
252	0x3d2ab9be	0.041681044
253	0x3e4ebcdb	0.2018923
254	0xbc7c58c9	-0.015402027
255	0xbecfe3a7	-0.40603372

network.0.bias f4 [128]
0	0xbe881f2b	-0.2658628
1	0xbec992df	-0.39369866
2	0xbeb0ade4	-0.34507668
3	0x3e8b3742	0.27190596
4	0x3ed88566	0.42289275
5	0x3df251bc	0.11831996
6	0x3e2f9b40	0.17149067
7	0x3e38f1c6	0.18060979
8	0xbe4c2890	-0.19937348
9	0xbd3b63a2	-0.045749314
10	0x3eebde30	0.46067953
11	0xbe5cd466	-0.21565399
12	0x3cd4d304	0.025979526
13	0x3e1d878a	0.15383735
14	0x3de94f90	0.113921285
15	0x3e4a7548	0.19771302
16	0x3e8dffc8	0.27734208
17	0xbd8ef3f4	-0.06980124
18	0x3eb4d9e0	0.35322475
19	0xbd53d42c	-0.051716015
20	0xbeea4d29	-0.45761994
21	0xbb2cf4fc	-0.002639114
22	0x3e48b120	0.19598818
23	0xbec0a23b	-0.37623772
24	0x3e3d8491	0.18507601
25	0x3e35495d	0.17703767
26	0x3e3b6db6	0.1830357
27	0x3e526cce	0.20549318
28	0x3e713f2f	0.23559259
29	0x3ef49fe7	0.47778246
30	0x3d7d98f3	0.061913442
31	0x3d06f590	0.03294903
32	0x3e3168a5	0.17325075
33	0x3e27ac7e	0.16374394
34	0x3eac477c	0.33648288
35	0x3e9cf71a	0.30657274
36	0x3e8785b1	0.26469186
37	0x3eb1bc84	0.34714139
38	0xbeb71604	-0.35758984
39	0x3d49ada5	0.049237866
40	0xbed30cc9	-0.41220692
41	0x3e0e4939	0.1389512
42	0x3e75cfcf	0.24005054
43	0xbec12946	-0.37726802
44	0x3eb7ea4f	0.3592095
45	0xbe26712d	-0.1625411
46	0xbe958baa	-0.29208118
47	0x3dd77e20	0.10522103
48	0x3e66c3a7	0.22535573
49	0xbc318407	-0.0108347
50	0xbef44f0f	-0.47716567
51	0x3de37a33	0.11107292
52	0xbe033d4c	-0.12816352
53	0x3ea22071	0.31665376
54	0x3e51a8be	0.20474526
55	0xbec109ac	-0.37702692
56	0xbeadcce4	-0.33945382
57	0xbb28ea46	-0.0025774403
58	0x3e887200	0.26649475
59	0x3e8f8fa1	0.28039268
60	0x3ea6a9fd	0.32551566
61	0xbd09f859	-0.03368411
62	0x3e0cbe3b	0.13744442
63	0x3eb5d49f	0.3551378
64	0xbec35374	-0.38149607
65	0x3e7922ee	0.24329731
66	0xbed2d13d	-0.4117526
67	0x3eafde61	0.3434935
68	0x3ddae7c9	0.10688741
69	0x3e9e6396	0.30935353
70	0x3eabbe7e	0.33543772
71	0xbec3ff89	-0.38280895
72	0x3ea27cf1	0.31735948
73	0xbea7840e	-0.32717937
74	0xbec375ee	-0.3817591
75	0x3ec78557	0.38968918
76	0xbce31ee6	-0.027724694
77	0xbd7827d5	-0.06058486
78	0x3ea03cd3	0.31296405
79	0x3eb79e3d	0.35862914
80	0x3eb62429	0.35574463
81	0x3ee235e7	0.4418175
82	0x3d0f61d7	0.035005417
83	0x3c36101d	0.01111224
84	0xbd25f663	-0.040518176
85	0x3e630764	0.22170788
86	0xbea24b56	-0.31698102
87	0xbef5c1fa	-0.47999555
88	0x3d8ea387	0.06964784
89	0x3ed4a4da	0.41532022
90	0x3ef20975	0.4727284
91	0x3e68d71b	0.22738306
92	0x3edf5a8b	0.43623766
93	0x3ed4b85e	0.4154691
94	0xbeb19bb0	-0.34689093
95	0x3d4b34d8	0.049610943
96	0xbccc26b5	-0.0249208
97	0xbe860f13	-0.26183376
98	0x3ec4b3c3	0.38418397
99	0x3e5f3c78	0.21800411
100	0x3e3bd30b	0.18342225
101	0x3ee4731f	0.4461908
102	0xbe787ade	-0.2426562
103	0x3ec72c37	0.3890092
104	0x3e4ebe11	0.20189692
105	0x3ec2a294	0.38014662
106	0x3e75e422	0.24012807
107	0xbf036ca0	-0.51337624
108	0xbd04bde5	-0.03240766
109	0x3eb4c294	0.353047
110	0x3d854ae4	0.06508425
111	0xbed3d798	-0.41375422
112	0xbe616c7b	-0.22014038
113	0x3e96c510	0.29447222
114	0xbee97096	-0.4559371
115	0xbe912ed1	-0.2835603
116	0xbeb0a3a2	-0.34499842
117	0xbeaf03b9	-0.34182528
118	0x3ef68b24	0.4815303
119	0xbdbd2569	-0.09235651
120	0xbefb82e7	-0.49123308
121	0x3eacb401	0.33731082
122	0xbe8c4bed	-0.27401677
123	0xbf007971	-0.50185305
124	0xbefe609a	-0.49683076
125	0xbcfafe7e	-0.03063893
126	0x3e2739f7	0.16330706
127	0xbdadf22d	-0.08493457

network.2.weight f4 [128, 128]
0	0x3d72b7df	0.059257384
1	0x3d97fd0d	0.074213125
2	0x3daf7830	0.08567846
3	0xbd412ab7	-0.047159877
4	0x3c7523a3	0.01496211
5	0xbba81bc1	-0.0051302616
6	0xbce89f8f	-0.028396396
7	0xbd9a07a6	-0.0752099
8	0x3c102584	0.008798007
9	0xbdb0f8a7	-0.08641177
10	0x3bd766c0	0.006573528
11	0xbdb16b43	-0.08663037
12	0xbd18068a	-0.03711561
13	0x3d6e7361	0.058215503
14	0xbd4b56a3	-0.04964317
15	0xbd3dad2a	-0.04630772
16	0xbd00e0f6	-0.03146454
17	0xbd290396	-0.041263185
18	0xbd012c77	-0.031536546
19	0xbd9117ec	-0.07084641
20	0x3db2529d	0.087071635
21	0x3c88f3f7	0.016717894
22	0xbd58a60d	-0.052892733
23	0x3d3ee604	0.04660608
24	0xbd6b6d2a	-0.057477154
25	0x3cbccd61	0.023047151
26	0xbda44e40	-0.080227375
27	0xbd949e70	-0.07256782
28	0x3c64bf45	0.013961618
29	0xbdb38be0	-0.087669134
30	0x3cf7a7db	0.030231407
31	0xbd06f6d7	-0.03295025
32	0xbd481887	-0.048851516
33	0x3d4d2992	0.050088473
34	0xbd5cadad	-0.053876568
35	0xbd3418c7	-0.043968942
36	0x3cbc5832	0.022991274
37	0x3ce44611	0.027865442
38	0x3ca61841	0.020275237
39	0x3d18eb6e	0.0373339
40	0xbc80f17d	-0.01574015
41	0x3acfa1ec	0.0015841103
42	0x3dac3210	0.08407986
43	0x3d86fc22	0.06591059
44	0xbda18dab	-0.07888349
45	0xbd1868df	-0.037209388
46	0x3d75ed5d	0.06004082
47	0x3cdcbda7	0.026945902
48	0xbd521132	-0.05128593
49	0x3d9af83e	0.0756688
50	0xbd85f083	-0.065400146
51	0x3d2174e0	0.0394181
52	0xbd9c4595	-0.07630459
53	0xbda68da2	-0.08132483
54	0x3d93ac40	0.072105885
55	0xbcec9149	-0.028877871
56	0xbc913aae	-0.017728176
57	0xbdb2f59a	-0.08738251
58	0x3d167dbd	0.036741007
59	0xbc300bfb	-0.010745044
60	0xbd3bc22e	-0.04583948
61	0xbd853002	-0.065032974
62	0x3d0c01bd	0.034181345
63	0x3d840c62	0.06447674
64	0x3d4396ea	0.047751345
65	0xbcfc3a57	-0.030789537
66	0xbcc05b61	-0.023481073
67	0x3cc78de7	0.024359656
68	0xbce92397	-0.028459353
69	0xb8833c0f	-6.2577536e-05
70	0xbd8d7d2f	-0.069086425
71	0xbd89337c	-0.06699273
72	0xbd1aa3d9	-0.037753914
73	0xbda6a588	-0.08137041
74	0xbd8336da	-0.064069465
75	0x3dabf96f	0.08397185
76	0x3db148b5	0.08656446
77	0xbd93b044	-0.072113544
78	0xbcc1adbb	-0.023642411
79	0xbd91598a	-0.07097156
80	0xbc99b733	-0.018764114
81	0x3d3a99bf	0.04555678
82	0x3cc3bcb9	0.0238937
83	0x3b0ff3ee	0.0021965462
84	0x3b2e6df8	0.002661584
85	0x3d65c735	0.05609818
86	0x3ca37fc5	0.019958386
87	0x3d305215	0.04304703
88	0xbc9908eb	-0.01868101
89	0xbcb1c31e	-0.021699484
90	0xbd77f6e8	-0.060538203
91	0xbd1cc36a	-0.0382723
92	0x3b8764df	0.004131898
93	0x3d4f7752	0.050650902
94	0x3c86dd43	0.016462928
95	0x3d70856c	0.05872099
96	0x3cc314f1	0.023813697
97	0xbda5e5c4	-0.08100465
98	0x3d3342b9	0.043764804
99	0x3d071903	0.032982837
100	0xbcb75598	-0.022379681
101	0x3d2649d1	0.04059774
102	0x3daa0b10	0.08302891
103	0x3caa6de7	0.020804359
104	0xbd7de0ab	-0.06198184
105	0xbc047039	-0.008083397
106	0xbdb47e8e	-0.08813201
107	0xbc86d675	-0.016459683
108	0x3d41edd8	0.047345966
109	0xbd72691b	-0.059182268
110	0xbda9b28c	-0.08286008
111	0x3b1cb93d	0.0023914122
112	0x3dae684a	0.08515985
113	0x3daac5ea	0.0833853
114	0xb87738e2	-5.8942365e-05
115	0xbca2cf6a	-0.019874293
116	0x3d882777	0.06648152
117	0x3d988008	0.07446295
118	0xbd934cbd	-0.07192371
119	0xbd0d0920	-0.03443253
120	0x3c9b40ba	0.018951762
121	0xbd727b7a	-0.059199788
122	0xbdad3cee	-0.08458887
123	0x3c72e0ea	0.0148241315
124	0xbced7da3	-0.028990572
125	0xbc43a509	-0.011941203
126	0x3d2474c9	0.040150438
127	0xbd53874f	-0.051642712
128	0x3d3c38b2	0.045952506
129	0xbd570c80	-0.052502155
130	0x3d499c3c	0.049221262
131	0xbdc41acb	-0.09575423
132	0xbd480af6	-0.04883858
133	0x3d5aa499	0.05337963
134	0xbd67f342	-0.056628473
135	0x3d7a124d	0.06105261
136	0xbd546f23	-0.0518638
137	0x3d184852	0.037178345
138	0x3d7dc468	0.061954886
139	0xbd9b0cc0	-0.07570791
140	0x3d09cbf1	0.03364176
141	0xbd99d467	-0.07511216
142	0xbd8925c1	-0.06696654
143	0x3cbf5ba5	0.02335913
144	0x3d2a3921	0.04155839
145	0xbcb92eb5	-0.02260528
146	0xbd6a6ecf	-0.05723458
147	0x3bf76a6e	0.007550529
148	0x3d1c7587	0.03819802
149	0x3d8b0ac7	0.06789165
150	0xbce8ae94	-0.028403558
151	0x3db183c2	0.08667709
152	0x3b1a168f	0.002351198
153	0xbc971e76	-0.018447142
154	0x3b85714c	0.004072344
155	0xbb5764d7	-0.0032866502
156	0x3d9a9eb8	0.075498044
157	0x3d9720ad	0.07379279
158	0x3cf34f47	0.029700888
159	0x3d265024	0.04060377
160	0x3cdddb61	0.027082147
161	0x3c37e819	0.01122477
162	0xbd823f7b	-0.06359764
163	0x3d39e189	0.045381103
164	0xbd6a03da	-0.05713258
165	0x3d5d6487	0.05405095
166	0xbc49afbe	-0.012309967
167	0xbca7c402	-0.020479206
168	0x3d343bc7	0.04400232
169	0xbccdb02c	-0.02510842
170	0xbd5841e3	-0.05279721
171	0xbd51df33	-0.05123825
172	0xbcfd593a	-0.030926336
173	0xbcb1f289	-0.021722095
174	0xbd8ca578	-0.06867498
175	0xbd3a8550	-0.045537293
176	0x3d505769	0.05086461
177	0x3d479f5c	0.04873596
178	0x3d831add	0.06401608
179	0xbd9ed724	-0.077558786
180	0x3d8b6da1	0.068080194
181	0x3d73791f	0.059441682
182	0x3d9ec2f1	0.07752026
183	0xbc6686ea	-0.014070252
184	0xbd73fde5	-0.059568305
185	0x3d0bb743	0.03411032
186	0xbc9ff711	-0.01952699
187	0xbc4ab4a1	-0.012372167
188	0xbdcf0d57	-0.10109966
189	0x3d57f998	0.052728266
190	0x3cef6c56	0.029226463
191	0x3d4a5fa4	0.049407616
192	0x3be46c95	0.006970952
193	0xbb255438	-0.00252272
194	0x3d02313c	0.031785235
195	0x3cf4c800	0.029880524
196	0x3d845572	0.0646161
197	0x3d1aa405	0.037754077
198	0xbba0f049	-0.0049114567
199	0xbc58ee25	-0.013240372
200	0xbd8eda5e	-0.06975244
201	0xbc771741	-0.015081228
202	0x3da567ad	0.08076415
203	0x3d4c9f97	0.049956884
204	0xbb6114b7	-0.0034344622
205	0xbc676c00	-0.01412487
206	0xbbaaa963	-0.0052081808
207	0xbd26fc86	-0.04076817
208	0xbd4c24ad	-0.049839664
209	0xbdcfd1cf	-0.1014744
210	0x3d55eefd	0.05222987
211	0x3d209783	0.039206993
212	0xbd263963	-0.040582072
213	0xbcd9cbb1	-0.026586385
214	0xbd1518a7	-0.036400463
215	0xbcb80dc0	-0.022467494
216	0x3d0e9aa1	0.034815434
217	0xba788063	-0.00094795803
218	0xbd52adff	-0.051435467
219	0xbd703500	-0.058644295
220	0xbb594f11	-0.00331587
221	0xbd844f86	-0.064604804
222	0xbbab446c	-0.0052266624
223	0xbb5da951	-0.0033822844
224	0x3caa7c93	0.020811355
225	0xbc890a2e	-0.016728487
226	0xbd261c56	-0.040554367
227	0xbcd02400	-0.025407791
228	0xbcafa630	-0.021441549
229	0xbd3a7cce	-0.04552918
230	0xbc004f3b	-0.00783139
231	0xbda31e6c	-0.07964787
232	0x3cfe30ac	0.031029068
233	0xba2da531	-0.00066240417
234	0x3cd13762	0.025539104
235	0xbd814723	-0.063123964
236	0x3d28d9d5	0.041223366
237	0x3d8d9591	0.06913293
238	0xbd8f9e08	-0.07012564
239	0x3d7871d8	0.060655445
240	0xbdc5f161	-0.0966518
241	0xbda04d87	-0.07827287
242	0xbdb1cbb3	-0.08681431
243	0x3d9094a3	0.070596
244	0xbb595a3b	-0.0033165354
245	0x3d5c26e2	0.05374802
246	0xbdc669a5	-0.09688119
247	0xbdb85a41	-0.090015896
248	0x3d0b174a	0.033957757
249	0xbd82e449	-0.06391198
250	0x3d6a6416	0.057224356
251	0x3d120fe5	0.03565969
252	0xbd4e2398	-0.050326914
253	0x3cbc2909	0.022968786
254	0xbd760997	-0.06006774
255	0xbdc3e630	-0.09565389

network.2.bias f4 [128]
0	0xbd840808	-0.06446844
1	0xbd20979d	-0.03920709
2	0x3c492ae8	0.012278296
3	0xbc873dd0	-0.016508967
4	0xbd65ff4c	-0.056151673
5	0xbd76199f	-0.060083028
6	0x3c35ac12	0.011088388
7	0x3bfbc46e	0.0076833284
8	0xbca45b78	-0.020063147
9	0x3c43b44e	0.011944843
10	0xb956358b	-0.00020428577
11	0x3a38c2f4	0.0007048093
12	0x3d3deef0	0.046370447
13	0xbcfef904	-0.0311246
14	0xbda82089	-0.082093306
15	0x3da7d53c	0.08194968
16	0x3d55601c	0.05209361
17	0xbd27f1ba	-0.041002013
18	0xbd3fbca9	-0.04681078
19	0x3c317fbb	0.010833676
20	0x3dbc4ab2	0.091939345
21	0x3d962cdc	0.07332775
22	0xbc4590df	-0.012058466
23	0x3da7ed96	0.08199613
24	0xbd6761e1	-0.05648983
25	0xbda316b4	-0.07963315
26	0xbdb6fbce	-0.08934747
27	0xbd392261	-0.045198802
28	0x3d92cdf3	0.07168188
29	0xbcee8a89	-0.029118793
30	0xbddd6557	-0.10810345
31	0xbd599b98	-0.0531269
32	0x3c12b276	0.008953681
33	0xbb7881a0	-0.003791906
34	0xbc4ea58f	-0.012612714
35	0xbdb6c4f7	-0.08924287
36	0x3c3ee981	0.011652351
37	0xbd4bc187	-0.04974511
38	0x3cef23d2	0.029191885
39	0x3d8da19c	0.0691559
40	0xbd26c0ca	-0.0407112
41	0x3d4d72a0	0.050158143
42	0x3c8bf325	0.017083714
43	0xbd9f62bf	-0.07782506
44	0xbc43c287	-0.011948234
45	0xbc05e2b7	-0.008171729
46	0x3cee8f5b	0.029121092
47	0xbd964619	-0.07337589
48	0x3d43a34d	0.047763158
49	0x3db6eb53	0.08931603
50	0xbc92a28f	-0.01789978
51	0xbdda4365	-0.10657386
52	0xbcb8609d	-0.022507006
53	0x3d8adb23	0.06780078
54	0xbd1e48e7	-0.038643744
55	0xbd6e9356	-0.05824598
56	0x3cbd1fc2	0.023086432
57	0x3d968d80	0.07351208
58	0x3dd3a0c0	0.10333395
59	0xbce20c33	-0.027593708
60	0x3d5c965f	0.053854343
61	0xbd4316f4	-0.04762931
62	0xbdb4276f	-0.08796584
63	0x3b8e17b1	0.0043363203
64	0xbd59c536	-0.05316659
65	0xbd155fab	-0.03646819
66	0xbb87536b	-0.0041298172
67	0x3da01fda	0.07818575
68	0x3d83e47d	0.06440065
69	0xbdafe195	-0.08587948
70	0xbdaa4b9e	-0.08315204
71	0xbbd248d0	-0.0064173713
72	0xbdba14e2	-0.09086014
73	0xbd1f4a04	-0.038888946
74	0x3d815066	0.06314163
75	0x3d88674f	0.066603296
76	0x3db06d5a	0.08614607
77	0x3ce06298	0.027390763
78	0x3d8395a7	0.06425028
79	0x3d0efc42	0.03490854
80	0x3ccd5350	0.02506414
81	0x3d35fae7	0.044428732
82	0x3cf44ef2	0.0298228
83	0xbc91fc1b	-0.017820409
84	0x3d2495e4	0.04018201
85	0x3d291064	0.041275397
86	0x3d7a3c3a	0.061092593
87	0xbc5769ef	-0.013147815
88	0xbdc40f7a	-0.095732644
89	0xbdbbb80b	-0.09165963
90	0xbd8de887	-0.06929117
91	0xbd1768a6	-0.036965035
92	0x3d91e394	0.07123485
93	0xbd61f725	-0.055167336
94	0xb9ff1823	-0.00048655373
95	0x3cfe6e25	0.03105838
96	0xbdc2ee32	-0.095180884
97	0x3d808033	0.06274452
98	0xbdc9c83a	-0.09852643
99	0x3d9dd97e	0.07707499
100	0x3d8909ca	0.0669132
101	0x3d717a7d	0.058954705
102	0xbd3c2333	-0.045932006
103	0x3dd92790	0.10603249
104	0x3b097eee	0.0020980197
105	0x3b7a9125	0.0038233486
106	0xbc91b898	-0.017788216
107	0x3d97e3dd	0.07416508
108	0xbd22550a	-0.03963188
109	0x3ce8d9e4	0.02842421
110	0x3d45bab3	0.048273753
111	0x3b069342	0.002053455
112	0xbd66a901	-0.05631352
113	0xbda5a154	-0.080874115
114	0xbc5715ee	-0.013127787
115	0x3cdc124c	0.026864193
116	0x3d913672	0.07090463
117	0xbc9cfdc1	-0.019163968
118	0x3d2631aa	0.040574707
119	0xbc8fa6be	-0.017535564
120	0x3df61733	0.12016144
121	0xbd2fa494	-0.042881563
122	0x3d17096b	0.036874216
123	0xbc31b811	-0.0108471075
124	0xbdafa9c7	-0.08577304
125	0x3d4d3bdd	0.05010592
126	0x3dc5712f	0.09640729
127	0xbd015952	-0.031579323

network.4.weight f4 [2, 128]
0	0xbc7b370d	-0.015332949
1	0x3d9f6ad3	0.07784047
2	0xbe03e88d	-0.1288168
3	0xbdb189e3	-0.08668878
4	0x3d936032	0.07196082
5	0x3d246efc	0.040144905
6	0x3d1cf647	0.038320806
7	0x3d2eff2d	0.042723823
8	0x3d834272	0.06409158
9	0xbdb77968	-0.08958703
10	0xbd874cb0	-0.06606424
11	0x3e09da12	0.13462093
12	0xbdac43c8	-0.08411366
13	0xbd5ef201	-0.05443001
14	0x3d04e453	0.03244431
15	0xbd894e9a	-0.06704445
16	0xbcf1a97c	-0.029499762
17	0xbc0183ed	-0.007904989
18	0xbd5a346d	-0.053272653
19	0xbc65a09a	-0.014015341
20	0xbdc5f1a5	-0.09665231
21	0x3e035eb8	0.12829101
22	0xbdb8270b	-0.08991822
23	0xbdc73518	-0.09726924
24	0xbd9e5962	-0.07731892
25	0xbc811b4c	-0.015760086
26	0xbd5fef75	-0.054671723
27	0xbd630fcd	-0.05543499
28	0x3d76715b	0.060166698
29	0x3cbb3b75	0.0228555
30	0x3d9f0b01	0.07765771
31	0xbcb69e91	-0.022292407
32	0xbc64940c	-0.013951313
33	0x3d3b0b26	0.04566493
34	0x3da65aa0	0.08122754
35	0x3d72e12b	0.05929677
36	0xbca8a043	-0.020584231
37	0x3d9264cf	0.07148134
38	0x3c85f90b	0.016354105
39	0xbe04eebe	-0.12981698
40	0x3d3dbb0f	0.04632097
41	0x3dce30cf	0.10067903
42	0xbd84c91b	-0.0648367
43	0x3c975344	0.018472321
44	0xbcf35d66	-0.029707622
45	0xbe14bc5a	-0.14524975
46	0x3d6f5641	0.058431868
47	0xbcccfa09	-0.02502157
48	0xbd3e0f8a	-0.046401538
49	0x3e025f9a	0.12731782
50	0x3d0ec2ed	0.034853864
51	0xbd034a76	-0.032053433
52	0x3d9cabb5	0.07649938
53	0xbd0b946e	-0.0340771
54	0x3d864cac	0.06557593
55	0x3d9298ca	0.071580485
56	0xbde51383	-0.11185362
57	0x3e0f2802	0.13980106
58	0xbe08fada	-0.13376942
59	0x3d82c3f9	0.06385035
60	0x3d8faa38	0.070148885
61	0x3bc87612	0.0061175907
62	0x3d518ee3	0.051161658
63	0xbe0f7129	-0.14008011
64	0xbd42324c	-0.047411248
65	0x3e270aec	0.1631276
66	0x3ddfc421	0.109260805
67	0x3deffa13	0.1171762
68	0x3c0ba05d	0.00852212
69	0xbd00113d	-0.03126644
70	0x3d96f95f	0.073717825
71	0xbd5a163a	-0.053243853
72	0x3d2fd743	0.0429299
73	0xbdb03ca3	-0.086053155
74	0x3d45f750	0.04833156
75	0xbd125906	-0.03572943
76	0x3e23f796	0.16012415
77	0x3c19d7fd	0.0093898745
78	0xbe1b8b73	-0.15189914
79	0xbe14e2ff	-0.14539717
80	0xbd69faf4	-0.057124093
81	0x3def6c30	0.11690557
82	0xbda141bc	-0.07873866
83	0x3ce3c85e	0.027805503
84	0xbd8b1abf	-0.06792211
85	0xbd83d556	-0.06437175
86	0x3cd81283	0.026376015
87	0x3cfe7a99	0.031064318
88	0x3cd4b036	0.02596293
89	0x3d053884	0.0325246
90	0xbd2b40f7	-0.041810002
91	0xbcc31018	-0.023811385
92	0x3c874432	0.01651201
93	0x3ce39d53	0.027784979
94	0xbd5df74f	-0.05419093
95	0xbcd550e8	-0.026039556
96	0xbd8c8dde	-0.068629965
97	0x3d8e9945	0.069628276
98	0x3cc96d42	0.024588231
99	0xbdce5620	-0.10075021
100	0x3dabeb0d	0.08394442
101	0xbe0ef502	-0.1396065
102	0xbd524eb8	-0.051344603
103	0xbdade04f	-0.08490049
104	0xbd2a8577	-0.04163119
105	0x38af86db	8.369769e-05
106	0x3d4a9b93	0.049464773
107	0xbdf0f6db	-0.11765834
108	0xbd01b3c7	-0.03166559
109	0xbcea7ff8	-0.028625473
110	0xbe1edbc1	-0.15513517
111	0xbe08b9cb	-0.13352124
112	0x3cdfca7f	0.027318237
113	0xbd90f1f0	-0.07077396
114	0x3d85956a	0.06522639
115	0x3d9c0a6b	0.076191746
116	0xbca14aa6	-0.019688915
117	0x3e023e82	0.12719157
118	0x3d98a9e5	0.0745428
119	0xbd37c067	-0.044861224
120	0xbe159a5a	-0.14609662
121	0xbd5cb53b	-0.053883772
122	0x3c41cfbc	0.011829313
123	0xbdcfb4e1	-0.10141922
124	0x3c25caca	0.010119149
125	0xbda2890f	-0.07936298
126	0x3dc9fc49	0.09862573
127	0x3db689fc	0.08913037
128	0xbd7270e5	-0.059189696
129	0xbc851589	-0.01624562
130	0x3dbccfc1	0.092193134
131	0x3df2d535	0.11857072
132	0x3d2b8fb8	0.041885108
133	0xbdc02534	-0.09382096
134	0x3ca9688c	0.020679735
135	0x3c5c1861	0.013433547
136	0xbe0b5cca	-0.13609615
137	0xbd8b2688	-0.06794459
138	0xbd940ba4	-0.07228783
139	0xbe17a243	-0.14807992
140	0x3d2e7c53	0.042599034
141	0x3d751215	0.059831697
142	0xbcd78e67	-0.02631302
143	0x3ceb079d	0.028690154
144	0x3cdb13ee	0.026742902
145	0xbcec896b	-0.02887412
146	0xbb775dbd	-0.0037745081
147	0x3d381b0a	0.04494766
148	0x3cec0a02	0.028813366
149	0xbdee5517	-0.11637323
150	0xbbb7b921	-0.005606786
151	0x3dd793e3	0.10526254
152	0xbd9b2712	-0.075758114
153	0xbc7e7be3	-0.015532467
154	0xbc20ee41	-0.009822429
155	0xbd6bfe5f	-0.057615634
156	0xbe283ae8	-0.16428721
157	0x3cf08687	0.029361023
158	0xbd234cc3	-0.039868128
159	0xbc2638d4	-0.010145385
160	0x3b40894d	0.0029378713
161	0x3c09e686	0.0084167775
162	0xbd811b46	-0.0630403
163	0x3b5a8e7a	0.0033349083
164	0xbd4012a0	-0.046892762
165	0x3cf172c6	0.029473674
166	0x3c4f9385	0.012669449
167	0x3dd9c76c	0.1063374
168	0x3c0d68f7	0.008630983
169	0xbd81e929	-0.063433
170	0x3dee3fb3	0.116332434
171	0x3d010e78	0.03150794
172	0x3dfc52f9	0.12320513
173	0x3e1d9533	0.15388946
174	0xbd5243e4	-0.051334277
175	0x3d493f69	0.04913274
176	0x3c6b6dfa	0.014369482
177	0xbe0de95c	-0.13858551
178	0xbe368277	-0.17823206
179	0x3b5319ee	0.00322115
180	0xba6b7792	-0.0008982356
181	0x3e01e039	0.1268319
182	0x3d250715	0.040289957
183	0x3d533747	0.05156639
184	0x3d4fbb77	0.05071589
185	0xbca1a292	-0.01973084
186	0x3da25788	0.079268515
187	0x3d8a9c20	0.0676806
188	0x3d922364	0.071356565
189	0xbd885be8	-0.06658155
190	0xbd8a0602	-0.06739427
191	0x3e013c56	0.12620673
192	0x3d82ff0b	0.06396302
193	0x3b5caa4f	0.0033670848
194	0xbe179205	-0.14801796
195	0xbe0150a8	-0.12628424
196	0xbcd6843c	-0.026186101
197	0xbd19a722	-0.037512906
198	0xbcbaecf7	-0.022818072
199	0xbc4034f0	-0.011731371
200	0xbd6b51db	-0.05745111
201	0x3d8c2747	0.06843429
202	0xbd4ef011	-0.050521914
203	0x3e089945	0.13339718
204	0xbe19896a	-0.14993826
205	0xbdbd3965	-0.09239463
206	0x3c1baec2	0.009502115
207	0x3dd6eac8	0.10494
208	0x3cf29ce6	0.02961583
209	0xbd739254	-0.05946572
210	0x3de976a5	0.11399583
211	0xbdaceb87	-0.08443361
212	0x3da84ab9	0.08217377
213	0x3db7074e	0.0893694
214	0x3dd7835e	0.10523103
215	0x3c9f8927	0.019474579
216	0xbd737e30	-0.059446514
217	0xbc94a281	-0.018143894
218	0x3d8556d0	0.06510699
219	0xbd6a291b	-0.057168107
220	0x3c6fd94e	0.014639212
221	0xbb59173d	-0.0033125423
222	0x3ca69470	0.020334452
223	0x3dac88d0	0.084245324
224	0xbd54f4bc	-0.05199121
225	0xbdaa6d86	-0.08321671
226	0x3bceb6af	0.0063083987
227	0x3dbdd629	0.092693634
228	0xbde9ea92	-0.11421694
229	0x3e267872	0.16256884
230	0x3db686de	0.089124426
231	0x3d87b333	0.066259764
232	0x3d92195c	0.07133743
233	0x3d13ca4e	0.036081605
234	0x3d43f058	0.04783663
235	0x3ceeb97a	0.029141176
236	0xbd3f1622	-0.046651967
237	0xbc821988	-0.015881315
238	0x3d1076a1	0.035269383
239	0x3d57208c	0.052521273
240	0xbbb86946	-0.005627784
241	0x3dab166d	0.08353887
242	0x3d3dcafc	0.04633616
243	0xbe1c0d0b	-0.1523935
244	0xbc57acdf	-0.013163774
245	0xbe05129f	-0.12995385
246	0x3daeb64c	0.08530864
247	0xbd415c99	-0.04720745
248	0x3e1bb28f	0.15204833
249	0x3d0be20b	0.03415112
250	0xbda02b84	-0.078208
251	0x3e15d4fa	0.14632025
252	0x3c3a4968	0.0113700405
253	0x3d02328e	0.031786494
254	0xbe03b8ba	-0.12863436
255	0xbe437386	-0.19087037

network.4.bias f4 [2]
0	0x3cbf62e0	0.023362577
1	0xbd5e232d	-0.054232765

network.0.weight f4 [128, 4]
0	0x3d8a095b	0.06740066
1	0x3e5340cf	0.20630191
2	0xbe93d69f	-0.2887468
3	0xbd94581e	-0.072433695
4	0x3d0ac563	0.03387965
5	0xbf037305	-0.5134738
6	0xbf05a2cd	-0.5220154
7	0x3d2a7157	0.041611996
8	0xbec911d7	-0.39271423
9	0x3de964b1	0.113961585
10	0xbecc01e5	-0.39845195
11	0xbe8ca2ea	-0.27468044
12	0xbe281516	-0.16414294
13	0x3da7afa9	0.081878014
14	0x3e9c646a	0.3054536
15	0x3d047d97	0.032346334
16	0xbd0f935d	-0.035052646
17	0x3efc0a62	0.4922667
18	0x3d30f215	0.043199617
19	0xbe860d33	-0.26181945
20	0xbe936c65	-0.28793636
21	0xbc600942	-0.013674082
22	0xbeb0f338	-0.3456056
23	0x3e199457	0.14997993
24	0x3e1f5276	0.155588
25	0x3f1e1eab	0.61765546
26	0x3e970622	0.29496866
27	0x3e2fc9fd	0.17166896
28	0xbe8dca5c	-0.2769345
29	0xbde59ddf	-0.11211752
30	0xbe1c49a0	-0.1526246
31	0x3d919f82	0.07110502
32	0xbe38a4c6	-0.18031606
33	0x3e443c3d	0.19163604
34	0xbe6b0b00	-0.22953415
35	0xbe8c4758	-0.2739818
36	0xbe4a970e	-0.19784185
37	0xbcc39016	-0.023872416
38	0x3ed95162	0.42444903
39	0xbea56dbe	-0.3231029
40	0x3ec8af37	0.39196178
41	0xbedf31bf	-0.4359264
42	0x3e3a135a	0.18171445
43	0x3f0680fa	0.5254055
44	0x3ea42382	0.3205834
45	0x3e42c218	0.19019353
46	0x3dd507c5	0.104018725
47	0x3e4a7488	0.19771016
48	0xbdcdab3f	-0.10042428
49	0x3e1beba7	0.15226613
50	0x3e730b9d	0.23734899
51	0xbc9fdaae	-0.019513454
52	0x3e347bd7	0.17625366
53	0x3d54c35d	0.051944125
54	0x3e186c94	0.1488517
55	0xbeb1bd59	-0.34714773
56	0xbe416610	-0.1888659
57	0x3e5c6019	0.21521033
58	0xbde73027	-0.11288481
59	0xbec61365	-0.38686672
60	0x3f0a1a56	0.53946435
61	0x3d043432	0.03227634
62	0x3e33a727	0.17544232
63	0x3cd4d53a	0.02598058
64	0xbecc9a3d	-0.39961424
65	0x3e2490c0	0.16070843
66	0xbf37a528	-0.71736383
67	0xbf22f718	-0.63658285
68	0xbeaadf1e	-0.3337335
69	0x3e8f8ed2	0.2803865
70	0xbe253ad8	-0.16135728
71	0xbe4a80d5	-0.19775708
72	0x3e1261c0	0.14295101
73	0xbd74782e	-0.059684925
74	0x3c9d6e7d	0.019217724
75	0xbebf9d88	-0.37424874
76	0x3edbf56f	0.42960688
77	0xbe8affe8	-0.27148366
78	0x3e896165	0.2683212
79	0xbeeb65b1	-0.45976022
80	0xbd484c54	-0.048900917
81	0xbbe001be	-0.006836145
82	0x3ef3873c	0.47564113
83	0xbe8aa54d	-0.2707924
84	0x3f2ca7b8	0.6744342
85	0x3ded59e0	0.11589408
86	0x3db1f8cf	0.086900346
87	0x3d87b206	0.06625752
88	0xbe472264	-0.19446713
89	0xbe057da8	-0.13036215
90	0x3f03ac3d	0.5143469
91	0xbe8894ef	-0.26676127
92	0x3cf40a21	0.029789986
93	0xbe7e61d0	-0.24842
94	0x3ebb0546	0.3652746
95	0x3ee0fd70	0.43943357
96	0xbe86c06e	-0.26318687
97	0x3ead3c3c	0.33835018
98	0xbe730e62	-0.23735955
99	0xbec8eb91	-0.39242223
100	0x3ecbae4f	0.39781424
101	0x3c2c6491	0.010522024
102	0xbc8e5e68	-0.017379
103	0xbe8b7131	-0.27234796
104	0xbe81290d	-0.25226632
105	0xbe1b9bbf	-0.15196131
106	0x3e7f9b21	0.2496152
107	0x3ee6bcfd	0.45066062
108	0xbea8ddf6	-0.32981843
109	0x3e7d5d0d	0.24742527
110	0xbdf35690	-0.11881745
111	0x3eec441a	0.46145707
112	0x3cf22dc8	0.029562846
113	0x3efbceac	0.49181116
114	0xbde771f6	-0.11301033
115	0xbe95fbab	-0.2929357
116	0x3e8a9407	0.2706606
117	0xbed804c3	-0.42191133
118	0x3dfca1dd	0.123355605
119	0x3eaf3cd2	0.3422609
120	0x3e3a322b	0.181832
121	0xbef48155	-0.47754923
122	0x3f2434e8	0.6414323
123	0xbd58b3af	-0.052905735
124	0x3d7d6529	0.061864052
125	0xbf077fcf	-0.52929395
126	0x3e140737	0.14455877
127	0x3eddf8e8	0.43353963
128	0xbee6dce1	-0.45090392
129	0xbcf53780	-0.029933691
130	0xbebea135	-0.37232366
131	0xbd8b9f10	-0.06817448
132	0xbe7d791c	-0.24753231
133	0x3e3c361f	0.1838002
134	0x3e9113ed	0.28335515
135	0x3e87e1bb	0.26539406
136	0x3e24b619	0.1608509
137	0x3e8a007e	0.269535
138	0x3e4e6b02	0.20158008
139	0x3eeb34d7	0.4593875
140	0xbe6d9ca8	-0.23204291
141	0x3e8cceb1	0.27501443
142	0xbdc0a43f	-0.094063275
143	0xbed2d4eb	-0.4117807
144	0xbf0fc0a5	-0.5615333
145	0xbed51954	-0.41620886
146	0xbd1ef3e7	-0.038806822
147	0xbd77c96c	-0.060494825
148	0x3eb1f329	0.3475583
149	0xbe46a518	-0.19398916
150	0xbe7ccb39	-0.24686898
151	0xbdb842e1	-0.08997131
152	0x3e38c853	0.18045168
153	0x3e500b0b	0.20316713
154	0xbec489a1	-0.38386253
155	0xbe53c5dd	-0.20680948
156	0x3e8d4337	0.27590343
157	0x3e7f02b9	0.24903382
158	0x3e89c06f	0.26904628
159	0xbd5fc3d5	-0.05463012
160	0xbe86b02a	-0.26306278
161	0x3ed1d77d	0.40984717
162	0x3e030fe0	0.12799025
163	0x3db14c30	0.0865711
164	0x3ec06448	0.3757651
165	0x3c2abbb5	0.010420729
166	0xbed4bdd2	-0.4155107
167	0x3ea77b60	0.32711315
168	0x3f17be55	0.592748
169	0xbeb41ec4	-0.35179722
170	0x3e46f9ce	0.1943123
171	0x3d63849b	0.055546384
172	0xbf40b1cb	-0.7527129
173	0x3f2d792d	0.67763025
174	0xbedc9617	-0.4308326
175	0xbce38057	-0.027771158
176	0x3f1e5178	0.6184306
177	0x3e774450	0.24147153
178	0xbe045ab7	-0.1292523
179	0xbd762421	-0.06009305
180	0xbe1d089e	-0.15335318
181	0xbc0f7045	-0.0087547945
182	0xbf025342	-0.5090829
183	0x3e84e1cd	0.25953522
184	0xbe216eeb	-0.15764968
185	0xbf02d60f	-0.5110788
186	0xbc786b2d	-0.015162271
187	0xbe8ca1f1	-0.274673
188	0x3f34aef6	0.7057947
189	0xbe532989	-0.20621313
190	0xbe7ad781	-0.2449627
191	0x3ec55915	0.38544527
192	0xbe47ebbc	-0.1952352
193	0x3d4ea9e0	0.050454974
194	0xbe6d8465	-0.23195036
195	0xbdd4b15d	-0.10385392
196	0xbf204d44	-0.626179
197	0xbda19e15	-0.0789148
198	0x3ebaab33	0.3645874
199	0x3e8ea42f	0.27859637
200	0xbdeca25f	-0.11554407
201	0x3ea4d117	0.32190773
202	0xbdc58d3b	-0.09646078
203	0x3d1cc8a1	0.038277272
204	0x3e046c5d	0.12931962
205	0xbd8a2338	-0.06744999
206	0xbe54acd4	-0.20769054
207	0xbdd86c26	-0.10567503
208	0xbd1fb782	-0.038993366
209	0x3dfd2239	0.12360043
210	0x3e8c68eb	0.27423796
211	0xbdd0dc59	-0.10198278
212	0xbe3d31d3	-0.18476038
213	0x3ea3a97a	0.31965238
214	0xbea24ab9	-0.31697634
215	0x3ead8d37	0.338968
216	0x3e827b2d	0.254846
217	0xbe9e8e77	-0.30968067
218	0x3ce1f9b9	0.027584897
219	0x3edf2131	0.4358001
220	0xbe1a2ff8	-0.15057361
221	0xbf13111c	-0.5744798
222	0x3e97e9dd	0.2967061
223	0xbe2e0f07	-0.1699792
224	0xbdda4eac	-0.10659537
225	0xbe9195ab	-0.284345
226	0xbee0479b	-0.4380463
227	0x3e00de96	0.1258491
228	0xbefa4237	-0.48878643
229	0xbf14919d	-0.5803469
230	0x3e9a6e65	0.3016235
231	0xbed4ad10	-0.41538286
232	0x3eafa842	0.34308058
233	0xbeb9c8d3	-0.3628603
234	0xbe8c11e6	-0.27357405
235	0x3de0cb1e	0.109762415
236	0xbe8c411e	-0.2739343
237	0x3e28d8fc	0.16489023
238	0xbdf0d340	-0.11759043
239	0x3ed73ecb	0.42040095
240	0x3ed6ff6b	0.41991743
241	0xbeeda5d8	-0.4641559
242	0x3ceb3787	0.028713001
243	0xbd8af030	-0.067840934
244	0x3e89599a	0.26826173
245	0x3f1e1684	0.61753106
246	0x3f093c7b	0.5360791
247	0xbe13a97f	-0.14420126
248	0xbe7b6151	-0.24548842
249	0xbea680e9	-0.32520226
250	0xbe64da77	-0.22348963
251	0xbddac977	-0.106829576
252	0xbedaae4f	-0.42711112
253	0xbeb47cb1	-0.35251382
254	0xbe74c818	-0.23904455
255	0x3eb343c2	0.35012633

network.0.bias f4 [128]
0	0x3f0ae444	0.54254556
1	0x3e64a72f	0.223294
2	0x3d00618e	0.031343035
3	0x3ea288a7	0.31744882
4	0xbe87d5dd	-0.26530352
5	0x3f3619cc	0.7113311
6	0xbe738fc0	-0.23785305
7	0x3f379470	0.7171087
8	0x3c60594e	0.013693167
9	0x3f3ab508	0.7293248
10	0xbd4eb6f1	-0.050467435
11	0xbe9d3ee7	-0.30712053
12	0x3e7e3665	0.24825437
13	0x3f254ff7	0.6457514
14	0x3e92413b	0.28565392
15	0xbea5467a	-0.32280332
16	0xbe75922c	-0.23981541
17	0x3f13f3de	0.57793987
18	0x3e7cf461	0.24702598
19	0x3f0a0b12	0.5392314
20	0x3e9109e1	0.2832785
21	0xbd77133d	-0.06032108
22	0x3e2d8765	0.1694618
23	0xbe4e87e6	-0.20169029
24	0x3f1872f1	0.59550387
25	0xbdcb85ee	-0.099376544
26	0xbe73e11c	-0.23816341
27	0x3ed4f649	0.4159415
28	0xbe32b654	-0.17452365
29	0x3eebb64e	0.46037525
30	0xbe1f8ed3	-0.15581827
31	0x3e008979	0.12552442
32	0xbc3f9597	-0.01169338
33	0x3ed7c667	0.42143556
34	0x3e8d3410	0.27578783
35	0x3ef8cbdc	0.48593032
36	0xbea17c99	-0.31540373
37	0x3eccac89	0.39975384
38	0xbdb78cae	-0.089623794
39	0x3f246858	0.64221716
40	0x3f0b6098	0.54444265
41	0x3ee31aac	0.44356287
42	0xbdfd9780	-0.12382412
43	0xbe3e84e0	-0.18605375
44	0xbd8bb0ed	-0.06820855
45	0x3eb0317b	0.3441275
46	0xbda79294	-0.081822544
47	0xbe3cf2db	-0.18452017
48	0x3edc9cdf	0.43088433
49	0xbe256e2a	-0.16155306
50	0x3f00657d	0.5015486
51	0x3e6c6ca9	0.23088326
52	0x3e968aaa	0.29402667
53	0x3e507941	0.20358755
54	0xbe878ac3	-0.26473054
55	0xbea5f1a7	-0.3241093
56	0x3f16570d	0.5872658
57	0xbe4b5fe1	-0.19860794
58	0x3eee09fd	0.46491995
59	0x3ec2d472	0.38052708
60	0x3eaaf016	0.33386296
61	0xbe96d1fb	-0.29457077
62	0x3f0910b2	0.535411
63	0xbe91d24a	-0.2848075
64	0x3f2dd3c9	0.67901284
65	0x3f2eeca8	0.6832986
66	0x3f22f92a	0.63661444
67	0xbe2d26e1	-0.16909362
68	0xbe898038	-0.26855636
69	0x3ebbe676	0.36699265
70	0xbe8360bf	-0.2565975
71	0x3d28a980	0.041177273
72	0x3f14481f	0.5792255
73	0xbe09a582	-0.13442042
74	0x3e3708c4	0.17874438
75	0x3e7ae5c1	0.24501707
76	0x3f09cff3	0.5383293
77	0xbe6f3f65	-0.23364027
78	0xbde5db76	-0.112234995
79	0xbdc2b029	-0.09506256
80	0x3ec60947	0.38678953
81	0xbe040f13	-0.12896375
82	0x3f05d831	0.52283007
83	0xbe8693f8	-0.26284766
84	0x3eb26e9c	0.34850013
85	0x3f0db8b2	0.5535995
86	0x3f0a5824	0.5404074
87	0x3ec1faac	0.3788656
88	0x3e9bc532	0.30423886
89	0x3f17083e	0.5899695
90	0xbe67e91b	-0.22647516
91	0x3f3d55ca	0.7395903
92	0x3ed39e9c	0.41331947
93	0xbe8e4161	-0.27784255
94	0x3f1d0610	0.61337376
95	0xbe231292	-0.15925053
96	0x3f30de38	0.6908908
97	0xbe7babc5	-0.24577244
98	0x3e81d370	0.25356627
99	0xbe1d284b	-0.15347402
100	0xbea484a3	-0.32132444
101	0x3f1f2d73	0.62178725
102	0xbe360158	-0.1777395
103	0xbdf7d722	-0.1210158
104	0x3efdc03b	0.49560723
105	0x3f2a8df9	0.66622883
106	0x3f36b9ca	0.7137724
107	0x3e8b0121	0.271493
108	0x3edbf28d	0.4295849
109	0x3e847e58	0.25877643
110	0x3f1dbba1	0.61614424
111	0x3f317fa7	0.69335407
112	0x3f0f04ab	0.558665
113	0xbdb2e82e	-0.08735691
114	0x3ef1d7b0	0.4723487
115	0xbe56c96f	-0.20975278
116	0x3ecbb6e2	0.39787966
117	0x3f2b30e1	0.6687146
118	0x3f10d9ce	0.56582344
119	0x3f031043	0.5119669
120	0xbe72e152	-0.23718765
121	0xbd8373c6	-0.064185664
122	0x3e5b4c3b	0.21415798
123	0x3f1ba9aa	0.6080576
124	0x3ee9fb45	0.45699516
125	0xbea92375	-0.33034864
126	0x3ede0b29	0.4336789
127	0x3eb03d77	0.34421894

network.2.weight f4 [128, 128]
0	0x3cfe847f	0.031069038
1	0x3d7f3cc9	0.06231383
2	0xbda5df69	-0.08099253
3	0xbd5d4792	-0.054023333
4	0x3d05b130	0.032639682
5	0xbd6bc4fa	-0.0575609
6	0xbd2f79aa	-0.042840637
7	0xbc996d2b	-0.018728813
8	0xbd173411	-0.03691489
9	0xbce91e04	-0.028456695
10	0xbd7c5ed2	-0.061613865
11	0xbbb5efcc	-0.0055522677
12	0xbddaad74	-0.10677615
13	0x3d0157f5	0.031578023
14	0x3d86716b	0.065646015
15	0xbcfc10e8	-0.03076978
16	0xbd438ffd	-0.04774474
17	0x3d2bd9b2	0.041955657
18	0xbcb6ee27	-0.022330357
19	0xbd3d36ea	-0.04619495
20	0x3c9b3949	0.018948214
21	0x3ccf62d6	0.025315683
22	0x3d5e257d	0.05423497
23	0xbda49526	-0.0803626
24	0x3c0a0827	0.008424795
25	0x3c8fdd1b	0.017561486
26	0xbcc44306	-0.02395774
27	0x3bc5e64b	0.006039416
28	0xbdc4b666	-0.09605102
29	0xbc6489cd	-0.01394887
30	0x3d716dd1	0.05894262
31	0xbd051475	-0.032490212
32	0xbcae2441	-0.021257522
33	0x3d854570	0.06507385
34	0xbd0a6fef	-0.033798154
35	0xbd6a2cd0	-0.057171643
36	0xbd75c2ba	-0.06000016
37	0x3cd9ddb3	0.026594972
38	0x3ce0c8d6	0.027439516
39	0xbdb67b7c	-0.089102715
40	0x3d1ec71b	0.0387641
41	0xbcb7db5f	-0.022443471
42	0xbcc140ae	-0.023590412
43	0x3d8a0ffa	0.067413285
44	0xbdac1627	-0.08402663
45	0xbd37b49b	-0.044849973
46	0x3d4dd941	0.050256018
47	0x3d35ece0	0.044415355
48	0xbb6138e5	-0.0034366187
49	0xbd1a2a1b	-0.03763781
50	0x3d62b9e4	0.05535306
51	0x3d530004	0.051513687
52	0xbd7500ad	-0.059815098
53	0x3d56d459	0.052448604
54	0x3d10351e	0.035206906
55	0x3c068403	0.008210185
56	0x3c72ebb6	0.014826706
57	0xbd4e0a52	-0.05030281
58	0xbd87a3d3	-0.06623044
59	0xbd1ed81a	-0.03878031
60	0x3d5a8792	0.053351946
61	0xbd568b57	-0.05237898
62	0x3d61cdfc	0.055128083
63	0xbca496a7	-0.020091368
64	0xbcf7f69a	-0.030268956
65	0x3d0f2d7a	0.03495548
66	0xbd6f5435	-0.058429915
67	0xbcd49b61	-0.025952997
68	0x3d794c88	0.060864
69	0xbd951adb	-0.07280513
70	0xbc4f115a	-0.012638414
71	0xbd34070d	-0.043952037
72	0x3b59743c	0.0033180853
73	0x3db19318	0.08670634
74	0x3c38e31a	0.011284614
75	0xbd37201f	-0.044708367
76	0x3d106bbe	0.035259
77	0xbda0a1d0	-0.07843363
78	0xbb82abd6	-0.0039877696
79	0xbd0e815b	-0.03479133
80	0xbc73c6f7	-0.01487898
81	0xbda63762	-0.08116032
82	0xbd83b3e0	-0.06430793
83	0xbd2850ed	-0.0410928
84	0x3d850307	0.06494718
85	0xbd8d4e56	-0.06899707
86	0xbd8a5cc9	-0.067559786
87	0xbd604a0b	-0.054758113
88	0xbdb0b800	-0.08628845
89	0xbc64441c	-0.013932254
90	0x3d63bcdb	0.05560003
91	0x3d623e92	0.055235453
92	0x3cf148d9	0.029453682
93	0x3cf45a17	0.029828114
94	0xbda7de38	-0.08196682
95	0x3be575f1	0.007002585
96	0xbd652d19	-0.05595121
97	0x3d8ddf63	0.06927373
98	0x3d6dfaca	0.0581005
99	0xbd6b3173	-0.057420205
100	0xbd9fe6af	-0.07807671
101	0x3d857684	0.06516746
102	0x3da98ce8	0.08278829
103	0xbdba2f53	-0.09091058
104	0x3d4fdc23	0.050747048
105	0xbd6b6db9	-0.057477687
106	0xbd2efaf7	-0.042719807
107	0xbd3fef19	-0.04685888
108	0x3c813707	0.01577331
109	0x3cc109ef	0.023564307
110	0x3d1c1acf	0.038111504
111	0x3c833030	0.016014189
112	0x3d5d99df	0.05410182
113	0x3d9606b4	0.07325497
114	0xbcc1d23a	-0.023659814
115	0xbd9d4848	-0.07679802
116	0xbd51f2ea	-0.05125705
117	0x3d49e197	0.049287405
118	0xbc8aca78	-0.016942248
119	0xbcd81f3c	-0.026382081
120	0x3d81fba5	0.063468255
121	0x3d855fd1	0.06512416
122	0xba7e6630	-0.0009704558
123	0xbd9666c6	-0.07343821
124	0x3d60de4e	0.054899506
125	0x3d12633f	0.03573918
126	0x3c83fb4b	0.016111037
127	0xbbdb581a	-0.006693852
128	0x3da350c0	0.07974386
129	0x3da37874	0.07981959
130	0x3d93bd38	0.07213825
131	0xbdaafaf5	-0.083486475
132	0xbd8c1a7c	-0.06840989
133	0x3cf10ba9	0.029424505
134	0xbd208aab	-0.039194744
135	0xbdb23e9e	-0.087033495
136	0xbc796144	-0.015220944
137	0x3d4a870c	0.049445197
138	0xbd63d477	-0.055622544
139	0x3bd9c4a7	0.0066457572
140	0x3d43c00a	0.047790565
141	0xbc3c8486	-0.011506205
142	0xbd9d8915	-0.07692162
143	0x3da13fde	0.0787351
144	0x3dada0dd	0.08477948
145	0x3d4b5dda	0.04965005
146	0x3cb098a6	0.021557163
147	0x3d5a1899	0.053246114
148	0x3ce3d931	0.027813526
149	0xbd801b59	-0.06255216
150	0xbd0e80c1	-0.034790758
151	0x3d6596c2	0.056051977
152	0xbcdbb702	-0.026820663
153	0xbd264f62	-0.04060305
154	0xbc84e617	-0.016222997
155	0xbd92ac0e	-0.07161723
156	0x3d24bd2c	0.04021947
157	0x3ce8f62e	0.0284377
158	0xbd43500a	-0.047683753
159	0xbd1301b7	-0.035890307
160	0xbd569d97	-0.052396383
161	0xbd9e3127	-0.07724219
162	0x3d840b06	0.06447415
163	0xbd828e72	-0.063748255
164	0x3c9ad769	0.018901544
165	0x3da573c2	0.0807872
166	0xbdb36976	-0.087603495
167	0xbd87b9b7	-0.06627219
168	0xbcf093d4	-0.029367365
169	0xbd9a7b87	-0.07543092
170	0xbd77e4a8	-0.060520798
171	0xbd080e17	-0.033216562
172	0xbcb25f58	-0.021773979
173	0x3d990056	0.07470767
174	0x3d3d7548	0.046254426
175	0x3cd19a83	0.025586372
176	0xbd00b38a	-0.03142122
177	0x3d251f9b	0.040313344
178	0xbd629ec6	-0.0553272
179	0xbd9b833c	-0.0759339
180	0xbd09b2a4	-0.03361763
181	0x3d85b7d4	0.06529203
182	0xbcfb83fe	-0.030702587
183	0xbd15d666	-0.03658142
184	0xbd2bb13d	-0.041917074
185	0xbd5cb29e	-0.05388128
186	0x3d0ecdd7	0.034864273
187	0x3db23a2d	0.087025024
188	0x3afe5afd	0.0019405779
189	0x3d095499	0.033527944
190	0xbd3ab926	-0.045586728
191	0xbccc2a21	-0.024922432
192	0xbda1b016	-0.07894914
193	0x3cbf4a7b	0.023350945
194	0x3d95f5d1	0.073222764
195	0xbd4ad069	-0.04951516
196	0x3d1556c7	0.03645971
197	0x3d643a96	0.055719934
198	0xbc8f6c03	-0.017507559
199	0x3bd7dfc1	0.006587953
200	0x3d2f7985	0.0428405
201	0xbd289bf6	-0.04116436
202	0xbd91d636	-0.071209356
203	0xbbdb716c	-0.0066968706
204	0xbc1e5543	-0.009663883
205	0xbd1f9132	-0.03895683
206	0x3d353c6f	0.044247087
207	0x3cc8b28e	0.024499204
208	0xbd4bd35d	-0.04976212
209	0xbdad7622	-0.08469798
210	0x3d810e21	0.06301523
211	0x3d213e41	0.03936601
212	0x3d64dd38	0.055875033
213	0xbd80f2f3	-0.06296339
214	0x3d0bb4e3	0.034108054
215	0x3d1a08fe	0.037606232
216	0xbda3bd3a	-0.079950765
217	0xbcc2eee9	-0.023795562
218	0xbd72260d	-0.05911832
219	0xbdaa12ad	-0.083043434
220	0x3db16982	0.08662702
221	0xbd7a1e27	-0.06106391
222	0x3dad9254	0.084751755
223	0x3d7e48c2	0.062081106
224	0xbcffbeb5	-0.031218866
225	0xbd508efb	-0.050917607
226	0xbcc8bb76	-0.02450345
227	0x3da0e9e6	0.078571126
228	0x3d206ca9	0.039166126
229	0xbd42c120	-0.04754746
230	0xbd8dee7c	-0.06930253
231	0x3da99754	0.08280817
232	0xbcb22ba8	-0.021749333
233	0x3d9e31c7	0.07724338
234	0xbb6495ae	-0.0034879255
235	0x3db0f2d8	0.08640069
236	0xbd9efb26	-0.077627465
237	0xbd8f1f50	-0.06988394
238	0xbd3f7c90	-0.04674965
239	0x3c9caaa2	0.019124333
240	0xbdaa3385	-0.08310608
241	0x3d3b144c	0.045673653
242	0xbda8c96b	-0.082415424
243	0x3d97afcf	0.0740658
244	0x3d9ac852	0.07557739
245	0xbd6540d3	-0.055970024
246	0xbd89b778	-0.06724447
247	0x3dafc9ac	0.08583388
248	0xbc0a9956	-0.00845941
249	0xbd2e5878	-0.04256484
250	0xbd3f6cf9	-0.046734784
251	0x3d29ac30	0.041423976
252	0x3b9d6cee	0.004804245
253	0xbd2f2519	-0.04275999
254	0xbd0fd852	-0.03511841
255	0x3d954aef	0.07289683

network.2.bias f4 [128]
0	0xbc003ff8	-0.007827751
1	0xbd149ce3	-0.03628243
2	0x3e2b7ac1	0.16746046
3	0x3e30157e	0.17195699
4	0x3d8c20c4	0.06842187
5	0x3e42e700	0.19033432
6	0x3e004982	0.12528041
7	0xbda3d164	-0.079989225
8	0x3e55ad2b	0.2086684
9	0xbd0224e1	-0.03177345
10	0xbcd7edd5	-0.026358524
11	0x3d6de3eb	0.058078688
12	0x3e660b52	0.22465256
13	0xbdf5b5e3	-0.11997583
14	0x3e38d970	0.18051696
15	0x3e86d9b8	0.2633798
16	0x3d0a784a	0.033806123
17	0x3e49ee89	0.197199
18	0x3e3a6f9c	0.18206638
19	0x3c37ec95	0.011225839
20	0xbc14dae2	-0.009085389
21	0xbdb607ac	-0.08888182
22	0xbd34b200	-0.044115067
23	0xbd00dba6	-0.031459473
24	0x3d896a6e	0.06709753
25	0xbd6d084c	-0.05786924
26	0x3e47d38a	0.1951429
27	0xbd9b7aae	-0.07591759
28	0x3e59df8a	0.2127668
29	0x3e5d7b87	0.21629153
30	0xbdab8920	-0.08375764
31	0xbdc1ddd8	-0.094661415
32	0x3e377bcc	0.17918319
33	0xbcd7695c	-0.026295356
34	0xbdc9344d	-0.09824429
35	0xbd3a98e2	-0.045555957
36	0x3e81bb9e	0.25338453
37	0x3d6c5fc4	0.057708517
38	0x3e80bd73	0.25144538
39	0x3e0070a4	0.12542969
40	0x3e6b4606	0.2297593
41	0x3e0b1e64	0.13585812
42	0xbcb83b51	-0.022489222
43	0x3c22e679	0.009942644
44	0xbbc92670	-0.0061386153
45	0x3e833627	0.25627252
46	0x3e286da8	0.1644808
47	0x3d1f6fdf	0.038925048
48	0x3d5af082	0.053452022
49	0x3d869198	0.065707386
50	0xbdac931d	-0.08426497
51	0x3d572e89	0.052534614
52	0xbd37a912	-0.044838972
53	0x3e94ec2a	0.2908643
54	0x3e55d02b	0.20880191
55	0xbda0d380	-0.078528404
56	0x3d5c6e59	0.053816173
57	0x3b709367	0.0036708952
58	0xbcca4fc8	-0.024696246
59	0x3d2428cf	0.04007798
60	0x3e8e090c	0.27741277
61	0x3e1a8270	0.1508882
62	0xbd765183	-0.06013633
63	0xbcc6b583	-0.024256473
64	0x3e994772	0.2993732
65	0x3d8338d6	0.06407325
66	0x3b04626b	0.0020200263
67	0x3e86480f	0.2622685
68	0x3c6b1be5	0.014349912
69	0x3d20f320	0.039294362
70	0x3e9ddc0f	0.30831954
71	0x3e5e4834	0.21707231
72	0x3d8e70cd	0.06955109
73	0xbce099b2	-0.027417038
74	0x3e542539	0.20717324
75	0x3e840173	0.25782356
76	0x3e95e13e	0.2927341
77	0xbda4dc3f	-0.08049821
78	0x3ca2109f	0.019783316
79	0xbc9f8e92	-0.019477163
80	0x3c9b0ebe	0.018927928
81	0x3e90e47c	0.2829932
82	0x3e928088	0.28613687
83	0xbcb7ddb5	-0.022444585
84	0x3e8e5b4d	0.27804032
85	0x3c266604	0.010156158
86	0xbda2ca45	-0.07948736
87	0x3e8e1178	0.27747703
88	0xbd67f395	-0.056628782
89	0x3e54b0bb	0.20770542
90	0xbb895d14	-0.004192004
91	0x3e8a50fc	0.2701491
92	0xbcc59dfd	-0.024123186
93	0x3e0cae32	0.13738325
94	0x3e58e075	0.21179374
95	0xbd86fa8d	-0.065907575
96	0xbdb33319	-0.087499805
97	0x3d0e59c3	0.034753572
98	0x3e302f6c	0.1720559
99	0xbc75b102	-0.014995815
100	0x3b86ef6c	0.004117897
101	0x3d653be9	0.055965338
102	0x3d4c21f4	0.049837068
103	0x3e384327	0.17994367
104	0xbd879cab	-0.06621679
105	0x3d000cbb	0.03126214
106	0xbd672eac	-0.056440994
107	0x3e1139bd	0.14182182
108	0xbc0e6394	-0.008690733
109	0xbca8f9d0	-0.020626932
110	0x3e7132e9	0.23554577
111	0x3e10c002	0.14135745
112	0x3e7835cb	0.2423927
113	0xbc33943a	-0.010960633
114	0x3e4022ef	0.18763326
115	0x3df26e76	0.11837475
116	0x3cf99e8a	0.030471105
117	0xbcdd0282	-0.026978735
118	0x3c9fff00	0.019530773
119	0x3d58dde4	0.052945986
120	0xbc50f8c7	-0.012754626
121	0x3d1c7e5c	0.038206443
122	0x3e8c044a	0.27347022
123	0x3d4d4005	0.050109882
124	0x3e894bdc	0.2681569
125	0xbcdfd745	-0.027324328
126	0xbd9bfbe7	-0.07616406
127	0xbd2075b2	-0.039174743
