week 6/checkpoints/reinforce_baseline_cartpole_seed4.pth (torch, 450447 bytes, 33 tensors)

network.0.weight f4 [128, 4]
0.28693995 0.1550559 -0.002019218 -0.07346118 0.26389524 0.037041932 -0.19091119 0.3356733
0.40341836 0.16406547 0.6508324 0.57124364 -0.17227143 -0.40655774 0.37924436 0.44089404
0.019092344 -0.31640017 0.110620394 -0.18634136 -0.11173734 -0.3417658 -0.4498143 0.12540425
0.36715436 -0.18327682 0.22246009 -0.07022431 -0.0343758 0.39040905 0.32299766 -0.2642923
0.20918904 -0.2995973 0.40768233 -0.017556995 0.3403422 -0.33298698 -0.009543703 -0.52803606
0.26965305 0.15521467 0.48350236 -0.3714259 0.13129112 -0.39977655 -0.10864277 0.063882686
0.45605192 0.3951079 -0.24284258 -0.09820529 -0.0990157 0.22918826 0.20673858 0.42611894
0.4100997 -0.51331 -0.7602812 -0.03627139 -0.3073858 -0.24897832 -0.43775898 0.16619962
-0.13756053 0.19827172 -0.24053094 -0.25615916 -0.16795269 -0.16559851 0.034609064 -0.2729305
-0.051283356 -0.4281207 -0.71087587 -9.4767485e-05 -0.27246213 0.29812583 -0.586981 -0.09650949
-0.48956984 -0.21839744 -0.23155405 0.31864113 0.13374703 -0.34245753 -0.5300566 -0.5343814
-0.3830588 -0.1927257 0.22754663 0.35013863 -0.077207245 -0.30002132 -0.3105653 -0.05383997
-0.3797213 -0.25250083 -0.5029413 0.2630384 -0.18474239 -0.45124292 -0.37603444 -0.15835334
0.24008818 -0.36010823 -0.5562415 -0.37698737 0.08224817 0.24332944 -0.57581687 -0.21077771
0.31799886 0.34096697 -0.14494872 0.4835482 -0.16108425 -0.34330708 0.1446588 0.37967452
0.44106677 0.22921911 0.6960769 0.40554416 0.035316404 -0.16829616 -0.577977 0.026008962
-0.02066861 0.32744828 -0.32707503 0.40881392 -0.45787704 -0.020785188 0.23282534 -0.28441116
-0.09007639 -0.37198737 -0.30458575 -0.46723682 -0.03667644 0.20883775 -0.06727796 0.40375775
0.33643827 -0.4132758 0.25656173 -0.037562467 -0.03091526 0.12534583 0.23670161 0.22359514
0.0181695 -0.090663545 -0.66667795 -0.46347776 0.05364724 -0.35012498 0.22663768 0.47164193
-0.4574878 -0.38293168 0.079255015 -0.27126583 0.35623494 -0.33117026 0.3733887 0.04233441
0.30205572 0.063938156 -0.7179169 -0.54558396 -0.34329534 -0.217183 0.29347196 0.45199308
0.15101127 -0.3880199 -0.39462426 -0.17176686 -0.13410488 0.2836043 -0.066617765 -0.54739124
0.4974944 -0.24836993 0.4761356 0.34303564 -0.3660235 -0.2882782 0.5818833 0.30154604
0.42664388 0.4327021 0.09797529 -0.15705469 0.22549553 -0.36597314 -0.5010144 0.23450299
0.100156374 0.1362174 0.56967974 0.43523505 0.08181298 0.13179958 0.23112977 0.34149784
-0.37057316 -0.43431145 0.49195683 0.19524306 -0.4399094 -0.37703022 -0.2950582 0.17318393
-0.47919768 0.4952806 -0.051139127 0.3823286 -0.375542 0.25816378 -0.18242964 -0.003352062
-0.16962536 -0.047976542 0.22750789 -0.21784201 -0.07373908 -0.25069523 -0.18645458 -0.47835192
-0.44637847 -0.47788897 -0.49650836 -0.35738617 -0.42306852 -0.2644705 0.40831357 0.48603937
-0.029621411 -0.05460449 -0.76234895 -0.12590949 -0.25882745 0.33437762 -0.032443646 0.14585604
0.4204946 0.09607351 0.10182697 -0.046883438 0.071973026 -0.07567927 0.6925692 0.50481147
00000000: cbe9 923e f9c6 1e3e db54 04bb d172 96bd
00000010: 471d 873e 48b9 173d 397e 43be 5fdd ab3e
00000020: da8c ce3e c700 283e f49c 263f 063d 123f
00000030: ec67 30be 5628 d0be 512c c23e ddbc e13e
00000040: 8c67 9c3c 34ff a1be f28c e23d 45d0 3ebe
00000050: 8cd6 e4bd edfb aebe 0f4e e6be f969 003e
00000060: a8fb bb3e ebac 3bbe 94cc 633e c3d1 8fbd
00000070: a4cd 0cbd b2e3 c73e f35f a53e 5251 87be
00000080: a735 563e d164 99be bdbb d03e b0d3 8fbc
00000090: 5541 ae3e 457d aabe 315d 1cbc 5f2d 07bf
000000a0: f70f 8a3e 98f0 1e3e 9f8d f73e 892b bebe
000000b0: 2e71 063e 83af ccbe 1a80 debd edd4 823d
000000c0: a37f e93e 954b ca3e baab 78be db1f c9bd
000000d0: bec8 cabd 54b0 6a3e 47b3 533e 432c da3e
000000e0: 96f8 d13e 4968 03bf caa1 42bf 4f91 14bd
000000f0: ac61 9dbe 2cf4 7ebe f221 e0be 3c30 2a3e
00000100: abdc 0cbe be07 4b3e be4d 76be 4b27 83be
00000110: cafb 2bbe a892 29be 3cc2 0d3d 8cbd 8bbe
00000120: 7f0e 52bd a332 dbbe f6fb 35bf e8bd c6b8
00000130: 2880 8bbe f3a3 983e 6344 16bf c4a6 c5bd
00000140: e6a8 fabe 94a3 5fbe 811c 6dbe ee24 a33e
00000150: fbf4 083e 9856 afbe cab1 07bf 38cd 08bf
00000160: 4820 c4be e359 45be fc01 693e 5f45 b33e
00000170: d51e 9ebd 659c 99be 6a02 9fbe 4d87 5cbd
00000180: d56a c2be ca47 81be c3c0 00bf f8ac 863e
00000190: 1c2d 3dbe 5009 e7be 9687 c0be 6127 22be
000001a0: add9 753e 1b60 b8be d865 0ebf 7d04 c1be
000001b0: bb71 a83d 5a2b 793e bc68 13bf 1dd6 57be
000001c0: bfd0 a23e 3993 ae3e 706d 14be a193 f73e
000001d0: 45f3 24be f2c5 afbe 7021 143e b364 c23e
000001e0: 81d3 e13e 6ab8 6a3e 1932 323f 7ca3 cf3e
000001f0: efa7 103d d455 2cbe 4df6 13bf bf10 d53c
00000200: 3851 a9bc 4da7 a73e 6176 a7be 0f50 d13e
00000210: dc6e eabe b345 aabc c469 6e3e 579e 91be
00000220: f879 b8bd 2175 bebe aaf2 9bbe aa39 efbe
00000230: 093a 16bd 90d9 553e 07c9 89bd 56b9 ce3e
00000240: a341 ac3e e398 d3be 0f5c 833e 1adb 19bd
00000250: 0042 fdbc a85a 003e e861 723e 20f6 643e
00000260: 34d8 943c cfad b9bd 68ab 2abf f54c edbe
00000270: 35bd 5b3d 9543 b3be b513 683e 0d7b f13e
00000280: d73b eabe 9f0f c4be 7450 a23d 5be3 8abe
00000290: 6d64 b63e 268f a9be ce2c bf3e d966 2d3d
000002a0: 0ca7 9a3e 02f2 823d 67c9 37bf 64ab 0bbf
000002b0: 68c4 afbe 3865 5ebe f541 963e a36b e73e
000002c0: b3a2 1a3e 8baa c6be 310c cabe a7e3 2fbe
000002d0: ca52 09be 9534 913e e56e 88bd d521 0cbf
000002e0: 96b7 fe3e b054 7ebe 0cc8 f33e 5ea2 af3e
000002f0: 6f67 bbbe 3399 93be 4ef6 143f 3e64 9a3e
00000300: 1171 da3e 218b dd3e 45a7 c83d f2d2 20be
00000310: 4de8 663e d560 bbbe 7b42 00bf 8d21 703e
00000320: c91e cd3d 937c 0b3e 88d6 113f 21d7 de3e
00000330: 908d a73d 78f6 063e 48ad 6c3e ced8 ae3e
00000340: c4bb bdbe 125e debe c4e1 fb3e cced 473e
00000350: ce3b e1be 1b0a c1be de11 97be 2157 313e
00000360: 6659 f5be 6b95 fd3e 4377 51bd 93c0 c33e
00000370: 0b47 c0be 0b2e 843e d6ce 3abe 45ae 5bbb
00000380: 45b2 2dbe 0d83 44bd d4f7 683e fa11 5fbe
00000390: 8404 97bd 205b 80be f3ed 3ebe 8bea f4be
000003a0: b88b e4be ddad f4be 5836 febe 52fb b6be
000003b0: 709c d8be ad68 87be 7a0e d13e 27da f83e
000003c0: 9aa8 f2bc f5a8 5fbd 4d29 43bf 6bee 00be
000003d0: 0885 84be 8b33 ab3e a1e3 04bd 495b 153e
000003e0: 114b d73e 30c2 c43d a98a d03d d908 40bd
000003f0: 9866 933d bcfd 9abd 374c 313f 533b 013f

network.0.bias f4 [128]
-0.43673104 0.45220533 0.16863467 0.21152326 -0.27000293 -0.062449094 -0.25596827 0.34462732
-0.38681403 0.42880887 -0.48311543 -0.01888707 0.28639507 0.41328087 0.16588917 -0.16379173
-0.08942018 -0.39636004 -0.050984398 -0.13244872 -0.3915854 0.31953585 -0.17777596 0.03389775
-0.375417 -0.3322204 -0.26466537 0.03304955 0.1265065 -0.4487326 0.1372953 0.23139727
-0.43335268 0.21991032 -0.0204099 -0.09641549 -0.23195694 -0.3750614 0.015353824 -0.33446044
0.4603037 -0.48762876 0.13064677 0.26697215 -0.1443271 0.39752954 -0.042562254 0.117058955
-0.29566407 -0.3924907 0.08496818 -0.41553205 -0.27782628 -0.18641603 0.31481233 -0.45145398
0.4064541 0.23222305 0.21595572 -0.22153369 0.089299686 -0.1278355 0.24185967 0.014236471
0.48205352 -0.16624683 0.3971278 -0.14599769 0.057060786 -0.20932838 0.36082736 0.1691727
-0.36277354 -0.4118185 0.025435565 -0.18050806 -0.3132143 0.16026814 -0.3151089 0.0918437
-0.050025474 -0.10738631 -0.28964925 -0.11162296 0.21939005 0.2850767 0.1722841 0.4958103
-0.13989271 -0.23048817 -0.14448102 -0.2519469 0.13288806 -0.28122506 -0.47913766 0.12166391
-0.20844983 0.32963827 -0.20382455 0.05450838 -0.065934375 0.2699334 0.16022515 0.12834725
0.4208777 0.4395237 0.37599546 0.2924832 -0.452297 -0.07418791 0.34483323 -0.38205576
-0.42768413 -0.15015237 0.32746497 -0.2591282 0.18996012 0.12404671 -0.024165414 0.22178543
0.22628577 0.4437537 -0.452251 -0.49928698 0.034021534 0.31221327 0.3818969 0.13670023
00000000: 369b dfbe 7587 e73e 91ae 2c3e 8e99 583e
00000010: d33d 8abe 9fca 7fbd 460e 83be fe72 b03e
00000020: 7d0c c6be d68c db3e e85a f7be 0eb9 9abc
00000030: 60a2 923e 8d99 d33e dade 293e 05b9 27be
00000040: ed21 b7bd b4ef cabe 04d5 50bd a3a0 07be
00000050: e27d c8be 349a a33e e70a 36be 5ed8 0a3d
00000060: a836 c0be cb18 aabe 3882 87be f75e 073d
00000070: ec8a 013e 48c0 e5be 2497 0c3e 68f3 6c3e
00000080: 67e0 ddbe 2c30 613e aa32 a7bc 7c75 c5bd
00000090: 1f86 6dbe 0c08 c0be 9b8e 7b3c 663e abbe
000000a0: edac eb3e 7aaa f9be 44c8 053e 93b0 883e
000000b0: 7cca 13be fe88 cb3e c255 2ebd 9bbc ef3d
000000c0: 4861 97be 8bf4 c8be cc03 ae3d 9ec0 d4be
000000d0: 3f3f 8ebe d8e3 3ebe 152f a13e fa24 e7be
000000e0: c01a d03e e1cb 6d3e 7f23 5d3e bad9 62be
000000f0: c1e2 b63d 4fe7 02be 10aa 773e 1640 693c
00000100: b8cf f63e 9c3c 2abe 5654 cb3e 6b80 15be
00000110: 92b8 693d 2e5a 56be 5dbe b83e 9c3b 2d3e
00000120: 74bd b9be e0d9 d2be 3f5e d03c 1bd7 38be
00000130: a05d a0be 551d 243e f455 a1be 8d18 bc3d
00000140: 83e7 4cbd 5bed dbbd e84c 94be 949a e4bd
00000150: c9a7 603e 93f5 913e 3e6b 303e d9da fd3e
00000160: 0940 0fbe 1705 6cbe d5f2 13be 2fff 80be
00000170: cf13 083e bbfc 8fbe 8851 f5be ee2a f93d
00000180: df73 55be 59c6 a83e 62b7 50be 2e44 5f3d
00000190: 9a08 87bd b634 8a3e 1012 243e 766d 033e
000001a0: 487d d73e 4009 e13e 7a82 c03e 5cc0 953e
000001b0: 7993 e7be d5ef 97bd fb8d b03e d09c c3be
000001c0: 6af9 dabe 8bc1 19be 7da9 a73e 74ac 84be
000001d0: e884 423e 340c fe3d 8cf6 c5bc b81b 633e
000001e0: 75b7 673e af33 e33e 718d e7be 8ba2 ffbe
000001f0: 2a5a 0b3d 6bda 9f3e fe87 c33e 25fb 0b3e

network.2.weight f4 [128, 128]
-0.016152937 -0.06834275 -0.09133436 -0.022043625 0.02311754 0.039391015 -0.017928459 0.03836529
-0.037171766 -0.047719028 0.016144097 -0.0076135746 -0.082014225 0.057097636 0.0334211 0.06290599
0.06206161 -0.022024618 0.032985542 -0.04027277 -0.0020775255 -0.11676443 -0.01324542 0.020559818
-0.04604351 0.053933762 0.03420612 -0.007043634 0.06240421 0.061510194 -0.015780842 -0.06961483
-0.019946141 0.008125106 -0.054393537 -0.07220273 0.013213386 -0.08800881 0.06618092 0.061219484
0.058154915 0.06695225 -0.022228701 0.06493501 -0.048878863 -0.071371935 -0.080972455 0.006914336
0.051241644 0.055767123 -0.04296885 0.011066964 -0.07778527 0.07153247 -0.0332713 -0.07492482
-0.099385925 0.014562834 -0.05765668 0.01096866 -0.08644362 -0.008533552 -0.08217164 0.013665434
0.061064947 0.08684692 -0.09964844 0.07703351 0.07349252 0.03231629 -0.031110525 0.03641902
-0.0037193855 -0.08809293 0.015804287 0.08356504 -0.051401377 -0.05622583 0.04447488 -0.07783023
-0.08528335 0.054642916 -0.0029514912 0.07034327 -0.06539949 -0.08192001 -0.024392603 0.019370936
-0.019768652 0.043456458 -0.092623845 -0.07039956 -0.0304873 -0.06373518 0.05236815 -0.058958255
-0.010549651 -0.042414185 0.091349766 -0.050492086 0.028245673 -0.07925173 0.071108334 0.030888837
-0.018181782 -0.013089413 -0.053538777 0.021522205 0.049157593 0.03641596 -0.012819135 -0.07042601
-0.07719802 0.0027572063 -0.015239576 0.011509395 -0.09325078 -0.10923457 0.06384344 -0.05486611
-0.051954187 -0.06660866 0.068919495 0.01653268 -0.012188153 0.016248915 -0.021517938 -0.025377663
-0.08419167 0.030057065 -0.12465773 0.07934903 0.09178778 -0.03989709 -0.01972727 -0.019602183
-0.055069387 0.10517235 0.017111713 0.027774803 0.0075140162 -0.01764962 0.009466888 0.123245485
-0.032847572 0.036491446 0.13943166 0.0898791 0.02837814 0.08148313 0.03751934 0.024236847
0.06641622 0.03245358 0.08411415 0.007120489 -0.1160929 0.029684976 -0.10368295 -0.021054655
-0.09731376 0.0889502 0.106231794 -0.04724509 0.01218763 0.06532751 0.06764378 0.044817545
0.08883116 -0.047916878 0.06963025 0.0054505426 0.113847464 0.04125222 -0.015664224 0.011633468
0.07967067 0.07559527 -0.09387429 -0.06652292 0.05399545 -0.0005425323 -0.09308816 0.02287552
0.07723389 0.11582593 0.056872863 -0.06890125 0.05691048 -0.019115549 0.04248896 -0.09643746
-0.07745602 0.07978374 0.10746367 0.09403975 0.060171325 0.050312053 0.0118487505 0.06539794
0.01902673 0.08449846 -0.00035071594 0.059197072 0.07373052 -0.041566316 0.11037092 0.21775867
-0.05757037 -0.042973544 0.068261385 -0.091647595 0.07564059 -0.10706222 -0.011377344 -0.038190763
-0.02378381 0.019913515 -0.04619782 0.060231477 -0.015486634 -0.106974475 0.023889178 0.18427439
0.03674139 0.09377154 0.01149515 0.035296105 0.11775322 -0.06437081 -0.05287887 -0.10425297
0.01793283 0.03280961 0.007725217 -0.051278803 -0.039093733 -0.07187181 0.008919255 0.060758024
0.07089664 0.00454245 0.0374275 -0.022128733 -0.0015635721 -0.08759884 -0.047798913 -0.16066909
0.051463064 0.03983574 -0.037946943 0.02687068 -0.004300566 0.08968025 -0.10680517 0.04895724
00000000: 2a53 84bc 49f7 8bbd 820d bbbd d594 b4bc
00000010: ff60 bd3c 7958 213d b4de 92bc ec24 1d3d
00000020: 6c41 18bd 0775 43bd a040 843c 4b7b f9bb
00000030: 13f7 a7bd 36df 693d 90e4 083d dbd4 803d
00000040: 5134 7e3d f96c b4bc d91b 073d 0ff5 24bd
00000050: 1827 08bb 3122 efbd 5103 59bc 106d a83c
00000060: 1f98 3cbd a6e9 5c3d b71b 0c3d 49ce e6bb
00000070: 8f9b 7f3d 1df2 7b3d d346 81bc 3892 8ebd
00000080: 1766 a3bc 2a1f 053c c2cb 5ebd 06df 93bd
00000090: f57c 583c f73d b4bd dd89 873d 48c1 7a3d
000000a0: d933 6e3d 431e 893d f718 b6bc a6fc 843d
000000b0: 3435 48bd 732b 92bd e3d4 a5bd a791 e23b
000000c0: c2e2 513d 116c 643d 1b00 30bd 3652 353c
000000d0: e24d 9fbd 9e7f 923d 7d47 08bd 2f72 99bd
000000e0: d98a cbbd f498 6e3c 6929 6cbd e5b5 333c
000000f0: 5a09 b1bd 50d0 0bbc 9b49 a8bd fce4 5f3c
00000100: 3d1f 7a3d ccdc b13d 7b14 ccbd bfc3 9d3d
00000110: 3f83 963d 165e 043d 80db febc 1c2c 153d
00000120: efc0 73bb 116a b4bd fe77 813c 2624 ab3d
00000130: 408a 52bd 0e4d 66bd 4b2b 363d 7565 9fbd
00000140: 09a9 aebd 40d1 5f3d ce6d 41bb 2210 903d
00000150: 2bf0 85bd aec5 a7bd ffd2 c7bc ccaf 9e3c
00000160: def1 a1bc 66ff 313d 92b1 bdbd a52d 90bd
00000170: 81c0 f9bc 9787 82bd fc7f 563d 367e 71bd
00000180: 72d8 2cbc 7fba 2dbd 9615 bb3d cad0 4ebd
00000190: 7863 e73c bb4e a2bd 3fa1 913d 960a fd3c
000001a0: f6f1 94bc fa74 56bc 7a4b 5bbd 564f b03c
000001b0: 7959 493d e728 153d 5907 52bc 833b 90bd
000001c0: ff19 9ebd 3fb2 343b 6aaf 79bc e791 3c3c
000001d0: 44fa bebd 60b6 dfbd 59c0 823d 49bb 60bd
000001e0: eacd 54bd 1f6a 88bd aa25 8d3d 8b6f 873c
000001f0: d2b0 47bc 721c 853c 6346 b0bc d1e4 cfbc
00000200: af6c acbd 3c3a f63c 8d4c ffbd bf81 a23d
00000210: 3bfb bb3d 226b 23bd 159b a1bc c294 a0bc
00000220: 7090 61bd 9a64 d73d dd2d 8c3c fc87 e33c
00000230: 2338 f63b f095 90bc 021b 1b3c 2168 fc3d
00000240: 2d8b 06bd 0e78 153d 2cc7 0e3e 8912 b83d
00000250: 4679 e83c a1e0 a63d e1ad 193d 5a8c c63c
00000260: 3a05 883d 0cee 043d 0a44 ac3d fe52 e93b
00000270: 1dc2 edbd e82d f33c ba57 d4bd d07a acbc
00000280: 704c c7bd 862b b63d 0e90 d93d 1184 41bd
00000290: a0ae 473c 6eca 853d d288 8a3d 9a92 373d
000002a0: 1ced b53d 7d44 44bd 4e9a 8e3d 779a b23b
000002b0: dc28 e93d 16f8 283d 4252 80bc 4d9a 3e3c
000002c0: 602a a33d b1d1 9a3d 2a41 c0bd 2b3d 88bd
000002d0: 552a 5d3d ba38 0eba 01a5 bebd 7165 bb3c
000002e0: cd2c 9e3d 2536 ed3d 85f3 683d 191c 8dbd
000002f0: f71a 693d 3698 9cbc e708 2e3d 0181 c5bd
00000300: 43a1 9ebd a865 a33d ea15 dc3d ea97 c03d
00000310: 3576 763d 0314 4e3d 4321 423c 5bef 853d
00000320: f2dd 9b3c 870d ad3d 4ce0 b7b9 a178 723d
00000330: 0700 973d 7141 2abd 260a e23d 21fc 5e3e
00000340: e9ce 6bbd 0705 30bd a0cc 8b3d bcb1 bbbd
00000350: 74e9 9a3d 7043 dbbd 0a68 3abc eb6d 1cbd
00000360: 44d6 c2bc ab21 a33c ed39 3dbd 48b5 763d
00000370: a7bb 7dbc 6f15 dbbd 3db3 c33c 6db2 3c3e
00000380: 247e 163d 4b0b c03d 2756 3c3c a692 103d
00000390: 9a28 f13d d8d4 83bd 8497 58bd 9582 d5bd
000003a0: dfe7 923c 5f63 063d d123 fd3b b909 52bd
000003b0: c020 20bd 8731 93bd 1122 123c 68dd 783d
000003c0: 4232 913d d5d8 943b 944d 193d 5147 b5bc
000003d0: c6f0 ccba 0567 b3bd cbc8 43bd 7086 24be
000003e0: efca 523d cd2a 233d 416e 1bbd e61f dc3c
000003f0: c3eb 8cbb 47aa b73d abbc dabd 6387 483d

network.2.bias f4 [128]
-0.07265637 -0.06682387 0.08303713 -0.07695793 0.12917659 0.013796671 0.091000535 -0.07318542
0.04707197 -0.09709963 0.124783024 0.08379723 -0.010813708 -0.04572326 -0.047490098 0.0052376282
0.014639186 0.10205959 0.022995336 0.05644909 -0.008921496 -0.09921684 0.094743416 0.05815852
-0.0915445 0.010915221 -0.02699215 0.11356049 -0.047310874 -0.041921724 -0.018656844 -0.01712105
-0.06807271 -0.023744106 0.02049392 -0.07893915 0.053683363 0.083472066 0.041488413 -0.005787978
-0.034571223 -0.021926567 -0.05062363 -0.002692059 -0.06578955 0.09213951 0.0804901 0.013226075
-0.05366854 0.07368204 0.083211586 0.044219695 -0.04089361 0.008689063 0.05198855 -0.07942556
0.015981974 0.016986864 -0.017253209 -0.028729491 0.06296667 -0.046189256 0.065874845 -0.013233951
0.0036851412 0.025218252 0.058388136 -0.03587959 -0.0436548 -0.023917882 0.04748819 -0.09605247
-0.017343437 -0.030997982 -0.030695133 -0.076868206 0.056662954 0.007405941 0.067550674 0.05435265
0.056587312 0.048192296 -0.08400298 -0.034470428 0.06155965 0.019671906 0.0018295392 0.050425116
-0.00948092 -0.0013089125 -0.07930804 -0.019563986 0.093535885 0.012667522 -0.08120955 -0.07428568
-0.06293409 -0.044216525 -0.01712015 -0.04376725 -0.015856035 0.03820573 -0.028102817 0.052648023
-0.03233922 0.010720145 0.041472174 0.04387655 -0.050121374 -0.06560099 -0.013724896 -0.06692226
0.057035696 -0.021557873 -0.08191302 -0.021228008 0.10517892 0.07723028 0.090537354 0.09128559
-0.00898602 0.083811544 -0.004483276 -0.06894959 0.085973874 -0.062008243 -0.070201404 -0.031921465
00000000: ddcc 94bd f4da 88bd 5f0f aa3d 1f9c 9dbd
00000010: de46 043e 6f0b 623c 7d5e ba3d 3de2 95bd
00000020: 8ace 403d 2cdc c6bd 3e8e ff3d e29d ab3d
00000030: fb2b 31bc 5048 3bbd fa84 42bd 69a0 ab3b
00000040: 32d9 6f3c 9e04 d13d b760 bc3c 2937 673d
00000050: 772b 12bc 3332 cbbd d608 c23d a137 6e3d
00000060: af7b bbbd c1d5 323c a41e ddbc 6792 e83d
00000070: 0cc9 41bd 1db6 2bbd 3dd6 98bc 7241 8cbc
00000080: b469 8bbd 0083 c2bc dee2 a73c d9aa a1bd
00000090: 16e3 5b3d 67f3 aa3d c1ef 293d 14a9 bdbb
000000a0: 8e9a 0dbd 589f b3bc b95a 4fbd 416d 30bb
000000b0: acbc 86bd a4b3 bc3d fed7 a43d 2eb2 583c
000000c0: 8bd3 5bbd 9ce6 963d d66a aa3d b61f 353d
000000d0: 0f80 27bd 925c 0e3c f2f1 543d dea9 a2bd
000000e0: a1ec 823c 0928 8b3c 9a56 8dbc 1c5a ebbc
000000f0: abf4 803d f230 3dbd 64e9 863d 37d3 58bc
00000100: 6982 713b 8296 ce3c 6628 6f3d 7af6 12bd
00000110: 60cf 32bd 6fef c3bc fa82 423d 28b7 c4bd
00000120: d313 8ebc 7bef fdbc 5c74 fbbc 146d 9dbd
00000130: 6a17 683d 89ad f23b 0258 8a3d e2a0 5e3d
00000140: 19c8 673d 4965 453d c109 acbd dd30 0dbd
00000150: f925 7c3d fa26 a13c 26cd ef3a 918a 4e3d
00000160: dc55 1bbc d18f abba 416c a2bd a744 a0bc
00000170: be8f bf3d 708b 4f3c 3151 a6bd 1723 98bd
00000180: 97e3 80bd 631c 35bd 8f3f 8cbc 4a45 33bd
00000190: 84e4 81bc 9d7d 1c3d e137 e6bc 74a5 573d
000001a0: 2176 04bd 8ca3 2f3c bade 293d e6b7 333d
000001b0: 124c 4dbd d059 86bd 63de 60bc 8a0e 89bd
000001c0: 439e 693d 239a b0bc 03c2 a7bd 5ce6 adbc
000001d0: 0c68 d73d e92a 9e3d a66b b93d f0f3 ba3d
000001e0: 1a3a 13bc 63a5 ab3d 72e8 92bb 7135 8dbd
000001f0: 1213 b03d 5bfc 7dbd c1c5 8fbd 15c0 02bd

network.4.weight f4 [2, 128]
0.060901467 0.12045334 -0.037078 -0.041594747 -0.101322375 -0.0060376707 -0.12421772 -0.08780828
0.043622162 -0.05258459 -0.085413724 -0.08740697 0.030807324 -0.06822196 -0.009447913 -0.061874386
0.059804693 -0.12662487 0.13006654 0.0034953384 -0.051504634 -0.036651447 -0.09743978 0.049913604
0.05430033 -0.012951004 -0.09436509 -0.13312359 0.03372419 0.09739321 -0.033528917 0.050665483
-0.067826405 0.08588993 -0.14050065 0.068118565 -0.025888 -0.043204658 -0.06556037 0.11469925
0.061154515 0.117632404 -0.06413422 -0.03630811 0.05521533 -0.1168138 -0.087983385 -0.1566006
-0.035205744 -0.10650675 -0.177471 -0.08783239 0.06423313 0.055959355 -0.0813684 -0.0013972229
-0.15588674 -0.15715823 0.025347505 -0.07293084 -0.18860328 -0.04779501 0.06091401 -0.084098704
-0.027622728 0.019483404 0.07486116 0.10144432 -0.056153525 -0.020484282 0.062484555 -0.024350235
0.049936157 -0.11546347 0.061755024 -0.02003859 0.11951284 -0.036824066 0.047044303 0.11410564
0.05975153 0.003394771 -0.052888647 0.00825976 -0.047616944 -0.0033740432 -0.09183193 0.003964123
0.01685047 -0.05521029 -0.0624712 0.042869497 -0.12152789 -0.107892334 0.02487645 0.036797427
0.1139007 -0.05066143 -0.0077670137 0.05441725 -0.19586368 -0.03559097 -0.0640816 0.027873952
0.08899819 -0.005706332 -0.04347748 -0.11457897 0.08308169 0.06829326 -0.011440863 -0.023405734
0.08472558 0.07591225 0.05233209 -0.025163313 -0.06953035 0.10085578 -0.12717317 -0.12400598
-0.0013177673 -0.1181119 -0.020690836 0.08173423 -0.15130271 0.0075105405 -0.002045409 0.042911306
-0.02988881 -0.12368216 0.1475366 -0.043507807 0.18391423 0.05382248 0.11391767 -0.07688574
0.019052029 -0.058712836 0.08768487 0.013958628 -0.04477579 -0.08153347 0.014502933 0.01858829
-0.11252823 0.19584066 -0.07400632 -0.075438745 0.11296049 -0.051783726 0.08772567 -0.036348037
-0.0056352974 0.12542357 -0.0742707 0.16529608 -0.0034953998 0.0112469075 -0.029754253 -0.056743134
-0.07346492 -0.008823179 0.15503997 -0.08288176 0.07018462 0.15061873 0.055402797 -0.06094975
-0.0018287358 -0.033659887 -0.08299166 -0.007565393 -0.118662104 0.083779454 0.1675008 0.06937763
-0.036282573 -0.012615611 0.18590097 0.14385821 0.03681816 0.05110536 0.052846484 0.04424268
0.014508863 0.13646102 -0.022490213 0.082094274 0.12649815 0.00096838706 -0.124096476 0.14415106
-0.041906897 -0.11367893 -0.15474787 -0.0817675 0.03428702 0.12724695 -0.05332058 -0.073466234
0.073421076 0.15130664 0.06630687 -0.084322564 -0.0040966095 0.086892165 0.03640862 -0.111192025
-0.03203703 -0.08550762 0.025887158 -0.119469814 0.023441017 0.00443431 0.0834587 -0.07032683
0.14505237 -0.07111156 -0.06821105 0.008075558 0.17516738 0.032306325 0.013836809 0.031982876
-0.104903035 -0.017159732 0.011779657 0.06561118 0.107501954 -0.037326485 0.091731325 -0.078477256
-0.13953644 -0.078633085 -0.036422107 0.11600008 -0.08724015 0.06587627 -0.017342094 -0.04011289
-0.10094109 -0.061821528 -0.04808889 -0.089358315 0.10164641 -0.05371639 0.13329361 0.13940838
0.018109402 0.16889614 0.0017324778 -0.039538305 0.05681578 -0.11100728 -0.009069868 0.031819172
00000000: d173 793d 3eb0 f63d 1adf 17bd 415f 2abd
00000010: 1b82 cfbd a7d7 c5bb dc65 febd d4d4 b3bd
00000020: 27ad 323d f062 57bd 64ed aebd 6d02 b3bd
00000030: a45f fc3c f4b7 8bbd 6bcb 1abc ff6f 7dbd
00000040: c4f5 743d f3a9 01be 2a30 053e 0c12 653b
00000050: 86f6 52bd d41f 16bd 828e c7bd 3572 4c3d
00000060: 066a 5e3d 7330 54bc 7c42 c1bd 8d51 08be
00000070: 6022 0a3d 1776 c73d 9e55 09bd 9c86 4f3d
00000080: 92e8 8abd 0fe7 af3d 67df 0fbe bf81 8b3d
00000090: 1213 d4bc 5ef7 30bd 8444 86bd 71e7 ea3d
000000a0: 287d 7a3d 42e9 f03d cd58 83bd d0b7 14bd
000000b0: 7829 623d 133c efbd a230 b4bd e85b 20be
000000c0: e633 10bd 3620 dabd f5ba 35be 78e1 b3bd
000000d0: a98c 833d a335 653d 7aa4 a6bd 0523 b7ba
000000e0: c6a0 1fbe 16ee 20be 92a5 cf3c c45c 95bd
000000f0: 3821 41be b3c4 43bd f880 793d f13b acbd
00000100: 0f49 e2bc a99b 9f3c cf50 993d 0ac2 cf3d
00000110: 3d01 66bd a7ce a7bc ceef 7f3d 257a c7bc
00000120: db89 4c3d 1d78 ecbd d6f2 7c3d f827 a4bc
00000130: 26c3 f43d d5d4 16bd 87b1 403d 38b0 e93d
00000140: 05be 743d ce7a 5e3b c4a1 58bd f253 073c
00000150: fc09 43bd 0d1f 5dbb 6112 bcbd 79e5 813b
00000160: ff09 8a3c 2f24 62bd cde1 7fbd ed97 2f3d
00000170: 9de3 f8bd a8f6 dcbd b2c9 cb3c e6b8 163d
00000180: c544 e93d 5c82 4fbd 6f82 febb 9fe4 5e3d
00000190: 7d90 48be d6c7 11bd 373d 83bd ea57 e43c
000001a0: af44 b63d 2ffc babb 7115 32bd 61a8 eabd
000001b0: bc26 aa3d 56dd 8b3d 7572 3bbc 62bd bfbc
000001c0: 9b84 ad3d e277 9b3d 2c5a 563d 4b23 cebc
000001d0: ee65 8ebd 7a8d ce3d af39 02be d9f6 fdbd
000001e0: efb8 acba a7e4 f1bd d47f a9bc 4764 a73d
000001f0: 19ef 1abe fb1a f63b 450c 06bb c4c3 2f3d
00000200: 61d9 f4bc 134d fdbd d613 173e 3e35 32bd
00000210: 0354 3c3e f674 5c3d ab4d e93d 4576 9dbd
00000220: 0013 9c3c df7c 70bd 2094 b33d bbb2 643c
00000230: d266 37bd 05fb a6bd b69d 6d3c 7846 983c
00000240: 3375 e6bd 748a 483e a090 97bd a17f 9abd
00000250: d457 e73d 2c1b 54bd 84a9 b33d aee1 14bd
00000260: 4da8 b8bb 096f 003e 3d1b 98bd 6043 293e
00000270: 1413 65bb f344 383c 31bf f3bc 7d6b 68bd
00000280: c774 96bd 188f 10bc ccc2 1e3e eabd a9bd
00000290: f4bc 8f3d cc3b 1a3e 0bee 623d 72a6 79bd
000002a0: 31b2 efba f3de 09bd 88f7 a9bd 1ee7 f7bb
000002b0: 1e05 f3bd 9094 ab3d 5485 2b3e dc15 8e3d
000002c0: 099d 14bd b5b1 4ebc d35c 3e3e 914f 133e
000002d0: a4ce 163d db53 513d 8e75 583d d037 353d
000002e0: 95b6 6d3c 70bc 0b3e 653d b8bc 0b21 a83d
000002f0: bb88 013e 5bdb 7d3a 4b26 febd 569c 133e
00000300: 91a6 2bbd 80d0 e8bd 3a76 1ebe b875 a7bd
00000310: 8c70 0c3d 064d 023e ae66 5abd 7775 96bd
00000320: ca5d 963d 21f0 1a3e e5cb 873d 4fb1 acbd
00000330: da3c 86bb 85f4 b13d 3521 153d a5b8 e3bd
00000340: 4339 03bd 9e1e afbd 4e11 d43c 97ac f4bd
00000350: 6007 c03c b04d 913b 65ec aa3d 8307 90bd
00000360: 9c88 143e f0a2 91bd 3cb2 8bbd 584f 043c
00000370: 145f 333e a353 043d c9b3 623c 7a00 033d
00000380: 67d7 d6bd 9192 8cbc 76ff 403c 285f 863d
00000390: fc29 dc3d a8e3 18bd a2dd bb3d afb8 a0bd
000003a0: a4e2 0ebe 620a a1bd 592f 15bd 7391 ed3d
000003b0: f7aa b2bd 23ea 863d 0211 8ebc 6a4d 24bd
000003c0: 34ba cebd 9238 7dbd dbf8 44bd 7e01 b7bd
000003d0: fe2b d03d b805 5cbd 1f7e 083e 12c1 0e3e
000003e0: 2b5a 943c 1cf3 2c3e 4f14 e33a ebf2 21bd
000003f0: aab7 683d c957 e3bd c999 14bc d254 023d

network.4.bias f4 [2]
-0.005513274 -0.012541678
00000000: b2a8 b4bb 9c7b 4dbc

network.0.weight f4 [128, 4]
0.21884307 -0.40051678 0.17648838 0.3320137 -0.47541142 -0.5949375 -0.24663506 0.31569442
0.3032641 0.38573918 0.21620859 0.062105358 -0.26178575 -0.5582724 0.56469345 0.20380872
-0.33946264 -0.10039129 -0.08968163 0.20057052 -0.34877566 -0.42216158 -0.4061774 0.12941167
-0.23450774 0.182951 -0.43332806 0.2415032 -0.22980133 -0.2537173 -0.07840632 -0.22611904
-0.37000528 0.10350242 -0.5203255 0.29006562 0.31633225 0.15400009 -0.43068773 -0.4514377
0.68128145 -0.11641326 0.3148336 0.39917922 -0.009764943 -0.32804626 0.2079005 0.17274955
-0.116694726 -0.13610391 -0.32295844 -0.32945332 -0.036239333 -0.12241821 0.08461933 0.45661843
0.611635 0.13332151 -0.06790447 -0.028885433 -0.51483136 -0.14139143 -0.2911861 0.14768358
-0.17397086 0.12514868 -0.22559805 -0.4609626 0.20173155 0.20458615 0.09256872 -0.41827273
-0.7773061 0.49889183 -0.5229849 0.32852933 0.19772094 -0.0595845 -0.4446773 0.41138458
0.647901 -0.24816501 -0.4012383 0.35457197 0.13639835 -0.2461694 0.313206 0.22632605
0.45883816 0.3639837 -0.056878615 -0.16227633 -0.3548472 -0.29377177 0.2514885 0.12571114
-0.47427937 0.46779028 -0.24604419 0.19482064 0.26677772 0.4914313 -0.1460494 0.12988494
0.4770113 0.42807734 -0.4767551 -0.001179161 -0.020569379 0.009377372 -0.39857754 0.47679552
0.10809522 -0.33424175 0.0106866015 0.1091316 0.26224717 -0.1043107 -0.11098445 -0.091787264
0.07433356 0.25056764 -0.18887728 -0.3374818 -0.043026645 0.16513284 -0.41947746 0.4471545
-0.23882939 0.24500199 -0.32095322 -0.21015458 0.41920295 -0.37792477 0.46228534 -0.36947036
-0.6961464 0.26912117 0.053132404 0.38475585 0.29134083 -0.22189507 0.2961094 -0.37891334
-0.10995855 0.090897255 -0.49601796 -0.2974577 -0.4840986 -0.43473905 -0.3032863 -0.13838021
-0.2605539 -0.035645 0.27985266 -0.29478613 -0.54818046 0.4572611 -0.43039247 -0.29060355
0.33112764 -0.45252684 -0.18549033 0.13331366 0.044152983 -0.07780455 0.3430682 0.17964892
-0.20781037 0.2102317 -0.42912126 -0.014410803 0.39752373 -0.25678667 -0.06387144 -0.007584941
-0.0541877 0.35240087 0.17060323 -0.510255 -0.37164307 0.20737602 -0.18047178 -0.44405127
-0.2123696 0.33800048 -0.23718713 0.033123136 -0.43537766 0.6056663 -0.3483009 0.0538937
-0.2677653 0.087578066 -0.5441908 0.25999096 0.037318755 0.12727039 -0.1219291 -0.014716847
-0.44425878 0.45177782 0.4317181 0.17932118 0.022774952 0.61750036 -0.06094745 -0.42058957
0.4004306 -0.09151797 -0.34494725 -0.519417 -0.4875527 -0.13122673 0.020673856 0.3472488
0.25044087 -0.06532284 -0.5098976 0.017934699 -0.05133222 -0.3346345 -0.46635777 -0.43211547
0.28085113 0.22458547 0.21135266 -0.21553469 -0.7598037 0.2961425 0.36763412 0.15411162
-0.12841293 0.534146 -0.29144093 0.09880632 -0.45040983 0.44070834 -0.3552504 -0.37312448
-0.42532188 -0.48189825 -0.4003453 -0.21699022 -0.029661093 -0.33055356 -0.5877164 0.26238358
0.2827795 0.40441108 -0.07766734 -0.3799666 -0.23091172 -0.36121145 -0.023045529 -0.3637511
00000000: 6618 603e 8910 cdbe 5fb9 343e b3fd a93e
00000010: 2069 f3be d34d 18bf e78d 7cbe b3a2 a13e
00000020: 6f45 9b3e 9b7f c53e c965 5d3e 3062 7e3d
00000030: c808 86be f1ea 0ebf c08f 103f 3cb3 503e
00000040: 0cce adbe f399 cdbd 01ab b7bd 5c62 4d3e
00000050: b992 b2be 9025 d8be 7cf6 cfbe 7e84 043e
00000060: cc22 70be 8257 3b3e 2ddd ddbe 9d4c 773e
00000070: 0a51 6bbe 3ce7 81be 7e93 a0bd c08b 67be
00000080: 5571 bdbe 14f9 d33d 0d34 05bf 7b83 943e
00000090: 4df6 a13e 33b2 1d3e 1a83 dcbe d822 e7be
000000a0: 7668 2e3f 136a eebd df31 a13e 3861 cc3e
000000b0: 24fd 1fbc aef5 a7be dee3 543e 42e5 303e
000000c0: a5fd eebd d35e 0bbe cf5a a5be 1bae a8be
000000d0: b26f 14bd 66b6 fabd e64c ad3d e4c9 e93e
000000e0: 1d94 1c3f 6f85 083e 8011 8bbd 25a1 ecbc
000000f0: fdcb 03bf eac8 10be 5816 95be 5d3a 173e
00000100: 6b25 32be fa26 003e 2d03 67be 4a03 ecbe
00000110: b792 4e3e 087f 513e ab94 bd3d d827 d6be
00000120: 88fd 46bf c06e ff3e 57e2 05bf ff34 a83e
00000130: 5c77 4a3e e00e 74bd beac e3be 00a1 d23e
00000140: d7dc 253f f81e 7ebe 1b6f cdbe 758a b53e
00000150: 02ac 0b3e d513 7cbe 895c a03e 04c2 673e
00000160: d6ec ea3e 125c ba3e 8df9 68bd c42b 26be
00000170: 88ae b5be 4169 96be 1ac3 803e 6cba 003e
00000180: bfd4 f2be 3582 ef3e 02f3 7bbe 107f 473e
00000190: 1797 883e e29c fb3e f98d 15be 8f00 053e
000001a0: d33a f43e f42c db3e 3f19 f4be 148e 9aba
000001b0: 1d81 a8bc 8da3 193c 5b12 ccbe 8b1e f43e
000001c0: 0761 dd3d bc21 abbe db16 2f3c 6380 df3d
000001d0: 4345 863e d9a0 d5bd d14b e3bd f6fa bbbd
000001e0: 323c 983d 674a 803e 0c69 41be 6aca acbe
000001f0: b53c 30bd 9518 293e c0c5 d6be 6ff1 e43e
00000200: b18f 74be cde1 7a3e fb53 a4be c332 57be
00000210: c5a1 d63e 5b7f c1be aab0 ec3e 382b bdbe
00000220: a736 32bf 40ca 893e 5da1 593d b8fe c43e
00000230: a02a 953e 7638 63be a79b 973e ee00 c2be
00000240: f331 e1bd 5728 ba3d 11f6 fdbe 604c 98be
00000250: c6db f7be 1e96 debe 5848 9bbe 8bb3 0dbe
00000260: 5267 85be 7e00 12bd d948 8f3e 35ee 96be
00000270: 8e55 0cbf 201e ea3e 675c dcbe fdc9 94be
00000280: 9089 a93e 99b1 e7be 2df1 3dbe 6083 083e
00000290: c2d9 343d fe57 9fbd a3a6 af3e e3f5 373e
000002a0: 3ecc 54be fb46 573e c8b5 dbbe 4a1b 6cbc
000002b0: 3b88 cb3e 8b79 83be 08cf 82bd 198b f8bb
000002c0: ecf3 5dbd e36d b43e 9db2 2e3e 12a0 02bf
000002d0: 0048 bebe 615a 543e 98cd 38be b05a e3be
000002e0: 6b77 59be 660e ad3e 2fe1 72be 20ac 073d
000002f0: d2e9 debe f20c 1b3f 7f54 b2be a4bf 5c3d
00000300: 8918 89be 215c b33d 1750 0bbf 891d 853e
00000310: 8ddb 183d 2b53 023e f7b5 f9bd ee1e 71bc
00000320: e375 e3be 6c4f e73e 280a dd3e f99f 373e
00000330: 8992 ba3c 8114 1e3f 09a4 79bd 8457 d7be
00000340: 3d05 cd3e c66d bbbd ed9c b0be 83f8 04bf
00000350: 82a0 f9be 4d60 06be 385c a93c 98ca b13e
00000360: c939 803e fbc7 85bd a688 02bf caeb 923c
00000370: bc41 52bd 3755 abbe 72c6 eebe 3d3e ddbe
00000380: b8cb 8f3e bcf9 653e d56c 583e 20b5 5cbe
00000390: 7f82 42bf fd9f 973e 8a3a bc3e 70cf 1d3e
000003a0: ae7e 03be cbbd 083f bf37 95be f85a ca3d
000003b0: 1e9c e6be 86a4 e13e 61e3 b5be 2c0a bfbe
000003c0: cac3 d9be 5ebb f6be 0ffa ccbe af32 5ebe
000003d0: d2fb f2bc 513e a9be 9574 16bf 2457 863e
000003e0: 7ac8 903e f80e cf3e 0e10 9fbd fb8a c2be
000003f0: 1f74 6cbe b5f0 b8be fac9 bcbc 963d babe

network.0.bias f4 [128]
0.47038594 -0.31955642 0.57341933 -0.3683374 -0.1655709 0.21872021 0.49512154 0.6942221
0.3047764 -0.24993493 -0.14628083 0.72758853 0.601239 0.60017926 -0.27334815 -0.22386682
0.13387807 -0.021995775 -0.029654376 0.46902546 -0.12858474 0.69330513 0.08727943 -0.22193845
-0.35923707 -0.19430645 -0.24554555 0.1363971 0.36895108 0.4246706 0.6725894 0.16991913
0.5205298 -0.012127049 -0.113953725 0.32949364 0.3412112 -0.16259097 0.55173016 -0.03548935
0.39924964 0.5374692 0.39739633 0.6962624 0.19809191 0.40697277 0.5244668 -0.20041393
0.4983391 0.546629 -0.08127174 -0.33310822 0.20143437 -0.3245324 0.5058093 0.40609458
0.5899306 -0.039399777 -0.062176295 0.09155953 -0.21029331 0.63963455 -0.24227579 0.614408
0.54178894 0.29326043 0.11908222 0.49123245 0.16983832 0.26084098 0.6864373 0.717793
0.60481703 -0.2826819 0.43445334 0.70359313 -0.06362358 -0.33339792 0.55473536 0.49342364
0.54796624 0.45326996 0.38535166 -0.30195504 0.64518875 0.3768206 0.0991047 0.4152803
-0.034764584 0.6909499 0.12012521 0.34902006 -0.31475583 -0.13453408 0.54597723 0.34588814
-0.32706222 -0.13688287 0.5047976 -0.24224374 -0.20259172 0.37246543 0.56137276 0.41714096
0.52036506 -0.21218528 0.46024764 -0.05236277 -0.13433924 -0.26506594 0.66892505 -0.16148332
0.6392101 0.64499164 0.084871486 0.4299533 0.5712369 0.6380615 0.657475 -0.26606244
0.24487606 -0.16331771 0.6599976 0.5386605 0.23637484 0.47853476 -0.21528427 -0.07553906
00000000: 6dd6 f03e e69c a3be 9ccb 123f b896 bcbe
00000010: 6b8b 29be 31f8 5f3e 9280 fd3e 8ab8 313f
00000020: a70b 9c3e f1ee 7fbe a4ca 15be 3e43 3a3f
00000030: cdea 193f 59a5 193f 4af4 8bbe 583d 65be
00000040: 5517 093e 7c30 b4bc bced f2bc 1b24 f03e
00000050: b8ab 03be 727c 313f 8fbf b23d d543 63be
00000060: eced b7be 45f8 46be 4b70 7bbe aeab 0b3e
00000070: 28e7 bc3e 6d6e d93e d22e 2c3f 48ff 2d3e
00000080: 7141 053f 88b0 46bc 9260 e9bd 64b3 a83e
00000090: 3cb3 ae3e 3f7e 26be 303e 0d3f 485d 11bd
000000a0: 736a cc3e 9597 093f 8877 cb3e 413e 323f
000000b0: 9bd8 4a3e bc5e d03e 7543 063f 4f39 4dbe
000000c0: 4d26 ff3e e1ef 0b3f cc71 a6bd 298d aabe
000000d0: d044 4e3e 1c29 a6be b87c 013f a1eb cf3e
000000e0: b105 173f a961 21bd 92ac 7ebd 9083 bb3d
000000f0: 2157 57be 17bf 233f 2517 78be d849 1d3f
00000100: aeb2 0a3f 3b26 963e 61e1 f33d d282 fb3e
00000110: 19ea 2d3e f38c 853e 5bba 2f3f 48c1 373f
00000120: 4ad5 1a3f afbb 90be ab70 de3e ae1e 343f
00000130: 144d 82bd 22b3 aabe 2303 0e3f 06a2 fc3e
00000140: 8447 0c3f 0013 e83e d04c c53e da99 9abe
00000150: 172b 253f a1ee c03e 68f7 ca3d 9f9f d43e
00000160: 4f65 0ebd 18e2 303f 3504 f63d c2b2 b23e
00000170: ad27 a1be 4dc3 09be 2ac5 0b3f 4018 b13e
00000180: b374 a7be 062b 0cbe 6a3a 013f be0e 78be
00000190: 3474 4fbe cab3 be3e 20b6 0f3f 8093 d53e
000001a0: a536 053f 1947 59be 94a5 eb3e 587a 56bd
000001b0: 3a90 09be b9b6 87be ac3e 2b3f e25b 25be
000001c0: 46a3 233f 2c1e 253f 1ad1 ad3d d722 dc3e
000001d0: 953c 123f 0058 233f 4850 283f 5639 88be
000001e0: cac0 7a3e c23c 27be 9af5 283f a8e5 093f
000001f0: 3f0c 723e 8202 f53e 7b73 5cbe 39b4 9abd

network.2.weight f4 [128, 128]
0.14958505 -0.05614469 0.11240072 -0.17562075 -0.20964053 -0.009689399 0.27617326 0.26625058
0.18999791 -0.25588676 -0.31241786 0.12323154 0.22865318 0.23499748 -0.23618634 -0.16941226
0.016819423 -0.067035004 -0.2810869 0.10682712 -0.2604577 0.1935295 -0.08514484 -0.07397048
-0.118485 -0.15637235 -0.16958627 0.13629866 0.20142496 0.10162281 0.13972504 0.085695945
0.1873452 -0.38143417 -0.31473288 0.19843872 0.17417555 -0.20961362 0.17301443 -0.049457684
0.14826956 0.16557337 0.21466471 0.1576968 0.06304072 0.08297156 0.22375934 -0.22341587
0.2866019 0.14268564 -0.24042709 -0.16919875 0.06337349 -0.25402907 0.24803571 0.21984816
0.14219646 -0.1738894 -0.037961323 -0.009909015 -0.09304422 0.17321381 -0.027834265 0.19817014
0.1189716 0.023408195 0.075938925 0.07443835 0.10310419 0.16666941 0.10880926 0.24574755
0.17424144 -0.14361805 0.1726309 0.10200712 -0.092509225 -0.046155334 0.16210459 0.19280492
0.24176547 0.15812628 0.06383082 -0.064671144 0.1097399 0.17216979 0.1125699 0.16872644
-0.1955221 0.20787503 -0.043181583 0.15149373 -0.24297927 -0.062265143 0.12992086 0.08162064
-0.108515844 -0.22037748 0.26079455 -0.2177018 -0.27774027 0.12555782 0.20892966 0.13754582
0.17717773 -0.32308498 0.18229842 -0.13616283 -0.12949437 -0.11679497 0.13022558 -0.0071515786
0.20233877 0.25549492 0.008398136 0.08858245 0.28338334 0.247628 0.10738373 0.07368128
0.15899462 -0.119935796 0.24948847 0.27017733 0.094661556 0.17278853 -0.11974038 -0.021617217
0.105792336 -0.114929184 0.08536127 -0.10865129 -0.24035761 -0.017509699 0.1338722 0.25349507
0.19654037 -0.18537886 -0.30130875 0.18129398 0.28393084 0.18916105 -0.21931541 -0.23707767
0.09726059 -0.06624584 -0.29737258 0.09762974 -0.30334437 0.19821522 -0.035178475 -0.14604641
-0.06322957 -0.17536175 -0.20865759 0.22589622 0.10177764 0.17788853 0.15389271 0.20876181
0.2342455 -0.43080544 -0.27242845 0.062136054 0.2631042 -0.1410394 0.26732922 -0.08355634
0.108368464 0.20919874 0.22451895 0.2162769 0.12697026 0.14929233 0.15455042 -0.20530184
0.20399429 0.17728196 -0.29339206 -0.04764406 0.08649864 -0.14338967 0.26352218 0.22142892
0.19993864 -0.23555426 -0.043454934 0.06740142 -0.10907442 0.24041632 -0.0933151 0.13396537
0.25171638 0.054596487 -0.004354008 0.16808414 0.065638885 0.022303876 0.16523568 0.18911874
0.19250849 -0.17290594 0.0866756 0.21687967 -0.10716487 -0.012886794 0.15760621 0.11398771
0.20898502 0.19851029 0.17886508 -0.13048199 0.17822652 0.15150535 0.12598217 0.07004078
-0.23421136 0.2402898 0.042060707 0.2279094 -0.22573917 -0.085205235 0.085801154 0.23290762
-0.21289459 -0.1281214 0.13365436 -0.1502281 -0.21908568 0.17856319 0.23832409 0.23795578
0.24929835 -0.33823124 0.115556166 -0.13559812 -0.06457672 -0.2222585 0.2598787 -0.0042235646
0.20070659 0.2595563 -0.014123046 0.16028967 0.2789879 0.24925716 0.11186131 -0.07948799
0.16482294 -0.080178626 0.19067879 0.15613367 0.01338092 0.24253845 -0.26519674 0.003123546
00000000: d32c 193e f9f7 65bd 5932 e63d edd5 33be
00000010: 02ac 56be 49c0 1ebc 9566 8d3e ff51 883e
00000020: d08e 423e 9703 83be 3cf5 9fbe d160 fc3d
00000030: 0f24 6a3e 2ea3 703e d5da 71be 687a 2dbe
00000040: e3c8 893c a649 89bd 9fea 8fbe 2dc8 da3d
00000050: b65a 85be 992c 463e 6b60 aebd d67d 97bd
00000060: 44a8 f2bd 1320 20be 06a8 2dbe e091 0b3e
00000070: 5842 4e3e 9f1f d03d 1514 0f3e 5b81 af3d
00000080: 6cd7 3f3e 574b c3be ab24 a1be 8533 4b3e
00000090: 135b 323e f4a4 56be b22a 313e 2494 4abd
000000a0: fad3 173e 118c 293e 11d1 5b3e 457b 213e
000000b0: 7e1b 813d feec a93d 2b21 653e 21c7 64be
000000c0: 7cbd 923e 2f1c 123e 8532 76be 7042 2dbe
000000d0: f6c9 813d 1910 82be 13fd 7d3e e01f 613e
000000e0: f39b 113e 1010 32be 557d 1bbd 6c59 22bc
000000f0: f88d bebd f65e 313e af04 e4bc 1ded 4a3e
00000100: 62a7 f33d 8bc2 bf3c de85 9b3d 2273 983d
00000110: 4a28 d33d 63ab 2a3e 64d7 de3d 3fa5 7b3e
00000120: 596c 323e 9c10 13be 28c6 303e 1ce9 d03d
00000130: 7a75 bdbd 600d 3dbd bffe 253e a76e 453e
00000140: 5e91 773e dbeb 213e bcb9 823d 4e72 84bd
00000150: 50bf e03d 474d 303e 0c8b e63d a0c6 2c3e
00000160: f236 48be 31dd 543e 2cdf 30bd 2c21 1b3e
00000170: 8fcf 78be bc09 7fbd f909 053e b928 a73d
00000180: 8e3d debd a2aa 61be dd86 853e 38ed 5ebe
00000190: f933 8ebe 3b92 003e a8f1 553e d0d8 0c3e
000001a0: 146e 353e 656b a5be 70ac 3a3e 456e 0bbe
000001b0: 2c9a 04be 3432 efbd db59 053e ca57 eabb
000001c0: e531 4f3e 3bd0 823e 5698 093c b76a b53d
000001d0: 9f17 913e 3292 7d3e 00ec db3d 36e6 963d
000001e0: 7ccf 223e e6a0 f5bd e879 7f3e af54 8a3e
000001f0: ebdd c13d 7aef 303e 723a f5bd 9716 b1bc
00000200: a7a9 d83d fe5f ebbd e4d1 ae3d 9184 debd
00000210: 4e20 76be 8070 8fbc cb15 093e 1bca 813e
00000220: e141 493e f5d3 3dbe 2445 9abe 21a5 393e
00000230: 625f 913e 6fb3 413e 3894 60be 7dc4 72be
00000240: 8f30 c73d e6ab 87bd 3841 98be 1af2 c73d
00000250: f44f 9bbe eef8 4a3e 4e17 10bd 318d 15be
00000260: 817e 81bd 0892 33be 56aa 55be 5751 673e
00000270: cc70 d03d 6928 363e 0d96 1d3e a8c5 553e
00000280: 0dde 6f3e 8892 dcbe be7b 8bbe 6082 7e3d
00000290: 98b5 863e a26c 10be 60df 883e 961f abbd
000002a0: 49f0 dd3d 3238 563e 4ce8 653e b177 5d3e
000002b0: 7e04 023e 17e0 183e 7742 1e3e a53a 52be
000002c0: e1e3 503e 6789 353e 7c37 96be 6b26 43bd
000002d0: 3326 b13d bed4 12be 61ec 863e 43be 623e
000002e0: b7bc 4c3e 2335 71be cdfd 31bd c109 8a3d
000002f0: 6962 dfbd b22f 763e fd1b bfbd 382e 093e
00000300: f8e0 803e 91a0 5f3d 11ac 8ebb 401e 2c3e
00000310: ae6d 863d 9eb6 b63c 8b33 293e 58a8 413e
00000320: f220 453e 410e 31be fa82 b13d b415 5e3e
00000330: 4179 dbbd 2223 53bc 8663 213e 6372 e93d
00000340: 2b00 563e 4846 4b3e 6828 373e 129d 05be
00000350: 0381 363e 3824 1b3e 7801 013e 8a71 8f3d
00000360: 1ad5 6fbe 880e 763e d947 2c3d 1561 693e
00000370: 2b28 67be 1580 aebd 84b8 af3d 567f 6e3e
00000380: 0a01 5abe 4232 03be b0dc 083e 65d5 19be
00000390: ff57 60be 45d9 363e 3b0b 743e aeaa 733e
000003a0: 1148 7f3e a52c adbe b6a8 ec3d 3cda 0abe
000003b0: cd40 84bd bb97 63be d20e 853e d465 8abb
000003c0: 0786 4d3e 90e4 843e 5964 67bc fa22 243e
000003d0: 81d7 8e3e 453d 7f3e 8b17 e53d 99ca a2bd
000003e0: 58c7 283e b134 a4bd 4d41 433e 81e1 1f3e
000003f0: a53b 5b3c 005c 783e dec7 87be 68b4 4c3b

network.2.bias f4 [128]
0.1439519 0.20345965 0.10645311 -0.059780125 0.20274648 0.25662407 0.26449725 -0.054030426
0.25034663 0.15143403 0.23202518 0.0006881782 0.036619436 -0.009983529 -0.021833895 -0.048685588
-0.073986456 0.17186178 0.27509788 0.12807286 -0.0014979768 -0.029329494 -0.09496853 -0.09222509
0.24148601 0.080784895 0.010236431 0.25680155 0.20924562 -0.07377502 -0.03804999 -0.01238564
0.26190025 0.26807532 -0.08726904 0.19653451 0.04671274 -0.06397198 0.23264572 -0.04070279
0.25751427 0.055720787 0.100485936 -0.019509092 0.002845545 -0.06122886 0.28682625 0.26186737
0.074017785 -0.06007339 0.11597862 -0.0111277485 0.19632679 0.26026025 0.079211585 0.24993017
0.28953546 0.24886668 0.17937179 -0.09489904 0.28287643 0.050553486 -0.0750273 0.20098452
-0.056878313 0.13010436 -0.021071443 0.045328643 -0.047131244 0.12336968 -0.053121116 0.010464636
0.06840594 0.027120462 0.12496238 0.056472134 -0.07874927 -0.04407563 -0.107474186 0.16819377
0.0024245707 0.19351745 0.1347532 0.042442814 -0.06547422 0.049580414 -0.051474407 0.0158374
0.199862 0.25219166 0.063527845 0.11501365 -0.08130928 0.027205275 0.05796112 0.27571094
0.20597866 -0.05718413 0.19420812 0.017467702 0.12964532 -0.014285475 -0.03913386 0.25962973
0.17355736 -0.0701548 0.19884637 -0.054474883 -0.029323656 0.06427174 -0.018058388 0.24426796
0.20216295 0.109294645 0.25064632 -0.01876928 0.035221178 0.20010021 0.040203225 -0.052761164
0.26802054 0.16777693 0.011148221 0.23240267 -0.0646197 -0.09060352 -0.05621265 0.041307695
00000000: 2068 133e ba57 503e 1704 da3d 01dc 74bd
00000010: c69c 4f3e 3b64 833e 2f6c 873e 024f 5dbd
00000020: 6f2d 803e 8611 1b3e 0298 6d3e db66 343a
00000030: 43fe 153d f591 23bc ffdc b2bc 8a6a 47bd
00000040: 3686 97bd 89fc 2f3e a1d9 8c3e 8825 033e
00000050: c357 c4ba 6844 f0bc dc7e c2bd 82e0 bcbd
00000060: 1c48 773e 8d72 a53d b4b6 273c 7e7b 833e
00000070: 7c44 563e 5c17 97bd 4eda 1bbd 24ed 4abc
00000080: ca17 863e 2b41 893e 1cba b2bd 5840 493e
00000090: dc55 3f3d be03 83bd ae3a 6e3e f8b7 26bd
000000a0: e9d8 833e 7b3b 643d 92cb cd3d 88d1 9fbc
000000b0: 537c 3a3b 1dcb 7abd e4da 923e 7b13 863e
000000c0: a396 973d 840f 76bd 3386 ed3d 2951 36bc
000000d0: e409 493e d540 853e af39 a23d b2ed 7f3e
000000e0: fe3d 943e e8d6 7e3e 3dad 373e 6e5a c2bd
000000f0: 2ed5 903e 2c11 4f3d eaa7 99bd e3ce 4d3e
00000100: 3cf9 68bd 143a 053e 059e acbc 87aa 393d
00000110: b10c 41bd 3ea9 fc3d 8795 59bd dd73 2b3c
00000120: 6a18 8c3d bb2b de3c 47ec ff3d 534f 673d
00000130: 4c47 a1bd a688 34bd 6d1b dcbd fd3a 2c3e
00000140: 8ce5 1e3b 7029 463e befc 093e 84d8 2d3d
00000150: 5917 86bd d514 4b3d d4d6 52bd 6fbd 813c
00000160: a0a8 4c3e 441f 813e e31a 823d 478c eb3d
00000170: 7b85 a6bd 99dd de3c a468 6d3d fc29 8d3e
00000180: 12ec 523e e839 6abd 7ede 463e 6d18 8f3c
00000190: bec1 043e a00d 6abc d44a 20bd 30ee 843e
000001a0: 05b9 313e 52ad 8fbd 629e 4b3e 0e21 5fbd
000001b0: 2a38 f0bc e7a0 833d 2fef 93bc 6121 7a3e
000001c0: ce03 4f3e dfd5 df3d b754 803e 08c2 99bc
000001d0: 1544 103d 12e7 4c3e 23ac 243d 171c 58bd
000001e0: fd39 893e b7cd 2b3e 07a7 363c f7fa 6d3e
000001f0: 5557 84bd 578e b9bd 3c3f 66bd 4232 293d

network.4.weight f4 [1, 128]
0.29282007 0.23528084 0.29207337 -0.045636777 0.25370294 0.26043946 0.28868797 -0.26504323
0.2749646 0.26885933 0.29295608 0.0023145562 -0.059733175 -0.04355685 -0.021962259 0.027952004
-0.077183396 0.21985888 0.26146752 0.253177 -0.23966716 -0.23844986 -0.20325704 -0.007689671
0.24942248 -0.23693752 -0.0653909 0.24030751 0.2506554 -0.003917244 -0.061025266 -0.024339667
0.20879664 0.210063 0.0005910328 0.2794666 -0.04828779 -0.20514484 0.26648557 0.013671879
0.27696222 0.025022173 0.2874462 -0.026796158 0.0037169012 -0.26422533 0.21767971 0.2221079
-0.04000421 -0.24341501 0.2593402 -0.021952955 0.22808748 0.24607714 0.07828946 0.21516769
0.21541682 0.22401616 0.294758 -0.2525148 0.21486783 -0.050820816 -0.034733806 0.24804361
-0.005178866 0.22835013 -0.061394624 -0.0116980355 0.020625222 0.22826338 0.058874764 -0.04724857
-0.049865972 -0.051034406 0.26060963 -0.009660085 -0.04811812 -0.023682 -0.06932039 0.27324364
-0.09351681 0.2768712 0.2829771 -0.020589722 0.061684284 0.024627784 -0.0140319215 -0.047204643
0.23135027 0.28095844 -0.063673116 0.28580368 0.077204 -0.054220583 -0.06246348 0.2223212
0.25359535 -0.08000506 0.25562668 -0.033769876 0.24713166 -0.03709326 0.0017015598 0.24463992
0.2558487 0.00964666 0.20939615 -0.14526878 -0.23080945 0.0018457258 -0.22546306 0.2846349
0.18425138 0.28647164 0.28517577 -0.21493849 -0.0044392273 0.22806814 0.0042289095 0.059200253
0.23689145 0.24529217 -0.040248975 0.21308525 -0.012979663 -0.028127274 -0.03955334 -0.017655056
00000000: 83ec 953e 76ed 703e a48a 953e a1ed 3abd
00000010: 5ae5 813e 5258 853e e9ce 933e bfb3 87be
00000020: 29c8 8c3e eea7 893e 57fe 953e cfaf 173b
00000030: c6aa 74bd ab68 32bd 32ea b3bc 9afb e43c
00000040: 5412 9ebd b022 613e 12df 853e 6aa0 813e
00000050: 4f6b 75be 332c 74be 9d22 50be a3f9 fbbb
00000060: 9b68 7f3e c09f 72be aaeb 85bd 2c13 763e
00000070: e855 803e 395c 80bb a1f5 79bd fb63 c7bc
00000080: c9ce 553e c11a 573e 8aef 1a3a 3f16 8f3e
00000090: 6bc9 45bd 7d11 52be cc70 883e 0400 603c
000000a0: fecd 8d3e 4dfb cc3c 262c 933e 9e83 dbbc
000000b0: 4197 733b 8b48 87be 6ee7 5e3e 4170 633e
000000c0: 74db 23bd c941 79be 3dc8 843e afd6 b3bc
000000d0: c48f 693e a5fb 7b3e 3956 a03d eb54 5c3e
000000e0: 3a96 5c3e 7e64 653e 85ea 963e 9f49 81be
000000f0: 5006 5c3e 7d29 50bd 0945 0ebd 25ff 7d3e
00000100: 7ab3 a9bb 9ed4 693e ee78 7bbd 1ea9 3fbc
00000110: 3af6 a83c e0bd 693e aa26 713d b787 41bd
00000120: 4340 4cbd 7409 51bd a06e 853e 5545 1ebc
00000130: 8117 45bd c100 c2bc d9f7 8dbd 97e6 8b3e
00000140: be85 bfbd 10c2 8d3e 60e2 903e c7ab a8bc
00000150: a9a8 7c3d 35c0 c93c 25e6 65bc a859 41bd
00000160: 16e7 6c3e c9d9 8f3e 0d67 82bd dc54 923e
00000170: 211d 9e3d 6716 5ebd b5d9 7fbd 2ba8 633e
00000180: 40d7 813e b1d9 a3bd 80e1 823e 4852 0abd
00000190: 1510 7d3e 1aef 17bd df06 df3a e382 7a3e
000001a0: 9afe 823e 060d 1e3c f26b 563e 57c1 14be
000001b0: 5059 6cbe 48ec f13a cadf 66be aabb 913e
000001c0: 65ac 3c3e 69ac 923e 8f02 923e d618 5cbe
000001d0: f076 91bb b28a 693e aa92 8a3b f77b 723d
000001e0: ac93 723e df2d 7b3e 1cdc 24bd 0533 5a3e
000001f0: a7a8 54bc 2b6b e6bc af02 22bd 56a1 90bc
