week 6/checkpoints/reinforce_baseline_cartpole_seed2.pth (torch, 450447 bytes, 33 tensors)

network.0.weight f4 [128, 4]
00000000: 2520 95be abb0 963e ac45 c5bd d7bb b83e
00000010: b247 563d 565b 29be 0211 b8be 06e5 16bf
00000020: f9e1 a9be 5dae cabe 7039 fcbd 6421 b7be
00000030: 878f ce3e a3f8 1bbe 0544 573d 40fd a93e
00000040: 57e9 58be 9b54 27bd 28c2 373f c038 943e
00000050: 91bb aebe 81d9 8e3e 2f5e f93e 78e8 f33e
00000060: 40e1 e13e 9f5d 3d3e f789 983e eda1 a53e
00000070: befe 273d f4ab fa3e 03c3 7bbe 6a34 d83e
00000080: a136 80be 088c ae3d 6184 c5bd 2bac 193e
00000090: 5e59 a4bd 5266 c3be fab1 203e 2d30 d93e
000000a0: eb97 f33e ae24 08bf 5c62 bf3d 0ebc 8abe
000000b0: 3596 7e3e f78e c73e 4251 f73e 2e2d 833e
000000c0: 4f52 ab3e 43b9 113d 2a1b a03b dbb3 bf3e
000000d0: ef85 de3e ccf7 323e 0b7c 363e 68b0 103f
000000e0: a459 acbe b2a3 9f3e cd7d d53e 9277 7c3e
000000f0: f625 adbe 2380 44be f4ea 85be d232 17bf
00000100: 0e0b dfbe 6cdf efbe 26be 753e dcc7 81be
00000110: 996f d6be faa5 a4be 1aeb a23e 2cd0 023f
00000120: a775 87be c490 7e3e c93b 4e3f c434 8a3e
00000130: f9bd 7cbe c4c0 e3be 851e 94bd 1540 cebe
00000140: 666a 9d3e abe4 bf3e 4e68 493f f87a 083f
00000150: eef9 8e3e e1d8 ae3e f1e5 ce3e ab6c 89bb
00000160: f7e9 843e b767 e9be ec65 9c3d 9fce 14be
00000170: 45d6 b73e c3b2 c1be 2ff4 1ebf 37df 00bf
00000180: 5de5 3c3e f640 873e a40d 94be 4cfd 49be
00000190: a635 073e 9d97 c0be 5929 ec3e 98d8 be3d
000001a0: 1075 b5be bf4d bdbe 18e8 dabe 2e15 19bf
000001b0: 0f4b 553e 1d78 b43e 9471 10bc d1cc 03bf
000001c0: 594b bd3e 1257 8d3d d634 043d 72fe 61bc
000001d0: 2f3b 97bc 6e57 033e 3d35 2c3f 4edf 1fbd
000001e0: 206d cd3e 208a c23e f554 28bf 9696 f2be
000001f0: e168 4d3e 12b4 24be b9a3 56bd 02a5 9fbe
00000200: 5466 6e3e 5a64 46bd 8ba3 6ebd 4834 01bf
00000210: 71bd bc3e 2e9c 79be 2e20 313d 2e26 5fbe
00000220: a14f a8bd af33 833e 46a8 ecbe 3a1f 74bd
00000230: 5230 6fbe de6f 96bd 2ab7 c2bc 0aee 5d3e
00000240: 63b9 453e 221b 913e 9c24 6d3e f6ec 8fbd
00000250: c3f9 083e 5730 19bf 97ab 00bf 8a0b 9bbe
00000260: 8ead c83e 78b4 723e 06d1 f7be 53ea 18be
00000270: fff5 d03b 0b11 643e e78e 49bd f9af 273e
00000280: 270e 84be e38c 58be b227 b4be 5014 903d
00000290: ba8f aabe b0a1 493e faca 25bf 3d0e bcbe
000002a0: c49f e8bd 06b8 f03d 9fac ca3d cfa2 3d3c
000002b0: 9e0c 8ebe b7fc 0a3e 459f 04bf 9fe6 ee3d
000002c0: 9cf4 303e 50de 603d 926f 02be 676f ff3e
000002d0: 5ed6 2cbe eebd babe f9ff 6fbc 7e02 023f
000002e0: 24ab 113e 2d33 e6be 3aae f1be 74d2 1cbf
000002f0: ce37 c6be 043c 4d3b cf3b ca3c 147b 1dbf
00000300: 19ea 2dbe 2a91 9c3e c736 ecbd fd20 40be
00000310: 28d5 863d 979d aabe d708 26be a642 08bf
00000320: c8f7 85be fc09 d73e 1412 04bf cce1 08bf
00000330: d554 17be 20af 85be fce4 f1bc 5fe7 193c
00000340: a56c bebe f764 c0be 837b 1bbf dd45 61bc
00000350: 9f53 cc3e eae8 0cbf 1352 c7be afa5 01bf
00000360: 04b8 debe c223 ccbe d8e5 5bbe 80bd 0abd
00000370: 3708 0abe cc1b b5be 8a80 933b 11c3 763b
00000380: 0dc5 82be dd2a 5dbe 7552 6a3e 874b a1be
00000390: 0bbe 873e 7cac e23e 3cd5 563f c638 cdbd
000003a0: 5817 efbd fedf f93d 3104 b43e 5465 edbd
000003b0: 328e d9be 00c3 483e b1c4 8cbe 1a60 df3c
000003c0: 68b6 283e 18d8 eabe a528 cb3d 0fc8 943d
000003d0: 3058 5c3e 5416 933e 175f 0d3f 0c81 b5bd
000003e0: 41ea 25bd 8994 c8bc edb4 ccbe 9860 533d
000003f0: 089b 23bd 2f4d b9be 18cf f23e 8b77 f0bd
-0.29126087 0.29431662 -0.096324295 0.3608081 0.052314468 -0.16538748 -0.35950476 -0.5894321
-0.33180216 -0.39586154 -0.12315643 -0.35767663 0.40343878 -0.15231566 0.052555103 0.33201027
-0.21182762 -0.04085217 0.71780634 0.28949547 -0.34127477 0.27900317 0.4870467 0.47638297
0.44117165 0.18492745 0.2979276 0.32350102 0.041014425 0.48959315 -0.2458611 0.4222749
-0.2504168 0.085228026 -0.0964439 0.15007083 -0.08024858 -0.38164002 0.15692893 0.42419568
0.47576842 -0.5318097 0.093449324 -0.270966 0.24861987 0.3897626 0.48304182 0.25620407
0.33461234 0.03557707 0.0048860507 0.37441906 0.43461558 0.1747734 0.17820756 0.56519175
-0.3366214 0.31179577 0.4169754 0.24654987 -0.33818024 -0.19189505 -0.26155818 -0.5906192
-0.43563122 -0.46850145 0.23998317 -0.25347793 -0.41882017 -0.3215788 0.31819993 0.51098895
-0.2645695 0.24859911 0.80559975 0.26993382 -0.24681844 -0.44483006 -0.07232384 -0.40283266
0.30745238 0.37479147 0.7867478 0.53312635 0.27925056 0.3414984 0.40409806 -0.0041938624
0.2595975 -0.4558694 0.076366276 -0.14531945 0.35905662 -0.37831697 -0.62091345 -0.503406
0.1844687 0.2641675 -0.28916657 -0.19725531 0.13204059 -0.37615672 0.46125296 0.09318656
-0.35440874 -0.36973378 -0.42755198 -0.5979794 0.20829414 0.3524789 -0.008816142 -0.514844
0.36971548 0.06901373 0.03227695 -0.013793575 -0.018460838 0.1282632 0.67268735 -0.03903132
0.40122318 0.37996006 -0.65754634 -0.47380513 0.2005954 -0.16084316 -0.05240223 -0.31180578
0.23281223 -0.048435546 -0.058261435 -0.504704 0.36863282 -0.24375984 0.04324358 -0.21791908
-0.08218313 0.2562537 -0.46222132 -0.059600092 -0.23358276 -0.07345556 -0.02376898 0.21672836
0.19309 0.28341013 0.23158497 -0.070276186 0.13376527 -0.59839386 -0.50261825 -0.3028224
0.39194912 0.23701656 -0.4840166 -0.14933138 0.0063769813 0.22272126 -0.049208548 0.16375722
-0.25792047 -0.21147494 -0.35186535 0.07035124 -0.3331278 0.19690585 -0.6476284 -0.36729613
-0.11358598 0.1175385 0.09896206 0.011574461 -0.27744 0.13572966 -0.51805526 0.11665081
0.17280811 0.054899514 -0.12737873 0.4988968 -0.1687865 -0.3647303 -0.014648431 0.5078505
0.14225441 -0.4496092 -0.47203237 -0.61258626 -0.3871445 0.003131629 0.024686722 -0.6151593
-0.16983832 0.305795 -0.115338854 -0.18762584 0.06583625 -0.33323357 -0.1621431 -0.532267
-0.26165605 0.41999805 -0.51590085 -0.5346954 -0.14778455 -0.26110172 -0.029528134 0.009393542
-0.37192264 -0.3757703 -0.6073534 -0.013749567 0.39907548 -0.550429 -0.38929805 -0.5064344
-0.43499768 -0.3987103 -0.21474397 -0.033872128 -0.13479696 -0.3537277 0.004501407 0.003765289
-0.25540963 -0.21598382 0.22883017 -0.31502935 0.2651218 0.4427222 0.8391912 -0.10020594
-0.11674374 0.12200926 0.35159448 -0.115915924 -0.424913 0.19605637 -0.27493814 0.027267504
0.16475832 -0.4586799 0.09919862 0.07264721 0.21518016 0.28727973 0.5522322 -0.08862504
-0.040506605 -0.02448489 -0.39981785 0.05160579 -0.03994277 -0.361917 0.47423625 -0.11741551

network.0.bias f4 [128]
00000000: 4383 cfbe 0875 703e c66c f2be 6d18 93be
00000010: 55ae 3e3d 4a3a 0d3e ac7a db3e 7127 95be
00000020: da5f b0be ce56 933e 1ada 38be 7952 5abe
00000030: 8069 d93e 5176 a03e 166c fbbe f151 a13e
00000040: 8055 a3be ec69 963e 0c54 073e 35e2 2fbe
00000050: b5bd 933e c288 c5bd 15b8 303d 2e81 f33e
00000060: 5b4d b13d bda3 96be 3c57 7d3e 6fdb 0cbe
00000070: 9844 1cbe 758f b63e bd6c ba3e e93a 113d
00000080: b757 9e3e c073 66be 1f5a 9ebe ab01 00be
00000090: e90b 82bd bcdc 46be a587 c63e 5462 8a3e
000000a0: 80e0 c7bd 6cd2 d03e cf58 dfbe abf4 cebe
000000b0: 9658 6cbe 0da4 dd3e fb33 793e b6cc af3e
000000c0: 10ce a7be 1c41 863e c6ce 89be e006 dcbe
000000d0: efcd db3d 281b 95bc 92b9 4d3e 4332 b03e
000000e0: 6841 e1bd 8a28 d63e 2b81 c83e 197a e2bd
000000f0: 3e2b d8be a1b3 d93e 53a8 14be 0f68 ab3e
00000100: 0fc7 433d 8ec0 b6be e992 253e da46 373e
00000110: 73dd 013e 2ff6 05bb 6051 16be fa99 ad3e
00000120: ef5d fe3d adba 713d 012a 9c3e c0cc 8fbc
00000130: 3c64 e73e 5a0e 9bbe 1027 393e 14e9 9f3e
00000140: 081b ed3d b6cb aebd 7d26 983d b0ca a2bc
00000150: a6aa d93e c489 7ebe 874b e93e 15a2 113d
00000160: 8ec7 c1be 5507 5f3c 7454 133e ad1e 07bf
00000170: 2000 b93e 155f a93e d833 66bd e532 d13e
00000180: 6805 cbbe 0d00 fc3c c28d e13e f931 4fbe
00000190: 2ccf a0be 02d3 013d e806 11bf dacb 62bd
000001a0: 5c12 debe fb33 523e f99f dcbe ba5a a03e
000001b0: 8b93 41bd 05d9 cdbd b6e4 b13d 7934 a33e
000001c0: 63eb ae3e 02c1 78be 572a b43e d18d dbbc
000001d0: 59a9 d13d 8bd0 a63e 6310 6ebe 9035 94be
000001e0: 6ef9 07be 5457 933e 0233 d0bd c066 27be
000001f0: 3273 c0be 1776 b03e 4af6 ba3e 1df0 953e
-0.40529832 0.23482144 -0.47348613 -0.28729573 0.046552975 0.13791767 0.4286703 -0.29131654
-0.3444813 0.28777164 -0.18051949 -0.21320523 0.42463303 0.31340268 -0.491059 0.3150783
-0.3190117 0.29377687 0.13215655 -0.17176135 0.28855672 -0.09645225 0.043144304 0.47559494
0.086573325 -0.29421797 0.24740309 -0.13755582 -0.15260541 0.35656324 0.36411086 0.03545657
0.30926296 -0.22505093 -0.30928132 -0.12500636 -0.06349928 -0.19420141 0.38775364 0.27028143
-0.09759617 0.4078554 -0.43622443 -0.40421042 -0.23080668 0.43289223 0.24336235 0.3433587
-0.327744 0.2622155 -0.26915568 -0.42973995 0.10732638 -0.018201426 0.2009032 0.34413347
-0.109988034 0.41827804 0.39161047 -0.110584445 -0.4222049 0.42519858 -0.14517336 0.33477828
0.04779726 -0.35693783 0.16169323 0.17898121 0.12682132 -0.0020440926 -0.1467948 0.33906537
0.1242026 0.05901592 0.30500796 -0.017553687 0.4519366 -0.30284387 0.18081307 0.31232512
0.115774214 -0.085349485 0.07429216 -0.01987204 0.42513007 -0.24857241 0.45565435 0.035554964
-0.3784756 0.013612588 0.14387685 -0.5278118 0.36132908 0.33080354 -0.056201786 0.40859142
-0.39652562 0.030761743 0.44053465 -0.20233907 -0.3140806 0.031695373 -0.56651163 -0.05537019
-0.43373382 0.20527641 -0.430908 0.3131922 -0.04725985 -0.10051159 0.08686201 0.3187597
0.3416396 -0.24292377 0.35188553 -0.026801022 0.102373786 0.3258098 -0.23248439 -0.28947115
-0.13278744 0.28777564 -0.10165979 -0.1634779 -0.37587887 0.34465095 0.3651603 0.29284754

network.2.weight f4 [128, 128]
00000000: bd96 a83c b2f5 c1bd 4358 49bd 9258 dabc
00000010: 1d1f 713d 461e 183e dfe6 d83d 326b 75ba
00000020: e20f c9bc 028e 243c 10ee f0bd c76b 8c3d
00000030: 76b6 64bc 8a99 153d b8d4 11bd c4ff c1bc
00000040: 7128 e8bd 3464 d43d aeae ec3d 2360 873c
00000050: f319 9a3d 3667 df3d ad79 943d 1e2e 8cbc
00000060: 428b a03c 3080 133e be7f c4bd 8fe5 04bd
00000070: eaa1 ad3d d129 33bc 1685 c2ba 0565 96bd
00000080: e1cc c3bd 6731 51bd 357c 7cbc 468f c1bc
00000090: 7b34 e1bb 095a 8fbd 6af6 393d 5dd2 823d
000000a0: 8220 b7bd bdf7 61bd b4c1 833c 3db7 b5bd
000000b0: c1f6 c83c 0313 19bc eac0 d7bd cd6f fabd
000000c0: 6592 983c d4c6 20be 5817 89bd 0afe afbd
000000d0: 1a7e cebd 35e6 28be b113 36bd fd99 a0bc
000000e0: 6c82 5cbd 0954 e93d 168b 6a3d bdc3 bfbc
000000f0: 8711 fc3c 7f94 c23d a6e5 4e3d 022b 9fbc
00000100: 34f0 cfbc 71e9 a3bd 9b50 81bd 56fa e93d
00000110: 768f bf3b 141d 3c3d 98a1 8ebd 0662 f4bd
00000120: d570 8cbc fb63 d63d 301a 90bd 9d64 40bd
00000130: ac04 bfbc 54a5 4a3d 429c 5cbd 51fb 153e
00000140: bb05 af3d c4b9 5f3d c136 0a3e 5e15 22bc
00000150: a236 bbbd 6ec5 a03d aa21 dfbc cf75 95bd
00000160: 2847 7f3d f064 6a3d 6146 983c 2315 823d
00000170: f7f5 873d 95f1 103d 514f bd3d aff4 333d
00000180: b46f 8e3b 3a3f e73d 54fb aebc a064 a1bd
00000190: 0512 a7bd eea6 88bd 27ea 213d e01f 5bbd
000001a0: 5612 c6bb 5be8 09bd 8c44 36bd 0fb6 483d
000001b0: cf95 c53d 2fa5 ff3c 47b4 0b3e c8d6 3ebc
000001c0: 832b 523d 9e60 da3d 4e37 c5bc 20cb e7bc
000001d0: 5f8a 98bd d822 083e 4594 23bc bb16 833d
000001e0: 0a96 cd3d 80d4 3c3d ce9a a23d 7c1d a8bd
000001f0: c16e 233d fd66 c1bd a7c7 cfbc ac4e 003e
00000200: 3649 bdbc ca65 cc3c 6128 fb3c 2ac7 0f3d
00000210: fc00 5b3b 684a 413c 474d a2bc 050b 7b3d
00000220: 1f4f 5cbd 991e 06bc 8fd3 3d3d f692 51bd
00000230: bb20 253a dd7a 023c ab5b 3a3c cab8 c1bd
00000240: 060d 75bc c167 c83a 41fa 5a3d b3cb 33bd
00000250: a23d b4bd 07f1 95bd 33ff c5bb b8b9 42bc
00000260: 4db1 a23c 9058 843c 9621 063d ca15 73bd
00000270: 7a39 3dbd 04ab 66bd 0556 69ba cd09 a8bd
00000280: 8d8b 10bd 124d a1bc ecd0 263d f8a6 1fbd
00000290: 0207 c9bd ff96 293d 1063 2f3a 143e c7bc
000002a0: 4fb1 7b3d 256d 583d 6c9b d4bc 3170 3f3d
000002b0: 346c 933d d051 643d 20ad 81bc d049 663c
000002c0: e43d 7b3c 0f62 7fbd 8dd2 8c3d 5c37 ab3c
000002d0: 7db1 91bd 575e 05bd 6431 b3bd b2c0 94bd
000002e0: 31f3 64bd 2255 813c 8a5d 30bc df45 7dbd
000002f0: 794b 7ebc d8a0 b6bd 7969 8f3d 97a5 78bd
00000300: f0c7 c7b9 1487 b03d bbf4 2f3d 4952 24bd
00000310: 5f1e 5dbd 21f2 c5bc 3756 513d bfee a13d
00000320: d051 9d3d 32fe 783d ac57 053d 2c69 4f3d
00000330: 41e6 28bc 90b6 9bbd e00f 10bd 114c 7d3d
00000340: 14a1 6d3b fa9e 63bd c9cb ea3c 7dc9 57bd
00000350: 65c6 38bc 4924 7c3d a4a0 87bc fd4a 84bd
00000360: 823c 8fbd ef92 5b3d 8af4 bbbd 1a75 a9bd
00000370: 2c9a b93c a21e 86bd f608 403d 99e2 6c3d
00000380: 28cc 19bd fa66 b63c 52b4 893c 6151 3ebc
00000390: 066c 9cbd 8d59 0ebc fdac 143d c701 733d
000003a0: c722 183d 8997 b4bd 7fa1 053d 205e 5dbc
000003b0: 4f6b b7bc efe5 ffbc 185e 90bb 47e0 c0bd
000003c0: b067 4bbc e3f4 303b 26f1 cfbd 1810 85bd
000003d0: 88ea ae3c f1e5 bbbc 34ab dc3c 8b94 37bc
000003e0: 6a01 773d bd7f 90bd 75a6 f5bc 3b97 8bbd
000003f0: 235a 9cbd 96e5 083c 063a 4c3c cc90 323c
0.02057969 -0.09470691 -0.04915644 -0.026653562 0.058867563 0.14855298 0.1059091 -0.00093619816
-0.024543706 0.010043623 -0.11764157 0.068564944 -0.013959518 0.03652338 -0.035603255 -0.023681529
-0.113358386 0.10370675 0.11556755 0.016525334 0.07524481 0.10908358 0.0724977 -0.017111834
0.019597653 0.14404368 -0.095946774 -0.032445487 0.08478148 -0.010935263 -0.0014840688 -0.07343487
-0.09560562 -0.051072504 -0.015410473 -0.023627888 -0.0068727112 -0.06999595 0.045401014 0.0638778
-0.08941747 -0.055167902 0.016083576 -0.088728406 0.024531724 -0.009342912 -0.10534842 -0.122283556
0.018624494 -0.15700847 -0.066939056 -0.08593376 -0.10082646 -0.16494067 -0.044452373 -0.019604677
-0.053835317 0.113929816 0.05726155 -0.023408765 0.030770076 0.0950098 0.05051198 -0.019429687
-0.025383092 -0.0800351 -0.063142024 0.11424701 0.0058459593 0.04592617 -0.06964415 -0.11932759
-0.017143646 0.104682885 -0.07036245 -0.046970952 -0.023317657 0.049474075 -0.053859957 0.14646651
0.08546015 0.05462052 0.1349745 -0.00989279 -0.0914128 0.07850157 -0.027237732 -0.07297861
0.06232372 0.057225168 0.018588247 0.06351688 0.06638711 0.03538664 0.09243644 0.04393452
0.004346812 0.112913564 -0.021360077 -0.07880521 -0.08157734 -0.06672464 0.039529946 -0.053497195
-0.0060446663 -0.033668857 -0.044498965 0.04900175 0.09647714 0.031206695 0.13642989 -0.0116478875
0.051311027 0.106629595 -0.024074223 -0.0282951 -0.07448267 0.13294542 -0.009984081 0.0640082
0.10038383 0.046101093 0.07939683 -0.08208749 0.039900545 -0.094434716 -0.025363756 0.12530011
-0.023106199 0.02495088 0.030658903 0.035102047 0.0033417335 0.011797525 -0.01981224 0.061289806
-0.053786393 -0.008186006 0.046344336 -0.051165543 0.00062991277 0.007963863 0.011374394 -0.09459074
-0.014956718 0.001528971 0.053461317 -0.043895435 -0.08800818 -0.07321363 -0.006042385 -0.011885099
0.019859934 0.016155511 0.032746874 -0.05934695 -0.046197392 -0.056315437 -0.00089010625 -0.08204994
-0.035289336 -0.01969007 0.040726587 -0.038977593 -0.0981579 0.041403767 0.00066904817 -0.024321593
0.06144839 0.052838463 -0.025953017 0.046737853 0.071983725 0.055742085 -0.015829623 0.014055684
0.01533458 -0.062349375 0.06876097 0.02090042 -0.07113931 -0.032560673 -0.08749655 -0.07263316
-0.055895988 0.015787665 -0.010764489 -0.061834212 -0.015520924 -0.08917397 0.07002539 -0.060704794
-0.00038105203 0.08619514 0.042958003 -0.040117536 -0.053984042 -0.024163308 0.05110761 0.07906865
0.0768162 0.060789295 0.032554314 0.05063741 -0.010308803 -0.076031804 -0.03517139 0.06184012
0.003625934 -0.055571534 0.028661625 -0.05268239 -0.01127777 0.06155804 -0.016556092 -0.064596154
-0.06993963 0.053606924 -0.091775015 -0.082742885 0.022656523 -0.065488115 0.046883546 0.057833288
-0.037548214 0.0222659 0.016809616 -0.011616082 -0.07637791 -0.008688343 0.036297787 0.059327867
0.03714254 -0.088179655 0.032624718 -0.013511211 -0.022390036 -0.03123757 -0.004405748 -0.094177775
-0.012414858 0.0027001433 -0.10153417 -0.0649721 0.021352068 -0.022936793 0.026937105 -0.011204849
0.060304083 -0.07055614 -0.0299866 -0.06815954 -0.0763438 0.008355519 0.012465006 0.01089878

network.2.bias f4 [128]
00000000: d24b 5a3a 46a9 343d 5855 cabc f2f1 0fbb
00000010: 5907 ae3d 7a6d d4bb dfe9 a03a ad35 343d
00000020: ef64 04bd ad59 333d e832 6cbd 9b68 b53c
00000030: d885 7d3c 8c57 19bd 30f5 cd3d 7367 993c
00000040: 06d5 a73d d138 cc3d b7d7 b2bd 3040 b1bc
00000050: 994c 0b3d 1f2b d5bc 610c 6abd e325 873c
00000060: b29a 163d e506 1abc 1cdf 9d3d 1aa4 493c
00000070: e4b5 503c 1048 863d 3a79 b1bd ff7a 04bd
00000080: 37a2 ac3c 7265 10bd e419 8cbd 08d8 353d
00000090: ac24 56bd 2068 a33c ddf2 a2bd 668f 8d3d
000000a0: 37a7 8bbd 4d54 513c c8c8 113d 5dd7 a1bc
000000b0: 38af 9fbd 869b 863d 7f20 3bbd ffa9 9dbd
000000c0: 82de 92bd a70f 53bd 20ec dcbb 737a 9abd
000000d0: 8f71 aa3d 209e cb3d 638a 5e3d 033b 64bd
000000e0: 62a9 873d dbcf b8bc e295 44bc 09cb c03d
000000f0: 7685 dc3d a050 82bd 0f17 923d e44c 143d
00000100: 8383 323d 5374 24bd 2abc b6bb dcd7 c03d
00000110: 6411 a4bd 1891 cbbd 2c17 c3bd 0e88 a7bc
00000120: 01d3 ccbc bab3 9ebd 7bf5 a0bd 7fd7 cf3d
00000130: 8612 4a3d 723a 58bd 34f6 13bd 7d21 4bbc
00000140: 7503 1ebc 1600 94bd 6e0c ae3c b5ea 53bd
00000150: 1932 5ebd 05dd ed3d 2a6a b43c 3471 043d
00000160: 9a88 4d3d ec6d 813d 41a0 3b3d 570a 95bd
00000170: f4dd bebd 62bd 92bd 8871 69bd 27ad 513d
00000180: b8bf c03d 5ab9 523d 8592 d9bc 6bc3 b5bd
00000190: 1704 d2bb c204 1dbc 44b0 843c dcea 873d
000001a0: 4599 c53b 10a2 d83c e634 a73d d878 9b3d
000001b0: 4d62 e5bc 566e 67bd 01f3 9dbd fb9f bebd
000001c0: dc85 6bbc 8931 dc3d 88e0 963c 715a 1e3c
000001d0: 6974 863d 1ec9 2f3d 5e1d 7dbd e0ed b5ba
000001e0: 94b6 943c 85a8 963d 4bda 833c c535 9cbb
000001f0: 74b1 7a3d 4462 903d 0373 32bd 6c21 54bc
0.0008327338 0.044106744 -0.024698898 -0.002196428 0.08497495 -0.006482777 0.001227673 0.0439965
-0.03232282 0.043786693 -0.057665735 0.022144606 0.015473805 -0.037437007 0.100565314 0.018726086
0.08194928 0.09971774 -0.087325506 -0.021637052 0.034008596 -0.026021538 -0.05714071 0.016497558
0.036768623 -0.009401058 0.0770857 0.012307191 0.012738679 0.065567136 -0.086657 -0.03234386
0.021073444 -0.035252996 -0.06840876 0.044395477 -0.052281067 0.019947112 -0.07956479 0.06912117
-0.06819003 0.0127764465 0.03559187 -0.019756014 -0.07797092 0.065726325 -0.045685288 -0.0769844
-0.07171346 -0.0515286 -0.0067420155 -0.075428866 0.08322441 0.09942269 0.054331195 -0.05572034
0.06624104 -0.02256005 -0.0119986255 0.09413726 0.10767643 -0.06363034 0.07133304 0.03620614
0.04358245 -0.040149998 -0.00557663 0.09416172 -0.080111295 -0.09939784 -0.09525904 -0.020450618
-0.025002958 -0.07749124 -0.07859322 0.101485245 0.04933407 -0.052790113 -0.03612347 -0.012398121
-0.009644379 -0.07226579 0.021246161 -0.051737506 -0.054246996 0.11614422 0.02202328 0.03233452
0.0501791 0.06319794 0.045807127 -0.07277363 -0.09319678 -0.07165028 -0.056993037 0.05119052
0.094115674 0.051446296 -0.026559124 -0.08875164 -0.006409179 -0.009583654 0.016197331 0.06636593
0.006030234 0.026444465 0.081643865 0.075914085 -0.028000975 -0.05650171 -0.07712365 -0.093078576
-0.014375176 0.107516356 0.018417612 0.009665118 0.06565172 0.04291641 -0.061795585 -0.0013880096
0.018153466 0.07356361 0.016095301 -0.004767152 0.06120439 0.07049993 -0.043566715 -0.0129474215

network.4.weight f4 [2, 128]
00000000: 6675 ddbd 5548 343d 642d b5bd dafc a2bd
00000010: d7ad 5e3d e7ed debd 9e79 943d 7e1a a7bd
00000020: d5ab 933d e38d 843d 5853 ebbd 2012 a83d
00000030: b26c 553d 5f6f 233e 24b1 0bbe 07b9 eebd
00000040: 8b1e 9b3c 0244 3c3e 4ac0 913d 0536 023d
00000050: 5630 90bd 24f6 c4bc dd7b 9a3d 8f89 1d3d
00000060: 8022 e3bd 0785 abbd 46ac 8fbc 4e01 ee3d
00000070: 0b84 8e3d 2543 c5bc 4d54 043d 6bc1 67bc
00000080: 958c 0abd 3669 35bd 455a d4bc f650 02be
00000090: d69e 68bd b708 12bc 5b85 503d 80a0 eebc
000000a0: bbcb 0d3d 08db b7bd 5da7 133e 747e aabd
000000b0: 1876 62bd e982 473d 3748 8fbd f601 6ebd
000000c0: 8bc2 97bd d3e9 06bd 25a5 a5bc 03a3 ed3c
000000d0: 02b3 30bd ff29 573d 20fc c03d cbfd ffbd
000000e0: d515 9dbd 437d 813d fbcc ddbd cdad ca3d
000000f0: 437c c03d 7f1f 8cbd d47c 063e b0ab b6bd
00000100: 9347 abbc 547d 0ebd 0eb8 24bc 0b12 973d
00000110: 4933 ca3c dcea 8bbd e190 65bd 8ff4 543d
00000120: f0d3 85bd 2832 5f3d 6c55 473c dce6 713d
00000130: bfd9 343e 8fbb 2d3e 2260 ee3d 906a 813d
00000140: e672 c33c 42df 113d ab83 66bd 3ab7 36bd
00000150: d9ab 26bd bad8 af3d 93cc 4dbc bc3a e2bc
00000160: b8a1 1f3e a008 c4bd 277f f03d 1ebc ecbc
00000170: 4588 693d 14cd 9fbd 4d5d 4f3d 7a4e 073e
00000180: e134 0bbe 903e 803d 0f6a 953d ec64 a6bb
00000190: f502 f53c 75a8 a03d 49e5 cf3d dcd9 d1bd
000001a0: 8228 b4bd aa6d d8bb c47a 143e fe4d b0bd
000001b0: f91f cc3d 8882 babd 4920 243a 4be7 983d
000001c0: 6749 18be ef03 0d3e be30 3abd b653 063e
000001d0: df07 b13c ca77 f93a b481 33be 4315 e9bd
000001e0: a6ab 78bc c207 ccbd 532b 11bc c12e e2bd
000001f0: 5880 e33c 0a91 dbbd db83 64bd ed51 3cbd
00000200: 2554 cd3d 2114 9b3a 44fd 483d e9b3 71bd
00000210: 3368 29be 7e65 aeba ca86 843d 8b66 b73d
00000220: fea9 87bd 5bec 8e3d f243 ea3d 7791 2d3b
00000230: 10b9 4d3d eb26 41bd 9fd3 d93d 64f2 f93d
00000240: 715e 373d 3173 57bd 4b79 54bd 7122 3cbe
00000250: c6d2 3d3d 306d 58bd b549 5a3d 7af7 2c3d
00000260: bb31 793b 0183 093e ea78 d13d 8621 c1bd
00000270: e99b f1bd 2932 9cbd b46c 06bd aa6f c7bb
00000280: cac7 a1bd 75e5 5dbd 5a86 1fbd 9737 e03d
00000290: a769 813d 23cf 983d a0d7 9dbd 16e4 15bd
000002a0: d338 633d a034 6d3d 4422 04be efe2 5f3d
000002b0: b8ca 0abd d397 00bd 54a8 91bd efde 51bd
000002c0: e331 c53d 5640 69bd 7f3e eabc da39 d83c
000002d0: a594 143e 07a3 31be b074 2dbe 9766 fd3d
000002e0: ba27 433d 52fb 81bd 70a9 303e b04d a7bd
000002f0: 9090 05be 590c a8bd 36de 09be b8ec 143e
00000300: 2410 023e 056b 5bbd 93e7 f4bc 7fe7 e9bd
00000310: e5ef 1c3d a138 363c a1c6 63bd 270c 73bd
00000320: 6687 4bbd 4324 2b3d 9db5 68bc e751 14be
00000330: a1b6 dcbd 243e 2bbd d26d fabd 933d 0ebd
00000340: 3c63 843d df24 e53b 721f 46bd 962a 2b3e
00000350: e50c 263e 1118 07be 3f21 87bd b015 1f3e
00000360: 2ce9 06be cd27 bd3d 0ab7 db3a 89c4 3bbc
00000370: e5e9 153d 886f 1ebc ff8f ddbd c5dd 22be
00000380: 326b 243d 41a7 0ebd 7eb5 92bd f4d3 a1bd
00000390: 2a97 063c 8c38 f33c 8192 38be 4a31 0b3d
000003a0: 17f7 853d 4b68 853d ae67 37be 62e8 ed3d
000003b0: c19c 56bd 2397 423d bc6c 8c3c cb26 923d
000003c0: 668a c33d fded afbd a54b fbbc 3f51 15be
000003d0: bcf3 9b3d 4db1 893d f82e a53d 3c32 e33d
000003e0: 90b7 7c3c 1424 f03d cee1 aabb 819b ac3c
000003f0: 63a0 2ebd df0a ca3d 350f c93b 7f7e 69bd
-0.108134076 0.044014294 -0.08846548 -0.07958384 0.054365005 -0.1088522 0.07249759 -0.0815935
0.07210509 0.06472375 -0.11490506 0.08206582 0.052105613 0.15960453 -0.13641793 -0.11656385
0.018935462 0.18385318 0.07116754 0.0317898 -0.07040469 -0.02404315 0.07543156 0.038461264
-0.11090565 -0.08374982 -0.017538201 0.116213426 0.06958779 -0.024079869 0.032306958 -0.0141452355
-0.033825476 -0.04428979 -0.02592195 -0.12726197 -0.056792103 -0.008913211 0.050908428 -0.029129267
0.03461812 -0.08977324 0.14419313 -0.083249 -0.055288404 0.04870883 -0.06996196 -0.05810734
-0.07410153 -0.032937836 -0.020220349 0.029008394 -0.043139465 0.052530285 0.09423089 -0.12499579
-0.0767018 0.0632272 -0.108301125 0.09896431 0.09398701 -0.06841945 0.13133556 -0.089194655
-0.020908153 -0.03478749 -0.010053648 0.07376488 0.024682658 -0.06831905 -0.05604637 0.05199104
-0.065345645 0.054491192 0.012166362 0.059058055 0.17661189 0.16966079 0.1163943 0.06319153
0.023858499 0.035613306 -0.056277912 -0.044608332 -0.04069123 0.08586259 -0.012560981 -0.027615897
0.15589035 -0.095719576 0.117430024 -0.028898295 0.057014722 -0.078027874 0.050626088 0.1321353
-0.1359439 0.06261933 0.0729562 -0.005077949 0.029908637 0.07844631 0.101511545 -0.102466315
-0.08796789 -0.00660487 0.14499956 -0.08608626 0.09967036 -0.09106928 0.00062609144 0.07465991
-0.14871751 0.13771032 -0.04545664 0.1311787 0.021610199 0.0019032892 -0.17529947 -0.113810085
-0.015177643 -0.09962417 -0.008860427 -0.11044074 0.02777116 -0.107210234 -0.05578981 -0.045976568
0.10025815 0.001183156 0.049069658 -0.059009466 -0.16543655 -0.0013305394 0.064710215 0.089551054
-0.0662422 0.06978675 0.11438741 0.002648441 0.050225317 -0.047156256 0.10636067 0.122044355
0.0447678 -0.05260009 -0.051873486 -0.18372513 0.046343587 -0.052838504 0.05329295 0.0422282
0.0038024026 0.1342888 0.10228141 -0.09430222 -0.117973156 -0.07626755 -0.03281851 -0.0060863094
-0.07899435 -0.054173905 -0.038946487 0.10948103 0.0631898 0.07461383 -0.07707143 -0.036594473
0.055474114 0.057911515 -0.12903696 0.05465978 -0.033884734 -0.03139479 -0.07112184 -0.051237997
0.09628656 -0.05694612 -0.028594254 0.026394773 0.14509828 -0.17347346 -0.16939044 0.12373083
0.047645308 -0.06346764 0.17252135 -0.081691146 -0.13043427 -0.0820548 -0.13463673 0.14543426
0.1270147 -0.05356886 -0.02989558 -0.114211075 0.03831472 0.0111219 -0.05560935 -0.05933776
-0.049689673 0.04178263 -0.014203456 -0.14484368 -0.10777021 -0.04180731 -0.12227978 -0.03472669
0.0646424 0.006992921 -0.048369832 0.16715464 0.16215856 -0.13192774 -0.06598138 0.15535617
-0.13174886 0.09236107 0.0016762924 -0.011460432 0.036600012 -0.009670146 -0.10818481 -0.15904911
0.040141292 -0.034827475 -0.07163523 -0.07901755 0.008214751 0.02969005 -0.18024637 0.033982553
0.06541269 0.06514033 -0.17910644 0.11616589 -0.052395586 0.047507416 0.017141692 0.071363054
0.09547882 -0.085903145 -0.030675719 -0.14581774 0.07614848 0.067232706 0.08065599 0.11093566
0.015424624 0.11725631 -0.0052149063 0.021070244 -0.042633425 0.09865355 0.006135846 -0.0570054

network.4.bias f4 [2]
00000000: 7449 933c 70a8 083d
0.017979361 0.03336376

network.0.weight f4 [128, 4]
00000000: 6835 ae3e 86cf f13e c93c 253f 7d37 0a3f
00000010: 4069 cebe eb39 2bbe 712e 44bf 26be fdbe
00000020: 18ed 4bbd 5347 ec3e 3751 acbe 7100 113e
00000030: da43 11bf c57c 353e 32d5 debe ce8b 7fbe
00000040: c068 203e b719 99bd 390e 363d df61 ed3d
00000050: 8189 9cbd 9a70 a23e 1341 873d 14eb 113e
00000060: 6206 56be fd54 4ebe 2105 f4bd ffa9 f2be
00000070: 3721 eabe e658 90bb 006b e93e 2a72 85be
00000080: df4f 133d 2db0 e23b 429e ab3e 0398 16be
00000090: 3f58 493e efe0 85bd 8c4e c3be 63e2 883d
000000a0: cfea b8bd 85c2 023f e5a6 aabd 4f8e 9dbd
000000b0: e2eb 5c3e 16b6 77be a1b4 50bd 34a7 c3bd
000000c0: d004 02bf 101a b6bc 0cd7 cc3e 0b2b 0c3f
000000d0: d815 4bbe b3be a53e 68a5 8a3e 04ce fa3d
000000e0: 79e3 743e 2b08 70bb 3534 02bf 7252 c1be
000000f0: 93c7 6ebe 235f 54bc 0005 253d 466d 8abe
00000100: 4277 0a3e e5bf 10be d9b7 31bd 7ebe b63e
00000110: 8df7 603e 20fb 2f3e 57fa cdbe 8f83 2ebd
00000120: da83 963e 01a2 92be df8b 8fbe b6b0 323c
00000130: 0c41 f0bb ad39 66be 77e0 2d3e e78c aa3d
00000140: 85ec 8a3e 9f1a 833e 9b2d f23d 4baa cfbd
00000150: e553 9c3e 35f3 0a3f dc75 f5be 85a3 333e
00000160: 437a 7fbd dbe0 f5bd e81e 93bc 8a22 0abe
00000170: 270e f9be 44ec 59be 6f10 e9be be2c 313e
00000180: 0dfb 51be 4696 7bbe 7ee9 29bf e830 f7be
00000190: 2188 953e d18f e9bc 453d 34be 1dd2 ac3d
000001a0: d1f1 16bf 1b36 633e e319 0a3e b8d7 8ebe
000001b0: b71e d73d 719c 10be 0881 ba3e 0248 12bd
000001c0: 987d 49be a374 813e 4de1 debd b354 4d3d
000001d0: a476 4b3e 0096 0f3f 4be9 33bf c408 083e
000001e0: 21fd 833e 938d 43bd 54df 5fbe 5603 0a3e
000001f0: 4833 81be cf9d 5d3e 367b 1bbe 283a 683e
00000200: 7ead 68be fe2c 7fbe 4803 9a3a 23a7 fabd
00000210: b937 163f baec e23d 9e51 073f ab0a 933e
00000220: 242d b0be 3a62 ba3e 1cca 083e c85d c8be
00000230: fd3f 42be ffe8 863e bc0c 053f 13dc a7be
00000240: d67f 283f 61f1 81be 7de5 fabe 7d96 753e
00000250: ed81 ce3e 78aa 363d 577b a1be 7ea7 1e3f
00000260: d3a3 75bc bb0e 7b3e 7c40 f53d 5df0 5f3e
00000270: 5955 5a3e 6624 1cbf 6204 cbbd 5f9f a73e
00000280: c595 3cbe c812 a33d 03be 8c3d dd41 093d
00000290: 7f5b fa3e 4f18 3abe 5f86 e9bd 595f f13e
000002a0: 6992 863c 354e 973e 1c3c c23e bf22 813e
000002b0: c56c ce3d d248 3d3f cb99 5bbe f60e af3e
000002c0: 1591 6d3e eba6 44be d0ff a1be 7723 423e
000002d0: e458 03bf 2637 853d ea8d a6be ae3b 04bf
000002e0: 259e 343b 80c2 51be 7c95 0c3f 4ff7 60be
000002f0: 6f2f 1cbf babe 16bf f82c e73e ea37 02be
00000300: 1d33 a83e 23b1 41be 8592 133f 794c 2e3f
00000310: 1c77 793e d756 45be 6eab 9d3e 7136 d7bd
00000320: f7ac 9fbe e797 aebe 8e0d c73d dfdc a13e
00000330: 824d 053e 9576 183e ff6b ddbe 0606 6e3e
00000340: b79b 753c 6508 a83d f6db c83e 22c0 673e
00000350: a1ae a33e 88ad b73e 4601 25bf a9cd 34be
00000360: ddee 96be d696 30be a9a5 443e ad7b 633e
00000370: 1a62 823e d7c9 87be b4f5 d03e 1b78 2cbe
00000380: 0699 4abe a8f1 21bc 8762 08be 0351 25be
00000390: 0309 28bd 09f9 923e 00cd f6bd 34ee 08be
000003a0: 0bd7 723e 6f5e 49be 5c31 bd3d d5b5 a73c
000003b0: 1336 933e bdce d9be d01b 5bbe 9c54 2abe
000003c0: 71cd d93d 4323 c93d f1a6 3c3e 326e 523e
000003d0: bad5 a7bd 79ef 9dbe c054 f93e 3b85 ab3d
000003e0: a3bf 5b3e c7db df3d b257 56bc 7309 c73e
000003f0: 116e 413e dc52 c9bd aa30 5ebe 1225 ac3e
0.3402512 0.4722864 0.64545876 0.5399092 -0.40314674 -0.16721313 -0.76633364 -0.49559134
-0.049786657 0.46148166 -0.33655712 0.14160325 -0.5674416 0.17723377 -0.4352203 -0.24955675
0.15664959 -0.07475608 0.044447158 0.11590933 -0.07643414 0.31726533 0.06604209 0.14249831
-0.20900872 -0.20149608 -0.11915041 -0.47395322 -0.45728466 -0.004405129 0.45589447 -0.26063663
0.035964843 0.0069179744 0.3351918 -0.14706425 0.1966257 -0.06537043 -0.38145864 0.06683805
-0.09029161 0.51078063 -0.08332614 -0.07693159 0.21574357 -0.24190554 -0.05095351 -0.09553376
-0.50788593 -0.022229224 0.40007818 0.5475318 -0.19832551 0.32372054 0.2707932 0.122463256
0.23914899 -0.0036625962 -0.5086091 -0.37758213 -0.23318319 -0.0129621355 0.04028797 -0.27036494
0.13522056 -0.14135702 -0.04338822 0.3569221 0.21969433 0.1718564 -0.40230057 -0.042605933
0.2939747 -0.28639224 -0.280364 0.010906389 -0.007331973 -0.22482939 0.16980158 0.08327656
0.27133575 0.25606248 0.11825105 -0.10139903 0.30532756 0.54277354 -0.47941482 0.17542847
-0.062372457 -0.120057784 -0.017959073 -0.13489738 -0.4864361 -0.21281534 -0.4552035 0.17302224
-0.20505925 -0.24569044 -0.66371906 -0.482795 0.2920542 -0.02851096 -0.17601497 0.084385134
-0.5896273 0.22188608 0.13486437 -0.27898955 0.10503905 -0.14122178 0.36426568 -0.035713203
-0.19676816 0.252843 -0.108828165 0.050129604 0.19869477 0.56088257 -0.7027785 0.13284594
0.2577906 -0.047742438 -0.21862537 0.13477835 -0.25234437 0.2164223 -0.1518372 0.22678435
-0.22722432 -0.24919507 0.0011750245 -0.1223891 0.58678776 0.11080308 0.5285891 0.28719077
-0.3440944 0.36403066 0.13358349 -0.3913405 -0.18969722 0.26349637 0.51972556 -0.3278509
0.6582006 -0.2537947 -0.4900321 0.23983188 0.403335 0.044596165 -0.31539413 0.6197432
-0.014992672 0.24517338 0.1197519 0.21869035 0.2132162 -0.6099304 -0.09912945 0.32738778
-0.18416508 0.079625666 0.06872179 0.033510078 0.4889793 -0.18173335 -0.114025824 0.47143057
0.016427236 0.29551855 0.37936485 0.25221822 0.1007934 0.7393924 -0.21445386 0.34191102
0.23199876 -0.19204299 -0.31640482 0.18958841 -0.5130751 0.06504659 -0.32530147 -0.51653564
0.0027560082 -0.20484352 0.54915595 -0.2196934 -0.6100988 -0.58884776 0.45151496 -0.12716642
0.32851496 -0.18915229 0.57645446 0.6808544 0.24361843 -0.19271408 0.30794853 -0.10508431
-0.3118665 -0.34100267 0.09719382 0.31613824 0.13017848 0.14888985 -0.43246457 0.23244485
0.014990739 0.08204726 0.39230317 0.22631887 0.3196917 0.3587458 -0.6445507 -0.17656578
-0.29479113 -0.1724504 0.1920382 0.22215147 0.2546547 -0.2652118 0.40812457 -0.16842692
-0.19784936 -0.0098842755 -0.13318835 -0.16144185 -0.04102422 0.28705624 -0.120508194 -0.13372117
0.23714845 -0.1966493 0.0923793 0.020472446 0.28752193 -0.4254054 -0.21397328 -0.16633838
0.10634888 0.09821179 0.18423058 0.20549849 -0.08195062 -0.30846766 0.48697472 0.08375021
0.21459822 0.10930591 -0.013082432 0.38874397 0.18889643 -0.09830257 -0.21698251 0.33622032

network.0.bias f4 [128]
00000000: a563 88be ba78 29be 2621 013f daf5 23be
00000010: a336 a33e c8b3 bb3e 2ea9 e33e bfca 03be
00000020: d056 4f3e 3f2e ef3e 47b7 23be 502c 823e
00000030: 4404 09be 8313 a63e d696 07be 6947 123f
00000040: 14be ce3e f0b5 a5bd d677 b83e e8b5 d13e
00000050: 5cd6 923e 4ef5 d6bd 797c 8a3e c682 8dbe
00000060: e721 21be 57c2 313f 8fd8 12be 0c4e 833e
00000070: e1a1 233f 1da1 dcbd c772 1e3f 7cdb d03e
00000080: 5f98 313e 9959 3bbe e16e b03e 0d7a 8b3e
00000090: c4a0 89bd e0bd 1fbe 81f3 893e c25d 81be
000000a0: 872b 643e 8785 03be 5ed9 dd3e fab4 0dbe
000000b0: f07c 4d3e a052 41be db70 303f ccba b3be
000000c0: e8d7 33be e945 8c3e d56a e73e aef9 9c3e
000000d0: 8e70 523e 6bb1 4bbe f7ff 193f fbb8 b03e
000000e0: 479a bf3e 5e04 133f 1458 bc3e 7caf 2e3f
000000f0: b9db cc3e 624e 903e 0ad3 253f df01 b13e
00000100: f538 0b3f a50c 213f c867 5fbc a309 2b3f
00000110: 8a4a 963e 5468 2dbe 2906 c9bd cc13 b4be
00000120: 265e c43e ba3f 303f a8e3 d5bd 5244 61be
00000130: 5fcb b1be a4c3 a0bb 0072 0c3f a9ae 97be
00000140: e352 193f 3d9a 28be c69f d23e 0b3e e1bd
00000150: 8ee6 b03e a15c bd3d fc01 183f 87e3 ae3e
00000160: 2de8 0f3f 8784 55be 8b62 b3bd 446f 243f
00000170: 29ca 903e b2f5 fc3e 9fa5 313f 9490 dd3e
00000180: 3fb2 2ebe f6b6 62be 1467 933e 6ac4 95bd
00000190: a640 963e 6bb1 79bd 2d86 8d3e dbc1 953e
000001a0: 5b29 113f 3e88 0bbe d04a 1fbe 6ae4 dbbd
000001b0: 25e8 b4bd d950 af3e b521 40be befb ff3e
000001c0: 7e8d 97bd e457 b43e 8cca 043f 4a32 003f
000001d0: 53df 103f 2ca5 043f e335 f83e 8f7d 2a3f
000001e0: cdf8 0a3f f13c b53e ab48 073f 821f a13e
000001f0: f2c9 9c3e c122 ff3e e53a 3dbe 8864 d8be
-0.26638523 -0.1654996 0.50441206 -0.16011754 0.31877622 0.366606 0.4446501 -0.1287031
0.2024796 0.4671497 -0.15987884 0.25424433 -0.13380533 0.3243676 -0.13241133 0.57140213
0.40379393 -0.080913424 0.36028928 0.40959096 0.28679168 -0.10496007 0.2704809 -0.27638835
-0.15735589 0.69437164 -0.14340423 0.25645483 0.6391888 -0.107729174 0.61893886 0.40792453
0.17343281 -0.18295898 0.34459594 0.27241555 -0.06720117 -0.15599775 0.2694359 -0.25266844
0.2228223 -0.12843905 0.433299 -0.13838568 0.20067191 -0.18879175 0.68922204 -0.35103452
-0.1756283 0.27397087 0.45198694 0.3065924 0.20550749 -0.19891898 0.60156196 0.3451613
0.37422392 0.5742854 0.36785948 0.6823652 0.40011385 0.281848 0.64775145 0.3457174
0.54383785 0.6290992 -0.013635583 0.6681158 0.29353744 -0.1693433 -0.09815628 -0.35171354
0.3835308 0.6884724 -0.104438126 -0.21998718 -0.34725472 -0.0049061347 0.5486145 -0.29625443
0.598921 -0.16465087 0.41137522 -0.10998162 0.345509 0.09246183 0.5937803 0.34157965
0.5621365 -0.20851336 -0.0875903 0.6423228 0.28279236 0.494062 0.6939334 0.43274367
-0.17060183 -0.22140107 0.2878958 -0.07312854 0.29346198 -0.060960215 0.2764143 0.29249462
0.5670373 -0.13626191 -0.15555882 -0.10736926 -0.088333406 0.3424137 -0.18762858 0.49996752
-0.07400034 0.35223305 0.5187156 0.50076735 0.56590766 0.5181453 0.48478612 0.6659784
0.5428589 0.35398057 0.5284526 0.3146935 0.30622822 0.49831203 -0.18479498 -0.422642

network.2.weight f4 [128, 128]
00000000: 1c93 4b3d 0acc 94bc f71b cdbd 8271 4fbd
00000010: db82 98bd 18dc 163d 707e 753d af7e 11bd
00000020: 30d3 1e3c ceff 103d 8047 3e3d 0ecb b8bd
00000030: eb25 e7bc 10aa d83c 1fc5 56bd 2ac1 733c
00000040: 35c9 323d d94d 5c3d a758 343c c80c e4bb
00000050: a04c 83bd 4dd8 bf3c ae85 943b f9c3 c33c
00000060: bdaa 763a 28f0 a2bd 5947 c1bd 5906 b7bd
00000070: 7187 78bd 5c2e dbbc 0c30 adbd 46c8 953d
00000080: f1c0 7bbd 4ef9 aabd e685 e0bc 9d6c 3cbd
00000090: 7249 1cbd e9dc 4bbd ad99 9c3c 87f5 aa3d
000000a0: dfac 18bd 5ec1 e83c b7b6 cd3c 7f95 9a3c
000000b0: 79ea 713c c9ff 10bc 82a8 b0bd 3cad 5c3d
000000c0: 8a31 a03b dad9 0a3b af1c ddbc e202 163a
000000d0: cccd 88bd 2404 333d 7297 c5bd ee91 e6bc
000000e0: fbd1 023d be7e 003d cce0 98bd ed48 98bd
000000f0: 791c 543d 9144 b9bd f031 433d bcee acbd
00000100: 9791 493d e59d b0bd d1e2 973d 3eed c0bd
00000110: 03e5 263d 3384 9ebd 8df5 513d 0bcd 9f3b
00000120: 2bd8 c8bd 7cc3 873c 3118 3ebd 6997 27bb
00000130: 079b 77bd 2d29 a7bc 105c a93c 6211 bd3b
00000140: 7e8b 4939 4999 67bd a679 77bd 8fff 493c
00000150: d392 80bd 471a bbbc c2bf 7b3d 2991 91bd
00000160: 928b d53c 568a 2abd aff1 92bc 562b 953d
00000170: bc5a 41bd 7d09 103d 3cb9 7abd fa2e a63c
00000180: bf67 aabd 5c40 aabc 818f 33bd 2952 04bd
00000190: 148b cdbd cb37 963d 0458 7fbd 9626 843d
000001a0: 835b c33c 86b8 58bc cf87 28bd 5d7d 483d
000001b0: 7a9e 81bd c2d0 aebd 4e35 973d 5f8a 75bc
000001c0: b799 6fbc 7db3 373d 2c68 5b3d c584 ca3c
000001d0: aed0 3dbd f257 903a 89e7 c8bd d7dd 463d
000001e0: 924e 04bd 3d37 02bd bf58 673d 87af 953d
000001f0: bd44 1a3c 8f6d 923d 969f b43d 6d6e b43b
00000200: 4749 2cbe a6f6 b3be e880 763e 9a7a 7ebe
00000210: 8744 753e d215 493e 85d2 973d 8234 55be
00000220: 3c77 703e e6ad 183e 215b 2fbe f5e9 263e
00000230: 4c29 99be c537 873e ef55 94bd 4683 5f3e
00000240: 16b9 293e 9621 0abd 0692 813d d76b f93d
00000250: eb0f 023e bd0a 5cbe 3387 083e 4b8d 85be
00000260: 74ca 2dbe 1386 683e a84f 1abe 26b9 193e
00000270: a277 273e aa9c a1be 2031 063e f327 093e
00000280: c843 783d cf6c 75be 5870 ce3d 1037 193e
00000290: b921 87be 6e4e 96be 929c 823d 15c9 49be
000002a0: 94c7 7f3d 0b43 99be b3e6 5f3e a623 a9be
000002b0: 77a0 e73d 98b2 35be d34f 603e 1ff3 72be
000002c0: 974a 8dbe f275 2e3e 5b7d 123d dc7e 503e
000002d0: 76a5 323c 8e9c 89be fe6c 2b3e bebe 853e
000002e0: d3d5 643e 6f0f 833e e965 5a3e 58de 753e
000002f0: aad9 3f3e bb39 f23d 15c1 773e 6a7c 093e
00000300: 32aa c93d ec26 713e 4806 f5bd e2e4 c53d
00000310: 53ab 893e 63fc 85bd 7aba 86be bb3a 78be
00000320: b323 7f3e ca7a 3e3e e631 e5bd e61d 3dbe
00000330: c238 85be 6594 a8bd 6fce 083e fa29 8fbe
00000340: bac4 133e 6b0a fdbd 71ed ef3d 7e34 32be
00000350: 8810 113e 0b54 a2bd 3e64 723e 953f 243e
00000360: 14a3 0b3e edd1 fbbd 1750 d9bc 42ef 653e
00000370: 4026 283d fa7e 033e bb7c 843e 99e6 783e
00000380: cd66 4ebe c95f a9bd c4f6 d73c 8980 21be
00000390: 674b 083d 683a 8fbe 7eca 133e 821d 853d
000003a0: 18fd 803e 6f7b c9be c797 38be 02ed ffbd
000003b0: def8 21be 80a8 933d 1dcc 76be cc87 573e
000003c0: dd87 80be 1d3d 8c3d 9310 103e 5ee5 803e
000003d0: f1a7 0a3e 7bc5 823e 1ce9 3d3e b18c 343e
000003e0: 9c4f 4d3e 4a7a 913d 3eb4 843e 1cdb 4a3e
000003f0: f72f c23d d442 3e3e bbf5 babe 75c9 0bbd
0.04970084 -0.0181637 -0.100150995 -0.05064536 -0.07446834 0.03683099 0.059935033 -0.035521206
0.009693906 0.035400204 0.046454906 -0.090231046 -0.028216323 0.02644828 -0.052434083 0.014877597
0.043648917 0.05378518 0.0110074645 -0.0069595315 -0.064110994 0.02341857 0.0045325374 0.023897158
0.0009409597 -0.079559624 -0.094374366 -0.089367576 -0.060676042 -0.026755504 -0.0845643 0.0731359
-0.0614633 -0.08348332 -0.027407598 -0.04600202 -0.03815598 -0.049771223 0.019116247 0.08347612
-0.037274238 0.028412517 0.02511154 0.018870113 0.014765375 -0.008850046 -0.0862589 0.053876147
0.004888718 0.0021186979 -0.026991216 0.00057224755 -0.06679878 0.04370512 -0.096480265 -0.028145757
0.031938534 0.03137087 -0.074647516 -0.074357845 0.051784966 -0.09046281 0.047655046 -0.084439725
0.04921111 -0.08623866 0.07416309 -0.0942025 0.040745746 -0.07740059 0.051259566 0.004876738
-0.09806856 0.016572706 -0.04640979 -0.0025572425 -0.06045058 -0.020405376 0.020673782 0.0057698945
0.00019220819 -0.05654267 -0.060418747 0.012328996 -0.062780045 -0.022839678 0.06146217 -0.07107765
0.026067529 -0.041635834 -0.01793751 0.07283656 -0.04720567 0.0351653 -0.06121181 0.020286072
-0.08320569 -0.020782642 -0.043838028 -0.032304917 -0.10036293 0.073348604 -0.062339798 0.06452672
0.023847347 -0.013227588 -0.041145142 0.04894768 -0.06329055 -0.08535911 0.07383214 -0.0149866035
-0.014624051 0.044848908 0.053566143 0.024721513 -0.04634159 0.0011012538 -0.09809787 0.048551407
-0.032301493 -0.03179096 0.05648112 0.0730887 0.009415803 0.07149803 0.08819501 0.005506328
-0.16824828 -0.35149115 0.24072611 -0.24851456 0.23951922 0.1963723 0.074132 -0.20820811
0.23482984 0.14910087 -0.17124607 0.16300185 -0.2991432 0.26409736 -0.07242953 0.2182742
0.16574511 -0.033723436 0.0632668 0.12178772 0.12701385 -0.21488471 0.13332824 -0.2608436
-0.16971761 0.22707395 -0.15069449 0.15012035 0.1635423 -0.31564838 0.13104677 0.13394146
0.060611516 -0.23967288 0.100800216 0.14962411 -0.26392916 -0.29356712 0.0637752 -0.19705613
0.062446192 -0.29933962 0.21865349 -0.3303501 0.11309903 -0.1774391 0.2190545 -0.23725556
-0.2759597 0.1703718 0.03576408 0.20360893 0.010903707 -0.26877254 0.16740796 0.26122087
0.22347192 0.25597712 0.21327938 0.24010599 0.18735376 0.118274175 0.24194749 0.13426366
0.09846915 0.23550004 -0.11964089 0.096627966 0.26888523 -0.065422796 -0.26314145 -0.24241154
0.24915962 0.18601528 -0.11191158 -0.18468437 -0.26019865 -0.08231429 0.13359998 -0.27961713
0.14430514 -0.12355503 0.1171521 -0.17402837 0.14166462 -0.07926186 0.23671052 0.1603988
0.13636428 -0.122958995 -0.026527448 0.22454551 0.041052103 0.12841406 0.25876412 0.24306716
-0.20156403 -0.08270223 0.026362784 -0.15771689 0.033275034 -0.27974248 0.14432713 0.06499769
0.25193095 -0.39351985 -0.18026648 -0.124963775 -0.15817592 0.07209873 -0.241013 0.21047896
-0.25103655 0.06847594 0.14068823 0.25174993 0.13540627 0.2554129 0.18545955 0.17631795
0.200499 0.07103403 0.25918764 0.19810146 0.09481805 0.1858018 -0.36515602 -0.03412767

network.2.bias f4 [128]
00000000: 620a e93c bfc5 1f3e 1d5e 783e afe4 ee3d
00000010: c449 053d 215e 4bbd 8ba3 76ba ac38 aa3d
00000020: 72f9 df3d af4d 97bd 07a7 823e 1b2d 8f3e
00000030: 9f8d 7d3e 2f79 463d f1db 4e3e 728f 983d
00000040: f80b 163e eb50 cebc dc4e 9e3c 4c17 b5bd
00000050: d52d f1bc 34be 253e 847a cdbd 7dc3 163d
00000060: ca2b 583e 24c6 d6bb 3f57 41bd 7beb 7c3e
00000070: b409 8ebb 911d 143e 12f8 7e3e 33ba 943d
00000080: f916 2b3e d52b 2c3e 9906 663e f0fe adbd
00000090: e8b3 8cbd 621c 703e e841 a5bd 438f 07bc
000000a0: fe89 1c3e 6572 f23d c5a9 983d 476a 373e
000000b0: 3fe9 823e 0070 843e 4f5c 2bbd 6cbd b5bd
000000c0: 3f2a 91bc 6100 b03c 7241 0a3e 6be6 c63b
000000d0: b728 b2bd f991 7fbd b3e3 813d 3d9f 5a3e
000000e0: 66cc bfbd 2400 493e 6b1c 6abd 0b6d 233e
000000f0: a5c5 32bd b60f 5f3e 8053 babd f00b 4d3e
00000100: f5d6 ef3d a0da 823d 5897 883e 864f 4d3e
00000110: fa9b 223e c8c3 8a3e bd54 6f3e 2ddc 643e
00000120: 9a30 0e3c 80b1 753e 9c64 633e 2d3d 37bd
00000130: 54bb d4bc b22f 803e 4949 833d 3560 073d
00000140: c84d 373d 7728 963d 17e7 16bd e80d 5d3e
00000150: 05f7 c03c bcdf 873e df27 8f3d f434 8bbd
00000160: 1f59 0abc c0cc 523e a683 073e 1a6f dc3c
00000170: d0bf 5e3e ade5 f9bc 2ec9 273b d9d0 2f3e
00000180: dc13 543e 8b25 113e 8d51 f03d ac6f 9e3c
00000190: 75d3 453e 150f 7a3e 1d16 783e be09 853e
000001a0: ba48 283e 2f2c 6ebd 7853 4b3e db8a 89bc
000001b0: e6a7 c6bd ec09 82bc 9c07 fbbd ee48 e0bd
000001c0: b8f9 b83c fb7b 6d3e f078 533e ef13 5e3e
000001d0: 8950 d8bc 1418 0e3d 01c8 b6bc 21db 3d3e
000001e0: 82c9 533e f1f5 4e3e a509 973c de8c 4b3e
000001f0: 2dba 533e 7038 46bd e9c9 c3bd b2b3 783e
0.028447334 0.15602778 0.24254651 0.11664712 0.03254105 -0.049650315 -0.0009408525 0.083115906
0.1093625 -0.07387864 0.25518057 0.279641 0.24761055 0.048455413 0.20201088 0.07449235
0.14653003 -0.02518507 0.019324712 -0.08842334 -0.0294408 0.16185838 -0.100331336 0.036807526
0.21110454 -0.006554382 -0.047202345 0.24699204 -0.004334653 0.14464404 0.24899319 0.07262077
0.16707982 0.16813596 0.22463454 -0.08495891 -0.06870252 0.23448327 -0.08069211 -0.008273902
0.15287015 0.11838225 0.07454256 0.17911635 0.25568578 0.258667 -0.04183608 -0.0887402
-0.01772034 0.021484556 0.13501528 0.0060699484 -0.08699172 -0.06239507 0.06342258 0.21349807
-0.09365158 0.1962896 -0.057156008 0.15959565 -0.04364552 0.21783337 -0.090979576 0.20024085
0.11710922 0.06389356 0.26677966 0.20049867 0.15879813 0.27102494 0.23372169 0.22349615
0.00867858 0.23993492 0.22206348 -0.044736076 -0.025968231 0.2503639 0.064104624 0.033050735
0.044751912 0.07331937 -0.03684148 0.21587336 0.023555288 0.26537883 0.06990027 -0.067972094
-0.0084441 0.20585918 0.13233814 0.026908446 0.21752858 -0.030505026 0.002560209 0.17169513
0.20710701 0.14174478 0.117343046 0.019340359 0.19318946 0.24419816 0.24227186 0.25983995
0.16433993 -0.058147606 0.1985606 -0.016789844 -0.09699993 -0.015873872 -0.12257311 -0.1095141
0.022580013 0.23191826 0.20651603 0.21687292 -0.02640559 0.03469093 -0.022312166 0.18540622
0.20682338 0.20211007 0.018437216 0.19877955 0.20676489 -0.048393667 -0.09559996 0.24287298

network.4.weight f4 [1, 128]
00000000: 0366 7dbd e0fa 423e f4fb 813e c0f0 743e
00000010: 48e8 49bc 0987 1dbe 2c40 73bd 5656 133d
00000020: 95e8 4c3e e72f b4bb 9fb1 7a3e be28 4d3e
00000030: b5f7 743e 8a6e 17b9 e891 813e ca7c 463b
00000040: def3 613e 3fc0 61bd fe55 88bd 9567 30bd
00000050: 857a a7bd 47a9 883e 6c44 0fbe 6d71 45bd
00000060: 0854 563e 130d 44bb 45f3 b1bd 899a 883e
00000070: bbe1 8abd 1143 573e 0274 693e 353c 763b
00000080: 37a4 3e3e dafd 373e ea3b 863e a553 03bd
00000090: 1e5e 1abe d86f 833e 4e41 a7bd 06f9 8abb
000000a0: c625 883e f89c 523e 1336 a83c ef91 793e
000000b0: efa9 7f3e 5b53 763e 0d28 b4bc ef85 afbc
000000c0: 09e7 a93a 626c e3bc 878d 443e 7421 80bc
000000d0: 2ec2 e4bc 6cbe a5bd 697b 90bd 2917 883e
000000e0: 6599 2abd fc96 6d3e 9221 68bd 5f4f 523e
000000f0: e3dd 88bd b602 803e 0bed 66bd d6f6 5f3e
00000100: 4c03 5c3e 9057 783d 2c59 833e f491 753e
00000110: 9abd 473e 8ebc 573e 8900 6b3e aa47 673e
00000120: 532c abbd 8454 693e 1238 873e daa6 9b3d
00000130: bf1a 5ebd 378c 593e 7e0a 5ebd dcd1 e2bc
00000140: 8145 d2bc dd84 9dbd 5b0f 88bd 2d6c 593e
00000150: 82ae 17bd 501d 5b3e a5c2 96bd 5981 b63c
00000160: a468 cc3c bc27 543e 4121 523e e48b a53c
00000170: 90dc 773e 7275 d9bc 46a4 b43b 6b72 3f3e
00000180: c6e5 763e 8ae0 753e 45b7 6b3e 7e9d 183c
00000190: 8dca 5a3e 312e 513e 66a6 493e 744e 7a3e
000001a0: 40c6 713e 2409 c4bd 6709 433e 46be 59bd
000001b0: c468 243c d075 41bd d9dd 8ebd e4a7 8cbd
000001c0: 09d6 18bd 4cf6 723e 5529 563e 2f3b 803e
000001d0: 49bf de3a e5b6 b5bc 9c6a 8a3d 6ef5 743e
000001e0: a2c3 6a3e 3233 4c3e 798d d13a b8dc 683e
000001f0: a1ce 6f3e 270e 82bd 7167 dcbb de32 813e
-0.061864864 0.19041014 0.25387537 0.23919964 -0.012323447 -0.15383543 -0.05938737 0.03597101
0.20010598 -0.0054988745 0.2448182 0.20035073 0.23922618 -0.00014441661 0.2530663 0.0030286782
0.22065684 -0.05511498 -0.06657027 -0.043067534 -0.081776656 0.26691648 -0.13990945 -0.048203874
0.20930493 -0.002991502 -0.08688978 0.266804 -0.06781336 0.21021678 0.2279816 0.0037572507
0.1861733 0.1796793 0.26217586 -0.03206219 -0.15074965 0.25671268 -0.08166753 -0.0042411117
0.2659132 0.20567691 0.020533597 0.24372075 0.24967168 0.24055235 -0.021991754 -0.02142617
0.0012962531 -0.027761642 0.19194613 -0.015640952 -0.027924623 -0.08092961 -0.070547886 0.2658017
-0.041650195 0.23202127 -0.05667264 0.2053809 -0.066829465 0.25002068 -0.056378406 0.21871504
0.21485633 0.06063038 0.2565397 0.23981458 0.19505921 0.21068022 0.22949423 0.22585931
-0.083580635 0.22786146 0.26409966 0.07600184 -0.054224726 0.21244894 -0.054209225 -0.02768796
-0.025667908 -0.07691357 -0.06643554 0.21232672 -0.037031658 0.213979 -0.07361344 0.022278475
0.02495224 0.20718282 0.20520498 0.020208307 0.24205232 -0.02654526 0.005512747 0.1869599
0.24111089 0.24011436 0.2301913 0.009314893 0.2136633 0.20427777 0.19692382 0.2444399
0.23610783 -0.09572056 0.19046555 -0.053159975 0.010034744 -0.047231495 -0.06975908 -0.0686796
-0.037313495 0.23726767 0.20914204 0.25045153 0.0016994263 -0.022181937 0.067586154 0.23921749
0.2292619 0.19941404 0.0015987597 0.22740448 0.23418666 -0.063503556 -0.0067261984 0.2523412
